Config/results/BallCatcher_02/BoxBehavior/BoxBehavior-2999995.pt (torch, 118031 bytes, 21 tensors)

network_body.linear_encoder.seq_layers.0.weight f4 [64, 67]
00000000: 8bf3 67bd 2201 e7bd c263 9abd eb1b 0fbf
00000010: 6703 ae3d df11 0cbd 5d99 6d3e 8514 71be
00000020: 7527 38be 92d2 713e b953 5dbe b3cc a9be
00000030: 3da9 f9bd 4230 77be f967 d2be 8be5 ff3d
00000040: 3f83 a3be 052b 96be 0f96 9abc b893 aebe
00000050: f84a 9fbe 64f0 533d 0d45 dfbd 5232 eabd
00000060: f912 623d 78ff 63be ca7f f73c b8b7 173e
00000070: 8c67 acbe 8592 16be f212 b6bd 0322 09be
00000080: 2f5c 61be 0a40 653d e1ee 1fbe ca6a 72bb
00000090: 81c1 ccbe e04a fb3d c536 c6bd 76da ba3d
000000a0: edab 6abe b870 8dbe d880 943c e123 09bd
000000b0: 843a a13c b9c1 823c 47a5 97be b4dc 6bbd
000000c0: 5461 70bd 22f6 2f3d 61d4 473b 8e45 09be
000000d0: bca8 b0bd 3640 66be aae6 09be 70e3 f3bc
000000e0: 2f84 4abe 851c adbc dd54 afbe 3dfd 0cbd
000000f0: 2332 273c 9d29 c3be 6422 c3be 2b77 a93d
00000100: 66ee 113e 8cfa d4bd 20e4 6bbd 1bcd c23c
00000110: 3367 babe 6469 9ebd 86ce 95bd 1393 e23d
00000120: e70c 92be 2c36 193d b48f f73a b587 cfbd
00000130: 0182 de3d a75c 36bd cf88 41be 3c16 a93d
00000140: 96ce f9bd b18b 9dbe a56d a93e d331 b5bd
00000150: 0fef 62be c1d2 ba3d b5a8 a03c 32b9 a83c
00000160: d485 2cbe af31 7a3e 56b4 aebd d301 68bd
00000170: 1c34 1fbd 6cab 693e 29fa 80be ae06 a7bb
00000180: 84a0 473d c08e 0fbe 7a64 21bd 1257 193d
00000190: 0bd2 1bbe 0910 583e ecea 77bd 5c0b a2be
000001a0: f4bc 0d3e a107 593e 9ba0 8b3e 62ce 1b3c
000001b0: b86c cd3c 1068 07be 7d7c 1c3e 4ab1 d83d
000001c0: f726 433e f804 9f3d a94b 643d 6915 813d
000001d0: f4f5 c73c e84c 3cbe 3bd2 b9bd 10e6 4d3e
000001e0: caa1 87bd c989 713e cf56 663e 7081 963d
000001f0: 022d a63e b0e2 93be cfb8 c73d e449 0a3e
00000200: 5025 21bc 9537 99bd ac4c 2f3e 891a 8d3d
00000210: 7ac6 0abc 2d2e cbbe d7d0 313e fc76 323e
00000220: 06d8 b73b cb3e 05bd 348e d33c 6349 cd3d
00000230: 4bd0 af3e a0bf 02be 13a1 80be a649 45be
00000240: 7f20 27be ef16 3d3d 483c 563d 47c1 d3bd
00000250: 0c26 fd3c c3bd 893e 0ae2 36be 2656 55be
00000260: 2482 a33e f3ce 21be 8bf2 d83d d48e 6fbe
00000270: 707c ea3d 4fcb 283e a158 453e 926b 92be
00000280: c67f 703d 8cb0 e63d 6f7f c73e 1256 13be
00000290: a817 853e 046c 1abe abae eabe ff6d cdbc
000002a0: bb79 85bd 42ec dabc a036 183e 5697 03bd
000002b0: 28df 28be ba5b 863d fade 9abe 64ed 96bd
000002c0: fa86 ae3e 34e7 13be de67 37be ec59 3ebe
000002d0: cc37 053e 8343 7dbe 69f3 f03e def2 bcbe
000002e0: 7f6f cfbd f5f2 80ba cf9e 753d 66fa 0fbd
000002f0: 6465 893e a316 de3c 02e8 41be d410 b9bd
00000300: 435b e73c 5730 2abd b5d3 e73e c1aa 02bd
00000310: 9327 66be 7eea 5a3e f01a babd b700 a63d
00000320: fb2c fbbd 5941 123e 8a4a 66be 5a2f c5be
00000330: 516f b53d 355b 95bd ee08 9dbe ed11 003e
00000340: 1889 10bc 3478 abbe 592f 14be 2747 6fbd
00000350: 5552 02bd ff1a 88be 6272 463e 38d0 31bd
00000360: 8744 473c 0e68 9dbe 01d6 87be eeaa 6b3e
00000370: 566b bbbe 1068 92be 083b 14bf b724 61be
00000380: 007e bebd eafd a8bd 7000 47be 1870 463d
00000390: 6ea4 d1bd 0882 04be 9e11 dfbd 3947 7bbd
000003a0: a671 84bd 3123 82be f084 72be 34a9 5dbe
000003b0: a10b 1dbe 5593 8a3d c2a3 26be 5304 b1be
000003c0: 44cc a23d 3c0f 1dbe 75e7 32be 5f88 9dbd
000003d0: 3b01 4bbe a434 d7be ebce 5abe 5bb9 46be
000003e0: eace 0cbe db75 9a3e b967 bdbe ba1e cdbe
000003f0: 9196 ffbe b576 a8bd 3102 2cbe efa5 ae3e
-0.056628745 -0.11279513 -0.075385585 -0.55901974 0.08496743 -0.03419673 0.23203035 -0.23542984
-0.17983802 0.23615482 -0.21613969 -0.33163986 -0.12190483 -0.24139503 -0.4109495 0.12494954
-0.3193607 -0.29329696 -0.018870382 -0.34097075 -0.31111884 0.051742926 -0.10901842 -0.11435379
0.055193875 -0.22265422 0.030212302 0.14816177 -0.3367275 -0.1470433 -0.08890332 -0.1339188
-0.22007822 0.055969276 -0.15618469 -0.003698992 -0.39991382 0.12270141 -0.09678415 0.09123699
-0.22917147 -0.2762506 0.018127844 -0.033481482 0.019681223 0.015961515 -0.29618284 -0.057583526
-0.05868657 0.04295934 0.0030491578 -0.1340544 -0.086259335 -0.22485432 -0.13466898 -0.029771537
-0.19776987 -0.021131763 -0.34244433 -0.034421194 0.010204825 -0.38117686 -0.38112175 0.082746826
0.14251098 -0.103993505 -0.057590604 0.023779443 -0.3640686 -0.077349454 -0.07314782 0.110632084
-0.2852547 0.037405178 0.0018887431 -0.10133306 0.1086464 -0.044521954 -0.18899845 0.08256194
-0.12197606 -0.3077064 0.33091465 -0.08847394 -0.22161506 0.09122229 0.019611696 0.02059612
-0.16847926 0.24433015 -0.0853049 -0.056642365 -0.038868055 0.22819299 -0.25190857 -0.005097232
0.048737064 -0.14019299 -0.039402463 0.037436552 -0.15216844 0.21099867 -0.060526773 -0.31649292
0.13841611 0.21194316 0.2727097 0.009509655 0.025076255 -0.1322329 0.15281864 0.1058069
0.19057833 0.077646196 0.055736218 0.06302912 0.024409272 -0.18388712 -0.090733014 0.20107293
-0.06622656 0.23587717 0.22494052 0.07348907 0.32456213 -0.28883886 0.09752046 0.1350475
-0.009835556 -0.074813046 0.17119092 0.06889827 -0.008470172 -0.39683667 0.17364822 0.17428201
0.005610469 -0.032530587 0.025824644 0.10023763 0.34338602 -0.12768412 -0.2512289 -0.19266376
-0.1632099 0.04616445 0.052303582 -0.10339599 0.030901931 0.2690259 -0.17859665 -0.20833644
0.31935227 -0.15801601 0.105931364 -0.23394328 0.11449516 0.16483806 0.1927209 -0.28597695
0.058715604 0.112641424 0.38964412 -0.14388302 0.2599461 -0.15080267 -0.45836386 -0.025076864
-0.06517359 -0.026723985 0.14864588 -0.032126747 -0.16491377 0.06560464 -0.30248243 -0.073694974
0.34087354 -0.14443666 -0.17910716 -0.1858899 0.13009566 -0.24732785 0.47060707 -0.36904043
-0.10128688 -0.0009838032 0.059965905 -0.035150908 0.26835167 0.027110403 -0.1893616 -0.09036413
0.02824176 -0.041550007 0.45278707 -0.031901125 -0.22476034 0.21378514 -0.09087169 0.08105605
-0.12264439 0.1428274 -0.22489372 -0.3851269 0.088591225 -0.07292787 -0.30670875 0.12506838
-0.008821748 -0.33490145 -0.14471187 -0.058417466 -0.0318168 -0.26583096 0.19379571 -0.043411463
0.012162334 -0.3074345 -0.2653046 0.23014423 -0.36605328 -0.28595018 -0.57902575 -0.21986662
-0.09301376 -0.08251555 -0.1943376 0.048446745 -0.102364406 -0.12940228 -0.10892032 -0.06134722
-0.06466989 -0.25417474 -0.23683524 -0.21646577 -0.15336467 0.067663826 -0.16273406 -0.34573612
0.07949117 -0.15337843 -0.17471106 -0.07692026 -0.19824688 -0.4203235 -0.21367995 -0.19406645
-0.13750806 0.30168042 -0.36993197 -0.40062505 -0.4991956 -0.082257666 -0.16797711 0.34110972

network_body.linear_encoder.seq_layers.0.bias f4 [64]
00000000: 7ce3 2ebe ddf5 21bc 2ae9 283d 3f11 06be
00000010: 3096 c0bc d453 263d b1d2 62be 6dc8 f1bd
00000020: d153 883c 804c 76bd 661d 1a3c 3f62 dbbd
00000030: 9d9f bb3d 3c8c 06be 8465 abbd 92cc ca3d
00000040: 1076 f9bd e8f2 843d ce5e 18bd 3ec4 81bd
00000050: 50de 60be 3e63 9c3d 305e 14bc f93e 863d
00000060: 902f 34be 8799 77be 67d4 94bb 38f8 35bb
00000070: a691 2ebe f75b b33d 7416 203d c12c 8c3d
00000080: c4cf f13d 3f5c 843d 17bb e2bd 9d5b 033c
00000090: fff5 81bd f414 433d dfc6 c73d 3518 fc3c
000000a0: 6d1e 51bc 927c babd 0b07 12bd 9600 48be
000000b0: 2cdb bd3d eb27 13be dd83 e73d 25fc c33d
000000c0: d5a3 4abd 9ed3 1b3e e9ab ac3d 9cb6 353d
000000d0: c635 2dbe 9c9b 313d 6fee 213d ded2 8e3c
000000e0: 89bd a83d 927e 33bd a902 833c 59f7 0abe
000000f0: 942f 18be c399 c83c f1a6 ffbc 8884 8b3d
-0.17078966 -0.0098852785 0.041237988 -0.13092516 -0.023509115 0.04060729 -0.22150685 -0.11805806
0.01664153 -0.06013155 0.009406423 -0.10712098 0.09161303 -0.13139433 -0.08368972 0.099023
-0.12180722 0.06491643 -0.037199788 -0.06336258 -0.21959805 0.076361164 -0.009055659 0.0655498
-0.17596269 -0.2417966 -0.004541922 -0.0027766358 -0.17047748 0.08757775 0.039083913 0.06844474
0.11807206 0.06462907 -0.11070841 0.008017448 -0.06345748 0.047627404 0.097547285 0.030773262
-0.012763602 -0.09105791 -0.035651248 -0.19531474 0.09270319 -0.14370696 0.11304448 0.09569577
-0.04947265 0.15217444 0.08431227 0.044363603 -0.16915044 0.04336129 0.03953403 0.017434534
0.08239276 -0.04382188 0.01599248 -0.13570918 -0.148619 0.024487382 -0.031207534 0.06812388

distribution.branches.0.weight f4 [3, 64]
00000000: 4b0d 363d 47d0 423d 24bd 2c3e 2197 a2bd
00000010: e079 0a3e f7fd d7bd 0f21 13be 1d98 d63d
00000020: ddf2 603e ff99 263e fbf1 59bd 828e d43d
00000030: 5694 45be 0c80 b5bd 4723 97bd 7655 5fbe
00000040: be11 683e dc83 60bd f8d8 053e 456e 2a3e
00000050: bd06 edbd b52e eabd 9593 313e 2d4b 6bbd
00000060: 942a 8abd 50eb c5bd c864 2ebd 3c4f 333e
00000070: 7af2 76bd 5601 39be 84d2 edbd 7003 dc3c
00000080: 29ff 36be 9d15 3cbe 3920 cc3d 519b 633e
00000090: 8baa 2a3e 68f0 c8bd 0a1e 80be d871 503d
000000a0: ba5a b33d 490d 443e 5793 2b3e d5c6 cbbd
000000b0: e8f2 28be 03da 4439 3bc6 46be b5fb 5cbe
000000c0: 6740 2c3e 01ef 6fbe f3ee 39be 8121 7f3c
000000d0: 9889 e9bc aafe 2fbd b2c8 13bd ac6c 483e
000000e0: 8f0b 06be 9260 5b3e d513 5e3e a201 8d3c
000000f0: f6b0 c03d 3b6c 7ebc 74bf c63d 0bab 0abe
00000100: a44d 813d 86a9 05bd 4c27 e03c dd82 ddbd
00000110: dc21 813d f6ee 323c dbf4 9739 ec1f 2fbe
00000120: 044d 053d 406c 88be 4eea e83d d804 fabd
00000130: de3f 92bc 36ba 1dbd 64ca 9a3d ac0a ba3c
00000140: 4677 7dbe b2a4 bd3d 876d d83d c39d 25be
00000150: 9dd9 f7bc d222 e53d 755b 31be 1efb 0ebd
00000160: 4466 d3bd 44fa d03c 268f d13d d645 a53d
00000170: 9006 a63c 0734 93bc da86 013e 7ba9 023e
00000180: 1623 563b eab2 023d 345a 133d e706 8c3c
00000190: 7fda 74be 0dee b33d 3d41 353c 8caa 173e
000001a0: e9fd 4fbd 7c34 84be da32 6ebe 6c17 1dbc
000001b0: 2706 693e a247 cabc 89c2 093d d802 d53c
000001c0: fa59 18be 5cba 8d3c cefd c33c 6f0f 5d3e
000001d0: b329 bc3d 6845 6e3d 028c 1dbc 8bbb f13d
000001e0: 5a03 f13d 5d09 e0bd b7e2 943d 148d 923b
000001f0: 2dab debd dc7b 40be 2fb2 87be 80aa 0b3e
00000200: 05d0 90bd dad6 233d 99b6 50be 567a 803d
00000210: d462 1bbe b93b f93d c84c dd3c ac95 e13b
00000220: 4015 12be 8246 1f3e ac62 50bb 05a5 8e3d
00000230: 6ea5 1e3e e644 c73d f0c2 05be a0b7 333e
00000240: 9605 913d 3d1d 1bbc d357 b7bd acd2 73bb
00000250: b9cb 083d 92ad 933d 82a0 9f3d cd32 113e
00000260: cbe7 0b3d 0a84 5bbd 9bbc 57bd 2044 11be
00000270: ef7d f1bd cf2d 453e bfd0 9e3c a875 88bd
00000280: 5c74 0f3e 89e7 053e 0ba0 75bd 9e6c 38be
00000290: 0b7e d73d 32f9 783c f479 723e 130e 64be
000002a0: 2ddd 723d 8c7e 083e edf2 913d 0ce7 6f3d
000002b0: b7fe 97bc 4fa6 f63c 35c9 be3d 7824 803e
000002c0: a250 883d c99c 353e 8868 6f3e 444b 0cbe
000002d0: c8d1 aabd 7fe1 79bd dfa5 c13d d59a 1bbe
000002e0: 917c 343e a110 613c c89c bcbd 7839 f9bd
000002f0: b836 52bd 18de 283e 75a3 453e f235 853d
0.04444627 0.04756191 0.16869026 -0.07938982 0.13523054 -0.10546487 -0.1436808 0.10478232
0.21967645 0.16269682 -0.053209286 0.10378744 -0.19294867 -0.08862314 -0.073797755 -0.21809945
0.22663018 -0.05481325 0.13071048 0.16643627 -0.11573551 -0.1143469 0.17341454 -0.05744474
-0.067464024 -0.09664023 -0.04257658 0.17510694 -0.060289837 -0.18066916 -0.11612418 0.026857108
-0.17870773 -0.1836762 0.099670835 0.22227217 0.1666662 -0.09811479 -0.25022918 0.05088982
0.08757539 0.19145693 0.16755424 -0.099500336 -0.16498911 0.00018773232 -0.19411556 -0.21580394
0.16821443 -0.23431017 -0.18157558 0.015571953 -0.028507993 -0.042967476 -0.03608007 0.19572705
-0.13090347 0.21423557 0.21687253 0.017212693 0.094087526 -0.015528734 0.097044855 -0.1354181
0.06313637 -0.032632373 0.027362488 -0.10815976 0.06305286 0.010921231 0.00028983396 -0.17102021
0.03254415 -0.26645088 0.11372815 -0.12207955 -0.01785272 -0.038507663 0.07558134 0.022710167
-0.2475253 0.09259929 0.10567766 -0.16173463 -0.030255133 0.11188282 -0.17320044 -0.034907453
-0.1032224 0.025509961 0.102323815 0.08069961 0.020266801 -0.017969145 0.12649098 0.12759964
0.0032674721 0.031908907 0.035974696 0.017093135 -0.23911475 0.08785639 0.011062917 0.14811152
-0.050779257 -0.25821292 -0.23261586 -0.009588104 0.22756253 -0.02469236 0.03363279 0.026002333
-0.14878073 0.017300777 0.023924734 0.21587919 0.09187641 0.05817166 -0.0096159 0.11803349
0.117682174 -0.10939286 0.07269805 0.004472384 -0.10872493 -0.18797249 -0.2650313 0.1363926
-0.070709266 0.03999982 -0.20382155 0.06273334 -0.15174419 0.12169594 0.027014151 0.0068842974
-0.14265919 0.1555424 -0.0031797094 0.06965069 0.15492794 0.09729938 -0.13062644 0.17550516
0.070811436 -0.00946742 -0.08952298 -0.0037204428 0.03339741 0.0721084 0.07794286 0.14179535
0.034156602 -0.05359272 -0.052670103 -0.14186144 -0.11791598 0.19255756 0.019386647 -0.06663066
0.14009231 0.13076605 -0.059967082 -0.18010184 0.10522088 0.015196132 0.23679334 -0.22270994
0.05929296 0.13329524 0.071264125 0.058569953 -0.018554075 0.030108599 0.09315721 0.25027823
0.066560045 0.1773559 0.2337972 -0.13700587 -0.08340794 -0.061006065 0.094554655 -0.15195782
0.17625643 0.013736875 -0.09209591 -0.121691644 -0.051321715 0.16490972 0.19300635 0.0650443

distribution.branches.0.bias f4 [3]
00000000: 207c 29bc 026d 21bc 70dc 823d
-0.010344535 -0.00985265 0.06389701

critic.network_body.linear_encoder.seq_layers.0.weight f4 [64, 67]
00000000: 86a6 5abd 6bc9 96bd 5a23 98be 9229 a03a
00000010: 70a1 433d 0053 ce3d a63b 0fbe b160 543d
00000020: 5154 82be f0b2 6e3e 348e 70be 7888 50be
00000030: 26d1 433e 90b7 be3d 7de5 f6bd fb71 93be
00000040: 9c0a 8d3e 8132 773d b1b5 0fbf e36d 253d
00000050: a609 8b3e 624b de3d f738 113d be4b 003c
00000060: 94d7 66bd 8d7b 9abc 125e a93d b7af 983e
00000070: c516 47be b076 c2bd 76a9 603e 64fb efbc
00000080: 03d0 1dbf 30cc 43bd b26f 073c af3e 033d
00000090: 5264 99be a5a8 aabd 3a41 523c b600 81be
000000a0: 1911 d4bd a1fd ca3e 2c16 b8bd a776 883c
000000b0: e9af 09bf ba77 c7be 95d5 82bb c607 6bbe
000000c0: bbd3 3b3e 6771 c3bd 4eca 9dbe 3d69 213f
000000d0: f1ae 67bd c4cb 33be 06ac 18bc e9fb cf3d
000000e0: 5feb 48be 94f1 66bf 3146 1a3d a9de 083e
000000f0: 9a1e e5bc 246d d63d 6ba2 9ebd da6c 1abe
00000100: 49c7 12be 26db 9c3e 36f9 d7bd 9e15 8c3e
00000110: 4137 60be bc34 113f b5f4 99be cd7c 0f39
00000120: e238 7abe f993 44bf 52d2 1ebe 532d 90bd
00000130: ea6b a53c a5f8 47bc 5f6f 1a3e b8ee 22bd
00000140: bbdf 9fbd bd52 42bd cde6 bb3d 8b2a ed3d
00000150: 7949 aabb 0a08 c4bd cdcb 2cbe 18ef ed3b
00000160: dd46 853d 4a66 7b3e 412b 81bd e835 b73e
00000170: 7180 223d 90c4 a6bc bb30 81be a1a9 853d
00000180: 39ec 36be be6a a8bd 1172 c53c fb29 743e
00000190: dbcf debe a9a7 c4bd 9302 123e 7caf 073d
000001a0: 868a 863d 7c1a 3cbe c126 7bbc 25a1 97bc
000001b0: 1297 23be eb86 89bd 6e06 a0be 98bf 03be
000001c0: 91f0 a63d 7d1d 48be becb 37bd a596 1bbe
000001d0: aba0 b5bc 987a f1bd b635 b13d 7b4b b73d
000001e0: 3f42 a7bc 7598 ca3d 7d93 b8be a346 17be
000001f0: ca17 b03d 3ddb c23c 3ad8 69bd 19be acbd
00000200: 4430 0dbe f558 463e 78b2 39bd b31c a03c
00000210: a546 eb3d 9814 7dbe d2d7 cd3e fbc5 1bbf
00000220: 0733 923d 8c57 02bd 0d0d babd 39dd c7bd
00000230: c47b 3abf 1c18 46be 7874 3dbc 39a6 c5bd
00000240: 4016 33be 6337 ddbe 50ee 053d 657b 6abe
00000250: 6a83 1fbe 332c 52be 2d81 babd 48d6 71bd
00000260: 1bbf 94be 26f2 c33c d937 bcbb 2714 283e
00000270: c8c3 e3bd 09a4 04be a467 1b3e d5ba 1abe
00000280: a6e9 8e3c 04c9 83bd 5728 efbc 46d7 e33c
00000290: 38ad 10bd f30b 8e3b 8ac9 43bc 3cdf 6fbe
000002a0: fd68 fbbd cc22 a1bc 6a13 3dbe e394 04bd
000002b0: 4c00 9f3d ebe6 e5be 6d03 18be a64f 1fbd
000002c0: ed93 173e b0df 0fbe 1807 fbbd 9412 13be
000002d0: 33bd b83c e4c1 613a dfa4 5ebe 38f5 0bbe
000002e0: f6fb 823e 85f4 1fbf 48a8 b23d dd65 30be
000002f0: cfa1 813d faa5 8ebd c370 033e 7610 babe
00000300: e23d 53bd 74f7 4dbe fa13 b3be 30f7 3f3d
00000310: f794 0bbe 5548 e63d 3caa adbd 0b53 5dbd
00000320: 8c1a 6c3e cce2 8fbc 9eed 92bd 3375 953e
00000330: dfe3 3fbe 734f 29bd 8145 353e b625 37bf
00000340: 3f46 5cbc 6a29 0c3f be15 dabd d2e6 29bd
00000350: bf58 8cbe 4e9d 1d3e 6cd8 b33d f46b fabd
00000360: 569e f7bd 2fe6 09bd c8b7 9ebc 3d36 be3d
00000370: 3611 62bd 0d5c 123e 60f1 bfbe 5c6d bdbc
00000380: 4a3b 033e dee0 833e 7190 8b3d abf2 57be
00000390: 70d3 5fbf aa57 a13c fbfe 023e 3579 993e
000003a0: 93f7 403d 7836 f2be 2b0b abbf e3df 853e
000003b0: 53c3 96bd e963 d43c 8125 bebc 40d5 c2bc
000003c0: 1770 4bbb ac6e 76bc e308 6e3b 8b3c d0bd
000003d0: 66ba f1bd f0b1 f13a fd2a 4fbe 4a9b 21bd
000003e0: 069e e2bb 9f7b afbe 2ed7 d1bd 800d 143e
000003f0: 1015 d1bd 7b64 f63d 9cd9 f0bc be4a b6be
-0.053381465 -0.07362636 -0.2971447 0.001221942 0.04776138 0.10074425 -0.13987598 0.051850025
-0.25454953 0.23310447 -0.23491746 -0.20364559 0.19122753 0.093123555 -0.1205549 -0.28797898
0.27547157 0.0603509 -0.56136614 0.040388 0.271558 0.10854222 0.035454717 0.007830558
-0.056357935 -0.018857742 0.082698956 0.2982156 -0.1944228 -0.09495294 0.21939644 -0.029294677
-0.61645526 -0.04780215 0.008266376 0.0320422 -0.2995935 -0.08332948 0.012832934 -0.25195855
-0.103548236 0.39646628 -0.08988604 0.01665814 -0.5378404 -0.38958532 -0.003992746 -0.22952184
0.18342488 -0.09543114 -0.3081841 0.63051206 -0.05656332 -0.17558199 -0.009318357 0.1015547
-0.19621037 -0.9021237 0.037664596 0.13366188 -0.027968694 0.10470036 -0.077458225 -0.15080586
-0.14333834 0.30635947 -0.1054558 0.27360243 -0.21896078 0.5672109 -0.3006951 0.00013684035
-0.24435762 -0.7678829 -0.15509918 -0.07039895 0.020193059 -0.012205278 0.15081547 -0.03977844
-0.07806345 -0.047442187 0.09174881 0.1158038 -0.005196747 -0.09571846 -0.16874619 0.007261168
0.06507657 0.24550739 -0.06307078 0.35783315 0.039673273 -0.0203574 -0.2523249 0.06526495
-0.1786355 -0.082234845 0.024102243 0.2384414 -0.43517956 -0.09602291 0.14258794 0.03312634
0.0656939 -0.18369478 -0.015329064 -0.018509457 -0.15975598 -0.06715187 -0.31254905 -0.12866056
0.08151353 -0.19542499 -0.044872038 -0.15194185 -0.022171339 -0.11790961 0.08652823 0.08949944
-0.02041733 0.0989236 -0.36050025 -0.1477304 0.085982874 0.023786182 -0.057090975 -0.08434696
-0.13787943 0.19369872 -0.045336217 0.019544935 0.11488084 -0.24714887 0.4020372 -0.6084897
0.07138639 -0.031821772 -0.090845205 -0.09758992 -0.728451 -0.19345134 -0.011563413 -0.09650845
-0.17488956 -0.4320632 0.032697976 -0.22898634 -0.15577474 -0.20524673 -0.091066696 -0.059042245
-0.29052052 0.023919176 -0.0057439622 0.16413938 -0.11121327 -0.129532 0.15176255 -0.15110333
0.017445397 -0.06434825 -0.02919404 0.027812611 -0.035321444 0.0043349206 -0.011949906 -0.23425001
-0.12275884 -0.019669913 -0.18464437 -0.032368552 0.077637285 -0.4490274 -0.14845057 -0.038894318
0.14802523 -0.14050174 -0.122572124 -0.14362556 0.022551155 0.0008611961 -0.21742581 -0.13667762
0.25582856 -0.6248248 0.08723503 -0.17226358 0.06329691 -0.06965251 0.12835984 -0.36340684
-0.051572688 -0.20113927 -0.34976178 0.046866596 -0.13631044 0.11244265 -0.08479735 -0.054034274
0.23057002 -0.0175642 -0.07174228 0.29190978 -0.1873927 -0.041335534 0.17702295 -0.7154192
-0.013444482 0.5475069 -0.10648678 -0.041479893 -0.27411458 0.15392038 0.087815136 -0.12227622
-0.12090747 -0.033666786 -0.019374743 0.09287689 -0.055192195 0.14292927 -0.37488842 -0.023123436
0.12815586 0.25757498 0.068146594 -0.21088664 -0.87432003 0.019695122 0.1279258 0.29975286
0.047111105 -0.4730718 -1.3362783 0.26147375 -0.07361474 0.025926547 -0.023211243 -0.023783326
-0.0031042153 -0.015041035 0.0036321215 -0.10167798 -0.11803131 0.001843987 -0.20231242 -0.039454736
-0.0069158105 -0.34274003 -0.102461204 0.14458275 -0.102090955 0.12030884 -0.02940064 -0.356039

critic.network_body.linear_encoder.seq_layers.0.bias f4 [64]
00000000: 4d87 23bd fb5e 6bbc 30f6 94bd 88a7 503d
00000010: bcb5 5fbb 212f 5fbd 9fce 06bd 0fce 39bd
00000020: 8296 bb3c cbf9 1abd 88ee 3dbd bd6c bbbe
00000030: 6561 56bd a74a 0abc d78a 70bb 7744 debc
00000040: e5f8 6dbd 43c8 743d 2d4d 823d 482e 3bbd
00000050: bd6a e73c cc82 c2bd 9065 b5bb aa6d 5abd
00000060: c66e bbbc de22 51bd cce9 eabc a833 31bd
00000070: fda2 01be ef11 c1bd 55ce 593c ad29 49bc
00000080: f8f6 863c 1730 043c 6b5f cfbc 08eb 793b
00000090: 0267 9bbd 22db 08bd 61ac 9cbe 49b5 2cbd
000000a0: d0a1 04bd 518a 5ebd 9b48 db3c d1bf a6bd
000000b0: 2e46 62bd c38e 0cbd 8599 73bd 2168 26bd
000000c0: 6e61 54bd e6d0 a937 f783 633c 76a3 b9bd
000000d0: 10bb 7fbd 5869 f7bb 6878 4a3c ed69 cebd
000000e0: 5406 b6bb c26c e1bc ebc3 9bbc a1ce e2bc
000000f0: 6f03 a0bd 80c1 ecbb 394f a3bc 6991 12be
-0.039923955 -0.014365907 -0.07273519 0.05094102 -0.0034135422 -0.054488305 -0.032911893 -0.04536253
0.022898916 -0.037835877 -0.04637006 -0.36606398 -0.052338976 -0.00844065 -0.0036703849 -0.027132256
-0.058098692 0.059761297 0.06362376 -0.045698434 0.028249139 -0.09497604 -0.005535789 -0.05332724
-0.02287997 -0.051058643 -0.028675936 -0.043262154 -0.12659831 -0.09427249 0.013293822 -0.012278003
0.016475186 0.008068106 -0.025314054 0.0038134474 -0.075880066 -0.033412106 -0.30600265 -0.042165074
-0.03238088 -0.054331128 0.02676802 -0.08142055 -0.05524271 -0.034315836 -0.05947258 -0.04062665
-0.05185073 2.0243646e-05 0.013886443 -0.09064381 -0.062434256 -0.0075503998 0.012357809 -0.100787975
-0.0055549536 -0.02751768 -0.01901432 -0.027686419 -0.07813155 -0.0072252154 -0.019935237 -0.14313282

critic.value_heads.value_heads.extrinsic.weight f4 [1, 64]
00000000: 0559 4a3c 18ec 00be aa32 c7bd 89e3 e33e
00000010: e91e ab3c 7a63 a0bd f8e9 46be a84b 69be
00000020: ae46 013e 64fb a3bd ad25 abbe 342a 67b9
00000030: 7517 9d3c c600 6ebe 3309 913d 0647 81bd
00000040: 6bf1 f2bd 5332 843e 157c 453e 7ab0 1dbe
00000050: 8ae4 093d 611c ebbd cce1 9d3c 70da 4d3e
00000060: 527f 023e 03b4 2abe a996 673a d577 ac3d
00000070: b8a4 00be e668 28be 5f98 153e 3f04 b43e
00000080: fa5c 1b3e b3e1 0d3e e5f9 8a3e 1373 8b3e
00000090: 3ae3 a6bd b486 b2ba 8eb1 84bc 9fe2 fa3d
000000a0: 44af b8be 8c64 9dbe 6fbc 163e 2e42 fabd
000000b0: a448 86be a416 05be 4d41 ad3c c392 303a
000000c0: 4614 2bbe 93a3 a53d 9c35 0c3d b80c 71be
000000d0: 610a 55be 4fc3 f83d 7421 7b3c 330b 48be
000000e0: bc6d 093d cda1 76bb 47b5 c53a 2e87 863e
000000f0: 9724 95be fc23 833e d05c 0a3e f0e9 cfbd
0.0123503255 -0.12590063 -0.0972646 0.44509533 0.020888763 -0.07831474 -0.1942519 -0.22782767
0.12624618 -0.08006933 -0.33427182 -0.00022045599 0.019176224 -0.23242483 0.07081833 -0.06312375
-0.11862453 0.25819644 0.19285615 -0.15399352 0.033665217 -0.11480022 0.019272707 0.20102859
0.12743881 -0.16670232 0.0008834401 0.08421294 -0.12562835 -0.16446266 0.14608906 0.3515949
0.15172186 0.13855629 0.2714378 0.27236232 -0.08148809 -0.0013620467 -0.016197946 0.12250256
-0.36071217 -0.30740774 0.14720319 -0.12219654 -0.26227295 -0.12996918 0.021149302 0.00067357364
-0.16706952 0.0808784 0.034230813 -0.23540008 -0.2080474 0.12146627 0.0153278 -0.19535522
0.033551916 -0.0037633062 0.0015083932 0.2627501 -0.29129478 0.2561339 0.13511968 -0.10152042

exp_avg f4 [64, 67]
00000000: 21df 78b6 49f0 1eb7 2ab2 39b7 4a73 b3b6
00000010: 0000 0000 9a5f 8eb4 7578 0c36 0000 0000
00000020: 0c05 0ab5 9a46 ceb6 8909 ecb6 f2e2 3db7
00000030: ab1e c935 e84b 76b7 7238 88b7 b08e 2d36
00000040: e045 84b7 ac87 70b7 47b8 04b6 fff9 3bb7
00000050: 1831 34b7 d36e 1536 e441 81b7 0164 7bb7
00000060: 2543 e4b6 fd0c d6b6 0148 eeb6 870f 1fb5
00000070: 1637 53b7 3253 54b7 7e4d 65b7 b756 0235
00000080: 5409 72b4 d66d 8cb4 a2c4 58b7 5518 59b7
00000090: ebe6 abb6 9c34 07b7 700d 35b7 4ccd c4b6
000000a0: d882 f5b6 92b6 22b7 6644 73b6 f556 20b7
000000b0: 4358 2ab7 a23b 83b6 408a 1bb7 5c72 23b7
000000c0: 2fbf 12b7 c7d1 94b6 6d45 3cb7 f565 08b6
000000d0: 950e 3bb7 9269 3db7 3b52 0cb7 afab a1b6
000000e0: afd6 94b6 1264 dbb4 f44c 56b7 61b7 55b7
000000f0: ac56 58b7 072d 9ab4 ef07 0eb5 73f0 0fb9
00000100: 0000 0000 0400 0080 eb13 2e37 9f8d c7b8
00000110: a5c0 c4b8 ebaa 04b9 278e bdb8 0000 0000
00000120: 138a 69b6 cd9b 5a37 0000 0000 d860 e7b6
00000130: e4c3 8ab8 2dc5 00b9 a06f 30b9 1be5 3337
00000140: 7665 51b9 2472 5eb9 d0b4 9d38 c480 8ab9
00000150: 4dbe 6db9 d2ee fab8 735f 91b8 844b bfb8
00000160: ecc5 6b38 518c 80b9 0cc7 75b9 e598 0ab9
00000170: f238 6eb8 7db7 89b8 b4ea 8bb6 c8c7 41b9
00000180: 8449 42b9 0ced 89b9 ee65 9b38 100f 7438
00000190: 60e7 ec35 ee00 48b9 28a9 47b9 dfec 02b9
000001a0: 8674 86b8 b329 19b9 f9dd f9b8 4970 92b8
000001b0: 8517 05b9 1476 64b8 9909 0db9 8397 0bb9
000001c0: 2f61 39b8 d8ce 17b9 a63f 1ab9 6372 54b9
000001d0: 11b4 6437 a243 eab8 0097 0ab8 6781 23b9
000001e0: 3d5c 25b9 5ecf 25b9 085f 01b8 9456 b9b7
000001f0: 5aa9 f9b7 f8f1 26b9 c058 28b9 891f 70b9
00000200: 99e1 2738 fe6d 1838 3250 1ebb 0000 0000
00000210: 0400 0000 8b87 1c38 1793 0738 8a6b f639
00000220: 44cb e639 d89c 9d38 0000 0000 10d1 6337
00000230: 31af 28b8 0000 0000 7f19 9b37 ee7e 9a39
00000240: febd 5939 8a52 d939 2adb 41b6 d370 043a
00000250: d5e9 0c3a 6c97 6038 014b eb39 73e1 f939
00000260: 0a04 9938 ec1c e139 b1ac e639 0bb3 ee37
00000270: bd72 f839 46aa fb39 f96b 1438 6ed0 f439
00000280: 01ec f339 0ad2 1fb6 ca4e 043a 773c 043a
00000290: 2f4e e639 f83e 8438 6e16 b338 3c7b a1b6
000002a0: ecf1 043a 01cc 043a 25b0 1938 ec27 f439
000002b0: 9057 f639 79a8 3eb8 7e99 0f3a 32ca 083a
000002c0: 5e5b 9438 1947 e239 6451 e039 c3a0 0eb8
000002d0: 0599 0c3a 8955 0b3a 096b fc39 5c2e af37
000002e0: 9877 d239 fd9c 9eb7 dfa3 083a eb1b 083a
000002f0: e7a7 e039 1ad8 9a38 dc13 b038 9c48 8b36
00000300: 6898 023a f6c7 023a b5a2 e239 f6ec 9238
00000310: 1e90 9a38 29da 1b3c 0000 0000 0400 0080
00000320: 2568 c7b9 c429 1fb6 7b87 1637 9757 4137
00000330: 352d 1236 0000 0000 a2f3 7333 1264 2eb6
00000340: 0000 0000 d9aa a134 43e4 a737 790b 61b7
00000350: 5bfa 0c35 4194 1fb7 aa28 8737 2d19 8237
00000360: 5747 a1b5 f4e5 0237 9896 ec36 0e65 19b7
00000370: 1011 8437 5d52 6b37 402f 0bb6 e088 1137
00000380: e3a4 0a37 cb3d cf35 aeaa a936 7d6f c036
00000390: 5619 9934 90e8 d336 34fd d436 9cb5 0637
000003a0: 80c4 bfb5 7d13 84b5 4512 5eb3 5336 df36
000003b0: a2bb de36 0c3f 2737 f507 62b6 2300 2136
000003c0: 017b da36 a4ca bf33 15ea 3236 dbff 76b6
000003d0: 047d 2c37 9a5f 3837 9916 9936 03c7 0836
000003e0: 9d73 3136 21e5 9935 d600 b736 8295 6037
000003f0: 6ce5 1e36 6f07 8e36 7436 9436 4fae 8536
-3.7084758e-06 -9.47348e-06 -1.1068341e-05 -5.348037e-06 0.0 -2.651912e-07 2.093174e-06 0.0
-5.141635e-07 -6.1474975e-06 -7.034458e-06 -1.1318118e-05 1.4984593e-06 -1.4680416e-05 -1.6238748e-05 2.5862064e-06
-1.5768164e-05 -1.4336703e-05 -1.9776796e-06 -1.1204275e-05 -1.0740267e-05 2.2267238e-06 -1.5408681e-05 -1.498405e-05
-6.802746e-06 -6.379209e-06 -7.101335e-06 -5.925471e-07 -1.2589406e-05 -1.2655555e-05 -1.3667506e-05 4.855496e-07
-2.25414e-07 -2.6156948e-07 -1.2920385e-05 -1.2939873e-05 -5.1230795e-06 -8.058876e-06 -1.0791569e-05 -5.865155e-06
-7.316801e-06 -9.69846e-06 -3.6249635e-06 -9.556989e-06 -1.015334e-05 -3.9110464e-06 -9.270909e-06 -9.7421835e-06
-8.7467915e-06 -4.435165e-06 -1.1221838e-05 -2.0324926e-06 -1.1149464e-05 -1.1289858e-05 -8.363796e-06 -4.8181605e-06
-4.435736e-06 -4.086474e-07 -1.2773311e-05 -1.2738486e-05 -1.2894783e-05 -2.8717497e-07 -5.2910667e-07 -0.00013727117
0.0 -6e-45 1.0375846e-05 -9.5154384e-05 -9.381891e-05 -0.00012652173 -9.0387e-05 0.0
-3.4800075e-06 1.3030088e-05 0.0 -6.8956106e-06 -6.61684e-05 -0.00012280485 -0.00016826252 1.0722574e-05
-0.0001996959 -0.0002121409 7.520022e-05 -0.0002641735 -0.00022672974 -0.00011965413 -6.9319176e-05 -9.1216556e-05
5.6212695e-05 -0.00024518606 -0.00023439171 -0.00013217663 -5.6796656e-05 -6.5668464e-05 -4.169846e-06 -0.00018480339
-0.00018528668 -0.0002630729 7.409962e-05 5.818816e-05 1.7650709e-06 -0.00019073833 -0.00019041135 -0.00012486007
-6.411322e-05 -0.00014606751 -0.00011914591 -6.982737e-05 -0.0001269263 -5.4469405e-05 -0.00013450383 -0.00013312516
-4.4197946e-05 -0.00014477537 -0.00014710295 -0.00020260508 1.3631784e-05 -0.00011170587 -3.3042394e-05 -0.00015593097
-0.00015769988 -0.00015812877 -3.08445e-05 -2.2094035e-05 -2.9761974e-05 -0.00015921134 -0.0001605479 -0.00022899931
4.0026007e-05 3.6342062e-05 -0.0024156687 0.0 6e-45 3.7319533e-05 3.2323496e-05 0.000470009
0.00044020463 7.515558e-05 0.0 1.35789305e-05 -4.021748e-05 0.0 1.8489312e-05 0.0002946774
0.0002076551 0.00041450962 -2.8886811e-06 0.00050522125 0.000537542 5.3546784e-05 0.00044878575 0.00047660954
7.296361e-05 0.00042936893 0.00043997684 2.8455184e-05 0.00047387733 0.00048001314 3.5386507e-05 0.000466946
0.00046524408 -2.3815105e-06 0.0005047141 0.00050444104 0.0004392727 6.305979e-05 8.539563e-05 -4.8125203e-06
0.00050714496 0.00050657993 3.664209e-05 0.0004656905 0.00046986016 -4.5456432e-05 0.0005477889 0.0005218118
7.0742084e-05 0.0004315905 0.0004278525 -3.400516e-05 0.0005363378 0.0005315175 0.00048144933 2.0883213e-05
0.00040143426 -1.8908171e-05 0.0005212407 0.00051921484 0.00042849706 7.383544e-05 8.396033e-05 4.1509757e-06
0.0004981817 0.0004988903 0.00043227305 7.00596e-05 7.370136e-05 0.009512463 0.0 -6e-45
-0.00038033832 -2.3717157e-06 8.972241e-06 1.152409e-05 2.178201e-06 0.0 5.679943e-08 -2.598627e-06
0.0 3.0112895e-07 2.0014244e-05 -1.3413716e-05 5.251838e-07 -9.511657e-06 1.611219e-05 1.5508931e-05
-1.2016197e-06 7.802144e-06 7.0508795e-06 -9.143039e-06 1.5743572e-05 1.4026268e-05 -2.0740117e-06 8.674542e-06
8.263832e-06 1.5440686e-06 5.056462e-06 5.735025e-06 2.8516905e-07 6.315364e-06 6.347569e-06 8.029307e-06
-1.4287798e-06 -9.840438e-07 -5.170502e-08 6.652242e-06 6.637959e-06 9.968655e-06 -3.3681256e-06 2.399095e-06
6.511226e-06 8.930991e-08 2.666032e-06 -3.6805784e-06 1.0281106e-05 1.0989514e-05 4.562386e-06 2.038142e-06
2.644235e-06 1.1466074e-06 5.4539223e-06 1.338625e-05 2.3677376e-06 4.232795e-06 4.417083e-06 3.984001e-06

exp_avg_sq f4 [64, 67]
00000000: bbbe 2f31 30cb b430 005b c430 ec73 5e30
00000010: 0000 0000 f454 902c 658c 8230 0000 0000
00000020: 6d81 7f2c 5d19 7f30 0d46 4831 9625 6731
00000030: afff d630 e58e 2e31 5c6f 3b31 bf89 2130
00000040: b45c 6131 a1e4 7331 ce9d 2331 54f2 df30
00000050: 8519 e230 21d7 442d 7b0a 8b31 14f7 8a31
00000060: bd1e 4231 64ac 8c30 cb18 9030 908c 7d2c
00000070: 7a7c 8a31 d687 8a31 ed57 1d31 8815 d430
00000080: 551e d630 84a9 342d 62ca 8931 26e9 8931
00000090: 6cd8 1231 8d0f f030 1468 0e31 bbf7 6830
000000a0: 69db 5231 686b 5b31 33f9 f730 283b 1231
000000b0: 2764 1c31 1c42 122f 46c9 8531 1dde 8531
000000c0: b850 1831 7c94 e230 edaa f630 d12c 042f
000000d0: 8cd3 8631 d7cf 8631 10a5 0131 8e7f 0e31
000000e0: a7b7 0e31 d0b2 562e 8a23 8931 571c 8931
000000f0: 0abf 4031 e6b9 a630 9535 a830 9247 4134
00000100: 0000 0000 f401 0000 b6fa c431 066f 5135
00000110: 5592 6f35 fa94 8735 6d36 3134 0000 0000
00000120: c1d8 0231 31e7 7f33 0000 0000 4acf 0731
00000130: 4d25 0834 83de d035 2bdd dd35 f228 1435
00000140: c537 9d35 c039 ad35 0596 8c34 dd0e be35
00000150: 8865 d635 5f2a d734 2e2b ae35 9eb8 af35
00000160: 5a7f b630 2c2a e835 e429 e835 ae2b cc34
00000170: 10ec ac35 dec2 ad35 0174 0730 c803 e835
00000180: e901 e835 5aa6 9834 0c57 bb35 9aab bb35
00000190: e834 9530 cc48 e735 e363 e735 3a16 8635
000001a0: 5687 3135 7bfb 7935 0701 4f34 cf8c c835
000001b0: e063 d135 ab9b 0235 886d aa35 9664 b335
000001c0: 57bf a232 60bc e435 98d2 e435 4b6e e234
000001d0: ed58 a635 685b b435 b046 8932 7af8 e535
000001e0: 6feb e535 89e5 3134 730e d035 010a d035
000001f0: 80c3 4a32 1ca6 e535 f5bd e535 a8ab 1b35
00000200: 677b 9935 5ad2 9935 df4d 3138 0000 0000
00000210: f401 0000 1866 b536 b0da d836 4e4a c635
00000220: af62 d135 6664 8a36 0000 0000 25ca e231
00000230: 6195 7635 0000 0000 e949 1232 ef91 3636
00000240: 4f3f ab36 ff19 d436 6d39 d935 21d5 db36
00000250: b9b8 e136 c81d 9035 8687 e336 b7a3 f436
00000260: 003b 8936 4b76 8936 b9db 8936 7222 3132
00000270: d97e 0737 5078 0737 18d6 e836 9d9c 8335
00000280: ed13 8a35 b488 9830 129f 0737 4198 0737
00000290: c291 c936 9b75 0236 9ec5 0436 9da0 a031
000002a0: 23ab 0737 95a0 0737 091b ca36 6e6c 0736
000002b0: fc6b 2536 8561 4336 3b99 a836 809e ad36
000002c0: 8497 c536 4c68 0736 f06d 0f36 6ce7 e533
000002d0: 354b 0537 004b 0537 b6a0 eb36 f2b5 8035
000002e0: d95a b135 755a e533 3a31 0537 4838 0537
000002f0: 7bbb bb36 4043 2936 672f 2936 619b 6633
00000300: e62f 0637 2133 0637 7b4a d336 78fe fc35
00000310: a96f fd35 03df 9c39 0000 0000 f401 0000
00000320: dc6f ba36 b55a 0e33 fdad 1f31 832d 3c31
00000330: fb9d a732 0000 0000 c133 f72d 3564 f330
00000340: 0000 0000 eaf4 2a2e 5836 2a32 99c4 d132
00000350: 5eff f932 619e a631 3a9d 0133 baa1 0333
00000360: d2d2 de30 5ba7 0c33 df8b 0f33 4645 a132
00000370: 57cc 8632 777a 8832 4dad 232e e696 1433
00000380: 8492 1433 5087 0533 5e88 6131 3ed3 7131
00000390: eb9f 8d2c 1a7a 1433 6681 1433 c468 c332
000003a0: 0fa8 4932 1f58 4b32 1353 a12d ef56 1433
000003b0: 575f 1433 c79d fd32 0243 b931 69e1 ea31
000003c0: 2eaa 7032 b017 b632 c8ab ba32 efa0 0133
000003d0: 288c 9131 c1a9 9731 ba0e cb2f 27b0 1233
000003e0: 19c8 1233 98db f732 1333 de31 e96a e531
000003f0: 6464 912f a445 1333 1343 1333 6929 bc32
2.557427e-09 1.3154473e-09 1.4286741e-09 8.0927864e-10 0.0 4.102158e-12 9.498647e-10 0.0
3.6309525e-12 9.2804503e-10 2.914365e-09 3.363629e-09 1.5643219e-09 2.5401559e-09 2.7275382e-09 5.876721e-10
3.2794505e-09 3.5491114e-09 2.3809323e-09 1.6294259e-09 1.6450917e-09 1.1189078e-11 4.046624e-09 4.044418e-09
2.8248188e-09 1.0235337e-09 1.0484426e-09 3.603149e-12 4.03048e-09 4.0317714e-09 2.2896487e-09 1.543115e-09
1.557917e-09 1.0269455e-11 4.010233e-09 4.0137307e-09 2.1368818e-09 1.7466718e-09 2.0722881e-09 8.4753154e-10
3.0683742e-09 3.1929748e-09 1.8042442e-09 2.1279423e-09 2.2757918e-09 1.330211e-10 3.8936916e-09 3.896061e-09
2.2164794e-09 1.6485866e-09 1.7947436e-09 1.2021252e-10 3.9239634e-09 3.923542e-09 1.8865798e-09 2.0736226e-09
2.0768114e-09 4.8816784e-11 3.991265e-09 3.9904466e-09 2.804827e-09 1.2130925e-09 1.2238838e-09 1.8000563e-07
0.0 7e-43 5.7328533e-09 7.802013e-07 8.924738e-07 1.0101642e-06 1.650421e-07 0.0
1.90407e-09 5.958208e-08 0.0 1.9762916e-09 1.2679557e-07 1.5561967e-06 1.6530151e-06 5.519388e-07
1.1713643e-06 1.2906312e-06 2.6186186e-07 1.4160429e-06 1.5973792e-06 4.00777e-07 1.2976577e-06 1.3092247e-06
1.3278438e-09 1.7297621e-06 1.7297539e-06 3.8029742e-07 1.2883702e-06 1.2946218e-06 4.9277565e-10 1.7286447e-06
1.7285903e-06 2.8433243e-07 1.395792e-06 1.3982528e-06 1.0856214e-09 1.7232028e-06 1.7239912e-06 9.990247e-07
6.613458e-07 9.312568e-07 1.9278751e-07 1.4942142e-06 1.5600781e-06 4.86553e-07 1.2697865e-06 1.3365814e-06
1.8946293e-08 1.7042148e-06 1.7048615e-06 4.217603e-07 1.2393845e-06 1.3437648e-06 1.5981044e-08 1.7134146e-06
1.713035e-06 1.6567914e-07 1.5501413e-06 1.5500119e-06 1.1802399e-08 1.7110174e-06 1.7117114e-06 5.799179e-07
1.1435303e-06 1.1460609e-06 4.227261e-05 0.0 7e-43 5.4061056e-06 6.46276e-06 1.4773775e-06
1.5600434e-06 4.1244084e-06 0.0 6.600447e-09 9.1859516e-07 0.0 8.515124e-09 2.7205058e-06
5.103567e-06 6.3211187e-06 1.6184473e-06 6.55152e-06 6.727027e-06 1.0737504e-06 6.780904e-06 7.2908256e-06
4.0897867e-06 4.0966893e-06 4.1084973e-06 1.0310588e-08 8.076161e-06 8.0746395e-06 6.9390626e-06 9.805841e-07
1.02876e-06 1.1098309e-09 8.0836635e-06 8.082076e-06 6.0072352e-06 1.9439965e-06 1.978456e-06 4.6748725e-09
8.086473e-06 8.0840155e-06 6.0232164e-06 2.0179682e-06 2.4649771e-06 2.9114028e-06 5.0246285e-06 5.1742536e-06
5.8886963e-06 2.0177276e-06 2.1372653e-06 1.0705739e-07 7.944928e-06 7.94488e-06 7.022255e-06 9.589696e-07
1.3213968e-06 1.06800975e-07 7.938879e-06 7.940522e-06 5.59486e-06 2.5222107e-06 2.5210554e-06 5.3692364e-08
7.998175e-06 7.998927e-06 6.2969607e-06 1.8849523e-06 1.8882466e-06 0.00029920795 0.0 7e-43
5.556254e-06 3.314445e-08 2.3236446e-09 2.738347e-09 1.95132e-08 0.0 2.8103632e-11 1.7709058e-09
0.0 3.8871052e-11 9.907659e-09 2.4420205e-08 2.9103543e-08 4.8492415e-09 3.017815e-08 3.0647904e-08
1.6212545e-09 3.27485e-08 3.3421994e-08 1.8774369e-08 1.5692576e-08 1.5888174e-08 3.721583e-11 3.4596177e-08
3.459219e-08 3.108954e-08 3.2819325e-09 3.5190193e-09 4.0252155e-12 3.4569986e-08 3.4576622e-08 2.274863e-08
1.1737952e-08 1.1836192e-08 1.8340473e-11 3.4538e-08 3.4545646e-08 2.9524825e-08 5.3918265e-09 6.8359225e-09
1.4008533e-08 2.119836e-08 2.1731367e-08 3.018152e-08 4.2359893e-09 4.413977e-09 3.693595e-10 3.4153484e-08
3.417526e-08 2.8854444e-08 6.466857e-09 6.6769315e-09 2.6446678e-10 3.4289442e-08 3.428711e-08 2.1904912e-08

exp_avg f4 [64]
00000000: 1028 5db7 1f27 46b9 f5ae 033a 217a dd36
00000010: 29bd 1739 a439 eab9 3405 b5b5 2d0e 8037
00000020: 5cb4 8b39 425b 1c3a 3ddf a139 3abc e538
00000030: 8101 23ba 6983 b4b6 006c a937 d691 edb9
00000040: ce2f a538 ec4c ea39 d1c5 c739 3e6c 8637
00000050: 0185 6036 eb02 fc38 7604 cb39 0623 0bba
00000060: 7d8a 8e37 c1b3 f1b5 35e3 cb39 befc 0a39
00000070: 35e2 30b7 4abc 21ba 6f43 d038 2584 093a
00000080: 7524 d6b9 f3d2 9ab9 7ddd 49b7 78f5 9039
00000090: 2df6 2139 7e17 c939 4a3d 3dba 86a3 4d3a
000000a0: 43b1 b2b9 c489 3b39 74de b739 5450 22b3
000000b0: 6e0b 863a eaad a6b5 d4b4 4bb9 8d95 26ba
000000c0: f9d6 f638 1dc8 eeb9 9604 17ba 9aee 813a
000000d0: 334e 6437 fb46 063a 110e bbb9 6d04 033a
000000e0: 38c2 67b9 588d 9b37 2a47 0b3a 437f f436
000000f0: 36cf 2e36 2293 733a e5a5 2b3a df99 5239
-1.3181954e-05 -0.00018897325 0.0005023324 6.600531e-06 0.0001447095 -0.00044674904 -1.3487065e-06 1.526539e-05
0.00026646524 0.0005964526 0.00030874638 0.00010954631 -0.00062181806 -5.379716e-06 2.0196661e-05 -0.0004531282
7.8767174e-05 0.0004468927 0.00038103623 1.6024449e-05 3.345602e-06 0.0001201684 0.000387225 -0.0005307648
1.6992208e-05 -1.8008215e-06 0.0003888846 0.0001325486 -1.0543085e-05 -0.000616972 9.9307734e-05 0.00052458263
-0.00040844423 -0.00029530338 -1.2032103e-05 0.0002764871 0.00015445864 0.0003835521 -0.00072189106 0.0007844496
-0.00034082876 0.00017885031 0.0003507022 -3.7791622e-08 0.0010226795 -1.241858e-06 -0.00019426952 -0.0006354682
0.00011770236 -0.00045543993 -0.0005760876 0.0009913028 1.3608066e-05 0.0005122271 -0.000356779 0.0004997913
-0.00022102229 1.8543258e-05 0.00053130335 7.286582e-06 2.6048633e-06 0.0009291639 0.00065478525 0.00020084482

exp_avg_sq f4 [64]
00000000: f2ee 8a31 49fc e735 0187 0737 019f 1433
00000010: 8449 6a37 1f07 fc36 9c27 a430 a13a 0534
00000020: 8376 f036 806d 1f37 278b 0b37 a67f 0a35
00000030: 1a4d df37 2462 2232 0e7e 3533 69d9 c737
00000040: 948c d935 1732 0937 c1ad a136 48ec ef34
00000050: 3d64 3131 fb6e ab35 ef24 8f36 a35b a437
00000060: 0114 8432 96d6 3e30 b438 1637 224b 5737
00000070: 529f e030 1182 3138 fca2 fd36 191d b037
00000080: 9159 a137 9775 3337 fe16 5433 bb6e d436
00000090: 8ab5 2236 93bd 5a36 e0b4 5238 0fe6 9d37
000000a0: 4025 6936 a590 1c36 d190 a336 763b 8131
000000b0: f1c3 5438 9f1b 1a31 d68e 8c36 fbfe 4f38
000000c0: 5295 7d35 6912 da37 b8b4 3638 d712 d238
000000d0: 271a 3732 4292 1a37 286e b736 7a10 1e37
000000e0: 233e 5336 982d 8135 1151 8137 8aa0 a232
000000f0: b857 bc32 c7a3 7a37 6cd3 7a37 6b8c 8136
4.0434935e-09 1.7284266e-06 8.07806e-06 3.460355e-08 1.3964604e-05 7.5110142e-06 1.1943828e-09 1.240792e-07
7.166354e-06 9.5026335e-06 8.317445e-06 5.159476e-07 2.6619575e-05 9.451956e-09 4.2256993e-08 2.3823888e-05
1.6208674e-06 8.177499e-06 4.8184015e-06 4.4689136e-07 2.5813869e-09 1.2772792e-06 4.2660317e-06 1.9592995e-05
1.537592e-08 6.942654e-10 8.953899e-06 1.2832492e-05 1.6343427e-09 4.2321222e-05 7.5589614e-06 2.0994385e-05
1.9234403e-05 1.069661e-05 4.9381008e-08 6.330983e-06 2.424555e-06 3.2594878e-06 5.0236355e-05 1.8822988e-05
3.4741388e-06 2.3330006e-06 4.8746374e-06 3.761154e-09 5.0727223e-05 2.242565e-09 4.1889534e-06 4.9590115e-05
9.4467134e-07 2.5996198e-05 4.356049e-05 0.000100170895 1.0657948e-08 9.213169e-06 5.466649e-06 9.42137e-06
3.1477618e-06 9.624518e-07 1.5415748e-05 1.8932287e-08 2.192597e-08 1.4939294e-05 1.4950387e-05 3.8608464e-06

exp_avg f4 [3, 64]
00000000: 1e26 fd36 26f6 ab38 1393 1fb9 7ea1 8838
00000010: 27d5 a5b9 94b2 b038 8e2b a237 ecb6 d638
00000020: 866f bdb9 59a8 14ba ebb8 cfb9 4cbb d3b8
00000030: 300a f5b8 cec8 bb38 8e9a 1638 a5ec beb9
00000040: 1cd7 6cb9 0f33 41b9 2413 20b9 19f5 b4b8
00000050: 33b6 c837 a315 7cba cf70 04ba 64e8 8ab6
00000060: 5288 1f38 54e4 c737 63f7 d4b9 0481 8eb9
00000070: 4b43 bd36 e5ab 8cba 45e5 d2b9 5a16 9bb9
00000080: db3f bdb9 b3e2 71b9 b987 4d38 21de a8b9
00000090: 971f 23b9 4d58 88b8 dbcb aab9 ed92 cbb9
000000a0: e67f 8138 2886 10b9 da18 d3b9 d723 3838
000000b0: 9232 d5b9 5b55 9838 bf99 89b8 d98d 13ba
000000c0: 9124 4cb9 3d60 0eba 414c 51ba bef2 6aba
000000d0: 2dba 4538 e4ef 3eba 7092 0ab7 7303 80b9
000000e0: 0bff 0e36 6b6a 9bb9 5bfd fdb9 3a95 ca38
000000f0: ed97 0238 dc91 87ba 9b55 2cba b7f8 73ba
00000100: 9575 0ab9 350c 843b 2303 013c 092d 12b9
00000110: 0426 ceb9 7bc8 ae3b 3232 5eb8 13f6 bfb9
00000120: 886a 933b 87eb 0dbb 5a08 923a 3a3a 47ba
00000130: 3e3a cc3b ad83 08b9 dd59 6f39 dab4 233c
00000140: a2c1 4dba 4fa6 0d3c 0cbe 843a 289a cab9
00000150: 7646 17b9 ea0e 3ebb ca62 2dbb 09c3 903b
00000160: 2b9b 82b9 d08c a2b7 3afc d73a a0fb 53ba
00000170: 9671 deb8 86b6 de3b 4523 353a 4368 1c3b
00000180: c51a 1c3c 0150 de3b 33e0 ceb9 8c3a a73b
00000190: 1070 2eba 88a4 433c ace5 3c3c 62c7 113c
000001a0: 0cab 333b c483 5dba e59f 0dbb 1edb 06b9
000001b0: 2723 a63c e954 8338 15cb 723c 05ca 7f3c
000001c0: 3b5f 43ba cf5b 163c da2b 293c f8c8 393a
000001d0: adb7 f938 936a fe3b 2912 153c adc7 8b3b
000001e0: 98e7 8f3c c4ea b0ba f41a 063c 0c97 8c39
000001f0: 25cb 45ba 319a b2bb 4d6e feba c720 2eb9
00000200: 608c 0239 0ebc 86bb ac09 fdbb 98b8 9b38
00000210: 93fd 393a 468b b1bb 701c 0d38 5b48 8a39
00000220: 9093 87bb 9c15 333b 2434 3cba a8b1 613a
00000230: 1466 c8bb 2c7d 2a38 4080 8ab9 74bd 1dbc
00000240: b57b 843a 86a1 0abc 5177 61ba 72d7 f739
00000250: 615f fc38 4e14 7d3b fd7e 4e3b 50a0 90bb
00000260: 4554 5d39 125e 95b6 68be a2ba 0f9e 8d3a
00000270: 609d d238 8b8b bbbb fe61 97b9 7b05 09bb
00000280: c330 16bc e3c0 d6bb 3f2f b539 a8ac 9cbb
00000290: f637 573a d893 42bc 548f 37bc cb6a 0bbc
000002a0: 0bb7 37bb a8d2 803a 0503 283b 49a4 b138
000002b0: 5fce a2bc 22d5 0db9 e6b7 71bc 2791 76bc
000002c0: 5f68 763a cd75 0dbc 1917 1cbc daa6 4439
000002d0: 634a 2eb9 988c e6bb 85ef 14bc 76c7 83bb
000002e0: 12ec 8fbc 60c5 d73a 1956 fcbb 593c bfb9
000002f0: a9a1 3d3a a97e d43b 8c4c 2a3b 68c0 8f3a
7.544425e-06 8.199764e-05 -0.00015218211 6.5150656e-05 -0.00031630063 8.425597e-05 1.9332187e-05 0.00010238387
-0.0003613198 -0.00056708377 -0.0003961989 -0.00010096151 -0.00011684408 8.954258e-05 3.5906727e-05 -0.00036415938
-0.00022586848 -0.00018424935 -0.0001526592 -8.628722e-05 2.3926701e-05 -0.0009616261 -0.000505221 -4.1397743e-06
3.8035512e-05 2.3828972e-05 -0.00040620108 -0.00027180475 5.640473e-06 -0.0010732381 -0.0004022514 -0.00029580557
-0.00036096465 -0.00023068003 4.900221e-05 -0.00032208956 -0.0001555666 -6.501433e-05 -0.0003257681 -0.00038828645
6.175022e-05 -0.00013782887 -0.00040263572 4.3902397e-05 -0.00040664204 7.2638235e-05 -6.5613065e-05 -0.0005628742
-0.00019468578 -0.0005431211 -0.000798408 -0.0008962563 4.714185e-05 -0.00072836713 -8.259536e-06 -0.00024416632
2.1308103e-06 -0.0002964319 -0.00048444685 9.659906e-05 3.1135907e-05 -0.0010343152 -0.00065740355 -0.0009306776
-0.00013204508 0.0040297755 0.007874283 -0.00013940422 -0.00039319706 0.0053339577 -5.2975673e-05 -0.00036613698
0.0044987835 -0.0021655278 0.0011141405 -0.0007599924 0.006232529 -0.00013019024 0.00022826293 0.009991849
-0.0007848983 0.008645608 0.0010127439 -0.00038643298 -0.00014426731 -0.0029000589 -0.0026456588 0.0044177813
-0.0002491114 -1.9377476e-05 0.0016478368 -0.0008086506 -0.00010606942 0.006796661 0.00069098576 0.0023865856
0.009527867 0.0067844396 -0.00039458423 0.005103415 -0.0006654272 0.011941083 0.011529367 0.008897634
0.0027415184 -0.00084501156 -0.0021610197 -0.00012860863 0.020280434 6.2623825e-05 0.014818926 0.01561213
-0.000745285 0.009177162 0.010325396 0.00070871366 0.000119074575 0.0077641695 0.009098568 0.0042657466
0.017566487 -0.00134977 0.008185137 0.0002681542 -0.00075452245 -0.00545051 -0.0019411534 -0.00016606144
0.0001245006 -0.0041117733 -0.0077221002 7.425359e-05 0.00070949754 -0.005418214 3.3643504e-05 0.0002637532
-0.004137464 0.0027326113 -0.00071794004 0.00086095417 -0.0061156843 4.0647734e-05 -0.00026416965 -0.009627689
0.0010107668 -0.008461362 -0.00086008484 0.0004727203 0.00012034062 0.003861684 0.0031508796 -0.004413642
0.00021107595 -4.4514973e-06 -0.0012416365 0.0010804551 0.00010042894 -0.005723422 -0.00028873974 -0.0020907808
-0.009166899 -0.0065537556 0.0003455821 -0.0047813244 0.0008209938 -0.011876069 -0.011203606 -0.008509348
-0.0028032686 0.0009828405 0.0025636565 8.470618e-05 -0.019873796 -0.00013526206 -0.014753317 -0.015049255
0.0009399708 -0.008634043 -0.009526991 0.00018754174 -0.00016621644 -0.007035803 -0.009090309 -0.0040215803
-0.017568622 0.001646202 -0.0077006933 -0.0003647532 0.0007233867 0.0064848256 0.0025985567 0.0010967376

exp_avg_sq f4 [3, 64]
00000000: f63f bb33 32e9 dc36 54ec 0d38 c0e8 ba34
00000010: f144 fc36 109b f634 f3e8 c933 0ff4 ee34
00000020: 99c6 eb37 af65 6437 a01c 7c37 9b6d a035
00000030: 6c6a 2b36 be64 0935 0cfc 9434 1b2d 8736
00000040: d5c4 2b36 e58b ec36 9303 8036 6130 6f36
00000050: 0d26 5334 fbc4 c937 63a4 a237 a8ad a437
00000060: 4b62 8434 2ab2 9c33 ddaa 9b37 ecc2 b336
00000070: 2528 5033 0737 9d37 7a31 0437 d6ef 9e37
00000080: 4b2c 0837 78c1 5036 7155 8534 f35e 0a38
00000090: 49bc 0337 963e 2d37 bcba cd36 7b2b b737
000000a0: d0e7 cc34 18b4 0a36 1603 9e37 6890 5934
000000b0: d710 0638 b2a4 0335 9d04 3236 3bae 5137
000000c0: 51bc b436 3e69 0e37 235e 5a37 957c 9c38
000000d0: a9e7 7e34 bc96 1138 aff2 6736 376c 4037
000000e0: f64b 8c36 10d3 5136 bc86 6e36 26c9 b534
000000f0: 3a5a 4934 20e3 3038 d38c 8937 8afe b537
00000100: c683 c034 dc63 a539 d7ea dc39 6d04 7736
00000110: 5a8f 4c39 993c a73a 3152 c634 716f 1f37
00000120: 39cc cd39 7dc1 7538 f937 693a 508c 7037
00000130: d66d f63a 7f2e b036 4b8a 0836 1f14 a03b
00000140: d47f 1e37 0743 473b 467d d638 53b1 7237
00000150: f44a 8535 0cc5 663b 099a df38 e325 593a
00000160: dbfc 2a36 f462 2834 c462 ae39 07d3 f538
00000170: 87a2 1734 9d2d 813b 3218 153b a5a4 df39
00000180: 3d54 853b 4805 563b fbdf 4e37 6a31 bf39
00000190: db0c 5837 ea5c af3a 9cbb da3b 8bc7 303a
000001a0: 0181 d139 ffda 6537 a8b3 8238 ed2b ca35
000001b0: a671 333c fa7e 3536 0028 4e3b c3ff b33b
000001c0: f143 b537 1740 103c b947 993b 9f78 543b
000001d0: bd39 3c35 9594 cb3a edf7 8f3a 15e8 8239
000001e0: 834e 673b 3a32 0238 57cf 513a 06d8 3e36
000001f0: a334 5e37 714c 5739 2e55 8a38 3b50 773b
00000200: f5e4 db34 df5b a739 f1a3 e239 2b65 7c36
00000210: 7100 4f39 6333 a73a 17d5 da34 5852 1f37
00000220: e553 d239 8380 9738 a9ea 683a debc 8037
00000230: d9aa f63a b932 b336 0fbf 1636 040b a03b
00000240: 942f 4437 f711 473b 2ccd d338 9bd6 9337
00000250: a3da 8f35 60b7 663b 0ef4 fe38 aa3f 5d3a
00000260: 14f9 2c36 b3e9 5b34 0d73 ad39 2c21 fa38
00000270: ccce 3b34 dfed 803b 1ff5 143b 35d1 de39
00000280: 2451 853b 0d09 563b 0c8d 5037 fa03 c539
00000290: 5cd1 aa37 e482 af3a 03c0 da3b 76c3 2f3a
000002a0: e48e d139 68ed 8137 f617 a938 37d9 d235
000002b0: e05f 333c cb3a 4136 522e 4e3b 43f4 b33b
000002c0: c3b2 e037 6534 103c 6e3b 993b f679 533b
000002d0: 47c2 6735 1aed ca3a 26de 8f3a 47a7 8239
000002e0: b129 673b b9e1 0d38 9b60 513a 33ba 4636
000002f0: 732f 5e37 d675 7839 37a3 a738 b4f8 763b
8.7195005e-08 6.5836584e-06 3.3837117e-05 3.4814548e-07 7.518211e-06 4.5933893e-07 9.402165e-08 4.450853e-07
2.8106662e-05 1.3613534e-05 1.5027035e-05 1.1952828e-06 2.5542931e-06 5.1183076e-07 2.7750536e-07 4.0285645e-06
2.5595557e-06 7.049634e-06 3.8151134e-06 3.5641935e-06 1.9664749e-07 2.4052793e-05 1.9388453e-05 1.9631188e-05
2.4658434e-07 7.296724e-08 1.8557004e-05 5.3573076e-06 4.8465285e-08 1.8741483e-05 7.879333e-06 1.894675e-05
8.116544e-06 3.110703e-06 2.4835347e-07 3.2990192e-05 7.852047e-06 1.03261755e-05 6.131215e-06 2.1835547e-05
3.8166627e-07 2.066843e-06 1.8836505e-05 2.0262235e-07 3.1963773e-05 4.9040966e-07 2.6526752e-06 1.2497937e-05
5.386341e-06 8.488363e-06 1.30157305e-05 7.461865e-05 2.3739871e-07 3.4711076e-05 3.4562943e-06 1.14692875e-05
4.181168e-06 3.1266281e-06 3.554319e-06 3.3860232e-07 1.8752408e-07 4.2173197e-05 1.6397249e-05 2.169541e-05
3.5858665e-07 0.00031545653 0.0004213664 3.6808444e-06 0.00019508359 0.0012759148 3.6940176e-07 9.5030855e-06
0.00039252805 5.8592752e-05 0.0008896585 1.4337784e-05 0.0018801044 5.2506216e-06 2.0346076e-06 0.004885211
9.447296e-06 0.0030404942 0.00010227649 1.4465611e-05 9.931086e-07 0.0035212664 0.0001066216 0.00082835386
2.5479155e-06 1.5682218e-07 0.00033261452 0.00011721817 1.4122098e-07 0.003942205 0.0022750017 0.00042656544
0.00406888 0.0032656956 1.2330706e-05 0.00036467175 1.2877596e-05 0.0013379131 0.006675197 0.00067436014
0.00039959702 1.3700453e-05 6.232347e-05 1.5062957e-06 0.010952389 2.7045012e-06 0.0031456947 0.0054931357
2.160852e-05 0.008804343 0.0046777395 0.0032420529 7.011948e-07 0.0015531952 0.0010983922 0.00024968447
0.00352946 3.1041192e-05 0.00080036133 2.8437948e-06 1.3244487e-05 0.00020532474 6.596219e-05 0.003773703
4.0958517e-07 0.00031921171 0.00043228225 3.7609814e-06 0.00019741223 0.0012756403 4.0760708e-07 9.496311e-06
0.00040116828 7.224178e-05 0.0008885065 1.5346737e-05 0.0018819227 5.3405206e-06 2.2462953e-06 0.0048841257
1.1693588e-05 0.0030375698 0.0001009948 1.7623699e-05 1.0717962e-06 0.0035204515 0.000121571225 0.00084399676
2.577498e-06 2.0480984e-07 0.0003308285 0.00011927108 1.7490964e-07 0.0039346064 0.0022729111 0.0004249901
0.0040685106 0.0032659203 1.2430606e-05 0.0003757773 2.036307e-05 0.0013390449 0.0066757216 0.0006704846
0.00039970048 1.548855e-05 8.063011e-05 1.5709437e-06 0.010948151 2.8793463e-06 0.0031460715 0.0054917648
2.6786123e-05 0.008801554 0.004676274 0.003226874 8.6336917e-07 0.0015482039 0.001097624 0.00024920164
0.0035272653 3.382724e-05 0.00079871126 2.9612681e-06 1.3243279e-05 0.0002369502 7.993582e-05 0.003768486

exp_avg f4 [3]
00000000: d3d5 c1b9 aea7 6b3b ed6c 53bb
-0.0003697114 0.00359581 -0.003226097

exp_avg_sq f4 [3]
00000000: c478 1b37 c260 4e3a ca9a 4e3a
9.266838e-06 0.00078726944 0.0007881342
