Config/results/BallCatcher_02/BoxBehavior/BoxBehavior-3823700.onnx (onnx, 19875 bytes, 4 tensors)

distribution.branches.0.bias f4 [3]
0	0x3a9f455f	0.0012151412
1	0x3cc4280e	0.02394488
2	0x3cf30ebc	0.029670112

distribution.branches.0.weight f4 [3, 64]
0	0x3d36c1d6	0.04461845
1	0xbc3720f0	-0.0111772865
2	0x3e3beade	0.18351313
3	0xbdc9a656	-0.09846179
4	0x3e1b023c	0.15137571
5	0xbdf75236	-0.12076227
6	0xbe1dc159	-0.15405788
7	0x3e2802d4	0.16407329
8	0x3e7e9fd8	0.24865663
9	0x3e44f2cf	0.19233249
10	0xbd1fbcb6	-0.03899833
11	0x3e1c1471	0.15242173
12	0xbe593bca	-0.21214214
13	0xbdd8a2d6	-0.105779335
14	0xbdaae30c	-0.08344087
15	0xbe6b99b6	-0.23007855
16	0x3e80ddff	0.2516937
17	0xbd4bd2af	-0.04976147
18	0x3e0fd051	0.1404431
19	0x3e6b42fa	0.22974768
20	0xbe098f42	-0.13433555
21	0xbdcb9912	-0.09941305
22	0x3e40668f	0.18789123
23	0xbd5bde55	-0.05367883
24	0xbda9a1d9	-0.08282823
25	0xbde9e5b1	-0.11420763
26	0xbcbfe35f	-0.023423849
27	0x3e443fd8	0.1916498
28	0xbdaab490	-0.08335221
29	0xbe382aae	-0.17985031
30	0xbddbf9f6	-0.10741036
31	0x3d1ec5ba	0.038762785
32	0xbe32a1f4	-0.17444593
33	0xbe5415aa	-0.20711389
34	0x3dc14b33	0.09438171
35	0x3e6e24e2	0.23256257
36	0x3e608bf4	0.21928388
37	0xbdb7345c	-0.08945534
38	0xbe7d44dd	-0.247333
39	0x3d82ebde	0.06392644
40	0x3dba5ed6	0.0910012
41	0x3e5b031f	0.2138791
42	0x3e3b1708	0.18270504
43	0xbded8628	-0.11597854
44	0xbe1e399c	-0.15451664
45	0xbc5552a7	-0.013020194
46	0xbe4fcc22	-0.20292714
47	0xbe6be418	-0.2303623
48	0x3e6b18d7	0.22958694
49	0xbe73f870	-0.2382524
50	0xbe3e22d4	-0.18567973
51	0x3d1f3594	0.038869455
52	0xbd3d99db	-0.046289306
53	0xbcecb565	-0.02889509
54	0xbd80e26f	-0.06293189
55	0x3e711091	0.23541476
56	0xbe22c9d8	-0.1589731
57	0x3e8612a8	0.2618611
58	0x3e6bf269	0.23041691
59	0xbab8b98c	-0.0014093383
60	0x3da1b620	0.07896066
61	0x398c756d	0.0002679037
62	0x3df9b074	0.12191859
63	0xbe051bb8	-0.12998855
64	0x3d8a5ab4	0.067555815
65	0xbcc49d81	-0.024000885
66	0x3cbb0b73	0.022832608
67	0xbe1e7914	-0.15475875
68	0x3df9b46a	0.121926144
69	0x3c1b5e06	0.009482866
70	0xbc902007	-0.017593397
71	0xbe5818bc	-0.21103185
72	0x3c97260d	0.018450761
73	0xbe97feb4	-0.2968651
74	0x3e1e355a	0.1545004
75	0xbe2e2bd3	-0.17008905
76	0x3c35c1c0	0.011093557
77	0xbdba6051	-0.09100402
78	0x3d8e1180	0.069369316
79	0x3d430cd4	0.047619656
80	0xbe99c56a	-0.30033427
81	0x3df7ef1d	0.12106154
82	0x3dfd9c32	0.123833075
83	0xbe6406ea	-0.22268263
84	0xbd5f19ec	-0.05446808
85	0x3e14bb7e	0.14524648
86	0xbe657dc1	-0.22411253
87	0xbc210b38	-0.009829335
88	0xbe07bfac	-0.13256711
89	0x3cfbabe8	0.03072162
90	0x3e12dd91	0.14342333
91	0x3e034a10	0.12821221
92	0x3d0edca9	0.034878407
93	0x3ca06458	0.019579098
94	0x3e1e76b9	0.15474977
95	0x3e291021	0.16510059
96	0x3d293eb4	0.041319564
97	0x3d68d1cd	0.056840707
98	0x3ca103b3	0.019655084
99	0x3cc45561	0.023966493
100	0xbe943422	-0.28946024
101	0x3df00576	0.117197916
102	0x3d331a2d	0.043726135
103	0x3e1569ee	0.1459119
104	0xbd957d78	-0.07299322
105	0xbe9f2f00	-0.31090546
106	0xbe961f64	-0.29320824
107	0xbd4d39eb	-0.050104063
108	0x3e867fad	0.26269284
109	0xbd949c62	-0.0725639
110	0x3d93f2c0	0.07224035
111	0x3d673331	0.056445304
112	0xbe598193	-0.21240835
113	0x3d8970fc	0.06711003
114	0x3d871811	0.06596387
115	0x3e804328	0.25051236
116	0x3ddb9d62	0.10723378
117	0x3dd3ad2c	0.10335764
118	0xbc447051	-0.011989669
119	0x3dcce82d	0.100052215
120	0x3e1ea869	0.15493931
121	0xbe49672b	-0.19668262
122	0x3dd7fe00	0.105464935
123	0x3ae7b8d7	0.0017678988
124	0xbe14bec2	-0.14525893
125	0xbe617bb5	-0.22019847
126	0xbe974139	-0.29541948
127	0x3e338f12	0.17535046
128	0xbdb1f27d	-0.08688829
129	0x3d31357c	0.043263897
130	0xbe552ccc	-0.2081787
131	0x3deed95c	0.11662552
132	0xbe5f78c3	-0.2182341
133	0x3dfe1fe8	0.124084294
134	0x3d4acc6d	0.049511362
135	0x3d09d046	0.03364589
136	0xbe187f5d	-0.14892335
137	0x3e34b29a	0.17646256
138	0xbd3af00d	-0.045639087
139	0x3de21738	0.11039585
140	0x3e03ec27	0.12883054
141	0x3e2170d9	0.15765704
142	0xbe092ccd	-0.13395996
143	0x3e1c07c8	0.15237343
144	0x3dec8d46	0.11550383
145	0xbd1a698d	-0.037698317
146	0xbde6ffe2	-0.112792745
147	0x3d0c68cb	0.034279626
148	0x3d8cf50c	0.068826765
149	0x3d147f6e	0.03625434
150	0x3df677df	0.12034582
151	0x3df4340b	0.11923989
152	0x3d8d7382	0.06906797
153	0xbd7b95b7	-0.061422076
154	0xbdcea5a4	-0.10090187
155	0xbe4900c3	-0.19629197
156	0xbe0b3fa7	-0.135985
157	0x3e1faa07	0.15592204
158	0xbc1e7b46	-0.009672945
159	0xbdd8d975	-0.10588352
160	0x3dd1916e	0.10232817
161	0x3dde4e8f	0.108548276
162	0xbd309900	-0.043114662
163	0xbe447d86	-0.19188508
164	0x3e0c06fc	0.1367454
165	0xbc66bd61	-0.014083237
166	0x3e527497	0.20552288
167	0xbe6c0245	-0.23047741
168	0x3da5a5be	0.080882534
169	0x3e389cda	0.18028584
170	0x3e04f371	0.1298349
171	0x3dddffa9	0.10839779
172	0xbd5c2d40	-0.05375409
173	0x3da70319	0.08154888
174	0x3d63ac41	0.055584196
175	0x3e625d65	0.2210594
176	0x3de578e3	0.11204698
177	0x3e03edda	0.12883702
178	0x3e45d9ab	0.19321315
179	0xbe371c55	-0.17881902
180	0xbdc4cca5	-0.09609345
181	0xbddda634	-0.10822716
182	0x3dcd620d	0.10028467
183	0xbe213828	-0.15744078
184	0x3e0ee728	0.13955367
185	0x3d9844a8	0.0743497
186	0xbdfef7e7	-0.12449627
187	0xbde6fb12	-0.112783566
188	0xbc52ca42	-0.012865605
189	0x3e4366a8	0.19082129
190	0x3e60d173	0.21954899
191	0x3cc77afb	0.024350634

network_body.linear_encoder.seq_layers.0.bias f4 [64]
0	0xbe311a27	-0.17295133
1	0xbd28e157	-0.041230526
2	0x3d0ac0d2	0.033875294
3	0xbdb65124	-0.08902195
4	0x3cf26f3b	0.029594054
5	0x3c963788	0.018337026
6	0xbe5d93fb	-0.21638481
7	0xbda875f7	-0.08225625
8	0x3bca12c2	0.006166787
9	0xbd29071e	-0.041266553
10	0x3d370e0e	0.044691138
11	0xbdbcef6b	-0.09225353
12	0x3d7685ab	0.06018607
13	0xbdd09805	-0.101852454
14	0xbdf4f068	-0.11959916
15	0x3d82cc14	0.06386581
16	0xbdd22cf6	-0.10262482
17	0x3dcec3e3	0.10095956
18	0x3c8f191d	0.01746803
19	0xbd2ad840	-0.04171014
20	0xbe493b58	-0.19651544
21	0x3deb5d99	0.11492462
22	0x3c05692d	0.008142752
23	0x3d23ec48	0.040020257
24	0xbe1b7a41	-0.15183355
25	0xbe70f15c	-0.23529571
26	0x3ce6e1a4	0.028183766
27	0x3d3a77ff	0.045524593
28	0xbe19b6c0	-0.1501112
29	0x3d523039	0.05131552
30	0x3d9251e5	0.071445264
31	0x3ddb4c34	0.10707894
32	0x3da05e87	0.0783053
33	0x3cfd511f	0.03092247
34	0xbe1e36fd	-0.15450664
35	0xbbec841b	-0.0072178966
36	0xbd582996	-0.052774034
37	0x3da80b49	0.082052775
38	0x3d812306	0.06305508
39	0x3d53d3e7	0.051715758
40	0xbca37c35	-0.019956687
41	0xbd882db6	-0.06649344
42	0xbcd06889	-0.025440471
43	0xbe24ea63	-0.16105036
44	0x3e01e864	0.12686306
45	0xbdae32ae	-0.0850576
46	0x3d9d21b4	0.07672444
47	0x3d7d9b93	0.061915945
48	0xbcdd3e46	-0.027007233
49	0x3deaeafd	0.11470602
50	0x3d472c52	0.04862625
51	0x3da9feb3	0.08300533
52	0xbe292171	-0.16516663
53	0x3da8b9d3	0.08238568
54	0x3cb4cea0	0.022071183
55	0x3cf07b82	0.029355768
56	0x3d7d215b	0.06179939
57	0xbbb5ebd7	-0.005551796
58	0x3d59af3d	0.053145636
59	0xbe174f70	-0.14776397
60	0xbdd62dd0	-0.10457957
61	0x3d2e6a6a	0.042581953
62	0xbbfe20fc	-0.007755397
63	0x3dd37df7	0.1032676

network_body.linear_encoder.seq_layers.0.weight f4 [64, 67]
0	0xbd4c86af	-0.04993313
1	0xbde7c692	-0.11317171
2	0xbdc30a2b	-0.09523424
3	0xbf1d122c	-0.61355853
4	0x3dae0367	0.08496743
5	0xbcfe4ff0	-0.031043977
6	0x3e8c0f1b	0.27355275
7	0xbe711485	-0.23542984
8	0xbe554f21	-0.20830967
9	0x3e7cb8c3	0.24679856
10	0xbe5ec062	-0.21753076
11	0xbea43f12	-0.3207937
12	0xbdb247f2	-0.08705129
13	0xbe7f8c87	-0.2495595
14	0xbed43779	-0.41448572
15	0x3e1ec088	0.15503132
16	0xbedac6ab	-0.42729697
17	0xbec6a26a	-0.38795787
18	0x3c29d523	0.010365757
19	0xbebf65e6	-0.3738243
20	0xbeb0c45e	-0.34524816
21	0x3da59446	0.080849215
22	0xbe084e9e	-0.1331124
23	0xbe0a7eac	-0.13524884
24	0x3da7b45c	0.08188698
25	0xbe8a3169	-0.26990822
26	0xbc626b4b	-0.013819526
27	0x3e31fdea	0.17382017
28	0xbeb24b56	-0.34823102
29	0xbe226042	-0.15857032
30	0xbd7ce18b	-0.061738532
31	0xbe36a603	-0.17836766
32	0xbe8615e2	-0.2618857
33	0x3d436906	0.04770758
34	0xbe21429c	-0.15748066
35	0xbbcfe603	-0.006344558
36	0xbeea39d1	-0.45747235
37	0x3e0dfc87	0.13865863
38	0xbdd0444a	-0.10169275
39	0x3dd5c57f	0.1043806
40	0xbe71e30b	-0.23621766
41	0xbe8fd4c8	-0.28092027
42	0xbd361d50	-0.04446155
43	0xbbe85892	-0.0070906365
44	0x3ce9972e	0.02851447
45	0x3dbae6e5	0.09126071
46	0xbea04113	-0.31299648
47	0xbd940616	-0.07227723
48	0xbdf43ec4	-0.11926034
49	0x3d57fa53	0.052728962
50	0x3c3970a5	0.01131836
51	0xbd0fa41c	-0.035068616
52	0xbdc52e5b	-0.09627982
53	0xbe705e59	-0.23473491
54	0xbdddaf99	-0.10824508
55	0xbd5234a4	-0.051319733
56	0xbe5362d8	-0.20643175
57	0x3d5a4b8c	0.053294703
58	0xbeb445df	-0.35209557
59	0xbd33480f	-0.043769892
60	0x3cd4d6b6	0.025981288
61	0xbee353c7	-0.44399855
62	0xbed8619b	-0.42261967
63	0x3d059832	0.032615848
64	0x3e11ee66	0.14251098
65	0xbdd4fa8c	-0.103993505
66	0xbda80640	-0.08204317
67	0x3c22d36f	0.009938105
68	0xbebd68f1	-0.36994126
69	0xbdb459da	-0.088062
70	0xbd86de7e	-0.06585406
71	0x3de29313	0.110632084
72	0xbea20021	-0.31640723
73	0x3d8cf150	0.06881964
74	0x3af78fb4	0.0018887431
75	0xbe154c77	-0.1457995
76	0x3da790a0	0.08181882
77	0xbc42d8d9	-0.011892521
78	0xbe18b4c3	-0.14912705
79	0x3d88e864	0.0668495
80	0xbdff457c	-0.12464425
81	0xbe9adc11	-0.30246022
82	0x3eafc2b2	0.34328228
83	0xbe207e14	-0.15673095
84	0xbe8a4ce8	-0.270118
85	0x3dd37427	0.10324889
86	0xbc89a5d6	-0.01680271
87	0xbc81f95e	-0.015865978
88	0xbde71e4c	-0.112850755
89	0x3e49603d	0.19665618
90	0xbe03693c	-0.12833112
91	0xbd3d6146	-0.046235345
92	0xbda25cff	-0.07927894
93	0x3e40c111	0.18823649
94	0xbe7155af	-0.23567842
95	0xbd3c3f10	-0.04595858
96	0x3c0b172d	0.008489412
97	0xbdfb5840	-0.12272692
98	0xbda43d93	-0.08019557
99	0xbb1dff8d	-0.002410862
100	0xbe1fa96b	-0.15591972
101	0x3e30eb7f	0.17277335
102	0xbdca21f7	-0.098697595
103	0xbec6cfd5	-0.38830438
104	0x3e0915c2	0.13387206
105	0x3e3d36d1	0.18477942
106	0x3e898e9b	0.26866612
107	0xbc61f487	-0.01379121
108	0xbba44d50	-0.005014099
109	0xbe324517	-0.17409168
110	0x3e0ae33f	0.1356325
111	0x3d911684	0.07084373
112	0x3e7cce87	0.24688159
113	0x3d1ecfdc	0.03877245
114	0x3c903b7b	0.017606487
115	0xbc2e9124	-0.010654721
116	0x3d11b834	0.03557606
117	0xbe31deee	-0.17370197
118	0xbbd31263	-0.006441401
119	0x3e24a93c	0.16080183
120	0xbdd8c3b7	-0.10584205
121	0x3e4da280	0.2008152
122	0x3e69eee1	0.22845031
123	0x3d988840	0.074478626
124	0x3ec87923	0.3915492
125	0xbea75a9e	-0.32686323
126	0x3d753ecf	0.059874352
127	0x3e044602	0.12917331
128	0xbd6e5de9	-0.05819503
129	0xbdf2f550	-0.11863196
130	0x3e176f6b	0.14788596
131	0x3d8d1a89	0.06889827
132	0xbc0ac67a	-0.008470172
133	0xbed5c685	-0.4175302
134	0x3e591dc1	0.21202756
135	0x3daf0b8d	0.08547125
136	0xbd7e616e	-0.062104635
137	0x3bbe9a45	0.00581673
138	0x3cd38e34	0.025824644
139	0x3d9128b9	0.07087845
140	0x3eacb0f1	0.33728746
141	0xbe02bfa0	-0.12768412
142	0xbe89953b	-0.26871666
143	0xbe551cf4	-0.20811826
144	0xbe3488f1	-0.17630364
145	0x3d16a51d	0.036778558
146	0x3d885c74	0.06658259
147	0xbe1499cc	-0.14511794
148	0x3b36ec23	0.0027911745
149	0x3e8a01c4	0.26954472
150	0xbe2c447b	-0.16822998
151	0xbe52345d	-0.20527788
152	0x3eaa0c58	0.33212543
153	0xbe4e0340	-0.20118427
154	0x3d829f5a	0.0637805
155	0xbe60b977	-0.21945749
156	0x3dd7c2aa	0.10535176
157	0x3e1e4726	0.15456828
158	0x3e4eb485	0.2018605
159	0xbea0161b	-0.31266865
160	0x3d04f5cd	0.032460976
161	0x3ddb99a6	0.107226655
162	0x3ec47216	0.3836829
163	0xbe1a3588	-0.15059483
164	0x3e877333	0.26455078
165	0xbe3c2e8c	-0.18377131
166	0xbef9fa5c	-0.48823822
167	0xbda1cb90	-0.079001546
168	0xbd93032d	-0.0717834
169	0xbd06dec5	-0.032927293
170	0x3e474488	0.19459736
171	0xbd8990ec	-0.06717095
172	0xbe416f3e	-0.18890092
173	0x3d24ffb8	0.040282935
174	0xbe99a98e	-0.30012172
175	0xbda1bbca	-0.07897146
176	0x3ec5354c	0.38517225
177	0xbe4e9297	-0.20173107
178	0xbe5f56ab	-0.21810405
179	0xbe692fc1	-0.22772123
180	0x3e026ca7	0.1273676
181	0xbe80ccfb	-0.25156388
182	0x3f01d59a	0.50716555
183	0xbec8e66f	-0.39238307
184	0xbe0710be	-0.1318998
185	0x3a91fbe3	0.001113769
186	0x3d5f7283	0.054552566
187	0xbd26250d	-0.040562678
188	0x3e946ea5	0.28990665
189	0xbd20f3cc	-0.039295003
190	0xbe807262	-0.25087267
191	0xbdc65902	-0.09684946
192	0x3cbcc760	0.023044288
193	0xbd3f57ed	-0.046714712
194	0x3eea4e6c	0.45762956
195	0xbd77722e	-0.060411625
196	0xbe84eff0	-0.25964308
197	0x3e6ecc18	0.23320043
198	0xbdba1af0	-0.09087169
199	0x3da600b7	0.08105605
200	0xbd4459c8	-0.047937185
201	0x3e3c7a5c	0.18406051
202	0xbe71a2c9	-0.23597254
203	0xbec3917d	-0.38196936
204	0x3e1cebbe	0.15324304
205	0xbd955b35	-0.07292787
206	0xbe8ed2bb	-0.2789515
207	0x3dc9c663	0.098522924
208	0xbc108918	-0.008821748
209	0xbe8eeba0	-0.27914143
210	0xbdb4b1b9	-0.088229604
211	0xbdcf6c91	-0.10128129
212	0xbd630b59	-0.055430744
213	0xbe76f83a	-0.24118128
214	0x3e4c2f44	0.19939905
215	0xbd184f3c	-0.03718494
216	0x3c5f2fa9	0.013622203
217	0xbe6757de	-0.22592112
218	0xbe447aed	-0.19187517
219	0x3e6fecdf	0.23430203
220	0xbe9ceda2	-0.3065005
221	0xbe650e43	-0.22368722
222	0xbf216dc3	-0.6305811
223	0xbe2cfd2d	-0.16893454
224	0xbd31a785	-0.04337265
225	0xbdb9127b	-0.09036728
226	0xbe03b192	-0.12860706
227	0x3de4d444	0.11173299
228	0xbddc0337	-0.10742801
229	0xbda59f73	-0.08087053
230	0xbd7afb8d	-0.061275054
231	0xbd288439	-0.041141722
232	0xbd1ad08b	-0.03779654
233	0xbe66c92b	-0.22537677
234	0xbe46d223	-0.19416098
235	0xbe352f6a	-0.17693868
236	0xbde731e7	-0.11288815
237	0x3df16920	0.11787629
238	0xbe04e328	-0.12977278
239	0xbe96e5a8	-0.2947209
240	0x3d61f534	0.055165485
241	0xbdda8eec	-0.106717914
242	0xbe08c5a1	-0.1335664
243	0xbc81c9df	-0.01584333
244	0xbe4c6a4f	-0.19962429
245	0xbecf206f	-0.40454432
246	0xbe855a06	-0.26045245
247	0xbe12b131	-0.14325406
248	0xbdb36dee	-0.08761202
249	0x3ed01c35	0.4064652
250	0xbecac685	-0.39604583
251	0xbeda6909	-0.4265826
252	0xbf18d50b	-0.5970008
253	0xbd0bac82	-0.034100063
254	0xbdf5e564	-0.120066434
255	0x3ecb40f4	0.39697993
