Config/results/BallCatcher_02/BoxBehavior/BoxBehavior-88880.onnx (onnx, 19875 bytes, 4 tensors)

distribution.branches.0.bias f4 [3]
00000000: 44bf 6e3d f079 17bd bd74 eebc
0.058287874 -0.036981523 -0.0291084

distribution.branches.0.weight f4 [3, 64]
00000000: 33a1 653d 6631 4f3d 6e9b cbbb 7132 d03d
00000010: 2b30 9abd eaef 28bd 9d2b 603d ba2c 9c3c
00000020: f9ec 8f3d b920 f6bc 0cfd 863d 3208 a73b
00000030: 0dd2 6abd 2e8c ffbb 21f9 a3bd dce6 733d
00000040: 9ce8 25bd e438 973d 52ff 8bbd 065e f3bc
00000050: df5c 4b3d 5924 343d 24a6 99bd 40bd bdbd
00000060: bd50 6cbc 9011 763d 47b1 5a3d 4e89 823d
00000070: dded 54bd 19a4 c53b eee3 283d 7559 37bd
00000080: da5e 2b3d 07a2 59bd 3f9d 69bd 7caf 6e3d
00000090: 0153 533d 0cac e63c 2dc7 13bd 1571 69bd
000000a0: 8c2b 97bd d1b1 423d 2cdf 8c3d 4c02 2a3d
000000b0: a09b c3bc 39e6 b2bc 1d67 83bd d317 903d
000000c0: 24cc 383d 60fc 8d3d 735e 943d db67 8bbd
000000d0: 2577 3a3d 36c5 973d 34b5 ad3d 8841 8abd
000000e0: 1618 1dbd 7ca0 933d 9791 8c3d a4ed 8abd
000000f0: cb1b 503d e69a cfbc 670b 863d 6c3b 8dbd
00000100: 629a 15bd 35c8 2abd d1ec dbbc 6280 93bd
00000110: b7d9 733d 6e4f 133d 0390 84bd f2f7 17bd
00000120: f969 7bbd 2721 f33c 6684 2cbd 32df 143c
00000130: 5001 693d ba7c 4b3c 4c14 8b3d 38eb babc
00000140: bf9c fc3c 0f9f 5abd 7273 723d 9ed9 73bb
00000150: bca0 26bd b791 7fbd f132 2e3d 57a1 dc3c
00000160: d8b0 6f3c 2bfd 83bd 9f84 59bd 6be6 60bd
00000170: 2a00 103b 0278 5dbd 23b1 14bd cd10 933d
00000180: 2a1b 7dbd cc02 203d 3019 573d b249 3dbd
00000190: e377 38bd 991e 163c 2108 883d c76c 503d
000001a0: fefb 333d a04f b5bc b9dd 24bd f5a3 0ebd
000001b0: b297 55b9 f295 e23c 1019 eb3c b59b 28bd
000001c0: b7d4 44bd 6d8a 3fbd 55e2 efbc a59d f63c
000001d0: 08f7 5fbd dbc1 f6bc d26e 14bd a7bc d83c
000001e0: 2da4 0f3d 5a2a 39bd b157 07bd 8825 023d
000001f0: 9cf9 75bc 8081 223b 1cac 72bd 3d94 873c
00000200: 96e0 acbc 0eaa fcbc f28f d23b 037b fabc
00000210: 3bda 943d 74a9 333b a9ab 02bd 0b21 513c
00000220: 16f6 d0bc 4445 cb3c 0311 19bd 8cf6 fd3b
00000230: 86e0 453d 3204 1b3d 7a13 923d fe3f dfbc
00000240: 28a2 b83c 1ec5 8cbc b578 283d 79b0 1d3d
00000250: dfc4 5bbc 7592 c7bc 73ae 293d dff5 603d
00000260: 9f58 563c f3f7 e9bc 55d6 fdbc 2f7b 55bd
00000270: 9c6f 0c3d 442f e2bb 81b7 c4bb 058c 1e3d
00000280: 02ae d5bb 0890 083d 8e0e 9e3c 49b9 3fbd
00000290: ecb4 63bd 7452 b7bb 5501 243c 1296 f73c
000002a0: 0539 053d 7bb9 40bc 554d 36bd 6582 babc
000002b0: 4eee 373d 8b44 f8bc 158f 163d 3668 50bb
000002c0: cc5e afbc 862c 37bd 7f95 a6bc ec4d 3e3c
000002d0: 6a73 ecbc 4a33 8fbc ecec d938 0838 d03c
000002e0: 539d fc3c 8889 4dbd 69e0 edbc 6280 f73c
000002f0: 5a30 19bd 48a7 953b 1f4c 28bd 9472 d53c
0.056061935 0.05058422 -0.006213597 0.10165871 -0.075287186 -0.041244425 0.054729093 0.019064296
0.07027621 -0.0300449 0.065912336 0.0050974125 -0.057329226 -0.007798693 -0.08006502 0.059546337
-0.040505037 0.07383898 -0.06835808 -0.02970792 0.049649116 0.043979976 -0.07502392 -0.09264612
-0.014423546 0.060075343 0.05339172 0.06373845 -0.051984657 0.006031525 0.041232996 -0.044763047
0.041838504 -0.053133037 -0.057034727 0.058272824 0.05159283 0.02815821 -0.03607862 -0.05699261
-0.07381353 0.04753286 0.06878504 0.041506097 -0.023877919 -0.021838294 -0.06416152 0.07035794
0.04511656 0.06932902 0.07244577 -0.06806918 0.04552378 0.07410662 0.084818274 -0.0675078
-0.03835305 0.07208344 0.068637066 -0.067836076 0.050807755 -0.025342416 0.065451436 -0.068960994
-0.036524184 -0.04169484 -0.026846321 -0.072022215 0.0595338 0.035964422 -0.064727806 -0.037101693
-0.06138036 0.029678894 -0.042118452 0.009086417 0.056886017 0.012419874 0.06790981 -0.02281724
0.030836461 -0.053374346 0.05919213 -0.0037208567 -0.040680632 -0.062394824 0.04252905 0.026932402
0.014629565 -0.06444772 -0.053104993 -0.054907244 0.0021972754 -0.054069526 -0.036301743 0.07180939
-0.061793484 0.039065167 0.052514255 -0.04621286 -0.045036208 0.0091625685 0.066421755 0.05088499
0.04394149 -0.022132695 -0.040250514 -0.03482433 -0.00020369774 0.02765939 0.028698474 -0.04116412
-0.048054423 -0.046762872 -0.029282728 0.030104468 -0.054678947 -0.030121734 -0.0362385 0.026457144
0.03506868 -0.045206405 -0.033042613 0.031774074 -0.015013125 0.0024796426 -0.059246168 0.016550178
-0.021103185 -0.030842807 0.006425851 -0.030576235 0.07268187 0.0027414234 -0.03190199 0.012764226
-0.025507968 0.024813302 -0.03736974 0.007750338 0.048309825 0.037845798 0.07132621 -0.027252194
0.02253826 -0.017183837 0.04113074 0.038498376 -0.013413637 -0.024361828 0.041426133 0.05492198
0.013082652 -0.028560614 -0.03098599 -0.05211943 0.034286126 -0.006902607 -0.0060033207 0.03870775
-0.0065209875 0.033340484 0.01929405 -0.04680756 -0.055592462 -0.005594546 0.010010083 0.030222926
0.03252508 -0.011762972 -0.044507343 -0.022767255 0.044905 -0.030306121 0.036757547 -0.0031800396
-0.021407507 -0.044720195 -0.020334957 0.011615258 -0.028863627 -0.017480511 0.000103914965 0.025417343
0.030836737 -0.05017999 -0.029037671 0.030212585 -0.037399627 0.0045670606 -0.04108822 0.026055612

network_body.linear_encoder.seq_layers.0.bias f4 [64]
00000000: 9a66 263d a584 8a3d c3b3 c43b 842a 923d
00000010: 7690 f03c 35b1 b0bc f6dc 6e3d 3858 3c3b
00000020: b672 963d 9fd6 cfbc 75e6 773d 6e00 343b
00000030: 70df 7ebc 2f51 7c3c eb10 a13b d0ff 4f3d
00000040: e813 25bd 19d4 683d 7fab acbc fa00 45bb
00000050: 7e84 5d3d a7f0 5c3d ad39 04bd a6d7 ba3b
00000060: 1939 c4bc 368e 6a3d 6492 773d 5871 8b3d
00000070: f896 36bc 6e19 833c 91c4 103d 9fc0 84bc
00000080: 98ea 563d 26b6 5abd d0d8 bf3c 8c8d 7b3d
00000090: dab2 473d 889d 7b3c 34a2 a4bc eaf5 48bd
000000a0: 86c4 e1bb 0e01 063d 976e 893d 8781 d83c
000000b0: 0bec 83bc 7131 96bc d83f 82bc d395 633d
000000c0: 5f92 453d 84fb a43d 2b51 653d 6aa2 23bd
000000d0: 67be 6a3d 0f1e 6e3d 1dc0 3f3d 0b91 093c
000000e0: ff80 1bbc b200 433d 6f6e 6a3d e1cf 3abd
000000f0: 6885 863d 0f1b aebc 59ec 723d 7f6c 53bc
0.040625192 0.06763581 0.0060028746 0.071370155 0.02936576 -0.021568874 0.058316194 0.0028739106
0.07346098 -0.025370894 0.060522515 0.0027466076 -0.015556201 0.015400215 0.004915347 0.05078107
-0.040302187 0.056842897 -0.02107787 -0.0030060397 0.054081433 0.05394044 -0.032281566 0.005701977
-0.023953008 0.05726453 0.060442343 0.06808728 -0.011144392 0.016003337 0.03534371 -0.01620513
0.05246982 -0.053396367 0.023418814 0.061414286 0.04875455 0.015357383 -0.020096876 -0.049062647
-0.0068898825 0.03271585 0.067105465 0.026428951 -0.016103765 -0.018334122 -0.015899584 0.055562805
0.048235293 0.08055785 0.05598561 -0.039949812 0.057310488 0.058134135 0.046814073 0.008396397
-0.009491204 0.047608085 0.057234224 -0.045608405 0.06568414 -0.021253137 0.05930743 -0.012904285

network_body.linear_encoder.seq_layers.0.weight f4 [64, 67]
00000000: 28a7 1a3e a34e a3be 2f70 893d 9274 8e3e
00000010: bca7 d03d 321b 973d 676c 26be 6508 3d3e
00000020: 0836 983c e0fc c93d 1676 7f3d 6da8 a7bc
00000030: 31d4 9cbd f40c 0b3e 4325 debc fb14 0d3e
00000040: 43eb 7e3e a53d 4a3e c80d 9ebe eb77 103d
00000050: 6305 e2bd 4fc2 153e 3b8e 1d3e fba4 5e3e
00000060: 8dd3 54be d7ac 01be c551 973d 30af ffbd
00000070: fb79 0d3e 4578 dbbc 67b5 213e 2e25 2e3e
00000080: cb29 883c c22e a93c f867 333e dd5b 713d
00000090: 6138 2d3e 62ca 543d 851e 92bd 8d1e 4ebd
000000a0: 928d b4ba e55d 8c3b 26e3 b03d 081a 6b3e
000000b0: 17b2 dd3d 2705 003e 763d 5fbc ad28 783d
000000c0: 8f76 953d 5054 463c d302 633d 50bc 793e
000000d0: 611c 2bbe b72d e93d edee 83bd c92f 7a3d
000000e0: 5ea6 353d 4012 663e e871 cc3c 5b5d 253e
000000f0: eaaa 92bd 4083 c63d d648 e73c 6ba6 17be
00000100: f6e9 2c3e 66b3 683e 9e2d f4bd 526d 8dbd
00000110: d020 ef3c 8b56 743d 1ef0 3cbc 469f 97be
00000120: 0525 9f3d 61a7 ff3c 22ca 7abe 68f5 03be
00000130: cdfa 2d3e bba9 73bd 10f7 fabd 0db1 4d3e
00000140: 0a03 d93c 2bad 803e 4631 883d c8f5 563d
00000150: 98cd 903d aab1 833e 53d1 853c 051c 433d
00000160: 7782 f8bd a2aa dabc 447c 66bd b10c d73b
00000170: fd4f 89bc b69f 5dbc 00e0 1b3d ddd7 1d3e
00000180: ed4b 843c e164 9d3d 0720 44be 477b e53e
00000190: e775 043d e1a8 c4bd 995d e33d fd1a 05be
000001a0: a7c2 783e 825f 633d b7a4 6bbc c063 79bd
000001b0: 101e fd3d 1cbc 843e 2efc 853e eee6 4dbe
000001c0: 9945 8cba 5982 543d 482d 1c3d 6a1a 403e
000001d0: b416 cbbd 533d e53d e731 ff3a c639 d53d
000001e0: 36ea 9e3e 4250 a33e 7406 cebd d185 24be
000001f0: bf8b 913d 62d1 a23e f105 a2bd e79c f33c
00000200: 301d 463e dfec 373d 4096 32bd 1e7a 2f3e
00000210: 357e 383e 3a5b 6fbe 359b 1a3e 8348 31bc
00000220: 0cce ea3d 8282 5c3e 76d4 ed3d 5403 653e
00000230: 233b 97bc f651 97bd 4bbb 623d 8635 c2bd
00000240: 55cb 16be 9904 4e3e 03ad c23c f93c 39bc
00000250: 4555 0abe 3955 e53d 6a0a 1bbe 2a11 44bd
00000260: 6fd7 18be c6b8 153e 60df a73e e345 ccbc
00000270: 0186 99bd ee25 82be bab6 21be 76e1 77bd
00000280: e01b d63c 85d2 0dbe eee2 3cbd fdfe 353e
00000290: d7c7 b63d f487 22bd 991b f5bd 756a 043e
000002a0: 67c0 1dbc 475f f9bc 722e b6bd a51e 6cbd
000002b0: 3bc3 1e3e e869 363c 5479 29be 87ab 91be
000002c0: b8ea 1abe 4958 d6bc 8c1f febb 8f99 603e
000002d0: ee26 883e 0d5e 213e 8f1c 573d 2d2b e7bc
000002e0: c362 463e 4869 623e 4054 9dbb 76e8 81bd
000002f0: 2226 d9bc df4b d9bc b692 05be fa0b 4bbe
00000300: 12f0 85bc 7247 aebd 3ab5 3bbe 0b2e 83bd
00000310: 57f1 04bd 1b4b a3be 448f 51be b7ea 5ebd
00000320: 10ad 0a3e b9d1 24bd 927d cabc 0a82 16bd
00000330: b2a1 d8bd 1a75 6b3e 2823 783e c352 41bd
00000340: a29f 2abe b526 4b3c 1128 5f3e ed8e 493e
00000350: 67e2 d13d 203e df3d a6c1 e5ba a393 463e
00000360: 47ed ffbd 5d26 563e b1e0 803c e465 15be
00000370: 7e89 9d3d f9f6 2f3d 68f0 2ebe 1aa5 af3d
00000380: bb99 433e d825 a43d 61dc f83d abaf 903d
00000390: 5956 ae3d db5d 9c3d aa50 a0bd 9a25 533c
000003a0: 770f 47bc 2ae0 293e 1331 ed3d 9901 06bd
000003b0: f2b2 71bd 3aa3 26be 125c d63d b3b7 4c3e
000003c0: 6908 d8bc 92dd 5c3e a111 233e 561f cd3d
000003d0: 89ce b43d b4ac 483e 66a8 4a3e 88a0 febc
000003e0: d97c 88bd 62d6 543e 6a65 093e 8c5e b03d
000003f0: 05d1 813e ae9c 2dbd 7c2f 32bd ec51 893d
0.15102828 -0.31895933 0.067108504 0.2782331 0.10188243 0.07378234 -0.1625229 0.18460234
0.018580452 0.09862685 0.062368475 -0.020466054 -0.0765766 0.1357916 -0.027117377 0.13777535
0.24894433 0.19750078 -0.3086989 0.035270613 -0.11036184 0.14624904 0.15386288 0.21742623
-0.20783825 -0.1266359 0.07388643 -0.12484586 0.13816063 -0.026790747 0.15791856 0.1700637
0.016621491 0.020652179 0.1752013 0.0589255 0.16916038 0.05195082 -0.071347274 -0.050322104
-0.0013775101 0.004283654 0.08637075 0.22959149 0.108249836 0.12501965 -0.013625493 0.060585666
0.07298004 0.012105063 0.055422615 0.24388242 -0.16710044 0.113856725 -0.06442056 0.061080728
0.044348113 0.224679 0.024956658 0.16148894 -0.071615055 0.09693003 0.028232973 -0.14809577
0.16886124 0.22724685 -0.11922763 -0.06905617 0.02919045 0.059652846 -0.011531858 -0.29613703
0.07770733 0.031207742 -0.2449117 -0.12886584 0.16990204 -0.05948804 -0.12254155 0.20087071
0.026490707 0.25132117 0.06650023 0.05248049 0.07070464 0.25721484 0.016335165 0.047634143
-0.12134259 -0.026692692 -0.056270853 0.006562792 -0.016761774 -0.013526848 0.03805542 0.15414377
0.016149485 0.07685257 -0.19152842 0.44820616 0.032339003 -0.096025236 0.11101837 -0.12998576
0.24293004 0.055511005 -0.014382533 -0.060886145 0.123592496 0.25924766 0.2616896 -0.20107624
-0.0010701894 0.05188212 0.03812912 0.18760076 -0.0991644 0.11193337 0.0019469828 0.1041141
0.31038064 0.3189717 -0.100598246 -0.16066672 0.071067326 0.3180037 -0.079112895 0.029737903
0.19347072 0.044903632 -0.04360032 0.17136428 0.18016894 -0.23374644 0.1509827 -0.010820511
0.114650816 0.2153416 0.11612789 0.22364551 -0.018460816 -0.0738868 0.055354398 -0.09482865
-0.14726003 0.20118941 0.023764139 -0.011306041 -0.1350909 0.111978956 -0.15140691 -0.04786793
-0.14925931 0.14621267 0.3278761 -0.024935668 -0.07496262 -0.25419563 -0.15792361 -0.06051775
0.026136339 -0.13849838 -0.046114855 0.17773052 0.08924835 -0.039680436 -0.119681545 0.12931235
-0.009628392 -0.03044094 -0.088955775 -0.057646412 0.15504162 0.011133648 -0.1655019 -0.28451177
-0.151286 -0.026165145 -0.0077552255 0.21933578 0.265922 0.15758534 0.05251747 -0.02821883
0.19373612 0.22110474 -0.004801303 -0.063431665 -0.026507441 -0.026525436 -0.13044247 -0.19828787
-0.016349826 -0.08509721 -0.18330851 -0.064052664 -0.032456722 -0.31893238 -0.20464808 -0.05442306
0.1354258 -0.04023907 -0.02471808 -0.03674511 -0.10577716 0.2299389 0.24232161 -0.04719807
-0.16662458 0.012399365 0.21792628 0.19683428 0.10248261 0.10900521 -0.0017529025 0.19392256
-0.12496429 0.20913072 0.015732141 -0.1458965 0.0769224 0.04296014 -0.17083895 0.085764125
0.19101612 0.080150306 0.12151409 0.07064756 0.08512563 0.07635089 -0.078278854 0.012887383
-0.012149683 0.16589418 0.11581626 -0.032716367 -0.059008546 -0.16273203 0.1046678 0.1999195
-0.026371198 0.21568897 0.15924694 0.100157425 0.08828456 0.19597131 0.19790801 -0.031082407
-0.06664438 0.20784906 0.13417593 0.086117834 0.25354782 -0.04238575 -0.043502316 0.067050785
