Config/results/BallCatcher_02/BoxBehavior/BoxBehavior-1499995.pt (torch, 118031 bytes, 21 tensors)

network_body.linear_encoder.seq_layers.0.weight f4 [64, 67]
0	0xbcebe67a	-0.028796423
1	0xbe00dcbf	-0.12584208
2	0xbdb7be12	-0.089718
3	0xbf000ba7	-0.5001778
4	0x3dae0367	0.08496743
5	0x3cba5e2f	0.022749988
6	0x3e3f33be	0.18672082
7	0xbe711485	-0.23542984
8	0xbdf387ea	-0.11891158
9	0x3de7ad40	0.11312342
10	0xbdafb578	-0.08579534
11	0xbe5025f8	-0.20326984
12	0xbe578b56	-0.21049246
13	0xbdf27031	-0.11837805
14	0xbe97e1ff	-0.2966461
15	0xbab922ae	-0.0014124715
16	0xbe1e772e	-0.15475151
17	0xbe3344e0	-0.17506742
18	0xbd26c536	-0.04071542
19	0xbeae4177	-0.3403432
20	0xbe9a8d5e	-0.3018598
21	0xbd9ad10b	-0.07559403
22	0xbc64a06d	-0.013954264
23	0xbca95f3e	-0.020675298
24	0x3de87d1b	0.11351987
25	0xbe882317	-0.2658927
26	0x3c66648a	0.014062056
27	0x3ddacd07	0.10683637
28	0xbe8b85c4	-0.27250493
29	0xbdabb8c6	-0.08384852
30	0xbd06f659	-0.03294978
31	0xbe62eeb7	-0.22161375
32	0xbe8ebb4f	-0.2787728
33	0x3d1cc3a8	0.03827253
34	0xbddb0524	-0.1069434
35	0x3d39c00e	0.045349173
36	0xbe893722	-0.26799875
37	0x3d3f855c	0.04675804
38	0xbe1a8c61	-0.15092613
39	0x3e63348e	0.22188017
40	0xbe8460a7	-0.2585499
41	0xbe9eb7ba	-0.30999547
42	0x3e1962a0	0.14979029
43	0xbdd7363f	-0.105083935
44	0xbd89d890	-0.06730759
45	0x3d870afd	0.06593893
46	0xbe94d29f	-0.2906694
47	0xbd476414	-0.048679426
48	0x3d6addcb	0.057340425
49	0xbc98800b	-0.018615743
50	0xbd404b1e	-0.046946637
51	0xbda17980	-0.078845024
52	0xbd982340	-0.074285984
53	0xbe57cd82	-0.21074489
54	0xbe269d83	-0.16271023
55	0x3c4220ec	0.0118486695
56	0xbe472498	-0.19447553
57	0x3ccd7d0e	0.025084045
58	0xbea74559	-0.32670096
59	0xbc92fcaa	-0.017942745
60	0x3d1087f5	0.03528591
61	0xbea4908a	-0.32141525
62	0xbebba02f	-0.36645648
63	0x3e266f33	0.16253357
64	0x3e11ee66	0.14251098
65	0xbdd4fa8c	-0.103993505
66	0xbd423534	-0.04741402
67	0xbcc49785	-0.023998031
68	0xbe939538	-0.28824782
69	0xbcca3217	-0.024682088
70	0xbd8ae66f	-0.06782233
71	0x3de29313	0.110632084
72	0xbe82f5b1	-0.25578073
73	0x3d9d574b	0.076826654
74	0x3af78fb4	0.0018887431
75	0xbd4d4927	-0.05011859
76	0x3d7233c3	0.059131395
77	0xbcbf3c7d	-0.023344273
78	0xbe33f656	-0.17574438
79	0x3c712f2c	0.014720719
80	0xbdb6002c	-0.088867515
81	0xbe8ced5e	-0.27524847
82	0x3e8a2fed	0.2698969
83	0xbd681c36	-0.05666753
84	0xbe484137	-0.19556127
85	0x3e0dd866	0.1385208
86	0xbcb058b2	-0.021526668
87	0xbc25f4d4	-0.010129172
88	0xbe213bd8	-0.15745485
89	0x3e74cf98	0.23907316
90	0xbdb2d3e5	-0.08731822
91	0x3d95711e	0.07296966
92	0xbe1abe6a	-0.151117
93	0x3e03381d	0.12814374
94	0xbe2027c7	-0.15640174
95	0xbbf433df	-0.0074524726
96	0x3d42f123	0.047593247
97	0xbd943cae	-0.07238136
98	0xbdef4234	-0.11682549
99	0xbd031153	-0.031998944
100	0xbd495881	-0.04915667
101	0x3e56d0c8	0.20978081
102	0xbd7dcdc5	-0.061963815
103	0xbe928fdb	-0.28625378
104	0x3e008583	0.1255093
105	0x3e4dc033	0.2009285
106	0x3e8c8f80	0.27453232
107	0x3c811d80	0.015761137
108	0x3c9f7ead	0.019469583
109	0xbdb072ca	-0.08615644
110	0x3ded0d66	0.11574821
111	0x3dc97a92	0.098378316
112	0x3e80c1fa	0.25147992
113	0x3d921ca1	0.07134367
114	0x3d4cd0f8	0.050003976
115	0x3d3cb7cf	0.04607373
116	0x3d4076fd	0.046988476
117	0xbe224abb	-0.1584882
118	0xbd8ccc97	-0.0687496
119	0x3e4df82c	0.20114201
120	0xbd88f610	-0.06687558
121	0x3e67d891	0.22641207
122	0x3dfa4114	0.12219444
123	0xbc1f5366	-0.009724474
124	0x3eaafe9c	0.33397377
125	0xbe924f0d	-0.28575936
126	0x3dce36eb	0.100690685
127	0x3e3c8a3e	0.1841211
128	0xbd77a80b	-0.060462993
129	0xbe02db71	-0.12779023
130	0x3e40e6d3	0.18838052
131	0x3d8d1a89	0.06889827
132	0xbc0ac67a	-0.008470172
133	0xbecc74d1	-0.39932874
134	0x3e283603	0.16426854
135	0x3e86a942	0.26301008
136	0x3e054ffc	0.13018793
137	0xbcdfceb5	-0.027320245
138	0x3cd38e34	0.025824644
139	0x3e13e692	0.14443424
140	0x3eba0424	0.36331284
141	0xbe02bfa0	-0.12768412
142	0xbdbcf408	-0.09226233
143	0xbe70c9c8	-0.23514473
144	0xbd5e0587	-0.05420449
145	0x3df908b5	0.12159864
146	0x3e22cadc	0.15897697
147	0xbe2f32a4	-0.17109162
148	0x3d111203	0.035417568
149	0x3ea86e4f	0.3289666
150	0xbe2a7a7b	-0.16648285
151	0xbe1fc076	-0.15600762
152	0x3ea17eb2	0.31541973
153	0xbdd623d6	-0.10456054
154	0x3e21515e	0.15753695
155	0xbda4f566	-0.080546185
156	0x3de48f87	0.11160188
157	0x3e2748bb	0.16336338
158	0x3e3ea91d	0.18619199
159	0xbe8ad41c	-0.27114952
160	0x3d6d1fad	0.057891537
161	0x3e0a94c5	0.13533314
162	0x3ed9dba6	0.4255039
163	0xbde00c7e	-0.10939883
164	0x3e8aac5c	0.27084625
165	0xbd9ecf2f	-0.07754361
166	0xbec98b5e	-0.3936414
167	0x3cc11b43	0.02357257
168	0xbcfe2cbc	-0.03102719
169	0x3bd3ca34	0.0064633135
170	0x3e06addf	0.13152264
171	0x3d26966a	0.04067079
172	0xbde09bcc	-0.10967216
173	0x3df6bda4	0.1204789
174	0xbe9e7999	-0.30952147
175	0xbda83187	-0.082125716
176	0x3e9a9761	0.30193618
177	0xbcc1cd32	-0.023657415
178	0xbdb99932	-0.09062423
179	0x3d345052	0.044021912
180	0x3e0308a0	0.12796259
181	0xbe7cf1e7	-0.24701653
182	0x3ecfc12b	0.40577063
183	0xbe5fd500	-0.21858597
184	0x3c9d447f	0.0191977
185	0x3e0f4914	0.13992721
186	0x3d9cd534	0.07657853
187	0xbc8a0653	-0.016848719
188	0x3e607b93	0.2192214
189	0x3d509771	0.050925676
190	0xbde11a93	-0.10991397
191	0x3c891e64	0.016738124
192	0x3d426617	0.04746064
193	0xbca8e706	-0.020617973
194	0x3ef12846	0.4710104
195	0xbdaecd2d	-0.08535228
196	0xbe4a5c89	-0.19761862
197	0x3e3a7724	0.18209511
198	0xbdba1af0	-0.09087169
199	0x3da600b7	0.08105605
200	0xbe3e6f4b	-0.18597142
201	0x3d7e3cbc	0.06206964
202	0xbdaf14a4	-0.08548859
203	0xbe979dc9	-0.29612568
204	0xbcb6ffad	-0.022338713
205	0xbd955b35	-0.07292787
206	0xbead0323	-0.33791456
207	0x3e3d9675	0.18514426
208	0xbc108918	-0.008821748
209	0xbea628db	-0.32453045
210	0xbdc207e8	-0.09474164
211	0xbde362eb	-0.111028515
212	0xbda95141	-0.08267451
213	0xbe47001f	-0.1943364
214	0x3daa86d1	0.083264954
215	0xbddfbd44	-0.109247714
216	0x3e0d1b5a	0.13779965
217	0xbebbe603	-0.36698923
218	0xbe990e56	-0.2989375
219	0x3e5922cc	0.2120468
220	0xbebeea4d	-0.37288132
221	0xbe9d3511	-0.3070455
222	0xbec09652	-0.37614685
223	0xbe90040e	-0.28128093
224	0xbe1a6965	-0.15079267
225	0xbe0b2030	-0.13586497
226	0xbe608e26	-0.21929225
227	0x3ba46a97	0.0050175893
228	0xbbb9ccf1	-0.005670183
229	0xbe2326ab	-0.1593272
230	0xbe0dcda1	-0.13847972
231	0xbdb05891	-0.08610643
232	0xbd9ead76	-0.07747929
233	0xbe91050e	-0.2832417
234	0xbe47c5f8	-0.19509113
235	0xbe7511d5	-0.23932584
236	0xbe34d993	-0.17661123
237	0xbd9640df	-0.07336592
238	0xbd1b288c	-0.037880465
239	0xbe7b250d	-0.24525853
240	0xbd4c9f06	-0.049956344
241	0xbdc97e43	-0.09838536
242	0xbe13b79a	-0.14425507
243	0xbe387682	-0.18013957
244	0xbdc312d6	-0.09525077
245	0xbea0c136	-0.31397408
246	0xbd9065b5	-0.07050649
247	0xbe6676a6	-0.22506198
248	0xbe2e0e08	-0.1699754
249	0x3e49b0c8	0.19696343
250	0xbe8fd5a5	-0.28092685
251	0xbea28774	-0.31743968
252	0xbed1c4b5	-0.40970388
253	0xbdde8e5e	-0.10866998
254	0xbe46e01a	-0.19421425
255	0x3e84b50b	0.25919375

network_body.linear_encoder.seq_layers.0.bias f4 [64]
0	0xbe16b489	-0.14717306
1	0xbb5889e3	-0.0033041171
2	0x3da75622	0.081707254
3	0xbe12a437	-0.14320455
4	0x3ce54c22	0.027990405
5	0x3cf25a05	0.02958394
6	0xbdeb989c	-0.11503717
7	0xbc2d87a9	-0.010591426
8	0x3cbe92a0	0.023263276
9	0xbd3f821e	-0.04675495
10	0x3cf7dc69	0.030256467
11	0xbcd14943	-0.02554763
12	0x3cb8b1f4	0.022545792
13	0xbdfd2d8d	-0.12362204
14	0xbd52c0b1	-0.051453296
15	0x3cccd1d8	0.025002405
16	0xbc8fb25d	-0.017541105
17	0x3dad098e	0.08449088
18	0x3d21a9af	0.039468464
19	0x3be0ba20	0.0068581253
20	0xbe0693b2	-0.13142279
21	0x3df9721e	0.12179969
22	0x3b8f2bc3	0.0043692305
23	0x3d852c88	0.06502634
24	0xbe136532	-0.14394072
25	0xbe13fa82	-0.1445103
26	0x3d1dd32f	0.03853148
27	0x3d52ee00	0.051496506
28	0xbe121b97	-0.14268337
29	0x3c6ce2bb	0.014458354
30	0x3d9bc111	0.07605184
31	0x3dce998f	0.10087883
32	0x3d4f1787	0.050559547
33	0xbcc6d22a	-0.024270136
34	0x3d00f2e2	0.03148163
35	0x3d4482ab	0.047976177
36	0xbc939460	-0.018015087
37	0x3da561e8	0.08075315
38	0x3cd3b9fe	0.025845524
39	0x3d10021f	0.035158273
40	0x3c30d8a8	0.010793842
41	0xbc8fd0dd	-0.017555648
42	0xbcaf4533	-0.021395301
43	0xbe1d6c9d	-0.15373464
44	0x3dc0a2df	0.09406065
45	0xbdfb3677	-0.12266248
46	0x3ce88a93	0.02838639
47	0x3c7187fb	0.014741893
48	0x3b1382db	0.0022508416
49	0x3d97c24d	0.07410107
50	0x3c84d762	0.016215984
51	0x3d45e115	0.048310358
52	0xbe0fe4a1	-0.14052059
53	0x3c63263e	0.013864098
54	0x3cb1b3db	0.021692207
55	0x3d95db92	0.0731727
56	0x3cf1004e	0.02941909
57	0x39924201	0.00027896467
58	0xbaf8cfbd	-0.0018982809
59	0xbe254910	-0.16141152
60	0xbe1f4e4e	-0.15557215
61	0xbdd91d4a	-0.106012896
62	0xbcf8828a	-0.030335683
63	0x3dcf9084	0.10134986

distribution.branches.0.weight f4 [3, 64]
0	0xbd172d94	-0.0369087
1	0x3d7f0e0e	0.062269263
2	0x3e262f41	0.16228963
3	0xbd5f2686	-0.0544801
4	0x3e2ff397	0.17182766
5	0xbdd575c8	-0.104228556
6	0xbe266ad9	-0.16251697
7	0x3e022cac	0.12712353
8	0x3e1e9e7a	0.15490142
9	0x3e01b595	0.12666924
10	0xbb8d1a12	-0.0043060863
11	0x3e25fdbd	0.16210075
12	0xbde8a081	-0.11358739
13	0xbdb431c8	-0.087985575
14	0xbe27d253	-0.16388826
15	0xbe1b0e23	-0.15142111
16	0x3e592a77	0.21207605
17	0x3b1e5e91	0.0024165253
18	0x3e4bbbbf	0.19895838
19	0x3e179a81	0.14805032
20	0xbe0b635b	-0.1361212
21	0xbda80531	-0.08204115
22	0x3df81e02	0.121150985
23	0x3d54215f	0.051789638
24	0xbdd53cd9	-0.104119964
25	0xbdf471b6	-0.11935751
26	0x3d88c1de	0.06677602
27	0x3e4f3b1c	0.20237392
28	0xbdba8238	-0.091068685
29	0xbddeb144	-0.108736545
30	0xbdacf3de	-0.084449515
31	0x3dc25bb5	0.09490148
32	0xbdb85dfa	-0.090022996
33	0xbe0f5d1c	-0.14000362
34	0x3cadc049	0.021209853
35	0x3e5f5e22	0.21813253
36	0x3e187a86	0.14890489
37	0xbb5d2486	-0.0033743693
38	0xbe7112a3	-0.23542266
39	0x3d88b868	0.06675798
40	0x3d8a3a41	0.06749392
41	0x3e2f0445	0.17091472
42	0x3e2a3d1e	0.16624877
43	0xbdc695cf	-0.096965425
44	0xbd898b1f	-0.06715988
45	0xbc9a370f	-0.018825082
46	0xbe0d5005	-0.13800056
47	0xbe24b387	-0.16084109
48	0x3e1e055a	0.15431729
49	0xbe16c36a	-0.14722982
50	0xbe0c769f	-0.13717125
51	0x3d9a0878	0.075211465
52	0xbdb265bf	-0.08710813
53	0x3d7f140c	0.062274978
54	0x3b0aa431	0.0021154995
55	0x3e4ea506	0.20180139
56	0xbe02b845	-0.12765606
57	0x3e0aacb3	0.13542442
58	0x3db34f60	0.08755374
59	0x3be328b5	0.006932343
60	0x3c063de4	0.008193467
61	0xbcb6969f	-0.022288619
62	0x3d8ce4d9	0.06879587
63	0xbd9ed721	-0.07755876
64	0x3d8d161d	0.068889834
65	0x3c5a898b	0.013338457
66	0xbdd85f3c	-0.105650395
67	0xbd5004ef	-0.050785955
68	0xbdae2575	-0.08503238
69	0xbd00f366	-0.031482123
70	0x3ddc339a	0.1075203
71	0xbe5406b3	-0.2070568
72	0xbdf9d418	-0.12198657
73	0xbe589556	-0.21150717
74	0x3e021012	0.12701443
75	0xbe347839	-0.17623986
76	0x3d032afd	0.03202342
77	0x3d5d75c4	0.05406739
78	0xbcd1bf13	-0.025603807
79	0x3cb4b701	0.02205992
80	0xbe8deb32	-0.27718502
81	0x3dc5ffd9	0.0966794
82	0x3c43e7c3	0.011957112
83	0xbe30528b	-0.17218988
84	0x3d97a9ff	0.07405471
85	0x3e4b076e	0.19827053
86	0xbe2e92a3	-0.17048125
87	0x3dda5564	0.10660818
88	0xbc8583bd	-0.01629817
89	0x3d822720	0.06355119
90	0x3dff6770	0.12470901
91	0xbd490be2	-0.049083598
92	0x3cf6c6d5	0.030124107
93	0xbc4f70f9	-0.012661212
94	0x3e49bf7c	0.19701952
95	0x3d8e7b77	0.06957143
96	0x3d07c92b	0.033150833
97	0x3d00ed78	0.031476468
98	0x3b328a67	0.0027243139
99	0xbe289129	-0.16461624
100	0xbe50737c	-0.20356554
101	0x3ddbde4c	0.10735759
102	0x3d0246b1	0.031805698
103	0xbd9abde6	-0.075557515
104	0xbde46adb	-0.111531936
105	0xbe62cc44	-0.22148234
106	0xbe1438b5	-0.14474757
107	0x3d96cfe4	0.07363871
108	0x3e58747e	0.21138188
109	0xbcd1ff3e	-0.025634404
110	0x3b5dd501	0.0033848884
111	0x3d06790b	0.03283028
112	0xbe0966c1	-0.13418104
113	0x3d33a537	0.043858733
114	0x3d162b4e	0.036662392
115	0x3e1e5811	0.15463282
116	0x3d85bfe9	0.065307446
117	0xbd459c99	-0.048245046
118	0xbdbfa76e	-0.093581066
119	0xbca881a8	-0.020569637
120	0x3d4c93eb	0.049945753
121	0xbe236f33	-0.15960388
122	0xbdc09f42	-0.09405376
123	0xbd83997a	-0.06425758
124	0xbd4d09d8	-0.050058216
125	0xbd9abc42	-0.075554386
126	0xbe2cdfca	-0.16882244
127	0x3e69e28d	0.22840329
128	0x3c592161	0.013252587
129	0xbcf42d4d	-0.029806757
130	0xbe05b2f5	-0.13056548
131	0x3d3cea9f	0.04612219
132	0xbd935561	-0.07194019
133	0x3e2322b9	0.15931214
134	0x3cd2ddd7	0.025740547
135	0x3d116305	0.035494823
136	0xbc10d9e6	-0.008841014
137	0x3ddcd7be	0.10783337
138	0xbd343339	-0.043994162
139	0x3d1199b8	0.03554699
140	0x3dd3217d	0.10309122
141	0x3d6e1bc7	0.05813196
142	0x3c93ebb8	0.018056735
143	0x3e24d6e7	0.16097604
144	0x3ca1cb45	0.019750247
145	0xbd329e81	-0.043608192
146	0xbdc181c6	-0.094485804
147	0xbc64a1b3	-0.013954568
148	0x3ccaf3d8	0.024774477
149	0xbcfad6e8	-0.030620053
150	0x3d8bbc8a	0.0682307
151	0xbd0260b1	-0.031830493
152	0x3d150e14	0.03639038
153	0x3bbc4955	0.0057460465
154	0xbdfb69e0	-0.122760534
155	0xbdb6fe12	-0.08935179
156	0xbcea349f	-0.028589545
157	0x3e29fa0d	0.16599293
158	0xbd857648	-0.06516701
159	0xbd89f6ef	-0.06736552
160	0x3db79f91	0.08965982
161	0x3ddfc5c6	0.10926394
162	0x3c8039a8	0.015652493
163	0xbd92dc13	-0.07170882
164	0x3d850936	0.064958975
165	0xbd44482a	-0.047920384
166	0x3e4d8659	0.20070781
167	0xbd721ad7	-0.059107628
168	0x3deca54a	0.11554964
169	0x3da3cd91	0.07998193
170	0xbd2aa661	-0.041662578
171	0x3d0378e6	0.03209772
172	0xbd37cb8e	-0.04487186
173	0x3da89974	0.08232394
174	0x3dc8a704	0.09797481
175	0x3e66fbd7	0.22557007
176	0x3c859678	0.0163071
177	0x3e01d91e	0.1268048
178	0x3e53a32e	0.20667717
179	0xbdddab6f	-0.10823714
180	0x3d043a04	0.03228189
181	0xbce8de8e	-0.028426435
182	0x3e23eb7b	0.16007797
183	0xbda0de93	-0.07854953
184	0x3e6f1302	0.23347095
185	0x3ccbcb67	0.024877263
186	0x3d9b3182	0.07577802
187	0xbb1c0515	-0.002380674
188	0xbd1085d3	-0.035283875
189	0x3da0652e	0.078317985
190	0x3dd58462	0.10425641
191	0xbd4db7b7	-0.050224032

distribution.branches.0.bias f4 [3]
0	0x3d8b746d	0.06809316
1	0x3be3aeeb	0.006948342
2	0x3b243730	0.0025057308

critic.network_body.linear_encoder.seq_layers.0.weight f4 [64, 67]
0	0xbd493936	-0.049126826
1	0xbd8e51a1	-0.06949163
2	0xbe2617f5	-0.16220076
3	0x3c04c2cb	0.008103083
4	0x3d43a170	0.04776138
5	0xbce4a124	-0.02790887
6	0xbe5172e2	-0.2045398
7	0x3d5460b1	0.051850025
8	0xbe885799	-0.26629332
9	0x3c855e72	0.016280387
10	0xbd6b8b9e	-0.057506196
11	0xbcc4ba83	-0.024014717
12	0x3de114f2	0.10990323
13	0x3e2427ef	0.16030858
14	0xbd262493	-0.040562224
15	0xbd0f478e	-0.03498035
16	0x3e586a74	0.21134359
17	0x3cc042ef	0.023469416
18	0xbe900801	-0.28131106
19	0xbd427597	-0.047475424
20	0x3e51f32f	0.20502923
21	0x3db7b949	0.08970887
22	0x3ca73595	0.020411292
23	0x3bc4fc31	0.006011509
24	0x3b8f361d	0.0043704645
25	0xbd51a7e1	-0.051185492
26	0x3d7defbe	0.061996214
27	0x3ddfebf2	0.10933675
28	0xbe3471a0	-0.1762147
29	0xbd980ab5	-0.07423917
30	0x3e2a0576	0.16603646
31	0x3d5584fb	0.052128773
32	0xbf019d38	-0.5063052
33	0xbe90eb27	-0.28304407
34	0x3d02a9ba	0.031900145
35	0x3d892b25	0.06697682
36	0xbe526078	-0.20544612
37	0xbe213697	-0.1574348
38	0xbd8dd047	-0.069244914
39	0xbe24c884	-0.16092116
40	0xbe2fb35a	-0.17158261
41	0x3ea22617	0.31669685
42	0xbd40b2c0	-0.04704547
43	0xbd17be0f	-0.03704649
44	0xbecd2e40	-0.40074348
45	0xbe7b3327	-0.24531232
46	0xbbf97efb	-0.007614014
47	0xbe59b5f2	-0.21260813
48	0x3db731c6	0.089450404
49	0xbbf669e2	-0.0075199464
50	0xbe755a8e	-0.23960325
51	0x3ead9a8c	0.33906972
52	0x3c57b8e6	0.013166642
53	0xbdfaee71	-0.1225251
54	0xbd7acfe8	-0.06123343
55	0x3e01f289	0.12690176
56	0xbe21422f	-0.15747903
57	0xbe8a5274	-0.27016032
58	0xbc8affef	-0.016967742
59	0x3db0a3c9	0.086249895
60	0x3d3485dd	0.044072974
61	0x3d2d5843	0.0423205
62	0xbe3148b2	-0.17312887
63	0xbcf890e5	-0.030342529
64	0xbe12c749	-0.14333834
65	0x3e9cdb26	0.30635947
66	0xbbf05831	-0.007334732
67	0x3e4c91b2	0.19977453
68	0xbe182e36	-0.14861378
69	0x3f0e6250	0.5561876
70	0xbeb5c5b8	-0.3550241
71	0x390f7ccd	0.00013684035
72	0xbe7886e0	-0.242702
73	0xbf2a1d92	-0.6645137
74	0xbe1ed252	-0.15509918
75	0xbd94d8ef	-0.07267939
76	0x3bc91919	0.006137025
77	0x3b292c37	0.0025813708
78	0x3e1b6424	0.1517492
79	0x3bd90078	0.0066223703
80	0xbdd0690b	-0.10176285
81	0xbd705177	-0.05867144
82	0x3d6a9405	0.05727007
83	0x3e0260a6	0.12732181
84	0x3d06b0fa	0.03288362
85	0xbde9c467	-0.11414414
86	0xbe217562	-0.15767434
87	0x3d22985b	0.03969608
88	0xbda061ec	-0.07831177
89	0x3e84d187	0.25941107
90	0xbd0ebcac	-0.0348479
91	0x3e92fbe6	0.28707808
92	0x3d835238	0.06412166
93	0x3d0e8169	0.034791384
94	0xbe90efe1	-0.28308013
95	0x3d8fc0d6	0.070192024
96	0xbe30e288	-0.17273915
97	0xbe251133	-0.16119842
98	0x3d4ebc83	0.050472748
99	0x3e79fb66	0.24412307
100	0xbe80b23b	-0.2513598
101	0xbdc65f57	-0.096861534
102	0x3e14ec47	0.14543258
103	0xbce7310e	-0.028221633
104	0x3de686c7	0.112561755
105	0xbe1796c4	-0.14803606
106	0xbd5ae8bb	-0.053444605
107	0xbc3c197f	-0.011480688
108	0xbe094ff3	-0.13409404
109	0xbdfcc195	-0.1234161
110	0xbe85ebc9	-0.26156452
111	0xbdc5779c	-0.09641954
112	0x3db00694	0.08595005
113	0xbe4d9c1f	-0.20079087
114	0xbd3dcab8	-0.046335906
115	0xbe1d2823	-0.15347342
116	0xbcb27da6	-0.02178843
117	0xbda57972	-0.080798045
118	0x3d8f6ffd	0.07003782
119	0x3dc2f4e3	0.09519365
120	0xbc4ba2bb	-0.012428935
121	0xbcd01c10	-0.025404006
122	0xbea090c7	-0.31360456
123	0xbd7800a2	-0.06054748
124	0x3d39ebb3	0.045390796
125	0x3d077330	0.033068836
126	0xbd1a2e24	-0.03764166
127	0xbe1672dc	-0.14692253
128	0xbdf5c3b7	-0.1200022
129	0x3e19e220	0.15027666
130	0xbd8c33b8	-0.06845802
131	0x3ca01cb3	0.019544935
132	0x3deb46a5	0.11488084
133	0xbe4f64a6	-0.20253238
134	0x3e8c64b7	0.2742059
135	0xbee42293	-0.44557628
136	0x3e9075d2	0.2821489
137	0x3c4a9150	0.012363747
138	0xbdba0d0d	-0.090845205
139	0xbdfa53dd	-0.12223027
140	0xbf137800	-0.5760498
141	0xbe46181c	-0.19345134
142	0xbd954fac	-0.07290587
143	0xbe1f4247	-0.15552627
144	0xbda90e22	-0.08254649
145	0xbe8c546a	-0.27408153
146	0x3d0b85d5	0.03406318
147	0xbe46e591	-0.1942351
148	0xbdf3092a	-0.11866982
149	0xbde9dc22	-0.1141894
150	0xbdae4a05	-0.08510212
151	0xbe0334c4	-0.12813097
152	0xbe713734	-0.23556215
153	0x3cd28332	0.025697324
154	0xbc121133	-0.008915233
155	0x3c9541ee	0.018219914
156	0xbd854334	-0.065069586
157	0xbe0af59e	-0.13570258
158	0x3e28a3c2	0.16468719
159	0xbe0ed037	-0.13946615
160	0x3ccb4e66	0.024817657
161	0x3b1e1a87	0.0024124698
162	0xbc9462d2	-0.018113527
163	0x3cf016aa	0.029307682
164	0xbcd92f4b	-0.026511809
165	0x3bfc5b4c	0.007701313
166	0x3d8da97a	0.06917091
167	0xbd73840a	-0.059452094
168	0xbe02b763	-0.12765269
169	0xbd25296d	-0.04032271
170	0xbdb7f3e7	-0.089820676
171	0xbd5896e3	-0.05287827
172	0x3d1afb1a	0.037837125
173	0xbe9c4687	-0.30522558
174	0xbe2dbc48	-0.16966355
175	0xbd62f5d8	-0.055410236
176	0x3dd744de	0.10511182
177	0xbd9c1382	-0.07620908
178	0xbd8cdd42	-0.06878139
179	0x3da6bbaf	0.081412666
180	0x3cb675f5	0.022273043
181	0xbc11b1f4	-0.008892525
182	0xbcbbc945	-0.022923121
183	0xbe5ce0a7	-0.21570073
184	0x3e51e00e	0.20495626
185	0xbf0b5ff2	-0.54443276
186	0x3dce5a88	0.10075861
187	0xbe26579a	-0.16244355
188	0x3e0b4332	0.13599852
189	0xbd9e5174	-0.0773038
190	0x3dd2c475	0.102913775
191	0xbebee613	-0.37284908
192	0xbceede25	-0.029158661
193	0xbe41c165	-0.1892143
194	0xbe9839c8	-0.29731584
195	0x3d4e490c	0.05036263
196	0xbd7af0e2	-0.06126488
197	0x3db61a45	0.08891729
198	0xbdadaa3c	-0.08479735
199	0xbd5d530b	-0.054034274
200	0x3e9006a2	0.2813006
201	0xbbb4824d	-0.005508697
202	0xbdb4b68c	-0.088238806
203	0x3e9d931b	0.30776295
204	0xbe012bdd	-0.12614389
205	0xbd294f73	-0.041335534
206	0x3d3c66b3	0.04599638
207	0xbf2350da	-0.63795245
208	0xbc5c463f	-0.013444482
209	0x3ecfec0f	0.40609786
210	0xbe15ae39	-0.14617242
211	0xbd0149f3	-0.031564664
212	0xbe7deddf	-0.24797772
213	0x3dea11a9	0.1142915
214	0x3dca1876	0.09867947
215	0xbe019760	-0.12655401
216	0xbdf56ab3	-0.11983242
217	0xbd4ae54e	-0.04953509
218	0xbd481d30	-0.04885596
219	0x3dac09c2	0.08400299
220	0xbd81e7c7	-0.06343036
221	0x3e049b3a	0.12949839
222	0xbecf80f2	-0.40528065
223	0xbc7f1e66	-0.015571212
224	0x3df801bf	0.12109708
225	0x3e762058	0.24035776
226	0x3d8ed310	0.06973851
227	0xbe4ecff3	-0.20196514
228	0xbf46e1b5	-0.7768815
229	0x3b8a58db	0.004222018
230	0x3def057e	0.116709694
231	0x3e92c29d	0.28664103
232	0x3d39ad1c	0.045331106
233	0xbef253b4	-0.47329485
234	0xbf9c1bbb	-1.2195963
235	0x3e81338b	0.25234637
236	0xbda28bb7	-0.07936805
237	0x3c462033	0.012092638
238	0xbc460353	-0.0120857535
239	0x3d5bcf6d	0.053664614
240	0xbd64f511	-0.055897776
241	0xbbec71f8	-0.0072157346
242	0xbaf49586	-0.0018660284
243	0xbd98f541	-0.074686535
244	0xbdeb7b82	-0.114981666
245	0xbc4b575f	-0.012410968
246	0xbe386709	-0.18008055
247	0xbd114e1b	-0.035474878
248	0xbc0f7746	-0.008756464
249	0xbea2b877	-0.3178136
250	0xbe05f993	-0.13083486
251	0x3e0e0d8d	0.13872357
252	0xbd451443	-0.048115026
253	0x3dc897f8	0.09794611
254	0xbd3f5461	-0.04671133
255	0xbea8ffa3	-0.33007535

critic.network_body.linear_encoder.seq_layers.0.bias f4 [64]
0	0xbd270131	-0.04077262
1	0xbbff264f	-0.007786549
2	0xbd6bdde5	-0.057584662
3	0x3cdb010a	0.026733894
4	0xbbf813ef	-0.0075707356
5	0xbd77a5c2	-0.060460813
6	0xbce4e043	-0.027938968
7	0xbcf99b94	-0.030469693
8	0x3c00de71	0.007865534
9	0xbcc26e4d	-0.023734236
10	0xbd31794b	-0.043328565
11	0xbc045844	-0.008077685
12	0xbd0aeed3	-0.033919167
13	0xbb91da4a	-0.004451071
14	0xbc8aac09	-0.016927736
15	0xbd04ac71	-0.032391015
16	0xbd47aa28	-0.048746258
17	0x3d21296e	0.03934615
18	0x3d845b60	0.06462741
19	0xbd0dd140	-0.034623384
20	0x3cdcb96e	0.026943889
21	0xbda906c6	-0.08253245
22	0xbc35ec1c	-0.011103656
23	0xbd0b55f8	-0.034017533
24	0xbbaa7ebc	-0.005203096
25	0xbd32f1dc	-0.043687686
26	0xbc698287	-0.014252312
27	0xbd830996	-0.06398313
28	0xbdd8708d	-0.10568342
29	0xbd8b00f3	-0.067872904
30	0x3c0455d4	0.008077104
31	0x3ae8111d	0.0017705295
32	0x3abdccb9	0.0014480568
33	0xbc19647c	-0.009362336
34	0xbc39df6b	-0.011344771
35	0xbc192c1d	-0.009348896
36	0xbd802f14	-0.062589794
37	0xbce47ff8	-0.027893052
38	0xbd8cfe89	-0.06884486
39	0xbd4ce8d3	-0.050026726
40	0xbd01d8fc	-0.031701073
41	0xbd2abd1c	-0.041684255
42	0x3c46528e	0.0121046435
43	0xbda6965f	-0.0813415
44	0xbcfaff36	-0.030639272
45	0xbcd84a7e	-0.026402708
46	0xbdb29d77	-0.0872144
47	0xbcefeb20	-0.029286921
48	0xbd425df3	-0.04745288
49	0x3b01a8b0	0.0019784383
50	0x3bc35137	0.0059606093
51	0xbd949717	-0.072553806
52	0xbd1da1fe	-0.038484566
53	0xbca488d8	-0.020084783
54	0xbca3a5a6	-0.019976448
55	0xbdb7262c	-0.089428276
56	0xbcd3424b	-0.025788447
57	0xbc9608e3	-0.018314784
58	0xbbf9930a	-0.0076164054
59	0xbcb4336d	-0.021997178
60	0xbd968da2	-0.07351233
61	0xbd195d05	-0.037442226
62	0xbc80eb5d	-0.01573723
63	0xbe22b564	-0.15889508

critic.value_heads.value_heads.extrinsic.weight f4 [1, 64]
0	0x3ca1291b	0.01967292
1	0xbe1ab39b	-0.15107577
2	0xbdb3c71e	-0.08778213
3	0x3ed9d62e	0.4254622
4	0x3b89d8d4	0.004206756
5	0xbdd5cffb	-0.1044006
6	0xbe6d0e47	-0.23149978
7	0xbe4a0413	-0.19728117
8	0x3e03610d	0.1282999
9	0xbdb0744a	-0.086159304
10	0xbeae3dbb	-0.34031472
11	0xbb9613ba	-0.0045799883
12	0x3d381396	0.044940554
13	0xbe6efbca	-0.23338237
14	0x3dc074db	0.093972884
15	0xbdc99c2e	-0.09844242
16	0xbd99f5f5	-0.07517616
17	0x3e8ed0e7	0.27893755
18	0x3e4f1fb6	0.2022694
19	0xbe2f0f4d	-0.1709568
20	0x3e0c9e53	0.13732271
21	0xbe0087c4	-0.1255179
22	0x3d860f6c	0.0654591
23	0x3e2d5ef0	0.16930747
24	0x3e08b4f4	0.13350278
25	0xbe34395d	-0.17600007
26	0xbc24e29a	-0.010063792
27	0x3da0f29d	0.07858775
28	0xbe0531cd	-0.13007279
29	0xbe417d88	-0.18895543
30	0x3e06df0c	0.13171023
31	0x3e9d4763	0.30718526
32	0x3e240369	0.16016926
33	0x3e35e7aa	0.17764154
34	0x3e3c4d1f	0.18388794
35	0x3e8c1147	0.27356932
36	0xbd962d0e	-0.07332812
37	0x3c032df6	0.008006563
38	0x3bfb0f3a	0.0076617273
39	0x3d9a1988	0.07524401
40	0xbed32f9c	-0.4124726
41	0xbe9449f2	-0.28962666
42	0x3e1f936a	0.15583578
43	0xbdaf5da3	-0.08562782
44	0xbe1e431e	-0.1545529
45	0xbe35a10d	-0.17737217
46	0x3c58e6a3	0.013238582
47	0xbb2c9b98	-0.0026337858
48	0xbe34f05d	-0.17669816
49	0x3d4a40f4	0.04937835
50	0x3da55013	0.080719136
51	0xbe019cc2	-0.12657455
52	0xbe52fc7a	-0.20604125
53	0x3e0a470a	0.13503662
54	0x3d073044	0.033005014
55	0xbe19a074	-0.15002614
56	0x3d1bdea0	0.03805411
57	0xb92351d8	-0.0001557538
58	0x3ca52fd8	0.020164415
59	0x3e8b998c	0.27265584
60	0xbe7e222a	-0.2481772
61	0x3e5b8baa	0.21439996
62	0x3e17ca10	0.14823174
63	0xbd112877	-0.03543898

exp_avg f4 [64, 67]
0	0x36072183	2.0136074e-06
1	0xb4f0d65c	-4.485945e-07
2	0x373c44a6	1.1221657e-05
3	0x34120316	1.3598432e-07
4	0x00000000	0.0
5	0x336266b5	5.2713137e-08
6	0xb7b025ce	-2.099844e-05
7	0x00000000	0.0
8	0x35524caf	7.8342686e-07
9	0xb6acc35b	-5.148742e-06
10	0x36e146b5	6.713754e-06
11	0x376b105e	1.4010902e-05
12	0xb797000d	-1.8000626e-05
13	0x37a420e5	1.9565641e-05
14	0x37b471c3	2.1510647e-05
15	0xb7b89913	-2.200579e-05
16	0x37c5b9eb	2.3570805e-05
17	0x37c29b8b	2.3199033e-05
18	0xb45c2aa0	-2.0504604e-07
19	0x35ed92ad	1.7700564e-06
20	0x3610029f	2.1459198e-06
21	0xb5c6ed32	-1.4821183e-06
22	0x364c7d49	3.0471294e-06
23	0x363d259f	2.8185093e-06
24	0xb61915dc	-2.28115e-06
25	0x36810e46	3.8461612e-06
26	0x3687620c	4.0347277e-06
27	0x35e41b73	1.6995313e-06
28	0xb4107087	-1.3451982e-07
29	0x343041d9	1.6415233e-07
30	0x3783c4e3	1.57081e-05
31	0xb76d481a	-1.4143088e-05
32	0xb76b4b86	-1.4024676e-05
33	0x366d00d5	3.5316236e-06
34	0xb603fa22	-1.9666118e-06
35	0xb5906135	-1.0757127e-06
36	0x361d6eb8	2.345927e-06
37	0xb551a008	-7.8091443e-07
38	0xb61c9de9	-2.3337727e-06
39	0x346ab907	2.1860261e-07
40	0x35b4b64a	1.3464098e-06
41	0x35c1b92a	1.443351e-06
42	0x379d65e6	1.8763309e-05
43	0xb790450f	-1.7198296e-05
44	0x357f984c	9.5216524e-07
45	0x34553ab3	1.9858525e-07
46	0x35b76615	1.3664272e-06
47	0x35b913eb	1.3789371e-06
48	0x35b10d86	1.3191463e-06
49	0x3483ff9b	2.458663e-07
50	0xb4ed9677	-4.4254168e-07
51	0x3404ff0b	1.2386242e-07
52	0x35c16d8d	1.4411504e-06
53	0x35c1eddd	1.4448848e-06
54	0xb7ac5075	-2.0541464e-05
55	0x37b9714a	2.2106473e-05
56	0x37ac65d6	2.0551419e-05
57	0x33e0ef58	1.0474349e-07
58	0x35c3fe72	1.4602685e-06
59	0x35c413c2	1.4608888e-06
60	0xb63dd8d5	-2.8289408e-06
61	0x36936fc3	4.393952e-06
62	0x36a36451	4.869457e-06
63	0x37f98794	2.9746247e-05
64	0x00000000	0.0
65	0x80000004	-6e-45
66	0xb7bb29ab	-2.231154e-05
67	0xb983b72e	-0.00025122747
68	0xb854995a	-5.068756e-05
69	0xb907f409	-0.00012965513
70	0x330bd637	3.2558287e-08
71	0x00000000	0.0
72	0xb72f2713	-1.04399105e-05
73	0xb90695e2	-0.00012835072
74	0x00000000	0.0
75	0xb6c708ff	-5.9317094e-06
76	0xb90d80f4	-0.00013494847
77	0xb92f13c0	-0.00016696658
78	0xb9371f2e	-0.00017463855
79	0xb91b8659	-0.00014832
80	0xb9210e5b	-0.00015359504
81	0xb92e3109	-0.000166122
82	0xb96af383	-0.00022406694
83	0xb8a3425e	-7.7848075e-05
84	0xb919811e	-0.00014639317
85	0xb93d7b3c	-0.00018070353
86	0xb8fe32ee	-0.0001212115
87	0xb902e2f6	-0.00012482316
88	0xb819e8aa	-3.6694728e-05
89	0xb98b0d43	-0.00026522027
90	0xb99010a7	-0.00027478227
91	0xb94cd30b	-0.00019533576
92	0xb8df834e	-0.00010657926
93	0xb8e702f0	-0.000110154855
94	0xb71786cb	-9.031685e-06
95	0xb9998e24	-0.00029288337
96	0xb99b403d	-0.00029611765
97	0xb82f36fd	-4.1774463e-05
98	0xb988637a	-0.00026014057
99	0xb9886965	-0.00026018466
100	0xb8306f98	-4.20656e-05
101	0xb9883c66	-0.00025984942
102	0xb98f035b	-0.00027277585
103	0xb8070ac7	-3.2196545e-05
104	0xb98d6901	-0.0002697185
105	0xb9907655	-0.00027553985
106	0x368499ae	3.951797e-06
107	0xb9a05cc0	-0.00030586682
108	0xb9a09a67	-0.00030632617
109	0xb7b11ead	-2.1114329e-05
110	0xb9933870	-0.00028080074
111	0xb9b415ae	-0.00034348428
112	0xb44859f4	-1.8659176e-07
113	0xb99e314f	-0.00030172846
114	0xb99e3f80	-0.0003018342
115	0x37a4aab9	1.9629822e-05
116	0xb9a89505	-0.00032154485
117	0xb99c0489	-0.00029758018
118	0x346ec25a	2.2236182e-07
119	0xb99e6833	-0.00030213743
120	0xb99e679e	-0.0003021331
121	0xb9103998	-0.00013754366
122	0xb92c5b19	-0.00016437135
123	0xb93ba0a8	-0.00017893559
124	0x347097ec	2.240701e-07
125	0xb99e686d	-0.00030213912
126	0xb99e690e	-0.0003021438
127	0xb95bd66c	-0.00020965346
128	0xb8c17c92	-9.22616e-05
129	0xb8fd0bee	-0.00012066202
130	0xba65022b	-0.000873598
131	0x00000000	0.0
132	0x00000004	6e-45
133	0x37fbfbc2	3.0038766e-05
134	0xb9f001a2	-0.00045777584
135	0xb97fc3bd	-0.00024391613
136	0xb93b063b	-0.00017836031
137	0x36bb0bc3	5.5744035e-06
138	0x00000000	0.0
139	0xb7cc4411	-2.4350391e-05
140	0xba22f5c9	-0.00062164344
141	0x00000000	0.0
142	0xb62a53de	-2.5380791e-06
143	0xb9de4c4a	-0.0004239998
144	0xb9919736	-0.00027769216
145	0xb93ce9d0	-0.00018016179
146	0xba34dff7	-0.00068998284
147	0xb74472a1	-1.17091995e-05
148	0xb8601749	-5.3427448e-05
149	0xba6f2bca	-0.00091236515
150	0x395ce81d	0.00021067304
151	0x38382583	4.3903954e-05
152	0xb9f466be	-0.00046615856
153	0xb976f989	-0.00023553347
154	0xb97d4c36	-0.00024156351
155	0xb8c7564c	-9.5051335e-05
156	0xba1f06f9	-0.00060664077
157	0xba24663f	-0.00062713394
158	0xba1e2b71	-0.0006033695
159	0xb8ce3277	-9.832245e-05
160	0xb8e42ee2	-0.0001088062
161	0x37a12dd3	1.9214034e-05
162	0xba3cfb32	-0.0007209062
163	0xba3c9a74	-0.0007194646
164	0x38c2e234	9.2927745e-05
165	0xba504e07	-0.00079461973
166	0xba4fc512	-0.0007925789
167	0xb6e0f819	-6.7046026e-06
168	0xba362fd1	-0.0006949874
169	0xba3789fa	-0.0007001456
170	0xb892a3d0	-6.992335e-05
171	0xba259d47	-0.00063176866
172	0xba32c7e5	-0.0006819948
173	0x3802f850	3.1225674e-05
174	0xba402147	-0.00073291775
175	0xba3f9125	-0.00073077
176	0x395efcc7	0.00021265737
177	0xba6fb0f1	-0.0009143493
178	0xba3eb5c3	-0.00072750094
179	0x3684cf90	3.95807e-06
180	0xba38fb60	-0.0007056501
181	0xba38faa9	-0.0007056394
182	0x386d0d5b	5.651764e-05
183	0xba46c296	-0.0007582096
184	0xba4183bc	-0.00073819957
185	0x36301044	2.6235512e-06
186	0xba38a1d1	-0.00070431555
187	0xba38a09b	-0.0007042975
188	0xba251bca	-0.00062983914
189	0xb896afb6	-7.185286e-05
190	0xb902f369	-0.00012488443
191	0x3622e42c	2.4272695e-06
192	0xba3894a6	-0.00070411933
193	0xba3895cc	-0.00070413644
194	0xba131240	-0.00056103244
195	0xb9137e04	-0.00014065957
196	0xb9463b6d	-0.0001890489
197	0xba2487c5	-0.0006276335
198	0x00000000	0.0
199	0x80000004	-6e-45
200	0xb948bf62	-0.00019144782
201	0xb6d241c0	-6.266142e-06
202	0xb63f8493	-2.8538386e-06
203	0xb6c303dd	-5.8119026e-06
204	0x3393206d	6.851119e-08
205	0x00000000	0.0
206	0xb4aa667b	-3.1739532e-07
207	0xb51ce360	-5.84454e-07
208	0x00000000	0.0
209	0xb49bbd8c	-2.9008913e-07
210	0xb683b9d2	-3.9257366e-06
211	0xb6ae4a34	-5.1942425e-06
212	0xb6dfbd59	-6.667961e-06
213	0xb6614581	-3.356807e-06
214	0xb6c16147	-5.763173e-06
215	0xb6f4d4df	-7.296548e-06
216	0xb6671e4b	-3.4439315e-06
217	0xb6be74e2	-5.676048e-06
218	0xb6ee167d	-7.0955707e-06
219	0xb70cdc1f	-8.395901e-06
220	0xb5425e49	-7.2407835e-07
221	0xb58c0712	-1.043287e-06
222	0xb5d79e55	-1.6064829e-06
223	0xb6fc1c74	-7.5134976e-06
224	0xb703d979	-7.858843e-06
225	0xb709b185	-8.207168e-06
226	0xb57507f1	-9.128117e-07
227	0xb5a1f706	-1.2067328e-06
228	0xb464bea1	-2.1303505e-07
229	0xb7156f0b	-8.906946e-06
230	0xb71640bc	-8.955769e-06
231	0xb67f9a51	-3.8087785e-06
232	0xb6b236df	-5.311201e-06
233	0xb6b23d7f	-5.3119725e-06
234	0xb589a253	-1.0254538e-06
235	0xb707cdbb	-8.094527e-06
236	0xb70c4b38	-8.3621635e-06
237	0xb631484d	-2.641714e-06
238	0xb6d95fe1	-6.4782657e-06
239	0xb6e43015	-6.800527e-06
240	0x3526f1ad	6.2191504e-07
241	0xb723711f	-9.741895e-06
242	0xb7235c7f	-9.737093e-06
243	0xb69f1c04	-4.7418307e-06
244	0xb692e803	-4.378149e-06
245	0xb71d4b69	-9.375487e-06
246	0xb225bbc5	-9.646958e-09
247	0xb718d896	-9.110334e-06
248	0xb718ed66	-9.11518e-06
249	0xb4e71255	-4.304044e-07
250	0xb711c971	-8.689575e-06
251	0xb7096503	-8.189355e-06
252	0x31a7ee0a	4.8874016e-09
253	0xb7191703	-9.1248685e-06
254	0xb71917ae	-9.125024e-06
255	0xb5a3f8d5	-1.2216866e-06

exp_avg_sq f4 [64, 67]
0	0x3201b129	7.54907e-09
1	0x31e80e8f	6.753744e-09
2	0x32028306	7.596787e-09
3	0x306b27be	8.554898e-10
4	0x00000000	0.0
5	0x2d8c5d1b	1.5957504e-11
6	0x31800f85	3.7270547e-09
7	0x00000000	0.0
8	0x2d7fb4a9	1.4535186e-11
9	0x31d2f891	6.140063e-09
10	0x320c0362	8.149842e-09
11	0x321d64fd	9.161565e-09
12	0x31baf3fe	5.441051e-09
13	0x321b70a4	9.047799e-09
14	0x32245175	9.564578e-09
15	0x31a19a8e	4.7032875e-09
16	0x322523af	9.612378e-09
17	0x323798e4	1.0686765e-08
18	0x31cc7797	5.950777e-09
19	0x320adaa1	8.082368e-09
20	0x320d0ebe	8.210632e-09
21	0x30833823	9.54746e-10
22	0x3266ee45	1.3441938e-08
23	0x32670fa7	1.3449529e-08
24	0x31bcaa5a	5.490887e-09
25	0x3212925e	8.5315985e-09
26	0x32139885	8.591205e-09
27	0x307ae302	9.127207e-10
28	0x32667e81	1.3416526e-08
29	0x3266ae6f	1.3427424e-08
30	0x31b46d75	5.2511333e-09
31	0x321954a2	8.925015e-09
32	0x32197374	8.932023e-09
33	0x3056e5c5	7.817927e-10
34	0x3268de2a	1.3554692e-08
35	0x3268eccd	1.355802e-08
36	0x317817ee	3.6102352e-09
37	0x32319ec3	1.0338854e-08
38	0x3239e53b	1.0820538e-08
39	0x312a715f	2.48027e-09
40	0x3247e92c	1.1636342e-08
41	0x3253fced	1.2339325e-08
42	0x31bc70ca	5.4843428e-09
43	0x3216b89c	8.7731244e-09
44	0x322822a0	9.78676e-09
45	0x30043546	4.8097026e-10
46	0x3267eae5	1.34993785e-08
47	0x326822e0	1.3512107e-08
48	0x30e83228	1.6894477e-09
49	0x3250fc88	1.2164612e-08
50	0x325586c9	1.2428878e-08
51	0x2fb84bd0	3.3523273e-10
52	0x326a8e7d	1.3652991e-08
53	0x326abae4	1.3663087e-08
54	0x3180e874	3.751717e-09
55	0x32365797	1.061371e-08
56	0x32360e60	1.0597063e-08
57	0x2f951a6f	2.7121724e-10
58	0x326b8c5a	1.3710713e-08
59	0x326bae70	1.3718463e-08
60	0x31c62ec8	5.767877e-09
61	0x320aef23	8.087031e-09
62	0x320c93bd	8.182664e-09
63	0x34fb9b2a	4.686529e-07
64	0x00000000	0.0
65	0x000001f4	7e-43
66	0x323fe8db	1.1170608e-08
67	0x34b206e7	3.3160106e-07
68	0x34b53597	3.375287e-07
69	0x34d71efd	4.0069418e-07
70	0x332b7584	3.992092e-08
71	0x00000000	0.0
72	0x3053aa48	7.7003337e-10
73	0x341c4b1c	1.4555957e-07
74	0x00000000	0.0
75	0x303ad292	6.7965644e-10
76	0x34a043d7	2.9851682e-07
77	0x34c91368	3.7453287e-07
78	0x34e1373b	4.19497e-07
79	0x348f0a3c	2.6643272e-07
80	0x34d9e5c7	4.0586585e-07
81	0x34e9e5ac	4.356674e-07
82	0x346989f3	2.1750002e-07
83	0x34fc7bd6	4.702876e-07
84	0x350e0cdb	5.291783e-07
85	0x34827cfc	2.4305325e-07
86	0x34e7afb7	4.3154952e-07
87	0x34e8ffd0	4.3399496e-07
88	0x33915b97	6.768749e-08
89	0x3527027a	6.221595e-07
90	0x352731b2	6.2284664e-07
91	0x349946b6	2.854992e-07
92	0x34dea3e1	4.146996e-07
93	0x34df3dbb	4.1581902e-07
94	0x32d3e88e	2.4669387e-08
95	0x352fa6dd	6.54354e-07
96	0x352fe99f	6.5532544e-07
97	0x349a0523	2.8688473e-07
98	0x34d9b02d	4.0547584e-07
99	0x34d9c439	4.056217e-07
100	0x32b4fd27	2.1069878e-08
101	0x3530ef7c	6.5913605e-07
102	0x35310a7f	6.595291e-07
103	0x339375ca	6.8666466e-08
104	0x3520253c	5.965883e-07
105	0x352744b7	6.231234e-07
106	0x3345c3e4	4.60458e-08
107	0x3528173d	6.2618693e-07
108	0x352bd120	6.400678e-07
109	0x3467fed0	2.1606252e-07
110	0x34fe86ac	4.7409173e-07
111	0x351118cd	5.40528e-07
112	0x3248a509	1.1679057e-08
113	0x3533049d	6.668941e-07
114	0x35331aa1	6.6721447e-07
115	0x341445bf	1.3808948e-07
116	0x3511169d	5.4049616e-07
117	0x3514240a	5.518674e-07
118	0x31dff814	6.5183574e-09
119	0x3533e417	6.701461e-07
120	0x35340d44	6.707453e-07
121	0x34685046	2.1635887e-07
122	0x34f73292	4.604413e-07
123	0x34f7fd89	4.6191806e-07
124	0x31ae7e8a	5.0784523e-09
125	0x3534b8c3	6.732409e-07
126	0x3534c567	6.7342484e-07
127	0x34c31fba	3.6344665e-07
128	0x34a87153	3.1374893e-07
129	0x34aa5e01	3.1733364e-07
130	0x3786b722	1.6059323e-05
131	0x00000000	0.0
132	0x000001f4	7e-43
133	0x35004cc3	4.779542e-07
134	0x3679bb9c	3.7213094e-06
135	0x369db7f1	4.700378e-06
136	0x36a62a37	4.9521e-06
137	0x35c71e2d	1.4835438e-06
138	0x00000000	0.0
139	0x321b851c	9.052453e-09
140	0x3662282f	3.3700014e-06
141	0x00000000	0.0
142	0x31e58c24	6.6807093e-09
143	0x3633b22a	2.6776784e-06
144	0x36ca6d3a	6.0327848e-06
145	0x36d23065	6.2641216e-06
146	0x364fd393	3.0968556e-06
147	0x36bc7f9b	5.617692e-06
148	0x36c70986	5.931771e-06
149	0x363c37c0	2.8046634e-06
150	0x36cdcbb1	6.133189e-06
151	0x36e43a0e	6.801688e-06
152	0x36945ea9	4.4217636e-06
153	0x368a6d45	4.125441e-06
154	0x368dce93	4.226176e-06
155	0x357f0619	9.5003776e-07
156	0x37060c6c	7.989915e-06
157	0x3705fe6c	7.986655e-06
158	0x36d15710	6.238821e-06
159	0x361b0378	2.309882e-06
160	0x36206654	2.390142e-06
161	0x34c9e4cc	3.760564e-07
162	0x370e51cc	8.482904e-06
163	0x370e54d7	8.483613e-06
164	0x36c218ba	5.784529e-06
165	0x3645c979	2.947256e-06
166	0x3645dd14	2.9483972e-06
167	0x34bfd6da	3.5732847e-07
168	0x370eaaf2	8.503661e-06
169	0x370ea725	8.502776e-06
170	0x3646da2e	2.9631296e-06
171	0x36be86bf	5.6781278e-06
172	0x36caf267	6.0482885e-06
173	0x36347db5	2.6895261e-06
174	0x36c3c45e	5.834313e-06
175	0x36ddce4e	6.6103303e-06
176	0x3662a44f	3.3772264e-06
177	0x36af2c50	5.220565e-06
178	0x36c6fd71	5.9303643e-06
179	0x350361a7	4.8943406e-07
180	0x37054e97	7.945716e-06
181	0x3705ebc6	7.982313e-06
182	0x36054fc5	1.9864976e-06
183	0x36dbe217	6.553029e-06
184	0x36e15806	6.71577e-06
185	0x34908ff1	2.692682e-07
186	0x370af011	8.281336e-06
187	0x370b1e0d	8.292042e-06
188	0x3657e0e8	3.216841e-06
189	0x36b597af	5.4118786e-06
190	0x36b530b1	5.399889e-06
191	0x34156136	1.3912071e-07
192	0x370d0200	8.404721e-06
193	0x370d1116	8.408233e-06
194	0x36e41d6b	6.798354e-06
195	0x35ea22f6	1.7444534e-06
196	0x35ee82ab	1.7770411e-06
197	0x38f982d5	0.000118976146
198	0x00000000	0.0
199	0x000001f4	7e-43
200	0x36ccbe40	6.101822e-06
201	0x30904fae	1.0500025e-09
202	0x2f9dbf99	2.8694272e-10
203	0x2fd38644	3.8476078e-10
204	0x2ec8a4b7	9.124206e-11
205	0x00000000	0.0
206	0x2bd24dd7	1.4943002e-12
207	0x2ff84f2b	4.516719e-10
208	0x00000000	0.0
209	0x2baa2aa8	1.2091066e-12
210	0x307b42ad	9.140802e-10
211	0x2fe43db4	4.15168e-10
212	0x3019d443	5.596272e-10
213	0x302edae2	6.361188e-10
214	0x3047a9c0	7.263701e-10
215	0x304fc449	7.55851e-10
216	0x2faa09e1	3.092984e-10
217	0x308e4fcf	1.0354543e-09
218	0x3094e40f	1.0833235e-09
219	0x307db6d2	9.2300667e-10
220	0x2fed29ed	4.313984e-10
221	0x2ff19b3c	4.3947945e-10
222	0x2f221152	1.4739968e-10
223	0x30a811ae	1.2228634e-09
224	0x30a82b56	1.2235926e-09
225	0x305b75f0	7.9839335e-10
226	0x302396c3	5.95133e-10
227	0x3023eb83	5.9633737e-10
228	0x2edfa772	1.017061e-10
229	0x30ab5f13	1.2468909e-09
230	0x30ab7061	1.2473828e-09
231	0x30198948	5.5856164e-10
232	0x305ab510	7.9565243e-10
233	0x305b0f07	7.969309e-10
234	0x2ed1b435	9.536231e-11
235	0x30ac3224	1.2528898e-09
236	0x30ac4044	1.2532912e-09
237	0x2fc5d348	3.5984216e-10
238	0x30847613	9.637823e-10
239	0x30891b02	9.975738e-10
240	0x2f5c5f5a	2.0042759e-10
241	0x30a2c4f9	1.1843034e-09
242	0x30a494b2	1.1974832e-09
243	0x30437e8e	7.112043e-10
244	0x3041750d	7.037933e-10
245	0x305592e1	7.7697676e-10
246	0x2dd0ec2b	2.3751742e-11
247	0x30b71bc2	1.3322892e-09
248	0x30b6fe59	1.3314533e-09
249	0x3013aa2a	5.3720106e-10
250	0x30620707	8.222831e-10
251	0x306492be	8.315445e-10
252	0x2cc7be33	5.6770365e-12
253	0x30b7e9b9	1.338143e-09
254	0x30b7f1b3	1.3383697e-09
255	0x30282682	6.1172767e-10

exp_avg f4 [64]
0	0x35d20d64	1.5650116e-06
1	0xb99e4a5a	-0.00030191505
2	0xba37f1c3	-0.00070169213
3	0xb7190204	-9.11998e-06
4	0xb9f5f7aa	-0.00046914566
5	0x3a7e0df6	0.00096914114
6	0xb802c97c	-3.1182062e-05
7	0x35829f50	9.732121e-07
8	0xb8a12f30	-7.6858676e-05
9	0xb923235a	-0.00015558061
10	0xb9dd99aa	-0.00042266893
11	0xb8fffbf1	-0.00012206275
12	0x39de47f9	0.00042396763
13	0xb7c6c7cf	-2.3696482e-05
14	0x388dd3fd	6.76289e-05
15	0x3a4cf99f	0.0007819179
16	0xb8fdeb34	-0.0001210779
17	0xba006021	-0.0004897137
18	0xba7c78ec	-0.0009631056
19	0xb96e21c1	-0.00022710023
20	0xb7f94ec2	-2.9719788e-05
21	0xba0cee27	-0.00053760636
22	0xb9d884b7	-0.0004129761
23	0xba0cb62b	-0.00053677213
24	0xb7afdc09	-2.0964088e-05
25	0xb76a8f8c	-1.3980909e-05
26	0xba3db156	-0.0007236203
27	0xba4201c7	-0.00074007775
28	0xb638c0e8	-2.7530423e-06
29	0x3a3ef88a	0.000728496
30	0xba2d9a9f	-0.00066224666
31	0xba38292f	-0.000702518
32	0x3971b3a4	0.00023050472
33	0x39bd7404	0.00036135328
34	0x367223a9	3.6081567e-06
35	0xb9d0792f	-0.0003976314
36	0xb896dcc2	-7.193677e-05
37	0xb9fab33b	-0.00047817253
38	0x3a8719ce	0.0010307373
39	0x3824fcc3	3.933605e-05
40	0x3a84c2b1	0.0010128823
41	0x3944850e	0.00018741583
42	0xba5c7440	-0.00084096566
43	0xb7ce0887	-2.4561085e-05
44	0xba22d54d	-0.0006211594
45	0xb7401694	-1.1449349e-05
46	0x39382c94	0.00017564214
47	0x3a6f0db6	0.00091191696
48	0xb89aae75	-7.3757874e-05
49	0x3a060ed5	0.00051139045
50	0x3a76bf1a	0.00094126316
51	0xba582159	-0.0008244715
52	0xb7a5ae49	-1.975069e-05
53	0xb8e059a8	-0.00010697852
54	0x3aa1e6fe	0.0012352166
55	0xba4011ec	-0.00073268893
56	0x3a34b248	0.0006893021
57	0xb8a1232a	-7.683628e-05
58	0x3a33c33d	0.0006857401
59	0xb619bae7	-2.2907568e-06
60	0xb4a108d6	-2.9995016e-07
61	0xb825a007	-3.9488103e-05
62	0x38d89518	0.000103274535
63	0xba2411c8	-0.0006258753

exp_avg_sq f4 [64]
0	0x32710a3b	1.4030372e-08
1	0x3535c2e3	6.771135e-07
2	0x370fa3f1	8.561635e-06
3	0x30b89e35	1.3432727e-09
4	0x371ac950	9.225987e-06
5	0x3891d742	6.954234e-05
6	0x334f112a	4.8211554e-08
7	0x36861337	3.995748e-06
8	0x36ad09c6	5.1569396e-06
9	0x35c90835	1.4978056e-06
10	0x37f8b44b	2.964786e-05
11	0x36999b40	4.577829e-06
12	0x373b58f3	1.1166779e-05
13	0x31f3237c	7.076265e-09
14	0x34091532	1.276683e-07
15	0x3836bc60	4.356762e-05
16	0x37a18d82	1.925859e-05
17	0x37f9b2eb	2.9766428e-05
18	0x378756a5	1.6133601e-05
19	0x364f429f	3.0884182e-06
20	0x32af57bf	2.0412584e-08
21	0x38b3c594	8.572187e-05
22	0x357b3f1b	9.3596617e-07
23	0x37ca2a14	2.409987e-05
24	0x31c3cdfc	5.6986647e-09
25	0x328c181e	1.6309112e-08
26	0x38a0155a	7.6333716e-05
27	0x37277b8f	9.982744e-06
28	0x31965174	4.3748347e-09
29	0x38680b56	5.5323668e-05
30	0x38ebc8c4	0.00011243069
31	0x37a083b6	1.9134819e-05
32	0x3726b6ec	9.936961e-06
33	0x3726c0f5	9.939297e-06
34	0x359870bf	1.1357696e-06
35	0x37b5268f	2.1594837e-05
36	0x36101ddc	2.1475053e-06
37	0x381133c0	3.461889e-05
38	0x3899de4a	7.337013e-05
39	0x3596f07f	1.1245864e-06
40	0x38ae5dc3	8.314431e-05
41	0x371e25d3	9.4263405e-06
42	0x3647bf2f	2.9764594e-06
43	0x31ea74cf	6.823576e-09
44	0x38e0fe04	0.000107284664
45	0x3162cd94	3.3004186e-09
46	0x378ba652	1.664754e-05
47	0x38af758c	8.366545e-05
48	0x3623b91d	2.4396643e-06
49	0x379e440b	1.8866753e-05
50	0x388aba48	6.6150504e-05
51	0x3882440f	6.21156e-05
52	0x320847c8	7.932563e-09
53	0x358d86d3	1.0544558e-06
54	0x38ee1a50	0.000113536255
55	0x3712d727	8.752372e-06
56	0x38949a0b	7.085883e-05
57	0x35dadbcc	1.6306235e-06
58	0x38132692	3.5083453e-05
59	0x30960b05	1.0917068e-09
60	0x311296bb	2.1331477e-09
61	0x325c0965	1.28078215e-08
62	0x36146fec	2.2118866e-06
63	0x3905d948	0.00012764812

exp_avg f4 [3, 64]
0	0x396c557c	0.0002253856
1	0xbb45b609	-0.0030168316
2	0xbb027c9f	-0.0019910706
3	0x3926703a	0.00015872801
4	0xbb08e91b	-0.0020890895
5	0x3941c2b4	0.00018478447
6	0x39d68bf0	0.00040921522
7	0xba3a7d07	-0.00071139674
8	0xba635575	-0.0008672097
9	0xb9df8f38	-0.0004264058
10	0xbb69e113	-0.0035687133
11	0xba62f915	-0.0008658332
12	0x38b694e2	8.706168e-05
13	0x39854fa1	0.00025427065
14	0x39f1d07b	0.00046122432
15	0x3a0efc19	0.00054544356
16	0xbb268e1e	-0.0025414298
17	0xbb8ed82b	-0.0043592653
18	0xbb72c75d	-0.00370451
19	0xbadc5041	-0.0016808585
20	0x39eab143	0.00044764028
21	0xbbeadc95	-0.0071674087
22	0xb97dfc96	-0.00024222056
23	0xbb497507	-0.003073992
24	0x3950544d	0.0001986783
25	0x39abf397	0.0003279715
26	0xbb5d9959	-0.0033813326
27	0xbb2b8edd	-0.0026177682
28	0x3916171e	0.00014313727
29	0x3a889b45	0.001042225
30	0xbbadc6f4	-0.005303258
31	0xbb8f851c	-0.0043798815
32	0x3a2dd375	0.0006630936
33	0x3a04716d	0.0005052302
34	0xbb19c3fb	-0.002346276
35	0xbb8a2ad4	-0.0042165313
36	0xb9fa1441	-0.00047698806
37	0xbb805580	-0.0039164424
38	0x3ab3a0b4	0.001370451
39	0x3a81e9c7	0.000991159
40	0xb95df077	-0.00021165783
41	0xbad0fdda	-0.0015944794
42	0xbb628cfe	-0.0034568901
43	0x398e0c15	0.00027093352
44	0xbb8600f4	-0.004089469
45	0x39e1829d	0.0004301266
46	0x3a564243	0.0008173326
47	0x3a0f59cf	0.00054683996
48	0xba47d783	-0.00076233613
49	0x3aab3eb5	0.0013064953
50	0x3960fd7c	0.00021456735
51	0xba69deab	-0.0008921425
52	0x398c29fb	0.0002673416
53	0xba1a0886	-0.0005875904
54	0xb9803c6d	-0.00024459083
55	0xba9b1e3a	-0.001183457
56	0x3a675802	0.0008825065
57	0x39c872c7	0.00038232488
58	0x3a847b31	0.0010107515
59	0x390aff14	0.0001325573
60	0x38f593b1	0.0001171002
61	0x3a13b867	0.0005635083
62	0xba92d8c0	-0.0011203513
63	0xbbbb6256	-0.0057185097
64	0x3952109b	0.00020033347
65	0xba053ff0	-0.0005083075
66	0xba886713	-0.0010406695
67	0xb8409149	-4.5911675e-05
68	0xba8c7103	-0.0010714832
69	0xbc1fb6e8	-0.009748198
70	0x34145153	1.381316e-07
71	0x3a6f12b7	0.0009119915
72	0xba4419c0	-0.00074806437
73	0x3a98e79f	0.0011665708
74	0xb9da2300	-0.00041606277
75	0x3aae7dc6	0.001331263
76	0xbb73401f	-0.0037117077
77	0xb900e897	-0.00012293678
78	0x39b59797	0.00034635953
79	0xbbc9b447	-0.006155524
80	0xb9993a05	-0.00029225662
81	0xbbd8eb0e	-0.0066198176
82	0xbb29d786	-0.0025915815
83	0x3ad644b2	0.0016347377
84	0xb8e3bc22	-0.00010859246
85	0x3b4e59f6	0.0031486726
86	0x3aba8b38	0.0014232164
87	0xbb9cb899	-0.004782748
88	0x37bade4a	2.227644e-05
89	0x390adbcc	0.00013242586
90	0x3ac78148	0.0015221024
91	0xbaea6aea	-0.0017884646
92	0x3890169a	6.870665e-05
93	0xbb8b9d94	-0.004260728
94	0x3a962fdd	0.0011458356
95	0xbab9fed2	-0.0014190322
96	0xbb13d471	-0.0022557045
97	0xbb4ac70d	-0.0030941397
98	0x3a857779	0.00101827
99	0xb98d7fe0	-0.0002698889
100	0x3a5fb5fd	0.0008533893
101	0xbbbd15ed	-0.005770436
102	0xbbf6ea02	-0.00753522
103	0xba8c6710	-0.0010711867
104	0xbc220bee	-0.00989054
105	0x39bef7f0	0.00036424352
106	0x3b9a2158	0.004703682
107	0xb9067ef9	-0.00012826537
108	0xbc5a9891	-0.013342039
109	0xb991a204	-0.00027777266
110	0xbb1f0bf1	-0.0024268592
111	0xbbdf384a	-0.00681213
112	0x39466874	0.00018921663
113	0xbaf49e30	-0.0018662866
114	0xbb888b7a	-0.0041670175
115	0xbae7c15b	-0.0017681526
116	0xb8284a99	-4.0123796e-05
117	0xbb01a83f	-0.001978412
118	0xbc2d824c	-0.010590147
119	0xbb2d4321	-0.0026437717
120	0xbc0e0b64	-0.008669708
121	0x3a2a0576	0.0006485799
122	0xbb8f38ea	-0.0043707984
123	0x389283dc	6.986383e-05
124	0x3a0868dd	0.0005203614
125	0xb90c9b1b	-0.00013409222
126	0x3a997b91	0.0011709799
127	0x3a68f2ce	0.00088862784
128	0xb9df330a	-0.00042571902
129	0x3b670607	0.0035251395
130	0x3b46b028	0.00303174
131	0xb8ec97cd	-0.00011281632
132	0x3b4f219d	0.0031605728
133	0x3c1cafe0	0.009563416
134	0xb9d69e7a	-0.00040935335
135	0xb95256cb	-0.00020059494
136	0x3ad3b798	0.0016152738
137	0xba4207a4	-0.0007401651
138	0x3b8292ba	0.0039847763
139	0xb9f404e6	-0.00046542956
140	0x3b6d8b7b	0.0036246467
141	0xb909b6a9	-0.00013133384
142	0xba53b40c	-0.00080758403
143	0x3bb7d4c2	0.0056100795
144	0x3b39b55e	0.0028336863
145	0x3c33e19e	0.010979084
146	0x3bce4f6e	0.00629609
147	0x3841719f	4.6120604e-05
148	0xb9b1c239	-0.00033904778
149	0x3b83af9b	0.0040187365
150	0xba9acba6	-0.001180996
151	0x3c00b98d	0.007856739
152	0xb967b016	-0.00022095474
153	0xb9f16184	-0.00046039757
154	0x3af3b164	0.0018592295
155	0x3b906228	0.0044062324
156	0xb95e2268	-0.00021184387
157	0x3b52ed88	0.0032185037
158	0x3b883afd	0.0041574226
159	0x3bbe04d3	0.005798915
160	0x3ad0bf1d	0.0015926097
161	0x3b29aab2	0.0025889096
162	0x3aae1081	0.0013280065
163	0x3b9302d1	0.0044864197
164	0xb9c557b7	-0.0003764012
165	0x3c1eb5b4	0.009686876
166	0x3bca01dd	0.006164773
167	0x38a7d4a4	8.002788e-05
168	0x3c2583af	0.010102197
169	0x3aa13fe1	0.0012302363
170	0xbaa36b68	-0.0012467923
171	0xb9159930	-0.00014266814
172	0x3c8ecc8b	0.017431518
173	0xb91fc133	-0.00015235394
174	0x3ad2f6c0	0.0016095266
175	0x3bcd4d12	0.006265291
176	0x3a163d62	0.00057311927
177	0x3a12bf0d	0.0005597927
178	0x3b81838f	0.0039524506
179	0x3b2e5856	0.0026602945
180	0xb96e414c	-0.00022721774
181	0x3b282a61	0.0025660025
182	0x3c31842e	0.010834737
183	0x3b7ad23b	0.003827228
184	0x3bff2bca	0.0077872025
185	0xba871f6e	-0.0010309049
186	0x3b5c343e	0.0033600475
187	0xb9544101	-0.00020242111
188	0xba271b57	-0.00063746184
189	0xb9e1233c	-0.00042941596
190	0xb8545a16	-5.0628638e-05
191	0x3b9e4406	0.0048298864
