Config/results/BallCatcher_02/BoxBehavior/BoxBehavior-88880.pt (torch, 117967 bytes, 21 tensors)

network_body.linear_encoder.seq_layers.0.weight f4 [64, 67]
00000000: 28a7 1a3e a34e a3be 2f70 893d 9274 8e3e
00000010: bca7 d03d 321b 973d 676c 26be 6508 3d3e
00000020: 0836 983c e0fc c93d 1676 7f3d 6da8 a7bc
00000030: 31d4 9cbd f40c 0b3e 4325 debc fb14 0d3e
00000040: 43eb 7e3e a53d 4a3e c80d 9ebe eb77 103d
00000050: 6305 e2bd 4fc2 153e 3b8e 1d3e fba4 5e3e
00000060: 8dd3 54be d7ac 01be c551 973d 30af ffbd
00000070: fb79 0d3e 4578 dbbc 67b5 213e 2e25 2e3e
00000080: cb29 883c c22e a93c f867 333e dd5b 713d
00000090: 6138 2d3e 62ca 543d 851e 92bd 8d1e 4ebd
000000a0: 928d b4ba e55d 8c3b 26e3 b03d 081a 6b3e
000000b0: 17b2 dd3d 2705 003e 763d 5fbc ad28 783d
000000c0: 8f76 953d 5054 463c d302 633d 50bc 793e
000000d0: 611c 2bbe b72d e93d edee 83bd c92f 7a3d
000000e0: 5ea6 353d 4012 663e e871 cc3c 5b5d 253e
000000f0: eaaa 92bd 4083 c63d d648 e73c 6ba6 17be
00000100: f6e9 2c3e 66b3 683e 9e2d f4bd 526d 8dbd
00000110: d020 ef3c 8b56 743d 1ef0 3cbc 469f 97be
00000120: 0525 9f3d 61a7 ff3c 22ca 7abe 68f5 03be
00000130: cdfa 2d3e bba9 73bd 10f7 fabd 0db1 4d3e
00000140: 0a03 d93c 2bad 803e 4631 883d c8f5 563d
00000150: 98cd 903d aab1 833e 53d1 853c 051c 433d
00000160: 7782 f8bd a2aa dabc 447c 66bd b10c d73b
00000170: fd4f 89bc b69f 5dbc 00e0 1b3d ddd7 1d3e
00000180: ed4b 843c e164 9d3d 0720 44be 477b e53e
00000190: e775 043d e1a8 c4bd 995d e33d fd1a 05be
000001a0: a7c2 783e 825f 633d b7a4 6bbc c063 79bd
000001b0: 101e fd3d 1cbc 843e 2efc 853e eee6 4dbe
000001c0: 9945 8cba 5982 543d 482d 1c3d 6a1a 403e
000001d0: b416 cbbd 533d e53d e731 ff3a c639 d53d
000001e0: 36ea 9e3e 4250 a33e 7406 cebd d185 24be
000001f0: bf8b 913d 62d1 a23e f105 a2bd e79c f33c
00000200: 301d 463e dfec 373d 4096 32bd 1e7a 2f3e
00000210: 357e 383e 3a5b 6fbe 359b 1a3e 8348 31bc
00000220: 0cce ea3d 8282 5c3e 76d4 ed3d 5403 653e
00000230: 233b 97bc f651 97bd 4bbb 623d 8635 c2bd
00000240: 55cb 16be 9904 4e3e 03ad c23c f93c 39bc
00000250: 4555 0abe 3955 e53d 6a0a 1bbe 2a11 44bd
00000260: 6fd7 18be c6b8 153e 60df a73e e345 ccbc
00000270: 0186 99bd ee25 82be bab6 21be 76e1 77bd
00000280: e01b d63c 85d2 0dbe eee2 3cbd fdfe 353e
00000290: d7c7 b63d f487 22bd 991b f5bd 756a 043e
000002a0: 67c0 1dbc 475f f9bc 722e b6bd a51e 6cbd
000002b0: 3bc3 1e3e e869 363c 5479 29be 87ab 91be
000002c0: b8ea 1abe 4958 d6bc 8c1f febb 8f99 603e
000002d0: ee26 883e 0d5e 213e 8f1c 573d 2d2b e7bc
000002e0: c362 463e 4869 623e 4054 9dbb 76e8 81bd
000002f0: 2226 d9bc df4b d9bc b692 05be fa0b 4bbe
00000300: 12f0 85bc 7247 aebd 3ab5 3bbe 0b2e 83bd
00000310: 57f1 04bd 1b4b a3be 448f 51be b7ea 5ebd
00000320: 10ad 0a3e b9d1 24bd 927d cabc 0a82 16bd
00000330: b2a1 d8bd 1a75 6b3e 2823 783e c352 41bd
00000340: a29f 2abe b526 4b3c 1128 5f3e ed8e 493e
00000350: 67e2 d13d 203e df3d a6c1 e5ba a393 463e
00000360: 47ed ffbd 5d26 563e b1e0 803c e465 15be
00000370: 7e89 9d3d f9f6 2f3d 68f0 2ebe 1aa5 af3d
00000380: bb99 433e d825 a43d 61dc f83d abaf 903d
00000390: 5956 ae3d db5d 9c3d aa50 a0bd 9a25 533c
000003a0: 770f 47bc 2ae0 293e 1331 ed3d 9901 06bd
000003b0: f2b2 71bd 3aa3 26be 125c d63d b3b7 4c3e
000003c0: 6908 d8bc 92dd 5c3e a111 233e 561f cd3d
000003d0: 89ce b43d b4ac 483e 66a8 4a3e 88a0 febc
000003e0: d97c 88bd 62d6 543e 6a65 093e 8c5e b03d
000003f0: 05d1 813e ae9c 2dbd 7c2f 32bd ec51 893d
0.15102828 -0.31895933 0.067108504 0.2782331 0.10188243 0.07378234 -0.1625229 0.18460234
0.018580452 0.09862685 0.062368475 -0.020466054 -0.0765766 0.1357916 -0.027117377 0.13777535
0.24894433 0.19750078 -0.3086989 0.035270613 -0.11036184 0.14624904 0.15386288 0.21742623
-0.20783825 -0.1266359 0.07388643 -0.12484586 0.13816063 -0.026790747 0.15791856 0.1700637
0.016621491 0.020652179 0.1752013 0.0589255 0.16916038 0.05195082 -0.071347274 -0.050322104
-0.0013775101 0.004283654 0.08637075 0.22959149 0.108249836 0.12501965 -0.013625493 0.060585666
0.07298004 0.012105063 0.055422615 0.24388242 -0.16710044 0.113856725 -0.06442056 0.061080728
0.044348113 0.224679 0.024956658 0.16148894 -0.071615055 0.09693003 0.028232973 -0.14809577
0.16886124 0.22724685 -0.11922763 -0.06905617 0.02919045 0.059652846 -0.011531858 -0.29613703
0.07770733 0.031207742 -0.2449117 -0.12886584 0.16990204 -0.05948804 -0.12254155 0.20087071
0.026490707 0.25132117 0.06650023 0.05248049 0.07070464 0.25721484 0.016335165 0.047634143
-0.12134259 -0.026692692 -0.056270853 0.006562792 -0.016761774 -0.013526848 0.03805542 0.15414377
0.016149485 0.07685257 -0.19152842 0.44820616 0.032339003 -0.096025236 0.11101837 -0.12998576
0.24293004 0.055511005 -0.014382533 -0.060886145 0.123592496 0.25924766 0.2616896 -0.20107624
-0.0010701894 0.05188212 0.03812912 0.18760076 -0.0991644 0.11193337 0.0019469828 0.1041141
0.31038064 0.3189717 -0.100598246 -0.16066672 0.071067326 0.3180037 -0.079112895 0.029737903
0.19347072 0.044903632 -0.04360032 0.17136428 0.18016894 -0.23374644 0.1509827 -0.010820511
0.114650816 0.2153416 0.11612789 0.22364551 -0.018460816 -0.0738868 0.055354398 -0.09482865
-0.14726003 0.20118941 0.023764139 -0.011306041 -0.1350909 0.111978956 -0.15140691 -0.04786793
-0.14925931 0.14621267 0.3278761 -0.024935668 -0.07496262 -0.25419563 -0.15792361 -0.06051775
0.026136339 -0.13849838 -0.046114855 0.17773052 0.08924835 -0.039680436 -0.119681545 0.12931235
-0.009628392 -0.03044094 -0.088955775 -0.057646412 0.15504162 0.011133648 -0.1655019 -0.28451177
-0.151286 -0.026165145 -0.0077552255 0.21933578 0.265922 0.15758534 0.05251747 -0.02821883
0.19373612 0.22110474 -0.004801303 -0.063431665 -0.026507441 -0.026525436 -0.13044247 -0.19828787
-0.016349826 -0.08509721 -0.18330851 -0.064052664 -0.032456722 -0.31893238 -0.20464808 -0.05442306
0.1354258 -0.04023907 -0.02471808 -0.03674511 -0.10577716 0.2299389 0.24232161 -0.04719807
-0.16662458 0.012399365 0.21792628 0.19683428 0.10248261 0.10900521 -0.0017529025 0.19392256
-0.12496429 0.20913072 0.015732141 -0.1458965 0.0769224 0.04296014 -0.17083895 0.085764125
0.19101612 0.080150306 0.12151409 0.07064756 0.08512563 0.07635089 -0.078278854 0.012887383
-0.012149683 0.16589418 0.11581626 -0.032716367 -0.059008546 -0.16273203 0.1046678 0.1999195
-0.026371198 0.21568897 0.15924694 0.100157425 0.08828456 0.19597131 0.19790801 -0.031082407
-0.06664438 0.20784906 0.13417593 0.086117834 0.25354782 -0.04238575 -0.043502316 0.067050785

network_body.linear_encoder.seq_layers.0.bias f4 [64]
00000000: 9a66 263d a584 8a3d c3b3 c43b 842a 923d
00000010: 7690 f03c 35b1 b0bc f6dc 6e3d 3858 3c3b
00000020: b672 963d 9fd6 cfbc 75e6 773d 6e00 343b
00000030: 70df 7ebc 2f51 7c3c eb10 a13b d0ff 4f3d
00000040: e813 25bd 19d4 683d 7fab acbc fa00 45bb
00000050: 7e84 5d3d a7f0 5c3d ad39 04bd a6d7 ba3b
00000060: 1939 c4bc 368e 6a3d 6492 773d 5871 8b3d
00000070: f896 36bc 6e19 833c 91c4 103d 9fc0 84bc
00000080: 98ea 563d 26b6 5abd d0d8 bf3c 8c8d 7b3d
00000090: dab2 473d 889d 7b3c 34a2 a4bc eaf5 48bd
000000a0: 86c4 e1bb 0e01 063d 976e 893d 8781 d83c
000000b0: 0bec 83bc 7131 96bc d83f 82bc d395 633d
000000c0: 5f92 453d 84fb a43d 2b51 653d 6aa2 23bd
000000d0: 67be 6a3d 0f1e 6e3d 1dc0 3f3d 0b91 093c
000000e0: ff80 1bbc b200 433d 6f6e 6a3d e1cf 3abd
000000f0: 6885 863d 0f1b aebc 59ec 723d 7f6c 53bc
0.040625192 0.06763581 0.0060028746 0.071370155 0.02936576 -0.021568874 0.058316194 0.0028739106
0.07346098 -0.025370894 0.060522515 0.0027466076 -0.015556201 0.015400215 0.004915347 0.05078107
-0.040302187 0.056842897 -0.02107787 -0.0030060397 0.054081433 0.05394044 -0.032281566 0.005701977
-0.023953008 0.05726453 0.060442343 0.06808728 -0.011144392 0.016003337 0.03534371 -0.01620513
0.05246982 -0.053396367 0.023418814 0.061414286 0.04875455 0.015357383 -0.020096876 -0.049062647
-0.0068898825 0.03271585 0.067105465 0.026428951 -0.016103765 -0.018334122 -0.015899584 0.055562805
0.048235293 0.08055785 0.05598561 -0.039949812 0.057310488 0.058134135 0.046814073 0.008396397
-0.009491204 0.047608085 0.057234224 -0.045608405 0.06568414 -0.021253137 0.05930743 -0.012904285

distribution.branches.0.weight f4 [3, 64]
00000000: 33a1 653d 6631 4f3d 6e9b cbbb 7132 d03d
00000010: 2b30 9abd eaef 28bd 9d2b 603d ba2c 9c3c
00000020: f9ec 8f3d b920 f6bc 0cfd 863d 3208 a73b
00000030: 0dd2 6abd 2e8c ffbb 21f9 a3bd dce6 733d
00000040: 9ce8 25bd e438 973d 52ff 8bbd 065e f3bc
00000050: df5c 4b3d 5924 343d 24a6 99bd 40bd bdbd
00000060: bd50 6cbc 9011 763d 47b1 5a3d 4e89 823d
00000070: dded 54bd 19a4 c53b eee3 283d 7559 37bd
00000080: da5e 2b3d 07a2 59bd 3f9d 69bd 7caf 6e3d
00000090: 0153 533d 0cac e63c 2dc7 13bd 1571 69bd
000000a0: 8c2b 97bd d1b1 423d 2cdf 8c3d 4c02 2a3d
000000b0: a09b c3bc 39e6 b2bc 1d67 83bd d317 903d
000000c0: 24cc 383d 60fc 8d3d 735e 943d db67 8bbd
000000d0: 2577 3a3d 36c5 973d 34b5 ad3d 8841 8abd
000000e0: 1618 1dbd 7ca0 933d 9791 8c3d a4ed 8abd
000000f0: cb1b 503d e69a cfbc 670b 863d 6c3b 8dbd
00000100: 629a 15bd 35c8 2abd d1ec dbbc 6280 93bd
00000110: b7d9 733d 6e4f 133d 0390 84bd f2f7 17bd
00000120: f969 7bbd 2721 f33c 6684 2cbd 32df 143c
00000130: 5001 693d ba7c 4b3c 4c14 8b3d 38eb babc
00000140: bf9c fc3c 0f9f 5abd 7273 723d 9ed9 73bb
00000150: bca0 26bd b791 7fbd f132 2e3d 57a1 dc3c
00000160: d8b0 6f3c 2bfd 83bd 9f84 59bd 6be6 60bd
00000170: 2a00 103b 0278 5dbd 23b1 14bd cd10 933d
00000180: 2a1b 7dbd cc02 203d 3019 573d b249 3dbd
00000190: e377 38bd 991e 163c 2108 883d c76c 503d
000001a0: fefb 333d a04f b5bc b9dd 24bd f5a3 0ebd
000001b0: b297 55b9 f295 e23c 1019 eb3c b59b 28bd
000001c0: b7d4 44bd 6d8a 3fbd 55e2 efbc a59d f63c
000001d0: 08f7 5fbd dbc1 f6bc d26e 14bd a7bc d83c
000001e0: 2da4 0f3d 5a2a 39bd b157 07bd 8825 023d
000001f0: 9cf9 75bc 8081 223b 1cac 72bd 3d94 873c
00000200: 96e0 acbc 0eaa fcbc f28f d23b 037b fabc
00000210: 3bda 943d 74a9 333b a9ab 02bd 0b21 513c
00000220: 16f6 d0bc 4445 cb3c 0311 19bd 8cf6 fd3b
00000230: 86e0 453d 3204 1b3d 7a13 923d fe3f dfbc
00000240: 28a2 b83c 1ec5 8cbc b578 283d 79b0 1d3d
00000250: dfc4 5bbc 7592 c7bc 73ae 293d dff5 603d
00000260: 9f58 563c f3f7 e9bc 55d6 fdbc 2f7b 55bd
00000270: 9c6f 0c3d 442f e2bb 81b7 c4bb 058c 1e3d
00000280: 02ae d5bb 0890 083d 8e0e 9e3c 49b9 3fbd
00000290: ecb4 63bd 7452 b7bb 5501 243c 1296 f73c
000002a0: 0539 053d 7bb9 40bc 554d 36bd 6582 babc
000002b0: 4eee 373d 8b44 f8bc 158f 163d 3668 50bb
000002c0: cc5e afbc 862c 37bd 7f95 a6bc ec4d 3e3c
000002d0: 6a73 ecbc 4a33 8fbc ecec d938 0838 d03c
000002e0: 539d fc3c 8889 4dbd 69e0 edbc 6280 f73c
000002f0: 5a30 19bd 48a7 953b 1f4c 28bd 9472 d53c
0.056061935 0.05058422 -0.006213597 0.10165871 -0.075287186 -0.041244425 0.054729093 0.019064296
0.07027621 -0.0300449 0.065912336 0.0050974125 -0.057329226 -0.007798693 -0.08006502 0.059546337
-0.040505037 0.07383898 -0.06835808 -0.02970792 0.049649116 0.043979976 -0.07502392 -0.09264612
-0.014423546 0.060075343 0.05339172 0.06373845 -0.051984657 0.006031525 0.041232996 -0.044763047
0.041838504 -0.053133037 -0.057034727 0.058272824 0.05159283 0.02815821 -0.03607862 -0.05699261
-0.07381353 0.04753286 0.06878504 0.041506097 -0.023877919 -0.021838294 -0.06416152 0.07035794
0.04511656 0.06932902 0.07244577 -0.06806918 0.04552378 0.07410662 0.084818274 -0.0675078
-0.03835305 0.07208344 0.068637066 -0.067836076 0.050807755 -0.025342416 0.065451436 -0.068960994
-0.036524184 -0.04169484 -0.026846321 -0.072022215 0.0595338 0.035964422 -0.064727806 -0.037101693
-0.06138036 0.029678894 -0.042118452 0.009086417 0.056886017 0.012419874 0.06790981 -0.02281724
0.030836461 -0.053374346 0.05919213 -0.0037208567 -0.040680632 -0.062394824 0.04252905 0.026932402
0.014629565 -0.06444772 -0.053104993 -0.054907244 0.0021972754 -0.054069526 -0.036301743 0.07180939
-0.061793484 0.039065167 0.052514255 -0.04621286 -0.045036208 0.0091625685 0.066421755 0.05088499
0.04394149 -0.022132695 -0.040250514 -0.03482433 -0.00020369774 0.02765939 0.028698474 -0.04116412
-0.048054423 -0.046762872 -0.029282728 0.030104468 -0.054678947 -0.030121734 -0.0362385 0.026457144
0.03506868 -0.045206405 -0.033042613 0.031774074 -0.015013125 0.0024796426 -0.059246168 0.016550178
-0.021103185 -0.030842807 0.006425851 -0.030576235 0.07268187 0.0027414234 -0.03190199 0.012764226
-0.025507968 0.024813302 -0.03736974 0.007750338 0.048309825 0.037845798 0.07132621 -0.027252194
0.02253826 -0.017183837 0.04113074 0.038498376 -0.013413637 -0.024361828 0.041426133 0.05492198
0.013082652 -0.028560614 -0.03098599 -0.05211943 0.034286126 -0.006902607 -0.0060033207 0.03870775
-0.0065209875 0.033340484 0.01929405 -0.04680756 -0.055592462 -0.005594546 0.010010083 0.030222926
0.03252508 -0.011762972 -0.044507343 -0.022767255 0.044905 -0.030306121 0.036757547 -0.0031800396
-0.021407507 -0.044720195 -0.020334957 0.011615258 -0.028863627 -0.017480511 0.000103914965 0.025417343
0.030836737 -0.05017999 -0.029037671 0.030212585 -0.037399627 0.0045670606 -0.04108822 0.026055612

distribution.branches.0.bias f4 [3]
00000000: 44bf 6e3d f079 17bd bd74 eebc
0.058287874 -0.036981523 -0.0291084

critic.network_body.linear_encoder.seq_layers.0.weight f4 [64, 67]
00000000: d593 59bd ec0e 8c3e f9cf 27bd ec2a 1b3d
00000010: 1b8a 843d 2c56 f4bd a18b 723d 3fed 273e
00000020: 14b6 abbc 0151 eebd 9134 2f3d 6a88 0cbe
00000030: 2c13 03bd a5ee 883d 9f7e 89bd 8b59 98bd
00000040: 4aed a73d 6763 753d 003f b6be 01c2 003e
00000050: e9ff 2f3d d660 6ebe c35a c93d abb4 43be
00000060: 6ec8 1dbd 41ca 913b 3280 da3d 6768 623e
00000070: 6be7 073e 59c2 293e 2715 eebd 2451 c73d
00000080: d120 f83d 9b44 153d ae67 afbd 7d86 71be
00000090: 03c8 f23d 005a ca3d 0bba 7d3d f1e0 173b
000000a0: 3d62 f7bb 8b3d a3be c178 ebbd f068 c2bd
000000b0: 2b78 8ebc 90e5 ebbd a656 d3bc b6c1 27bd
000000c0: c3f7 7c3e 9c46 73bd ae92 e5be bdef 50bd
000000d0: 439f fcbd 7335 bdbd 1e8f b93d 8096 cf3d
000000e0: ef7c 52bc 9e02 a0bd 5f1e 3abd 1f99 043d
000000f0: 9e8c 083e d471 df3d 3c84 44be 76da ca3b
00000100: fc50 f33d 858e 1f3e ffb0 cbbc 5eee 283e
00000110: de48 e8bd 15ef 183e 3ae0 df3d fa47 d13c
00000120: cebb a43c d34a a53e 1854 30bd b26a 983e
00000130: 33da 033e 3d4e 51bd 7e08 4b3d 6fa0 9cbc
00000140: dd0c b4bd 0e02 6ebd 6033 8a3d 8ef0 bfbd
00000150: 54a1 66bd f0c4 843d 0ccf 423e ef08 cfbd
00000160: 9aa9 74be 7ec5 d93d 1862 87be 8876 b13c
00000170: ce9f 0e3e 43dc 8fbd 564f a3bd 7e68 223e
00000180: 8dcf 483d 8344 903b a8cc a4be 433d dcbd
00000190: e5da 1fbe 8e3e 4c3d 09f9 07be 7431 b9bd
000001a0: 3965 8abd ef11 f03d 1d95 6e3c deea 94bc
000001b0: fd04 583c 188a 99bc 96fd 953d 20ab 3a3e
000001c0: 2666 a13d 9555 2c3e f497 d6bd 8147 f73c
000001d0: 1ec7 37be 024f 1abe 4f7b 663d 8e1c 84bc
000001e0: dcd1 76bd 9db4 2dbe a4ab 2e3d 1747 22bc
000001f0: d298 25be 3210 51be 6455 7c3d 86f6 4fbe
00000200: 532d eabd 5925 a73e 62a1 39bb 99ef bcbd
00000210: 1c50 bc3d 3e47 03be 0a3b 38bd 6d9c 83bd
00000220: 048f d9bd 6a53 1dbe 3c5d 60be f564 223d
00000230: 2fc9 b6bd 9bc8 cc3d 24f3 5b3d dc57 283e
00000240: 06a6 7ebc 0b09 d53d 6b75 57bd dd65 f43c
00000250: d2a1 b83d 5921 093e 0651 d63d ea7a c73d
00000260: 109a 32be 804e 0fbd f249 da3d 2492 d8bd
00000270: 7564 373e e735 173d b5a8 713d 8373 053c
00000280: 861a c03d 6bd4 6c3e a611 82bd e40f a3bd
00000290: 91ba 403e 15e7 afbc cea4 1bbe 5596 d2bd
000002a0: a145 1b3d e87d df3d 7429 763e b1b6 a33c
000002b0: 89de 433e 83e8 893d a9c6 503e d892 1e3e
000002c0: 79c9 5a3d c80c 3b3e cfb9 003c 656b e43d
000002d0: 97e7 603c 9873 acbb ff94 d7bd 31a4 e63c
000002e0: 39c9 943d 1413 fa3d f036 fcbc 6fc1 983c
000002f0: 7af7 05bc 90b7 55bb 7c2a f5bc 9612 55be
00000300: 6a48 40bc c7c2 03be b2af 413e f973 c0bd
00000310: 0641 90be 8e4f 533e 2627 83bd f93d 9abd
00000320: 36a0 e2bd 6ce4 1c3e 0b2b 403d 038f 9e3e
00000330: ed0b 363e 022f 6ebd 2d8d cd3c 14ab 51be
00000340: 90bd cd3c 54db ab3d eca9 2fbd 7e0b e8bd
00000350: 6c55 abbc e753 b4bd 7e42 0d3e e7ad 8abb
00000360: 5b4e 4d3d 8093 143e ea5c 37be 4427 e73d
00000370: 10d9 083d 8fbd 47bd 18dd 603d e8a5 8a3e
00000380: c330 e2bd 328b 0dbe f259 153d 04e0 723d
00000390: 8ce8 393e 3985 5fbe d6ae d3bd 4f54 fb3d
000003a0: dcf4 613d 85b9 d03d 42fe 613e 4c1a 23be
000003b0: 3fb9 1d3e 7942 f0bb 35b1 093e 1615 ca3d
000003c0: 3c3c bbbc d0cc 0b3c adbe 95bd f713 d4bc
000003d0: ab1d fbba 2f0c 20be 9d2e 96bd 3e0b 403d
000003e0: 94df 02be 1129 b3bd 0a66 32bd 805a e23d
000003f0: 8359 3d3e 930d a7bb 6650 0e3e 4362 f43d
-0.0531195 0.27355134 -0.040969823 0.03788273 0.06471654 -0.119304985 0.05921519 0.16399096
-0.020960845 -0.11636544 0.04277474 -0.13723913 -0.032000706 0.06686143 -0.06713604 -0.07438954
0.08199556 0.05990925 -0.3559494 0.12574007 0.042968664 -0.23279127 0.098317645 -0.19111888
-0.038521223 0.0044491594 0.106689826 0.22110139 0.13271873 0.16578044 -0.11625128 0.09732273
0.12115634 0.03644238 -0.08564697 -0.2358646 0.118545555 0.098804474 0.061945003 0.0023174847
-0.0075495527 -0.3188289 -0.11497641 -0.094926715 -0.017391285 -0.11518395 -0.025798153 -0.04095622
0.24703889 -0.05939351 -0.4483847 -0.051009882 -0.12335064 -0.0923871 0.090605006 0.101361275
-0.012847169 -0.07812999 -0.04543912 0.03237259 0.13334891 0.10910383 -0.19191068 0.0061905934
0.11880681 0.1558171 -0.024864672 0.1649718 -0.11342023 0.14934953 0.1093144 0.025547016
0.020109084 0.3228365 -0.043048948 0.29768902 0.12876205 -0.051100004 0.049568646 -0.01911947
-0.08791516 -0.05810743 0.0674808 -0.09372054 -0.0563062 0.06482875 0.19024295 -0.10109126
-0.23892823 0.10633372 -0.26442027 0.021662965 0.13928148 -0.070244335 -0.079741165 0.15860173
0.04902606 0.0044026985 -0.3218739 -0.10753872 -0.15610845 0.049864344 -0.13278593 -0.090426356
-0.06757588 0.117221706 0.014561919 -0.0181784 0.013184783 -0.018742606 0.07323758 0.18229342
0.078808114 0.16829522 -0.104782015 0.030185463 -0.17947051 -0.15069202 0.05626994 -0.016126897
-0.06025873 -0.1696343 0.042644158 -0.009904644 -0.16171578 -0.20416334 0.061604872 -0.20308885
-0.11434426 0.32645682 -0.0028324951 -0.09225387 0.09194967 -0.12820145 -0.04497818 -0.0642632
-0.10622981 -0.15363851 -0.21910566 0.03964706 -0.089250915 0.099992 0.053698674 0.16439766
-0.015542513 0.104021154 -0.052602213 0.029833728 0.0901524 0.13391627 0.10464673 0.09740241
-0.17441583 -0.034986973 0.10658635 -0.10574749 0.17909415 0.03691664 0.058998782 0.008145216
0.09380059 0.23127906 -0.063510224 -0.07962015 0.1882117 -0.021472493 -0.15199587 -0.1028258
0.0379082 0.109126866 0.2403925 0.019984575 0.19127859 0.06733801 0.20388283 0.15485704
0.053414796 0.18266594 0.0078568 0.111532964 0.01372709 -0.0052628033 -0.105264656 0.028154464
0.07264943 0.1221067 -0.030787915 0.018646924 -0.008176679 -0.0032610632 -0.029927485 -0.20807871
-0.011736015 -0.1286727 0.18914679 -0.0939712 -0.2817461 0.20635816 -0.06403951 -0.075313516
-0.11065714 0.15321511 0.04691605 0.30968484 0.17777987 -0.0581503 0.025091732 -0.20475417
0.025114805 0.08391443 -0.04288666 -0.11330317 -0.020914756 -0.088050656 0.13794896 -0.0042321566
0.050123554 0.14509392 -0.17906538 0.11286786 0.033410132 -0.04876476 0.05489835 0.270797
-0.11044457 -0.1382263 0.03646273 0.05929567 0.18155116 -0.21828164 -0.10336082 0.1227194
0.055165157 0.10191635 0.22069648 -0.15928 0.15402697 -0.007332143 0.13446505 0.09867303
-0.02285587 0.008532718 -0.07311759 -0.025888426 -0.0019158622 -0.15629648 -0.073331095 0.04688572
-0.12780601 -0.08748067 -0.043554343 0.11052418 0.18491177 -0.0050980537 0.13897857 0.119328044

critic.network_body.linear_encoder.seq_layers.0.bias f4 [64]
00000000: 427e bfbc aed1 8b3b c69b b93b bc88 92bc
00000010: b7ba babb a295 8dbc 068d c5bc 3120 7cbc
00000020: f97d 87bc 59a0 24bc f46e 233c 3bb1 173d
00000030: 3a73 033c 6cdf ff3c 832e 8f3b 4aa8 f6bc
00000040: 676e 0b3c 5bd3 e93b fe13 62bc 7639 82bc
00000050: 0d40 51bc ea1d b73c 8a88 fe3a 856b 9ebb
00000060: 15f9 a53b 19be 6ebc 58e2 823a a6ad a33c
00000070: b0c2 09bd 1675 183d 2bf1 03ba 5bbe aa3a
00000080: 46cc 50bb c393 c23c e0b3 8cbb 822b 27bd
00000090: 9b16 a23c 0132 7abc 75de 97bb 67c9 5d3c
000000a0: 57ea 79bc 85b7 213c bc09 d7ba 903d 9ebc
000000b0: 9bcf 973c 38c6 943c f6d7 dd3b c59f 0e3b
000000c0: 1a5d 6bbc 1b7d a1bb 3070 a9bc d007 263b
000000d0: bc1c 3c3c ac62 b5bc 5c08 25bc 83d2 a13b
000000e0: dea8 46bc fffe 4b3c da84 15bc 0a99 d33b
000000f0: e838 a0bc 4234 8dbc 456a 48bc 5514 2a3d
-0.023375634 0.004266939 0.0056643216 -0.017887466 -0.0056985277 -0.017283265 -0.024115097 -0.015388534
-0.01653956 -0.0100479955 0.009975184 0.037034255 0.008023078 0.031234466 0.0043695583 -0.030109543
0.008510209 0.0071357912 -0.013798712 -0.01589654 -0.012771619 0.022353131 0.0019419354 -0.0048345947
0.0050650933 -0.01457169 0.0009985669 0.019980263 -0.033632934 0.037221037 -0.000503319 0.0013026701
-0.0031860038 0.023752099 -0.0042939037 -0.040812977 0.01978617 -0.015270711 -0.0046346732 0.013536788
-0.015253625 0.009870415 -0.0016406099 -0.019316465 0.018531611 0.018160924 0.0067701293 0.002176271
-0.014365459 -0.004928244 -0.020683378 0.0025334246 0.01148146 -0.022141777 -0.010072794 0.004938425
-0.012125222 0.0124509325 -0.009125913 0.0064574527 -0.019558385 -0.017236833 -0.012232368 0.041523296

critic.value_heads.value_heads.extrinsic.weight f4 [1, 64]
00000000: b6d5 55be 9571 93be 5c9e 7f3e 41ec 6abe
00000010: 5261 7abd 9b8c 903d 507f 11bc a7b1 03be
00000020: 429c c9ba 7afe 223e 0d63 8fbe 8f54 5abe
00000030: 249a 6a3e d06b 1c3e ff16 573e 6d31 b9bd
00000040: 25d6 813e 82ee 793e baab 5fbd 4775 5abe
00000050: f66e 91bd 4b45 ca3d 27f2 cc3d 4844 a3bd
00000060: 82a5 96be e62c 07be 898a 833e fa18 1e3e
00000070: 95a0 11be dd22 a83e c22d 35be 5592 4f3e
00000080: 3350 433e daaf 223e cd89 07be 218a 01be
00000090: ad2e 233d d5f7 46be 7384 bbbd 0f46 a03d
000000a0: e23e 69be 52ed f13d 7d84 253d a32e 92bd
000000b0: c93c a9be 233b 8a3d a12b 493d 7cfc a4be
000000c0: 7998 cdbd 7ee8 813e f060 5cbe cc43 0d3e
000000d0: b44b 8d3e 385c 25be 70fc 32be b072 293d
000000e0: 5044 69be 9d9f 213e d99c ddbd 3668 a03d
000000f0: c145 83be 595a 7abd ccf9 87be 666e 7e3d
-0.20882306 -0.28797594 0.24962753 -0.22941686 -0.061127968 0.07058068 -0.008880451 -0.12860738
-0.0015381651 0.15917388 -0.28005257 -0.21321319 0.22910362 0.15275502 0.21004866 -0.0904263
0.25358692 0.2440739 -0.05460713 -0.213338 -0.07101242 0.09876498 0.100071244 -0.07972008
-0.29423147 -0.13200721 0.2569163 0.15439215 -0.14221413 0.328391 -0.17693236 0.20270665
0.19073562 0.15887395 -0.1323616 -0.12650348 0.039839435 -0.19430478 -0.09156122 0.078258626
-0.22777894 0.118128434 0.040409554 -0.071378015 -0.33054188 0.06749561 0.049113873 -0.3222388
-0.100388475 0.2537269 -0.21521354 0.13795394 0.2759682 -0.1614846 -0.1747911 0.04136914
-0.22779965 0.15783544 -0.10820932 0.07832377 -0.25639156 -0.06112132 -0.26557767 0.062117003

exp_avg f4 [64, 67]
00000000: 9699 dc37 6f86 cd37 2415 1538 bc18 b6b5
00000010: 0000 0000 c0a0 ec35 a553 7537 0000 0000
00000020: 10b2 a435 1eb9 8b36 e098 4338 771c 5d38
00000030: 340a 3238 4617 0c37 167b 9037 28d2 02b7
00000040: 8ac4 7538 2acc 5c38 89cd 0f38 f784 8a37
00000050: 5fc2 a037 39cc 03b7 1203 7638 79e3 7638
00000060: 1124 a836 820b 4038 825e 4238 b4f5 08b7
00000070: 714d 7738 2aa8 7638 db26 d736 242b 3a38
00000080: d2be 3f38 5463 51b7 6db4 8438 5db6 8238
00000090: 40f2 e737 c42d c237 7ef9 d137 9976 8837
000000a0: b7d4 1038 f688 1738 e5bd 7d37 8aa0 1538
000000b0: d11e 1e38 1446 ce36 3e47 3b38 25b5 3a38
000000c0: b8f4 5038 5f69 8335 4c45 0d37 e25a 0037
000000d0: 49f9 3438 610e 3538 6f7e 5637 6870 1f38
000000e0: dd0d 2438 ead8 eb36 e794 3738 888a 3738
000000f0: c1c0 6bb7 1a00 8838 82f3 8438 1197 203a
00000100: 0000 0000 0400 0080 bd59 d438 d4b6 4d38
00000110: 80ed 0238 8309 3238 72df d5b5 0000 0000
00000120: 6e9e 3a36 6ee0 0938 0000 0000 9a77 d735
00000130: 2ec4 b836 e8c5 9c38 0721 ae38 dc18 8d38
00000140: 77ca 5937 03fa c737 7269 e9b6 c3e8 b638
00000150: 8e24 aa38 c3e4 8138 a3b5 9937 f0e7 be37
00000160: 56f6 52b7 f4b0 c238 b77c c338 6aba 9b37
00000170: 9163 8138 875a 8338 76f8 3cb7 38f1 bf38
00000180: 0c14 c038 b8a7 a437 7950 7e38 8c08 8338
00000190: 2514 9ab7 35d7 ce38 38e1 cb38 4c39 5338
000001a0: 0fd6 fa37 4757 3938 8bb3 a937 8eca 7b38
000001b0: 0760 8238 df47 b537 6800 7638 3420 8238
000001c0: f025 d236 ca2f 9b38 f3e2 9a38 59c3 9b38
000001d0: 0fed c836 251a 8f37 c442 0437 d2c9 9738
000001e0: 1ad7 9738 3f1c 0538 1488 4b38 338b 5538
000001f0: 82d0 f236 2025 9938 5123 9938 1df5 b9b6
00000200: 7cf1 b338 a026 b138 5c33 6b3a 0000 0000
00000210: 0400 0080 b4ae ef38 75f9 ca34 7c5a a5b2
00000220: 25b2 9c34 65ba f8b2 0000 0000 5d86 5632
00000230: 7468 92b2 0000 0000 18a4 6132 0cd7 9234
00000240: 0a33 b733 290b f533 272e 46b3 9769 d934
00000250: 7081 8e34 1060 8b34 fe0e d533 b091 0634
00000260: 81ec 0433 3f06 b034 ce7d c334 4039 3834
00000270: 610e 4934 98eb 4734 6bd2 3cb4 8386 0f35
00000280: c615 0935 455e 8b34 2b16 d533 3313 dd33
00000290: 49cc 52b4 fa04 1535 5ff9 0c35 0327 9634
000002a0: 33f3 a933 593f b133 eed2 6134 af74 1f34
000002b0: bc48 b734 d964 c2b3 033d f134 de07 fe34
000002c0: bfa4 04b4 187b 0135 d486 df34 fff4 85b3
000002d0: 1021 e234 9f9e e234 57aa a8b3 66ce ea34
000002e0: 0250 ed34 cda4 99b3 050d e734 9103 e634
000002f0: 9288 3834 0dbf 4834 1c74 6734 f8bb 83b3
00000300: cb92 e134 06d8 e034 715f 9c34 7811 9133
00000310: dfee d333 1761 03b4 0000 0000 0400 0080
00000320: e27e 07b5 05fa b638 547c 8838 76a9 b638
00000330: f9a9 2db6 0000 0000 9405 b136 ba5a 7138
00000340: 0000 0000 6d74 5836 3852 3437 0a76 1439
00000350: ef40 2439 ab22 0339 13c4 e437 0311 4d38
00000360: 69c3 5bb7 6277 2d39 b734 2139 0f7e ea38
00000370: 95f0 2938 e3ba 4d38 9969 cab7 6008 3939
00000380: 5bcc 3939 3e5f 1538 bbc6 f438 f229 fb38
00000390: e175 afb7 e9a9 3539 5ccb 3539 c430 1638
000003a0: f85d f438 2089 fd38 96c9 0db8 922d 4339
000003b0: 137d 4039 abd7 cf38 5f3d 5f38 54b4 9938
000003c0: 4454 5438 3a4c d538 5e0e de38 a690 4e38
000003d0: 092e d838 a299 e438 a813 b837 b8b8 0839
000003e0: 927b 0839 af65 1839 83af ea36 619a e037
000003f0: e214 d037 92b8 0539 7bcb 0539 9f22 6938
2.6297563e-05 2.4500505e-05 3.5544057e-05 -1.3567255e-06 0.0 1.7630155e-06 1.4622613e-05 0.0
1.2270775e-06 4.1640733e-06 4.6634e-05 5.2717016e-05 4.244801e-05 8.350069e-06 1.7223454e-05 -7.797535e-06
5.8595593e-05 5.264223e-05 3.4285276e-05 1.6512799e-05 1.9163997e-05 -7.855758e-06 5.865383e-05 5.886282e-05
5.010989e-06 4.5787085e-05 4.634122e-05 -8.163439e-06 5.8961512e-05 5.8807585e-05 6.4120227e-06 4.4386034e-05
4.5715664e-05 -1.2480497e-05 6.3278574e-05 6.232851e-05 2.7650152e-05 2.3147913e-05 2.503092e-05 1.626769e-05
3.453038e-05 3.612876e-05 1.5124188e-05 3.5673882e-05 3.7698836e-05 6.1474366e-06 4.4650624e-05 4.451456e-05
4.9818977e-05 9.790928e-07 8.420389e-06 7.650555e-06 4.314751e-05 4.3167154e-05 1.2784832e-05 3.801324e-05
3.9113558e-05 7.028798e-06 4.3769276e-05 4.3759617e-05 -1.40519705e-05 6.485004e-05 6.339607e-05 0.0006126026
0.0 -6e-45 0.00010125663 4.904608e-05 3.1215604e-05 4.2447366e-05 -1.5934768e-06 0.0
2.7808378e-06 3.287236e-05 0.0 1.6053557e-06 5.5064656e-06 7.4755226e-05 8.3031184e-05 6.728034e-05
1.2981348e-05 2.383907e-05 -6.9562166e-06 8.7217915e-05 8.1130405e-05 6.1938095e-05 1.8323602e-05 2.275777e-05
-1.257433e-05 9.283601e-05 9.3215545e-05 1.8564246e-05 6.169745e-05 6.263429e-05 -1.12635225e-05 9.15252e-05
9.1590075e-05 1.9628424e-05 6.0633265e-05 6.248159e-05 -1.8367611e-05 9.862931e-05 9.7217446e-05 5.0359682e-05
2.9902001e-05 4.418872e-05 2.0229976e-05 6.0031707e-05 6.2167695e-05 2.1610349e-05 5.865135e-05 6.204881e-05
6.262904e-06 7.399877e-05 7.385565e-05 7.427362e-05 5.9880617e-06 1.7059103e-05 7.883358e-06 7.237833e-05
7.240307e-05 3.1735977e-05 4.8525704e-05 5.0912797e-05 7.2364355e-06 7.3025236e-05 7.302187e-05 -5.5419646e-06
8.580365e-05 8.447212e-05 0.0008972192 0.0 -6e-45 0.00011428949 3.7806936e-07 -1.9249676e-08
2.9186882e-07 -2.8955762e-08 0.0 1.248699e-08 -1.7044137e-08 0.0 1.3134034e-08 2.7351086e-07
8.5308855e-08 1.14107316e-07 -4.6142443e-08 4.0496226e-07 2.654374e-07 2.5960662e-07 9.9213125e-08 1.2532723e-07
3.0948744e-08 3.27871e-07 3.6413115e-07 1.7157163e-07 1.8724815e-07 1.8619028e-07 -1.7585414e-07 5.346739e-07
5.106816e-07 2.5959358e-07 9.922618e-08 1.0294607e-07 -1.9632093e-07 5.551407e-07 5.2516947e-07 2.7968062e-07
7.9139134e-08 8.253728e-08 2.1031494e-07 1.4850478e-07 3.4139327e-07 -9.052173e-08 4.493414e-07 4.731691e-07
-1.2353392e-07 4.823537e-07 4.1635087e-07 -6.23786e-08 4.2119837e-07 4.2211192e-07 -7.854094e-08 4.373607e-07
4.4202903e-07 -7.154595e-08 4.3036576e-07 4.2843433e-07 1.718602e-07 1.8695955e-07 2.1555792e-07 -6.134354e-08
4.2016322e-07 4.188043e-07 2.9126707e-07 6.755266e-08 9.8689036e-08 -1.2235647e-07 0.0 -6e-45
-5.047606e-07 8.725006e-05 6.508143e-05 8.710001e-05 -2.5877946e-06 0.0 5.2756604e-06 5.7543373e-05
0.0 3.2254277e-06 1.0747979e-05 0.00014158353 0.00015664448 0.00012506048 2.7271022e-05 4.8891652e-05
-1.3098915e-05 0.00016543039 0.00015373794 0.0001118147 4.05168e-05 4.904986e-05 -2.412945e-05 0.00017646095
0.00017719103 3.561307e-05 0.00011671843 0.000119764256 -2.0916517e-05 0.00017324802 0.00017337262 3.5808203e-05
0.0001165233 0.000120895216 -3.380476e-05 0.00018613625 0.0001835714 9.9107005e-05 5.32245e-05 7.329197e-05
5.0623217e-05 0.0001017083 0.00010588461 4.924894e-05 0.00010308257 0.000109005035 2.1943662e-05 0.00013038784
0.00013016004 0.0001453373 6.9941757e-06 2.677477e-05 2.4805257e-05 0.00012752626 0.00012759671 5.5583772e-05

exp_avg_sq f4 [64, 67]
00000000: f2ad e834 b518 3434 5aee 5234 bf6c 9e32
00000010: 0000 0000 12a6 3e30 dcbe 5d33 0000 0000
00000020: bbef 3730 981c dc33 aa3d 0635 b3f7 0a35
00000030: 0cff 7434 96c1 c734 bedf da34 3092 a833
00000040: eeec 0a35 c15d 1135 62fe 6934 04fa ca34
00000050: a001 ce34 aed9 4732 9e40 1e35 3c42 1e35
00000060: 2b34 ae33 44cc 0b35 bfd5 0b35 f437 fa31
00000070: ac58 1f35 6466 1f35 3b69 0934 367e fd34
00000080: e7c2 0035 7945 e531 21e8 1f35 58e6 1f35
00000090: c2a0 c734 dc98 7434 078d 9334 e900 b733
000000a0: 3f4c 0a35 c3b2 1035 d31b a034 bce1 a434
000000b0: 2d1d ba34 1e4a 6a32 553e 1c35 415b 1c35
000000c0: 8dd5 9f33 29ae 0a35 0980 0b35 09ef a832
000000d0: f296 1c35 9e98 1c35 db3f 9533 f6a2 0c35
000000e0: c7f7 0c35 9d3e 6231 f5e1 1f35 5be9 1f35
000000f0: 55f9 d433 9e77 0635 00a5 0635 62a4 8136
00000100: 0000 0000 e8f2 db15 cbda cb34 e20f 4735
00000110: b6c5 b834 7290 d034 f712 2e33 0000 0000
00000120: 3975 aa30 a248 df33 0000 0000 1c4d a430
00000130: 83b2 8034 946b 6335 bf99 6c35 b3ae dd34
00000140: 7da5 3335 f1df 4535 ace7 5434 6a4d 6b35
00000150: 6aad 7835 5174 ed34 ee06 2a35 1e17 2d35
00000160: b96f 7233 95df 8935 6e13 8a35 f2b2 6434
00000170: b806 6b35 3a18 6b35 232a 2d33 0d29 8c35
00000180: 0c40 8c35 45b2 8b34 352f 5c35 75fb 5e35
00000190: 7459 1a33 fa4f 8d35 db50 8d35 70a7 2535
000001a0: 6ca0 f734 7fc5 1135 0a8b 2934 3db6 7735
000001b0: f1d2 8035 1c65 1635 03d8 0d35 1bb3 2135
000001c0: efb6 d932 2ebe 8c35 7cde 8c35 27bc 2e34
000001d0: 29da 7135 339f 7335 ff76 0f33 fc53 8d35
000001e0: 845a 8d35 fcc3 4b34 19d1 6b35 4aa2 6c35
000001f0: ea4c e431 a212 9035 931a 9035 8e7f 8534
00000200: 35c4 5f35 de43 6035 11c0 0437 0000 0000
00000210: d51b 6717 c973 1c35 df92 8432 3af2 b231
00000220: 9050 dc31 39e5 b930 0000 0000 6b9c cb2d
00000230: 7390 b031 0000 0000 5049 af2d 24c8 d231
00000240: a39a 7832 7a81 8332 c543 3232 65d6 2c32
00000250: ee8d 4732 8a49 c231 c03f 7e32 24ab 8c32
00000260: f1da 8131 3412 9032 3437 9132 4bff dd2f
00000270: bd13 af32 2daa ae32 3a84 9b31 5180 8932
00000280: 8774 8932 b2a1 752f de75 ae32 d57e ae32
00000290: 19de 0d32 702d 5832 fe99 5c32 750d 1b30
000002a0: ca8b ab32 809b ab32 190b 1d32 4642 4532
000002b0: 3845 6532 23d9 8d31 9954 8d32 668b 9532
000002c0: 1a71 e231 b480 7732 9165 8932 8a79 6e30
000002d0: f7b6 a932 a4a6 a932 ae02 bb31 e8b3 8032
000002e0: 8fab 8232 9118 5231 c849 9932 727f 9932
000002f0: d42f 9131 71f3 8a32 4d58 8b32 0079 1d30
00000300: c59f aa32 f0cf aa32 39fa 0532 ed99 6132
00000310: f7ec 6132 9f99 0934 0000 0000 6479 b715
00000320: 4157 b632 9047 1036 7277 8f35 1f9b a235
00000330: 21cf cd33 0000 0000 e13c 7f31 4ca2 a534
00000340: 0000 0000 97e6 7331 ab04 2d35 8319 2e36
00000350: a746 3436 9de4 9d35 dd49 0936 41bd 1736
00000360: 70bb 1235 ea31 3236 bd14 3c36 91ef a435
00000370: 13c4 0336 c3df 0536 fe0a 2134 7c8f 4e36
00000380: 4cdf 4e36 9b2a 0f35 472b 3536 ac30 3536
00000390: f12d 0234 dc7f 5036 849c 5036 02b4 4735
000003a0: 3211 2636 888c 2836 3c92 f733 19b7 5136
000003b0: e8b7 5136 af3f ee35 bff6 bf35 0321 e235
000003c0: c9c9 ef34 45d8 3936 5914 4236 2176 dc35
000003d0: 3a0c d735 4590 f635 d40f 8b33 e200 5236
000003e0: 9234 5236 c724 e234 df16 3836 4561 3936
000003f0: 6ec3 0234 4fde 5036 34e7 5036 569b fc34
4.333993e-07 1.6772795e-07 1.9644486e-07 1.8443073e-08 0.0 6.93576e-10 5.1629158e-08 0.0
6.691569e-10 1.02497495e-07 5.0008623e-07 5.1769456e-07 2.2817056e-07 3.720749e-07 4.0768458e-07 7.849701e-08
5.1753784e-07 5.415314e-07 2.179236e-07 3.7807342e-07 3.8371672e-07 1.1632819e-08 5.8953617e-07 5.895597e-07
8.111996e-08 5.207878e-07 5.2092577e-07 7.2823187e-09 5.936115e-07 5.9381114e-07 1.2797402e-07 4.7216753e-07
4.7967336e-07 6.6726753e-09 5.956991e-07 5.956731e-07 3.7183605e-07 2.2779881e-07 2.7483495e-07 8.521767e-08
5.151996e-07 5.390431e-07 2.9822567e-07 3.0711624e-07 3.4666428e-07 1.3637445e-08 5.8205234e-07 5.824732e-07
7.442859e-08 5.166244e-07 5.196785e-07 1.9666475e-08 5.8334183e-07 5.8336616e-07 6.9499684e-08 5.2391204e-07
5.251463e-07 3.292292e-09 5.9560927e-07 5.957169e-07 9.9173725e-08 5.0092956e-07 5.0158997e-07 3.8636363e-06
0.0 8.8836634e-26 3.797089e-07 7.415639e-07 3.4416524e-07 3.8848117e-07 4.052978e-08 0.0
1.2402445e-09 1.03974585e-07 0.0 1.1954486e-09 2.3971742e-07 8.4720637e-07 8.814058e-07 4.1291568e-07
6.6923513e-07 7.3714097e-07 1.982832e-07 8.7656974e-07 9.263955e-07 4.422932e-07 6.334002e-07 6.448116e-07
5.6446627e-08 1.0272366e-06 1.0287456e-06 2.1299255e-07 8.75541e-07 8.7579576e-07 4.0318024e-08 1.044276e-06
1.0449453e-06 2.6020476e-07 8.202508e-07 8.306736e-07 3.5937276e-08 1.0528595e-06 1.0528851e-06 6.1710944e-07
4.6124057e-07 5.4304104e-07 1.5789934e-07 9.227986e-07 9.598135e-07 5.602649e-07 5.284093e-07 6.0237807e-07
2.5345313e-08 1.0486162e-06 1.0495564e-06 1.6273462e-07 9.009696e-07 9.075622e-07 3.340301e-08 1.0529761e-06
1.0531662e-06 1.8977147e-07 8.78486e-07 8.815301e-07 6.6444175e-09 1.0734259e-06 1.073657e-06 2.486599e-07
8.335949e-07 8.354526e-07 7.912532e-06 0.0 7.4675255e-25 5.828302e-07 1.5433612e-08 5.20802e-09
6.4120016e-09 1.3525671e-09 0.0 2.3147892e-11 5.138696e-09 0.0 1.9927754e-11 6.1345578e-09
1.447066e-08 1.5309286e-08 1.0376373e-08 1.0060465e-08 1.1615596e-08 5.6545035e-09 1.4799241e-08 1.637597e-08
3.779285e-09 1.6772084e-08 1.6905325e-08 4.0381062e-10 2.0381657e-08 2.0333653e-08 4.526126e-09 1.600725e-08
1.600189e-08 2.2340066e-10 2.0309866e-08 2.0313943e-08 8.257779e-09 1.2583186e-08 1.2840699e-08 5.6407795e-10
1.9970589e-08 1.9977733e-08 9.141126e-09 1.1481978e-08 1.3345293e-08 4.1283257e-09 1.6453031e-08 1.7409274e-08
6.590324e-09 1.4406556e-08 1.5995086e-08 8.6756613e-10 1.9757392e-08 1.9749969e-08 5.442721e-09 1.4982973e-08
1.5212008e-08 3.0572986e-09 1.7845096e-08 1.78695e-08 4.225493e-09 1.6176019e-08 1.6221884e-08 5.728822e-10
1.986326e-08 1.9885164e-08 7.798513e-09 1.3131722e-08 1.3150603e-08 1.2815006e-07 0.0 7.410463e-26
2.1227267e-08 2.1499327e-06 1.0689093e-06 1.2115087e-06 9.583733e-08 0.0 3.714199e-09 3.0851731e-07
0.0 3.549223e-09 6.4454315e-07 2.594287e-06 2.6863215e-06 1.1763947e-06 2.0457585e-06 2.2610914e-06
5.4661996e-07 2.655312e-06 2.8026254e-06 1.2288675e-06 1.9634651e-06 1.994879e-06 1.4998292e-07 3.077991e-06
3.0826368e-06 5.333365e-07 2.6996292e-06 2.6999433e-06 1.2123907e-07 3.106884e-06 3.108552e-06 7.439522e-07
2.4745937e-06 2.511575e-06 1.1528434e-07 3.1250004e-06 3.1250474e-06 1.7750916e-06 1.4302422e-06 1.684792e-06
4.4664037e-07 2.7693034e-06 2.8920097e-06 1.6425657e-06 1.6022307e-06 1.8370416e-06 6.475571e-08 3.1292952e-06
3.1323038e-06 4.212254e-07 2.743145e-06 2.7623767e-06 1.217829e-07 3.1123816e-06 3.1128993e-06 4.705168e-07

exp_avg f4 [64]
00000000: 0210 5538 2a52 a838 d1a3 c034 2dbb 1f39
00000010: b0ad a437 c078 22b8 4311 d138 1ca0 0834
00000020: 2fe5 e838 086e 2bb8 52b4 e038 14c9 55b5
00000030: 3666 5237 30aa ffb7 4927 6e37 e370 be38
00000040: 446c e2b6 ccb3 ef38 d49c 8037 1b2c 18b8
00000050: a991 5937 d326 3eb7 95cb 6037 de12 46b8
00000060: 2c68 22b7 7704 cc38 cd14 bb38 98c3 fc38
00000070: 84ce eeb5 608b 14b5 9c44 8438 01d2 2637
00000080: f192 1038 48bc 1437 d453 afb8 b61f e738
00000090: 7daa e738 3d8f 59b6 fa28 1b37 6d2c 8636
000000a0: 8e6f 4a37 71e4 8138 b995 ee38 6beb 9638
000000b0: 6257 0e37 581d 02b7 7985 2d37 b4d2 8938
000000c0: 5ba8 5cb5 9269 0039 253d d638 412a 4237
000000d0: c06f b338 8307 d338 eb9d 8a38 4aa0 14b7
000000e0: 42dd a0b8 15e8 6c38 e78d cb38 82cd 0037
000000f0: 306c ba38 a226 13b7 d72f c538 9067 3a36
5.0798066e-05 8.0261685e-05 3.588198e-07 0.0001523315 1.9631203e-05 -3.8736267e-05 9.969112e-05 1.2724234e-07
0.00011105311 -4.087205e-05 0.000107147396 -7.964129e-07 1.2540773e-05 -3.0477619e-05 1.4195052e-05 9.080933e-05
-6.7479286e-06 0.00011429898 1.5331818e-05 -3.62807e-05 1.2968122e-05 -1.1333922e-05 1.3398841e-05 -4.722445e-05
-9.680207e-06 9.72831e-05 8.920729e-05 0.000120527286 -1.7792486e-06 -5.5337114e-07 6.30703e-05 9.943266e-06
3.4469125e-05 8.865325e-06 -8.3602645e-05 0.00011020845 0.00011046694 -3.2418895e-06 9.2482605e-06 3.998683e-06
1.2066112e-05 6.19375e-05 0.000113766124 7.1964074e-05 8.484205e-06 -7.755436e-06 1.034268e-05 6.5719156e-05
-8.2201376e-07 0.00012246359 0.00010215704 1.1573139e-05 8.5562e-05 0.00010062663 6.609767e-05 -8.858808e-06
-7.670607e-05 5.6482928e-05 9.706226e-05 7.677243e-06 8.8893226e-05 -8.770878e-06 9.402603e-05 2.777644e-06

exp_avg_sq f4 [64]
00000000: 910f 2135 8135 9135 6d61 b032 def1 5736
00000010: 66df 8d33 1079 c832 80a9 9e35 3b69 3433
00000020: 00e5 f935 0c2a 4e32 9c08 b835 6a8a 6f33
00000030: 2b3b 7e33 4c08 ff32 5cd3 1534 925e 9135
00000040: 4814 e931 005e f635 9da0 4633 3323 4e33
00000050: f84d e434 ca2e 3335 b0de 2a33 e786 c633
00000060: baed fc30 cec6 ae35 ce21 a135 db6d e735
00000070: 9417 b731 1109 6233 1744 1635 1fd1 9032
00000080: 0c0b 3135 09a4 4833 a941 2d33 bbde c135
00000090: 26be cb35 83be 7d32 4e4f 4633 1681 f531
000000a0: 133c 0433 69be ff34 ab31 d735 34ac 2f35
000000b0: 7272 9932 52d7 ac32 ce4a 3e33 66b8 9235
000000c0: 4f7c 1a35 cfe1 f835 8e15 a635 8b4d bf31
000000d0: bc94 7a35 aaad b435 713f a135 cdd0 a831
000000e0: 4f8d c732 cc92 d235 d870 9735 1b69 c331
000000f0: 8c94 7b35 9fda c531 ba39 d735 4e01 9d31
5.9999826e-07 1.0818914e-06 2.05334e-08 3.2178282e-06 6.60646e-08 2.3338117e-08 1.1821248e-06 4.2005222e-08
1.8618593e-06 1.20003385e-08 1.3711574e-06 5.577241e-08 5.9192796e-08 2.968968e-08 1.3953598e-07 1.0830865e-06
6.783498e-09 1.8355786e-06 4.6246544e-08 4.7995126e-08 4.252504e-07 6.6750783e-07 3.9783743e-08 9.244632e-08
1.8402979e-09 1.302187e-06 1.2005273e-06 1.7242813e-06 5.3286815e-09 5.262797e-08 5.597844e-07 1.6858904e-08
6.5953714e-07 4.6715318e-08 4.033942e-08 1.4444444e-06 1.5180019e-06 1.4769856e-08 4.6172595e-08 7.145114e-09
3.0788282e-08 4.7635993e-07 1.6033204e-06 6.544317e-07 1.7863588e-08 2.0121352e-08 4.4305857e-08 1.0931515e-06
5.7550363e-07 1.8543159e-06 1.2374237e-06 5.5676472e-09 9.3348694e-07 1.3461588e-06 1.2013899e-06 4.9131814e-09
2.3230909e-08 1.5688943e-06 1.1283219e-06 5.687196e-09 9.372095e-07 5.758309e-09 1.6035549e-06 4.5694497e-09

exp_avg f4 [3, 64]
00000000: 3dd7 2338 0321 7b3a f40c f1b8 3e9a f73a
00000010: b920 65b9 51e1 8239 b47c b43a 47d2 d2b9
00000020: a10b ae3a b790 6839 20a8 ef3a 462b ac3a
00000030: 3620 ccb8 0236 343a 1d80 5eb9 ae8d 3c3b
00000040: b257 80b9 7530 353b 58e6 21b9 2365 a139
00000050: ffa8 d6b9 e6bc 03ba 75f1 11b9 e879 2ab8
00000060: 4057 00b9 0616 913a fc16 a53a 37dd c13a
00000070: fa37 62b9 59dd c6b9 c3c8 113b f03c 47b9
00000080: 3046 7b39 4642 40b9 52aa 913a 2b4a e33a
00000090: 5eef ff3a efe8 9ab9 8876 68b9 ecc7 80b9
000000a0: 223b 60b9 4fd0 ec3a 399b dd3a 4944 5a3b
000000b0: 07af 69b9 e4c1 c439 4c0e 80b9 8099 d539
000000c0: cd89 06ba 7436 173b 20a2 283b a463 2ab9
000000d0: 93c6 eb3a f8c5 313b 9a86 1239 08a5 76b9
000000e0: 68f3 f33a e9cf a6b8 9426 aa3a 2783 a3b8
000000f0: 2b6b 533b 818d bfb8 a4dd e739 97e2 89b9
00000100: bdce 0c38 ef2a b8b9 9551 ff37 8d47 1bba
00000110: 8883 a538 4b3b d6b8 5c8a d8b9 becd 0f39
00000120: 8ec0 deb9 a661 b9b8 307a 0bba 99bb e8b9
00000130: 4672 1738 0dc2 85b9 562b 9838 a032 7eba
00000140: c6e1 af38 6e5e 71ba 98ea 6638 4b18 0fb9
00000150: ce84 0639 2e9f 1a39 75e0 5a38 ab48 e137
00000160: fb5b 4738 1091 a9b9 61a8 c1b9 0bd1 e3b9
00000170: 0b9d a038 b017 1b39 5b99 3dba 0123 8838
00000180: 6361 8eb8 23a8 8b38 eec5 e3b9 fdfd 06ba
00000190: 5cfc 24ba d65d c338 ca53 a038 ffe9 ac38
000001a0: 7173 a238 ee7b 05ba 56e0 08ba 278a 8bba
000001b0: e254 a338 2c29 13b9 087b bb38 762e abb8
000001c0: 08e1 3239 6b3d 3dba 7646 58ba c66b 7138
000001d0: 2d22 0cba 3736 58ba 2000 27b8 46b9 aa38
000001e0: 12c2 29ba 6789 4838 0b64 bbb9 40f1 e037
000001f0: c094 8aba d248 1e38 525f 39b9 631c bc38
00000200: 0553 98b8 8c0b 1fba 8f38 b138 75f6 a9ba
00000210: f35e 1239 fba4 1ab9 36b4 7cba 68eb 8a39
00000220: f9b6 6cba e6df 0bb9 0aeb a9ba c0f8 63ba
00000230: 1467 8038 f6a9 e2b9 716a 1239 0902 faba
00000240: 86be 2839 afb1 f1ba 6557 d038 f7b1 33b9
00000250: 9766 9339 372a ba39 ad72 b638 5a56 6737
00000260: 8000 9d38 8263 4dba c459 69ba f1e8 88ba
00000270: 76e9 1139 fea2 7239 d9c4 c4ba 6d2b 0339
00000280: 7e15 34b9 68dc f438 b071 31ba 2ccb 9fba
00000290: 2e71 adba f222 5439 a74c 1839 db1a 2b39
000002a0: 6b01 0f39 5712 aaba 0c2b 99ba 387f 14bb
000002b0: 9804 1839 985a 76b9 135f 2239 e1cd aab9
000002c0: 14a3 b339 36ce cfba 0921 e5ba 6311 dc38
000002d0: 7cb5 a5ba d570 f7ba 288d d1b8 6448 2139
000002e0: 6112 9fba 7b16 0538 269b 76ba b08d 5638
000002f0: cd20 0ebb 30d2 6038 f82d 8bb9 fdb6 3539
3.9062685e-05 0.0009579809 -0.00011494188 0.0018890572 -0.00021851332 0.00024963406 0.0013770075 -0.0004021099
0.0013278612 0.00022179155 0.0018284358 0.0013135455 -9.733478e-05 0.0006874503 -0.00021219296 0.002877097
-0.000244794 0.002764729 -0.00015439966 0.00030783666 -0.00040943173 -0.00050254015 -0.00013918227 -4.0644692e-05
-0.00012239534 0.0011069186 0.0012595351 0.0014790659 -0.00021573892 -0.0003793042 0.0022244907 -0.0001900082
0.00023963372 -0.00018335236 0.0011113381 0.0017340829 0.0019526293 -0.00029546718 -0.000221694 -0.00024563016
-0.00021384333 0.0018067452 0.0016907222 0.0033304861 -0.00022285814 0.00037528493 -0.00024424715 0.00040740892
-0.0005132228 0.0023073228 0.00257314 -0.00016249582 0.0017988257 0.0027126055 0.00013973788 -0.00023521867
0.001861197 -7.954223e-05 0.0012981468 -7.796875e-05 0.0032259922 -9.133947e-05 0.0004422489 -0.000262995
3.357114e-05 -0.00035127203 3.0436358e-05 -0.00059234427 7.892313e-05 -0.00010215359 -0.00041301816 0.00013714188
-0.00042486604 -8.839676e-05 -0.00053206366 -0.0004439026 3.610763e-05 -0.00025512316 7.255997e-05 -0.0009696875
8.386704e-05 -0.00092074915 5.5054756e-05 -0.00013646593 0.0001282871 0.00014745884 5.2184292e-05 2.6855929e-05
4.753096e-05 -0.00032342272 -0.0003693728 -0.00043452563 7.658646e-05 0.00014790776 -0.00072326296 6.491505e-05
-6.789227e-05 6.6593544e-05 -0.00043444283 -0.00051495415 -0.0006293708 9.315803e-05 7.6450015e-05 8.245184e-05
7.7462646e-05 -0.00050920143 -0.0005221417 -0.0010646031 7.788256e-05 -0.0001403435 8.939771e-05 -8.1625694e-05
0.00017059234 -0.000721893 -0.00082502456 5.755925e-05 -0.0005345669 -0.0008247825 -3.981602e-05 8.1407416e-05
-0.0006475757 4.781168e-05 -0.00035741957 2.6815222e-05 -0.0010572895 3.7737955e-05 -0.00017678484 8.969826e-05
-7.2633884e-05 -0.0006067089 8.4505526e-05 -0.0012967127 0.00013959016 -0.00014748044 -0.00096398906 0.00026496802
-0.00090299506 -0.00013339482 -0.0012963724 -0.00086964294 6.1227154e-05 -0.0004323271 0.00013963298 -0.0019074093
0.00016092704 -0.0018439795 9.9344914e-05 -0.00017137067 0.0002811446 0.00035508137 8.699796e-05 1.3788778e-05
7.4864365e-05 -0.0007834957 -0.0008901621 -0.0010445399 0.00013915249 0.00023139638 -0.0015012278 0.00012509311
-0.00017174144 0.000116758805 -0.0006768955 -0.0012191287 -0.0013232583 0.00020230914 0.00014524405 0.00016317835
0.00013638071 -0.0012975436 -0.0011685803 -0.0022658836 0.00014497561 -0.00023494137 0.00015484942 -0.00032578318
0.00034263043 -0.0015854302 -0.0017481159 0.00010493656 -0.0012642588 -0.0018878231 -9.992189e-05 0.00015381124
-0.0012136215 3.1730608e-05 -0.0009407274 5.1153533e-05 -0.0021687031 5.3601514e-05 -0.00026546395 0.00017329674

exp_avg_sq f4 [3, 64]
00000000: 3477 cb39 a532 a939 4943 e737 0786 ac39
00000010: 2891 2637 4b7a 0937 5cf1 1839 4927 1137
00000020: 7655 ee39 7fdd 0c37 0dbd 003a 8a0f f137
00000030: aeb4 f636 2b2a 0637 83e8 4d37 7eae 283a
00000040: 96f3 1f37 6b9d 7c39 d2ec 1737 8de5 aa36
00000050: b4a3 bf38 9ebb d539 4f80 1037 fde0 1937
00000060: 339b fc36 1c83 2339 25f7 0d3a 51d9 4b3a
00000070: 26b7 1b37 bb50 ca36 0459 4e39 1348 1b37
00000080: 188f 9b39 93a5 ed36 c99c 4337 813f ce39
00000090: e30f 9a39 d145 2b37 0d14 bd36 f603 1c37
000000a0: f834 1737 8166 a839 aed2 6b3a ebe0 1c3a
000000b0: 5746 1237 1ce9 0d37 ff1a 0437 d048 0b3a
000000c0: 292c e539 a78e 263a 0865 4c3a 8d32 2437
000000d0: 777f 373a da29 953a e577 6e39 8d8e 2137
000000e0: e568 9337 5bfe 8839 8ce3 653a 2ce6 1637
000000f0: 345b b839 60aa b536 3c74 f839 b406 2b37
00000100: aa5a 0d39 8389 2239 7f1f 5837 55ff 0339
00000110: 7381 8336 8756 7f36 3d7e 6338 1eba 7a36
00000120: b1e2 3239 6298 6836 2987 5639 9192 7437
00000130: 4169 6236 ca14 4a36 d9d8 b336 1f8c 8f39
00000140: 91a0 8536 817b e338 9b73 7a36 7436 1e36
00000150: 79ec fc37 0cf0 3c39 0e00 8136 3483 8b36
00000160: b7cf 5436 1ccc 7f38 f24d 5939 5fed a739
00000170: f774 8836 2378 0536 c8ac b738 4e6f 8636
00000180: 1e0c f838 1464 5236 fee7 a936 265f 2339
00000190: f376 f238 ca54 9136 2e19 0c36 f845 8736
000001a0: fff7 8336 f768 0639 7216 b739 e682 8139
000001b0: abfa 6936 f228 7836 8b1c 5b36 29ad 6139
000001c0: 608f 4039 41a7 6939 d477 a439 f2b3 8f36
000001d0: 0b8a 9139 ca13 f539 c86b ca38 c43f 8c36
000001e0: eca1 0137 0bc1 d738 4f8c b939 882a 7c36
000001f0: baf1 0c39 64b4 1636 3bf9 4639 1a2f 9536
00000200: 79ca 8439 c4b5 2a39 a667 6c37 d643 5439
00000210: c061 bd36 f8d0 8c36 722d bf38 47f9 a336
00000220: 4866 9239 b891 a436 83d9 9539 bcae 6237
00000230: 244a 8636 2219 a936 512e ca36 93fd bb39
00000240: 58e5 b636 5a84 0739 f717 b136 8cd0 2c36
00000250: 2271 7c38 713a 6c39 74f9 a036 ab98 a236
00000260: 8021 9036 5880 c538 741a ae39 32a7 ee39
00000270: 8291 ac36 9f98 8636 941f e238 d717 b136
00000280: bffa 3a39 62ea 8336 1035 d936 ae7e 7739
00000290: a35a 3639 c99a be36 8b49 6736 1e5a ae36
000002a0: dd8f ab36 2e92 4a39 f890 0e3a e13f b639
000002b0: 86cd ad36 18fb 9e36 a98e 9c36 f0e6 a539
000002c0: 4f23 8439 be48 d539 26d9 ef39 e3df b736
000002d0: aecd dc39 9860 2e3a 72e8 0839 1656 b636
000002e0: 162c 1f37 4d30 2539 4e85 093a 7857 af36
000002f0: 52ec 5d39 6ec3 5136 5320 9439 e4b5 bf36
0.0003880799 0.00032271925 2.7568678e-05 0.00032906255 9.928168e-06 8.19431e-06 0.00014585763 8.65182e-06
0.0004545857 8.396221e-06 0.0004910983 2.8736675e-05 7.352405e-06 7.99684e-06 1.2273088e-05 0.0006434693
9.533853e-06 0.00024091236 9.05544e-06 5.093118e-06 9.138082e-05 0.00040766312 8.612943e-06 9.171895e-06
7.528253e-06 0.00015593733 0.00054155505 0.0007776218 9.2813625e-06 6.0294674e-06 0.00019678852 9.255501e-06
0.00029670517 7.082426e-06 1.165941e-05 0.00039338696 0.00029385005 1.020865e-05 5.634973e-06 9.299247e-06
9.012634e-06 0.00032119828 0.00089959323 0.0005984443 8.718655e-06 8.45853e-06 7.874099e-06 0.0005313279
0.00043711186 0.00063536543 0.0007797037 9.7869315e-06 0.000699989 0.0011380271 0.00022742113 9.629538e-06
1.757261e-05 0.0002612945 0.0008769564 8.994288e-06 0.00035163166 5.4140546e-06 0.00047388847 1.0193955e-05
0.00013480583 0.00015500751 1.28819365e-05 0.00012588252 3.919174e-06 3.8048327e-06 5.4238586e-05 3.7361237e-06
0.00017059852 3.4659392e-06 0.00020458981 1.45776585e-05 3.373789e-06 3.0112446e-06 5.35986e-06 0.00027379484
3.9824013e-06 0.00010847208 3.7320194e-06 2.357553e-06 3.0150857e-05 0.00018018502 3.844506e-06 4.157797e-06
3.1711368e-06 6.098683e-05 0.0002072377 0.00032029577 4.0667323e-06 1.9888473e-06 8.758303e-05 4.0064688e-06
0.000118278185 3.1350692e-06 5.0636e-06 0.00015580337 0.00011561615 4.3312075e-06 2.0876282e-06 4.031459e-06
3.932975e-06 0.00012818338 0.00034921203 0.00024702324 3.4865614e-06 3.6978713e-06 3.2650157e-06 0.0002152218
0.00018363958 0.00022282919 0.00031369796 4.2826805e-06 0.00027759405 0.00046744786 9.6521864e-05 4.1797484e-06
7.7267e-06 0.00010287956 0.00035390488 3.7575683e-06 0.0001344149 2.2456743e-06 0.00018975597 4.4460294e-06
0.00025327856 0.00016280176 1.4090829e-05 0.00020243166 5.6440185e-06 4.1966523e-06 9.1160546e-05 4.8867983e-06
0.00027923496 4.9045448e-06 0.00028581553 1.3511333e-05 4.0021423e-06 5.0395183e-06 6.025461e-06 0.00035856347
5.450722e-06 0.00012923908 5.277801e-06 2.5751388e-06 6.0186845e-05 0.00022528485 4.7974117e-06 4.845749e-06
4.2954343e-06 9.417598e-05 0.00033207575 0.00045519468 5.142939e-06 4.0112786e-06 0.00010782402 5.2777864e-06
0.00017831752 3.93139e-06 6.4732812e-06 0.00023602947 0.00017390637 5.6804606e-06 3.446449e-06 5.196095e-06
5.112945e-06 0.00019318677 0.0005438472 0.0003476134 5.179728e-06 4.737998e-06 4.66577e-06 0.00031643314
0.0002520331 0.00040680723 0.0004574742 5.479889e-06 0.00042114913 0.0006651967 0.00013056563 5.4340444e-06
9.487403e-06 0.0001575362 0.0005245999 5.225589e-06 0.00021164239 3.1257182e-06 0.00028252843 5.7134184e-06

exp_avg f4 [3]
00000000: c472 7b3a 8fa5 adb9 fd9f 24ba
0.00095919915 -0.00033120482 -0.00062799436

exp_avg_sq f4 [3]
00000000: 28cd 1239 01f9 7b38 943d a638
0.00014000072 6.0074966e-05 7.926967e-05
