Config/results/BallCatcher_02/BoxBehavior/BoxBehavior-2499995.onnx (onnx, 19875 bytes, 4 tensors)

distribution.branches.0.bias f4 [3]
000000 5d 4e 95 bb 26 22 8b bb 07 d8 4b 3d
       -0.004556461 -0.004246014 0.049766567

distribution.branches.0.weight f4 [3, 64]
000000 97 0c 14 3c d4 0d ed 3c 53 db 23 3e 13 5b 91 bd
       0.009036205 0.028937258 0.16001634 -0.07097449
000010 51 88 09 3e 27 4b b2 bd f1 6b 0c be e3 ee af 3d
       0.13430907 -0.087057404 -0.13713051 0.08590486
000020 1c 0d 50 3e 99 ed 23 3e 5e 2c 67 bd fc 11 bc 3d
       0.20317501 0.16008605 -0.056438796 0.09183118
000030 6b ce 05 be d8 7a a8 bd 53 93 c2 bd fa 6e 53 be
       -0.13067023 -0.082265556 -0.09500756 -0.20647803
000040 b8 e0 55 3e 40 e1 56 bd 6e f7 e6 3d 79 76 34 3e
       0.20886505 -0.05246091 0.11277662 0.17623319
000050 0a 91 e1 bd f5 6e e5 bd 06 5a 03 3e f1 ce 4c bd
       -0.11013992 -0.11202804 0.1282731 -0.050002042
000060 be f0 88 bd 16 9d b9 bd 3e a4 46 bd 12 9e 2c 3e
       -0.06686543 -0.09063165 -0.048496477 0.16857174
000070 4f a0 8d bd 97 7b 3c be 34 b3 e9 bd 2a 84 fd 3c
       -0.06915342 -0.18406521 -0.114111334 0.03094681
000080 bc ee 29 be bb fc 32 be ee bb bc 3d 66 c6 5e 3e
       -0.16594976 -0.17479222 0.09215532 0.2175537
000090 aa 3b 40 3e 84 d7 b8 bd de 5c 81 be 10 fc 2b 3d
       0.1877276 -0.09025481 -0.25266165 0.041988432
0000a0 64 81 e1 3d 03 f8 26 3e 9a 58 25 3e 09 75 bb bd
       0.110110074 0.16305546 0.1614708 -0.09153182
0000b0 51 df 21 be df 0a 24 3b c5 df 35 be 7e 47 60 be
       -0.15807845 0.0025030894 -0.17761143 -0.21902272
0000c0 cc 99 2d 3e e3 c2 50 be 65 f8 44 be 45 54 97 3c
       0.169532 -0.20386843 -0.1923538 0.0184728
0000d0 ef c7 38 bd 6b f0 29 bd 4d b6 f1 3a 58 29 39 3e
       -0.045112547 -0.041489046 0.0018441171 0.18082178
0000e0 76 7b ca bd f7 0a 1a 3e 7c ed 39 3e d2 2e b0 3c
       -0.098868296 0.15043245 0.18157 0.0215067
0000f0 17 59 af 3d 51 5f 93 bc 23 3a f1 3d 6f 64 15 be
       0.085619144 -0.017989786 0.11778667 -0.14589094
000100 51 52 97 3d 7a dd 71 bc 7b d5 3b bd aa b1 b1 bd
       0.073887475 -0.014762277 -0.045857888 -0.08676465
000110 8c 48 05 3d fd 0b eb bb 38 99 fe 3c 90 6f 31 be
       0.03253989 -0.00717306 0.03107892 -0.17327714
000120 df 6c 0d bd 47 d6 5f be 74 66 f1 3d e4 75 00 be
       -0.034527656 -0.21859084 0.117871195 -0.12544972
000130 39 60 e9 bc 5a 48 97 bc b1 82 0c 3d 6b 99 08 3b
       -0.028488265 -0.018467117 0.034304325 0.0020843397
000140 e7 10 66 be 55 cd ab 3d 3c db 9b 3d b3 94 14 be
       -0.22467385 0.08388773 0.07610175 -0.14509849
000150 9c 2e d3 ba 2e b0 07 3e 0b 9c 04 be 6d 5e 44 3d
       -0.0016111913 0.13250801 -0.1295015 0.047941614
000160 bd f6 9d bd 03 cf bb 3c 50 43 1d 3e f7 03 45 3d
       -0.07713077 0.02292586 0.15357709 0.048099484
000170 d5 21 0e 3d 40 39 17 bd 3c 3d 0b 3e bd 6c f2 3d
       0.034700233 -0.036919832 0.13597578 0.118371464
000180 8a 37 f3 3a b5 0d 76 3c ee b0 8b bb 3d 8b 82 bd
       0.0018555981 0.015017916 -0.004263035 -0.06374214
000190 e2 1c 63 be 74 18 d7 3d f5 13 e3 bb e5 b0 93 3d
       -0.22178987 0.10502711 -0.0069298693 0.07211474
0001a0 b0 87 13 bd 60 33 76 be 5f a8 33 be 55 db e6 3b
       -0.036018074 -0.24043036 -0.17544697 0.0070451894
0001b0 4b 7b 58 3e bd f8 31 bd 3e 90 0c 3c 5b 00 8d 3c
       0.21140783 -0.043450106 0.008579312 0.017212084
0001c0 d8 7e 02 be 1c 81 33 3c c3 b7 5a 3c 20 a9 51 3e
       -0.127437 0.010956075 0.013349476 0.20474672
0001d0 8f 05 5d 3d ef de 3b 3d 69 15 28 bd 77 01 65 3d
       0.05396038 0.045866903 -0.041036043 0.0559096
0001e0 c8 13 9a 3d c1 71 a6 bd 02 4e 2d 39 8b ab 5a bd
       0.07523304 -0.081271656 0.00016527626 -0.053386252
0001f0 74 b2 c9 bd a6 99 db bd 60 d0 61 be 09 18 26 3e
       -0.0984849 -0.107226655 -0.22052145 0.16220106
000200 9e 89 5c bd cd 6f 44 3c 86 a7 16 be 67 3e 59 3d
       -0.05384218 0.011989546 -0.14712343 0.053038027
000210 95 1e 08 be 1b 14 0b 3e 94 59 71 3c 50 c1 5d 3c
       -0.13292916 0.13581888 0.01473083 0.013534859
000220 a5 96 be bd 3f f3 e4 3d 68 9c 65 bc 20 79 43 3d
       -0.09306077 0.11179208 -0.014014341 0.047722936
000230 82 02 22 3e 92 69 b2 3d 2a a1 9a bd 56 6d 44 3e
       0.15821269 0.08711542 -0.07550271 0.19182333
000240 b3 a3 0c 3d f1 13 cc bb e7 95 84 bd cd 0a 0a bd
       0.034335803 -0.006227963 -0.06473904 -0.033701707
000250 0d be a8 3c fc 65 52 3d f0 96 32 3d 8c 04 51 3d
       0.020598436 0.05136679 0.043600976 0.051029727
000260 2d d4 c8 3c 94 f2 19 bd 8b df d4 bd 5e 14 f6 bd
       0.024515236 -0.037584856 -0.103942 -0.120156035
000270 6c a3 e0 bd 20 cc 53 3e 1a 69 1d 3c 69 74 8d bd
       -0.1096867 0.20683336 0.009607578 -0.06906969
000280 42 0a 0d 3e 1f 1f 13 3e 60 1a 5b bc 67 37 ee bd
       0.13773444 0.1436734 -0.0133729875 -0.11631661
000290 a2 d9 a5 3d 81 c0 38 bc dd a1 80 3e b4 12 1e be
       0.08098151 -0.011276365 0.25123492 -0.15436822
0002a0 94 1a 10 3d bf 62 d0 3d 3a 4e 6e 3c 72 e3 5c 3d
       0.035181597 0.10175084 0.014545018 0.053927846
0002b0 18 07 15 bc e4 69 70 3d 26 b0 e7 3d 39 54 82 3e
       -0.00909593 0.058694735 0.113128945 0.25454882
0002c0 b5 44 06 3d b5 26 3a 3e cf 81 76 3e 91 5b 06 be
       0.032780368 0.18178828 0.24072956 -0.13120867
0002d0 a0 b5 13 bd ff e7 71 bd 1c 79 e9 3d 48 64 d1 bd
       -0.036061883 -0.05905914 0.11400053 -0.10224205
0002e0 b7 47 5a 3e a1 5f 94 bb af f2 a8 bc f0 28 6c bd
       0.2131642 -0.0045280014 -0.020623533 -0.05765623
0002f0 e5 1a 49 bd d4 50 b5 3d 26 60 10 3e 91 29 21 3d
       -0.049097914 0.08853307 0.14099178 0.03934628

network_body.linear_encoder.seq_layers.0.bias f4 [64]
000000 f8 cd 39 be 35 42 40 bd 49 59 f2 3c e5 cd 13 be
       -0.18144977 -0.04693814 0.02958359 -0.14434011
000010 c5 1d d6 bc ff 6f 32 3d 28 00 59 be fa d2 d3 bd
       -0.026137242 0.04356384 -0.21191466 -0.10342975
000020 49 94 47 bc 1f 1e ce bd 9f f8 84 3c 80 80 ef bd
       -0.01218135 -0.10064339 0.016231833 -0.11694431
000030 b7 11 9c 3d 68 46 15 be ca 04 00 be c0 13 aa 3d
       0.07620566 -0.14577639 -0.12501827 0.08304548
000040 bf ee f1 bd 35 fb 7c 3d f1 0c a7 bc 05 47 58 bd
       -0.11813115 0.061763007 -0.020391913 -0.052802105
000050 2c b4 5a be cf da c7 3d 9d a2 80 bd b3 54 d8 3b
       -0.21357793 0.09758531 -0.06281016 0.006601894
000060 02 72 34 be fd 71 6c be d9 d2 7d 3c 26 bc 63 3b
       -0.17621616 -0.23090358 0.0154921645 0.0034749596
000070 da 4f 2b be 35 82 8f 3d 34 3c 5c 3d 9b 53 99 3d
       -0.1672968 0.07007257 0.05376835 0.074866496
000080 14 d4 cb 3d 35 12 41 3d 8d 56 91 bd 20 d3 eb bb
       0.0995256 0.047136504 -0.070965864 -0.007196799
000090 19 24 b0 bd 65 c9 66 3d ad 59 ab 3d dc f1 54 3c
       -0.08600635 0.05634441 0.08366714 0.012997117
0000a0 54 70 51 bc 8f ff cd bd ed 92 91 bd 51 70 43 be
       -0.012783129 -0.100585096 -0.07108102 -0.19085814
0000b0 14 1a bd 3d 12 e7 15 be 77 c9 cc 3d 97 51 a4 3d
       0.0923349 -0.14638928 0.09999364 0.080233745
0000c0 17 86 4c bd 3a 7b 05 3e 6d 5b 8d 3d 07 b1 41 3d
       -0.049932566 0.13035288 0.06902204 0.047287967
0000d0 1c 3b 5a be f9 36 55 3d c9 ef fc 3c 60 13 86 3c
       -0.21311611 0.05205438 0.030876057 0.01636666
0000e0 7b 60 a0 3d 37 fd 98 bd 38 a7 77 bb 11 0b 32 be
       0.07830902 -0.07470172 -0.003778888 -0.17387034
0000f0 10 47 16 be 64 df 21 bd 26 76 79 bd f2 f7 a8 3d
       -0.14675546 -0.039519683 -0.06090369 0.08250417

network_body.linear_encoder.seq_layers.0.weight f4 [64, 67]
000000 a9 41 97 bd 88 9b d0 bd 33 f8 c7 bd b5 b6 0d bf
       -0.073855706 -0.10185915 -0.09764137 -0.55356914
000010 67 03 ae 3d 35 74 b1 bc 88 c7 77 3e 85 14 71 be
       0.08496743 -0.021661857 0.24197209 -0.23542984
000020 2a 01 49 be 71 75 4e 3e f9 15 5e be 9c 6f a8 be
       -0.1962935 0.20161988 -0.2168807 -0.3289765
000030 e4 00 3e be 30 24 31 be b6 22 c2 be 40 5a 90 3d
       -0.18555027 -0.1729896 -0.37917107 0.07048464
000040 22 6a 92 be 4f 24 93 be 56 2a 8d bc fe 3f c6 be
       -0.28596598 -0.2873864 -0.017232101 -0.38720697
000050 20 1d b2 be 55 7f 66 3c cd dd c2 bd a1 1a ce bd
       -0.34787846 0.014068444 -0.095149614 -0.10063673
000060 d7 b0 9a 3d 1a 4c 85 be 4b 0a aa bb 9a 9a 19 3e
       0.07553261 -0.26034623 -0.0051892153 0.15000382
000070 4c a9 ac be 57 44 17 be 8b cb ab bd e7 c3 1f be
       -0.33722913 -0.14772163 -0.08388432 -0.15602075
000080 cd c1 76 be 17 24 63 3d 02 8d 23 be 71 9c fa bb
       -0.24097367 0.05545434 -0.15971759 -0.007648044
000090 c6 bd bc be 5b 37 bf 3d 8a 7e e6 bd 99 39 0f 3e
       -0.36863536 0.0933673 -0.11254604 0.13986816
0000a0 b7 a3 73 be 14 5a 92 be 51 ee 95 3d ae 6b 9f bd
       -0.23792921 -0.2858435 0.07320846 -0.0778421
0000b0 21 0b 67 bc af f5 2e 3c b2 5a 9c be 22 8b 86 bd
       -0.014101774 0.010678693 -0.30537945 -0.06569506
0000c0 13 a9 cf bc bb fc 23 3d b8 e7 c6 3b 97 27 30 be
       -0.025349176 0.040035944 0.0060701035 -0.17202602
0000d0 4a bc bf bd ef 8e 6e be 89 c6 16 be 4c 23 48 bd
       -0.09362085 -0.23296712 -0.14724173 -0.048861787
0000e0 fc e1 62 be 09 b5 2e bd f8 72 b3 be 78 f4 2e bd
       -0.22156519 -0.042653117 -0.35048652 -0.042713612
0000f0 8d ee 25 3c 81 fb ca be 27 c4 cc be 9f b8 0f 3e
       0.010127676 -0.39645007 -0.39993402 0.14035271
000100 66 ee 11 3e 8c fa d4 bd c0 38 5b bd ae fd 99 bc
       0.14251098 -0.103993505 -0.053520918 -0.018797722
000110 e0 d8 be be 23 0d c7 bd 2c e1 92 bd 13 93 e2 3d
       -0.37274837 -0.097193025 -0.071718544 0.110632084
000120 87 a9 98 be 6b 6c 14 3d b4 8f f7 3a 3d 5b 05 be
       -0.2981684 0.036236208 0.0018887431 -0.13023086
000130 57 05 30 3d 86 b9 6c bd 99 b0 54 be 85 98 1a 3b
       0.042973842 -0.057794116 -0.20770492 0.0023589444
000140 d3 c3 b5 bd 4e 3c 9a be c1 8d 8a 3e 14 a4 b6 bd
       -0.08875241 -0.30124134 0.27061275 -0.08918014
000150 6d b2 7b be 21 b9 c8 3d a6 cc d6 bc 12 4e 9e bc
       -0.24579783 0.098009355 -0.02622063 -0.019324336
000160 94 d2 76 be b5 05 5e 3e f1 9c e6 bd 0f 6f ef bc
       -0.24103767 0.21681865 -0.11260403 -0.029227762
000170 e6 48 c7 bd 61 07 2f 3e 16 ca 4e be a7 08 2c bd
       -0.09730701 0.17092659 -0.20194277 -0.04200044
000180 02 12 50 3c 58 5e 08 be 4e 54 a1 bd 00 31 12 ba
       0.012699606 -0.1331724 -0.07877408 -0.00055767596
000190 88 40 0e be 62 ba 33 3e cd 99 c4 bd a6 b1 9b be
       -0.13891804 0.17551568 -0.09599648 -0.30408973
0001a0 b5 16 c0 3d b1 c9 23 3e 71 02 9f 3e 02 ee 14 bd
       0.09379331 0.15994908 0.3105655 -0.036359794
0001b0 f4 5c cc bc 01 3b fd bd 5d c4 c2 3d 98 c5 49 3d
       -0.024946667 -0.1236477 0.095101096 0.049260706
0001c0 dc 3b 35 3e 29 b4 21 3d eb ce 91 3c b4 dc 0f 3d
       0.17698616 0.039478455 0.017798861 0.03512259
0001d0 72 7a d0 3a 3e f7 54 be 20 27 f5 bd 18 04 2d 3e
       0.0015905632 -0.2079744 -0.11970353 0.16896093
0001e0 ed 10 cb bd b8 45 5e 3e 02 99 3e 3e 23 15 ff 3c
       -0.09915338 0.21706283 0.18613055 0.031138008
0001f0 53 bf a5 3e 0d 14 a6 be c0 2d 7d 3d ab 1e 04 3e
       0.3237253 -0.32437173 0.06181121 0.12902324
000200 df 57 2c bd 2b 1e de bd 37 88 38 3e 89 1a 8d 3d
       -0.042075988 -0.10845598 0.18020712 0.06889827
000210 7a c6 0a bc 96 6d d0 be 1f 3e 41 3e 81 ec 03 3e
       -0.008470172 -0.40708607 0.18871354 0.12883188
000220 0a a7 2c bc 11 66 5c bc 34 8e d3 3c b6 ed 5f 3d
       -0.010537872 -0.013452069 0.025824644 0.05467006
000230 9e 1a ad 3e a0 bf 02 be d9 58 88 be 71 54 33 be
       0.3380937 -0.12768412 -0.26630285 -0.1751268
000240 e1 b8 3d be 48 40 55 3c dc 40 f3 3d ef f9 3f be
       -0.18527557 0.013015814 0.11877605 -0.18747686
000250 14 0e d3 bc a3 fe a6 3e 6d e5 74 be 4e 77 77 be
       -0.025763549 0.32616147 -0.23915644 -0.24166605
000260 69 c6 ab 3e 0b 5b 30 be 5a f2 c1 3d b6 0c 40 be
       0.33549812 -0.1722223 0.09470053 -0.18754849
000270 28 8d b4 3d 7e 21 0e 3e 77 9b 2b 3e 2e d3 84 be
       0.08815986 0.13879964 0.16758524 -0.25942367
000280 14 a9 9a 3d d8 f0 21 3e ed 07 bc 3e 1d 42 29 be
       0.0755178 0.15814531 0.36724797 -0.16529126
000290 b5 ba 7e 3e b9 c1 13 be 18 e2 ea be 8e f4 33 bd
       0.2487591 -0.14429368 -0.4587562 -0.043934397
0002a0 06 b3 a3 bd 78 98 29 bd e4 d7 0b 3e 0c 0f e2 bc
       -0.079931304 -0.04140517 0.13656574 -0.027595066
0002b0 21 65 32 be f4 57 56 3d 5e ba 9f be a9 d8 bf bd
       -0.1742139 0.052329972 -0.31196874 -0.093674965
0002c0 c5 03 a0 3e 97 32 03 be 6b f2 34 be 1b 3a f5 bd
       0.31252876 -0.12812267 -0.176706 -0.11973973
0002d0 a3 2f d7 3d 88 34 8b be fb ec db 3e 5d 52 b8 be
       0.10507133 -0.27188516 0.4295424 -0.36000338
0002e0 25 0a d7 bd e1 3a 58 3d 74 73 28 3d dd fe 59 bd
       -0.10499982 0.052790526 0.04112573 -0.053221572
0002f0 02 6e 80 3e c4 47 23 3d 65 f2 32 be ea a0 18 bd
       0.2508393 0.039863363 -0.17475279 -0.037262835
000300 21 de 15 3c 2a 07 76 bd e6 a2 d9 3e b8 2b fe ba
       0.009147198 -0.060065426 0.42507094 -0.0019391691
000310 41 f2 47 be a6 7c 18 3e f0 1a ba bd b7 00 a6 3d
       -0.19526006 0.148913 -0.09087169 0.08105605
000320 76 ec 00 be b9 7d 0c 3e 0b 1e 7e be 35 cc c4 be
       -0.12590203 0.13719834 -0.24816148 -0.38437048
000330 51 3a 9f 3d 35 5b 95 bd 02 f1 ad be cd 32 ff 3d
       0.07774795 -0.07292787 -0.33972937 0.12460861
000340 18 89 10 bc 94 5e b6 be ae 07 cc bd d8 77 c8 bd
       -0.008821748 -0.35619032 -0.09962402 -0.097884834
000350 5a 7b 85 bd 6f 36 41 be 6f 7a fa 3d 40 a4 c4 bd
       -0.06517668 -0.18868421 0.122303836 -0.09601641
000360 2c ee ab 3d 24 77 b7 be c1 e2 95 be bc c7 4e 3e
       0.08395037 -0.35833085 -0.29274562 0.2019338
000370 af c4 ad be c6 79 8b be 95 38 09 bf 90 a7 7a be
       -0.3393912 -0.27241343 -0.5360196 -0.24477983
000380 16 58 f0 bd 06 e2 f7 bd e6 2a 3b be df ee 70 3d
       -0.11735551 -0.121036574 -0.18278083 0.058821555
000390 eb 17 dc bd 09 50 15 be 34 6e 00 be 0f 14 ac bd
       -0.107467495 -0.14581312 -0.12542039 -0.084022634
0003a0 97 3e 79 bd 5e ea 81 be c7 fb 85 be f4 d9 6d be
       -0.060850706 -0.2537412 -0.26168653 -0.23227674
0003b0 63 30 2d be 01 76 8f 3c 54 27 f2 bd f6 6e 9d be
       -0.1691299 0.017512323 -0.118239075 -0.3074872
0003c0 c7 d5 58 3d 15 8b 19 be b2 17 35 be 62 11 07 be
       0.05293825 -0.14994462 -0.1768482 -0.13190225
0003d0 d7 b4 04 be 5d ea bb be a3 47 48 be f1 58 55 be
       -0.1295961 -0.36702242 -0.19558577 -0.2083471
0003e0 f6 69 1e be 1f 90 8d 3e 1f 49 c9 be d1 b1 d7 be
       -0.15470108 0.27649018 -0.393136 -0.4212785
0003f0 23 a0 e5 be d5 b5 cf bd 2e 25 3f be 51 0f a8 3e
       -0.44848737 -0.101421036 -0.18666527 0.32824185
