Config/results/BallCatcher_02/BoxBehavior/BoxBehavior-499995.pt (torch, 117967 bytes, 21 tensors)

network_body.linear_encoder.seq_layers.0.weight f4 [64, 67]
000000 4d 47 d3 bc a8 99 3f 3d 05 b6 a7 3d a8 10 bd be
       -0.025790835 0.046777397 0.08189014 -0.3692677
000010 67 03 ae 3d 0e 41 f5 3d 85 bf af 3d 85 14 71 be
       0.08496743 0.11975299 0.08581451 -0.23542984
000020 a9 3b 33 3d 06 4d 3a 3d d1 58 eb 3d be a7 81 bc
       0.04375807 0.04548361 0.1149155 -0.015827056
000030 6a 9c dc bd 27 ff ca bc da 9a 3f be 30 9c f7 3d
       -0.10772021 -0.02477987 -0.18711415 0.12090337
000040 d6 bd af bd b1 09 72 bc ea de b9 bd c2 ff 1f be
       -0.0858113 -0.014772818 -0.090757206 -0.15624908
000050 c2 b9 e3 bd bc 4b d3 3d 5d 46 a3 3d 94 37 b3 3d
       -0.11119415 0.103171796 0.07972405 0.08750835
000060 b8 35 b9 3c ac 77 e6 bd 72 d0 26 3e e6 f4 8c 3d
       0.022608623 -0.11253294 0.16290453 0.06882648
000070 fd f1 fb bd fd 3c 7b 3d c3 f5 ed 3b c8 4b d5 bd
       -0.12302015 0.06133746 0.007261963 -0.10414845
000080 08 63 25 be 53 91 8f 3b 09 a9 38 3d 55 78 48 3e
       -0.16151059 0.0043813377 0.04508308 0.19577153
000090 bf 6f 92 bd bd 31 a7 3d ad ef 65 bd 64 d7 82 3e
       -0.0715022 0.08163784 -0.056136776 0.25554955
0000a0 f9 53 1a be e0 05 44 be 9c 15 0f bd 96 0b 35 3e
       -0.15071096 -0.19142866 -0.034932718 0.17680201
0000b0 f9 8c 09 3e 3e a3 94 3d 5f 02 36 be 66 65 83 3d
       0.13432683 0.072576985 -0.17774342 0.064158246
0000c0 d1 6d 17 3e 74 38 23 3d dd ab 8c 3c 3b d6 83 bd
       0.14787985 0.03984876 0.017171795 -0.064373456
0000d0 a0 fa 3f 3d 74 7e b7 bd a9 1d f8 3c 2a ef ab 3d
       0.046869874 -0.08959666 0.03028758 0.08395226
0000e0 b7 8e f0 bd 9f 30 1a 3c 3c ac 48 be 98 cd e4 3d
       -0.11745971 0.009411006 -0.19596952 0.111720264
0000f0 47 53 11 3e 66 53 6c be 9a 6b 8d be 37 97 6c 3e
       0.14191924 -0.23078689 -0.27621156 0.23104559
000100 66 ee 11 3e 8c fa d4 bd 64 a2 70 bd 37 74 b9 bd
       0.14251098 -0.103993505 -0.058748618 -0.09055369
000110 1f 33 67 be b1 de d7 3d 9a d8 7b bd 13 93 e2 3d
       -0.22578095 0.10540522 -0.061485864 0.110632084
000120 60 25 85 be c7 68 a3 bd b4 8f f7 3a 72 3f ba bc
       -0.26005077 -0.07978969 0.0018887431 -0.022735331
000130 cd 5d 44 3d fc c6 1b bd 2d c6 21 be 60 81 26 be
       0.047941018 -0.038031563 -0.15798254 -0.1626029
000140 e7 ac f0 3c 26 ca 52 be b2 d1 22 3e 6c 45 c2 3c
       0.029379321 -0.20584926 0.15900305 0.023714744
000150 ef 2e 0c be 79 5a 32 3e fe 45 5f bd f7 fb c7 bc
       -0.13689779 0.17417325 -0.05451011 -0.024412138
000160 ef c9 c1 3d d6 29 1b 3e ba ac 20 be 15 85 61 3d
       0.09462344 0.15152678 -0.1569089 0.055058558
000170 6b e6 42 be f9 b7 c1 3d 16 2d 4d bd be 07 10 bd
       -0.1903321 0.09458918 -0.050091825 -0.035163634
000180 4d 64 bc 3c 8b f1 33 bd 26 41 23 be 96 59 9a bd
       0.022997046 -0.043931525 -0.15942821 -0.075366184
000190 0e 1a c2 bb 13 5c 49 3e 12 bb 9c bd bd cb 2d be
       -0.005923516 0.1966403 -0.07652868 -0.16972251
0001a0 41 0d 66 3d 1d 9a 25 3e 06 d9 4f 3e a8 32 06 3c
       0.056164984 0.16172071 0.20297632 0.008190788
0001b0 1e e4 84 3b d2 ba 0a be 55 37 0d 3e 40 98 9a 3d
       0.004055514 -0.13547829 0.13790639 0.07548571
0001c0 35 14 5a 3e eb 1e 6e 3d 09 85 12 3d f6 19 16 bd
       0.21296771 0.058134954 0.035771403 -0.036645852
0001d0 76 b2 34 3d 7e f9 33 be 76 96 05 be 00 30 43 3e
       0.044115506 -0.17575642 -0.13045678 0.1906128
0001e0 da 13 9d bd 88 83 1d 3e a1 a3 0a 3e b5 d6 52 ba
       -0.07669802 0.15382206 0.13538982 -0.0008042858
0001f0 31 67 5b 3e 8e 1c 97 be d2 d3 b9 3d d1 81 46 3e
       0.21426083 -0.29513973 0.09073605 0.19385459
000200 ec 39 b6 bd 05 9f 1a be d5 6d 5e 3e 89 1a 8d 3d
       -0.088977665 -0.15099724 0.21721585 0.06889827
000210 7a c6 0a bc 90 3c 97 be 7f e4 fc 3d 24 9b 9a 3e
       -0.008470172 -0.29538393 0.1234827 0.30196488
000220 da 5b 57 3e a3 2c 2e be 34 8e d3 3c 21 0a 17 3e
       0.21031132 -0.17009215 0.025824644 0.14749958
000230 00 cb 21 3e a0 bf 02 be 8d 1f 48 bb 60 c6 70 be
       0.15800095 -0.12768412 -0.0030536384 -0.23513174
000240 e5 41 b6 bd 26 08 09 3e b4 87 38 3e cc 76 65 be
       -0.08899287 0.13382015 0.18020517 -0.22408599
000250 dd 00 91 3c 9d ec c7 3d 6a e3 ac bd 74 0c cc bd
       0.017700607 0.09761927 -0.08441813 -0.09963313
000260 6b 87 8e 3e 47 a9 f6 bd 30 32 1d 3e 4d e3 dc bc
       0.2783769 -0.12044006 0.15351176 -0.026963854
000270 86 15 6d 3d a6 47 e8 3d 3d 2a b2 bd 6b de af bd
       0.057881854 0.11341791 -0.086994626 -0.08587345
000280 5f 7d 42 3e 7c 11 6e 3c a6 98 d5 3e c8 bd f7 bd
       0.18993138 0.014530536 0.41718024 -0.12096745
000290 59 52 0e 3c 05 f3 16 3e 4b a8 66 be 12 58 f2 bb
       0.008686625 0.14741142 -0.22525136 -0.0073957527
0002a0 42 0b 31 bd de eb d1 bb 62 78 02 3e c9 3d 18 3d
       -0.043223627 -0.0064062914 0.12741235 0.037168298
0002b0 92 e1 9e bd 36 64 50 3d 25 f7 68 be 2a 0d 82 3b
       -0.07757868 0.05087682 -0.22750528 0.0039688544
0002c0 e8 90 4b 3e 85 f3 59 3d 7e 48 3a bc 86 a6 d5 bc
       0.19879496 0.053210754 -0.011369823 -0.026080381
0002d0 1a f3 16 3e 7b 7c 69 be 3e 0c 26 3e 4e 83 83 bd
       0.14741173 -0.22801392 0.16215608 -0.06421529
0002e0 d7 f5 11 3e 01 5d ae 3c 57 6a 9e 3d a5 aa 8c bc
       0.14253937 0.021284582 0.077351265 -0.017171213
0002f0 9c 0e 2f 3c 5a 86 66 3e ab 18 6e 3d 89 57 26 bd
       0.0106846355 0.22512189 0.058128994 -0.040610824
000300 a5 8a 04 3d ff 63 13 bd 89 75 72 3e c1 ff fe 3d
       0.032358784 -0.035984036 0.23677649 0.12451125
000310 78 c7 a8 3c 29 b2 c9 3d f0 1a ba bd b7 00 a6 3d
       0.020602927 0.098484345 -0.09087169 0.08105605
000320 87 5d 48 be b3 50 7c 3d 57 cc c0 3d 70 5f 7a bd
       -0.19566928 0.0616004 0.09413975 -0.061126173
000330 fe ec b5 bd 35 5b 95 bd 49 50 55 be fa 7d 81 bd
       -0.08883093 -0.07292787 -0.20831408 -0.06322856
000340 18 89 10 bc a4 76 2b be ae 6f 58 3d 34 df bd bd
       -0.008821748 -0.16744477 0.05284088 -0.09271088
000350 28 52 8f 3c 01 72 9b bc 9c 46 f8 3d 7e e1 44 bc
       0.01749523 -0.01897526 0.12122843 -0.012016652
000360 35 56 09 bd 90 f5 04 be ea 68 c1 bd 4b 71 cc 3d
       -0.03352948 -0.129843 -0.09443839 0.099825464
000370 37 ed 14 be 02 be 9b bd 2d ae a3 be 68 04 25 be
       -0.14543615 -0.076046005 -0.31968823 -0.16114962
000380 ed 74 fd bc 4f fc aa be 54 ee 08 3c 24 df 6a 3e
       -0.030939544 -0.3339562 0.008357603 0.22936684
000390 67 79 c7 bc 22 55 18 bd 32 7d 9e bc b6 ff 83 be
       -0.024349881 -0.037190564 -0.019346807 -0.2578103
0003a0 8c bc 26 3e 20 cd 26 bd 42 7e 34 be 03 c4 07 be
       0.16282862 -0.040722966 -0.17626289 -0.13258366
0003b0 a5 d9 90 bd 8d 97 52 3c 04 33 62 3d e9 86 e2 bd
       -0.070727624 0.012853515 0.055224434 -0.11060888
0003c0 04 85 c6 3d a2 12 07 bd 85 66 71 bd aa 0e 42 be
       0.096933395 -0.032976754 -0.05893566 -0.18950906
0003d0 48 cd 90 3d 8f 31 0e be dd 81 eb 3d 3c a3 0c be
       0.07070404 -0.13886093 0.11499379 -0.13734144
0003e0 69 89 99 bd fe 7d 22 3e d3 b7 20 be db 65 48 be
       -0.07496912 0.15868375 -0.15695123 -0.19570105
0003f0 52 9b a0 be 27 a5 01 3b c7 00 a9 bd 0c 16 81 3e
       -0.313685 0.0019782276 -0.082521014 0.25212133

network_body.linear_encoder.seq_layers.0.bias f4 [64]
000000 22 e2 f4 bc bd 33 7d bc e2 10 64 3d 11 5b a9 bc
       -0.029892985 -0.01545423 0.055680163 -0.020673307
000010 ee 95 45 3d 93 83 a5 bc 50 0f b5 bd fb 05 75 3d
       0.048238687 -0.020204341 -0.08840811 0.059820157
000020 97 7e 80 3d 2d fb 08 3d 2c d4 eb 3c f9 fa 34 3d
       0.06274145 0.033442665 0.028787695 0.04418466
000030 24 11 4a bc f0 8e 30 bd 56 2c 57 bd 64 59 c7 bc
       -0.012333188 -0.043105066 -0.052532516 -0.024334617
000040 85 07 13 3c 0c 6e 6a 3b ea f2 21 3d d0 87 69 3d
       0.008973961 0.003577116 0.0395383 0.057014287
000050 55 b3 b2 bd 27 45 7a 3b 2c 6b ba 3d 61 54 8c 3d
       -0.08725611 0.003818819 0.09102473 0.068520315
000060 ee be 7f bd 1b d6 7b bd 73 42 ae bd 5c 68 86 3d
       -0.062437944 -0.061483484 -0.08508768 0.06562874
000070 b4 bc 70 bd 06 6a e2 bc a8 e7 80 3b 7e 32 01 3e
       -0.05877371 -0.027638447 0.0039338656 0.12616917
000080 b2 c8 58 bb a9 6d f6 bc 3d fa cb 3c 15 60 85 3c
       -0.0033078608 -0.030081587 0.024899596 0.016281167
000090 9d c9 a0 3d 31 0e 6a bd ed e3 92 bc 8d 22 26 ba
       0.07850955 -0.05714244 -0.01793095 -0.0006337546
0000a0 b6 e0 c6 bb b8 ee 1c 3d 7a 63 34 ba ef 84 8b bd
       -0.006069268 0.038313597 -0.0006881278 -0.068124644
0000b0 c7 f9 d1 bb 1b 29 aa bc 1c 41 ca ba 26 99 89 bc
       -0.0064079496 -0.020771554 -0.0015430781 -0.01679666
0000c0 1d 77 d3 3d d5 07 8f 3c a8 3c a1 bc 60 e7 a1 3d
       0.103254534 0.01745979 -0.019682243 0.079054594
0000d0 6d 72 a7 bd 2f 71 4d bc c8 d8 d8 3a 10 3c a8 3d
       -0.08176122 -0.012539192 0.0016544098 0.08214581
0000e0 eb 25 ad 3b 1b 79 bc 3d 7b ad 66 bb bb 3d ef bc
       0.005284061 0.092027865 -0.0035198617 -0.02920424
0000f0 ea 13 9a bd 0f ac 35 bc 35 0c 74 3d 86 41 38 bc
       -0.075233296 -0.011088385 0.059581954 -0.011246091

distribution.branches.0.weight f4 [3, 64]
000000 7c a6 11 bd 05 b6 de bc e1 56 4f 3d 7d 56 9d bd
       -0.035559162 -0.027186403 0.050619964 -0.07682512
000010 dc e4 bb 3d f5 c2 80 bd c4 a3 a0 bd d1 92 ab 3d
       0.09174511 -0.06287185 -0.07843736 0.083776124
000020 26 10 95 3d cc 99 c1 3d 13 44 83 3d 64 b4 f9 3d
       0.07278471 0.094531626 0.064094685 0.1219261
000030 f5 e1 41 bd ef 09 58 bd 0f a0 88 bd b5 82 4b bd
       -0.04733463 -0.05274385 -0.06671154 -0.0496852
000040 d5 4b 69 3d e3 f4 0a bd 4d 5e a2 3d 52 9d 26 3d
       0.056957085 -0.03392495 0.07928143 0.040677376
000050 2b 26 93 bd 4e 35 6d bd 13 c0 c6 3d 89 28 9f 3d
       -0.07185014 -0.057912163 0.09704604 0.07771403
000060 a6 e8 b1 bd 52 8e 92 bd 57 b8 22 bd 24 4f a7 3d
       -0.08686952 -0.07156052 -0.03972658 0.08169392
000070 8c 72 63 bd f7 0c e5 bd d3 23 e1 3b 59 bb a1 3d
       -0.055529162 -0.111841135 0.0068707257 0.07897062
000080 f6 8a 86 3a 4f ee 5a bd dd e0 04 3d e6 f3 e8 3c
       0.0010264802 -0.053449925 0.03244101 0.028436612
000090 53 5d 10 3e 21 d9 f4 bc aa 94 db bd 9c e5 0e bd
       0.140981 -0.029888691 -0.10721715 -0.03488694
0000a0 3a dc 63 3c 21 d8 e4 3d dd aa 8b 3d 8e 30 88 bd
       0.013907487 0.11174036 0.06819699 -0.06649886
0000b0 79 bd 54 bd af 0a 3d bd b2 3c 0c bd be ac 03 be
       -0.051938508 -0.046152767 -0.03423757 -0.12858865
0000c0 4f f5 14 3e c7 21 03 bd 69 a8 a1 bd 82 fa 04 3e
       0.14546703 -0.032014634 -0.0789345 0.12986186
0000d0 2c be a8 bd 51 47 f8 3b bd d9 15 bd ba b0 83 3d
       -0.082393974 0.007576861 -0.036584605 0.06430192
0000e0 3e 93 00 be 90 09 f6 3d dd 0b 92 bc b2 a1 96 bd
       -0.12556168 0.12013543 -0.017827922 -0.0735506
0000f0 35 8a 82 bb ce cf 3d bd ba 9a ae 3d 56 df 9f bd
       -0.0039837607 -0.046340756 0.085256055 -0.0780627
000100 33 30 68 3d f2 20 1c 3d 23 20 04 3d 81 c5 00 3c
       0.05668659 0.038117357 0.03225721 0.007859589
000110 54 d0 66 bd 6b da 07 3c ea f9 75 3d 2a 28 73 bd
       -0.05635102 0.008291821 0.06005279 -0.059364475
000120 38 20 1d 3d 1d 75 c3 bd 60 ac 5a 3c d1 13 67 bd
       0.038360804 -0.09543822 0.013346761 -0.056415383
000130 1e 12 ae 3c 6f 07 69 3d bd 4d 23 3d b0 ac 0b 3d
       0.021248873 0.056891855 0.03986906 0.034100235
000140 58 ee a9 bd f9 93 12 3d 96 a1 ed bb bc d9 c0 bc
       -0.082974136 0.03578565 -0.0072519286 -0.023541324
000150 4e 3d 5c 3d a2 5f cc ba 54 eb ec bd 88 09 07 bc
       0.053769402 -0.0015592466 -0.11568323 -0.0082420185
000160 f7 92 a1 3c d0 d0 4a 3d a9 02 ba bb 33 8f e4 3b
       0.019723399 0.049515545 -0.0056765866 0.0069750785
000170 66 d0 94 3c 95 45 eb 3c d4 5f b1 3c c5 ff 5a bb
       0.018165778 0.028719703 0.02165214 -0.003341661
000180 a0 3b 18 bc 6f d7 68 3d b7 ae fb bd af 58 58 3c
       -0.009291559 0.05684608 -0.122891836 0.013204738
000190 6d 34 0b be d4 b8 6d 3c 28 cd 2b 3d 80 50 bc bb
       -0.13594218 0.0145093985 0.0419437 -0.005746901
0001a0 42 fd 50 3b 11 55 c4 bd c7 ff be 3c fe a2 95 3d
       0.0031889235 -0.09586538 0.023315324 0.07306479
0001b0 30 7d a2 3d 99 64 b9 3c df b2 e5 bc 9a 5b 50 3d
       0.07934034 0.022630977 -0.028039394 0.050868608
0001c0 07 15 30 bd c4 8c d1 bc 4e 5f 3b 3d 04 8c fb bc
       -0.042988803 -0.025579818 0.045745187 -0.030706413
0001d0 4f ea ca 3d 1c f2 ce 3c b3 01 2c bc bf 2b 35 bc
       0.09907972 0.025261931 -0.010498452 -0.011057793
0001e0 11 c5 88 3d 3b d8 d6 bd 33 2e d1 bc f9 b0 25 bb
       0.066782124 -0.104904614 -0.025534725 -0.0025282486
0001f0 52 41 6f bc d5 15 82 bb ca 02 93 bd b6 56 23 3d
       -0.014602976 -0.0039698877 -0.07178266 0.039877616
000200 2d e7 1b 3d d3 e2 05 3d 7b 56 87 bd 22 a7 4b 3d
       0.038062263 0.03268702 -0.06608292 0.049719937
000210 fe 9f f6 bd 4b 74 7c 3d 36 41 03 3c e8 73 70 bd
       -0.12042235 0.061634343 0.008011153 -0.058704287
000220 55 78 73 bd 3b 5c 9c 3c 02 59 bc bd 72 39 24 bd
       -0.05944093 0.019086948 -0.091966644 -0.040093847
000230 41 e0 32 3d 12 c7 c2 3c d2 27 09 bd 6b 16 12 3d
       0.043670896 0.023776565 -0.03348524 0.03566591
000240 6f dd 03 3d 88 87 31 bc 83 d5 8a bd 62 7b cc bc
       0.032193597 -0.010835536 -0.067790054 -0.024961177
000250 92 04 2b 3c c6 08 93 3d c6 32 d6 bc 91 56 7b bc
       0.010438101 0.07179408 -0.026147258 -0.015340463
000260 ef 85 94 3c f5 64 17 3c d9 63 de 3c 55 be b4 bd
       0.01813027 0.009240379 0.02714722 -0.088253655
000270 00 03 d0 bb be 6d f0 3d 5a 5a 40 bd 4d 98 ec bd
       -0.006348014 0.11739682 -0.046961166 -0.115524866
000280 f9 e4 c6 3c 14 a3 06 3d d5 81 95 3d 30 60 22 bc
       0.024279105 0.032870367 0.07300154 -0.009910628
000290 60 f8 c9 ba 32 2d 76 3c ca 88 c1 3d 5d 85 27 3c
       -0.0015409105 0.015025424 0.094499186 0.010224667
0002a0 a7 29 4e 3d 33 26 35 3c bd 0f 4e bd f3 39 82 3c
       0.05033269 0.011056471 -0.050307978 0.015896773
0002b0 97 59 da bc 9e 9e 98 3d 20 46 14 3d 26 65 13 3e
       -0.026654048 0.07452129 0.03619969 0.14394054
0002c0 90 e8 9b bd 0a 27 31 3d ae 0a ed 3d 98 3b d8 bd
       -0.07612717 0.04325012 0.115743026 -0.105582416
0002d0 e1 38 b8 3c 62 41 a6 bb 62 89 a5 3d 92 44 47 bc
       0.02248806 -0.005073712 0.08082844 -0.0121623445
0002e0 89 a7 18 3e db 98 38 bd 73 f2 98 3d ac be 2d 3d
       0.1490766 -0.04506765 0.074681185 0.042418167
0002f0 af 81 cb bb 68 88 94 3d d2 d9 7f bc fe 85 8d 3d
       -0.006210528 0.0725258 -0.015615897 0.069103226

distribution.branches.0.bias f4 [3]
000000 5c f9 c5 3d 3c 15 34 bd 1f 48 21 bd
       0.09666702 -0.043965563 -0.03937542

critic.network_body.linear_encoder.seq_layers.0.weight f4 [64, 67]
000000 6f a4 de bd 1d b3 14 3d ad 26 31 bd 6b a9 6c 3c
       -0.10871207 0.03630363 -0.043249775 0.014444689
000010 70 a1 43 3d 28 df b7 bd 0b 98 53 be b1 60 54 3d
       0.04776138 -0.089781106 -0.20663469 0.051850025
000020 3a d1 7f be 8e d6 30 3c 98 35 9d bc 3d 66 be 3b
       -0.24982157 0.010793341 -0.019190595 0.0058105276
000030 c8 92 ee 3d 8c ed 48 3e 62 0f 86 3d 7a 90 32 ba
       0.1164909 0.19621867 0.06545903 -0.000681169
000040 7f 21 70 3e a5 19 81 ba a1 90 d4 bd 29 61 d8 bd
       0.23450278 -0.0009849562 -0.10379148 -0.10565407
000050 ce c2 3b 3e 1a 23 c3 3b 80 04 6c 3d 83 55 04 3d
       0.18336031 0.005955112 0.05762148 0.032308113
000060 5b c3 0c ba 31 64 57 bc 5b 0d d3 3d 30 f3 78 3d
       -0.00053696864 -0.013146446 0.10305282 0.060778797
000070 83 b6 19 be fc ee 52 bd fc ff 55 3e 78 64 bb 3c
       -0.15011029 -0.051497445 0.20898432 0.022875056
000080 7a 6d 95 be be 59 34 be c0 83 45 3d d8 cd b6 3d
       -0.29185086 -0.17612359 0.04822135 0.0892598
000090 43 8b 1b be b9 41 4c be 18 51 36 bd f4 20 56 be
       -0.15189843 -0.19946946 -0.04451093 -0.20911008
0000a0 8e 8f 14 be 8b 12 8d 3e 49 15 17 bd 6c 47 8c bb
       -0.14507887 0.2755321 -0.036885533 -0.004280975
0000b0 61 4e f5 bd a7 af c7 bd c5 c0 1e 3c 9c 9f 53 be
       -0.1197784 -0.097503 0.0096895145 -0.20666355
0000c0 88 56 9a 3d d7 e5 6d 3d 44 f7 34 be e4 5b 2e 3e
       0.07536036 0.05808052 -0.1767245 0.17027241
0000d0 e5 82 a0 3d 45 e7 8d bd 1b 2a d1 3c a3 32 86 3d
       0.07837466 -0.06928877 0.025532773 0.06552627
0000e0 c0 be 31 be ad 60 21 be 3d 37 ce bb 5e 6c b5 3d
       -0.17357922 -0.15759535 -0.006293206 0.0885856
0000f0 fb ef a0 3d df 5a 87 3d 82 33 b7 bd fd a5 9f bb
       0.07858273 0.06609129 -0.08945371 -0.0048720823
000100 49 c7 12 be 26 db 9c 3e d3 1d a4 3c 06 88 97 3c
       -0.14333834 0.30635947 0.020033753 0.018497478
000110 83 a0 83 bc 7a d4 e2 3e 4e 15 ba be cd 7c 0f 39
       -0.016067749 0.44302732 -0.3634438 0.00013684035
000120 16 34 8a be b6 0e 92 be 52 d2 1e be 35 d0 cb bd
       -0.26992863 -0.2852685 -0.15509918 -0.09951822
000130 52 cf 9a 3c 07 ee 2b bc e2 50 cf 3d ed 80 87 3d
       0.018897686 -0.010493762 0.10122849 0.066163875
000140 1d ad 0f be 5d 3f 7b bc 0e c5 90 bc 2c 95 15 3e
       -0.14030881 -0.015334931 -0.017672088 0.14607686
000150 26 f4 0b 3d e2 f4 de bd a1 bc 22 be 38 5d 28 3d
       0.034168385 -0.108865514 -0.15892269 0.041104525
000160 0f c2 35 bd 43 63 82 3e dc 6d e9 bc d2 e1 16 3e
       -0.04437452 0.25466356 -0.028494768 0.14734581
000170 b5 23 c6 3d ae 74 a5 3d 4e 06 47 be 49 18 82 3d
       0.09674779 0.080788955 -0.19435999 0.06352288
000180 3e 5d 36 be 4a df 80 be f4 e1 9e 3d 72 bb 6c 3e
       -0.17809007 -0.25170356 0.07757941 0.2311838
000190 35 a3 99 bd 63 5c d8 bd 2e c4 13 3e 6b e7 86 bd
       -0.075018324 -0.10564496 0.14430305 -0.06587108
0001a0 31 21 01 3e 31 32 f9 bd cf 1d 97 bd 11 db 5c ba
       0.12610318 -0.121677764 -0.073787324 -0.00084249774
0001b0 0e de ec bd 74 9f cc bd a4 92 8b be 2d f8 1d bd
       -0.11565791 -0.09991351 -0.27260315 -0.038566757
0001c0 a2 af 14 3e 10 95 58 be 0e b2 6f bd ad de ab bd
       0.14520124 -0.21150613 -0.058519416 -0.083920814
0001d0 47 fc 25 bd 13 64 54 bd 48 22 cf 3b c5 a1 d1 3d
       -0.040523794 -0.05185325 0.0063212253 0.10235933
0001e0 47 0c 18 bc c6 ea 7c bd b4 9c 9c be 0a b4 28 bc
       -0.009280271 -0.061747335 -0.30588305 -0.010296831
0001f0 d2 6b 9d bd 26 ce 41 3d 59 65 1b bc 4e a6 33 be
       -0.07686581 0.04731574 -0.009484612 -0.17543909
000200 7b 2f d8 bd e3 06 c1 3d 81 71 d9 bd b3 1c a0 3c
       -0.10555931 0.09425142 -0.10617352 0.019544935
000210 a5 46 eb 3d 67 2f 25 be f0 72 d1 3d 5e c5 29 be
       0.11488084 -0.16131364 0.10227001 -0.16579196
000220 e9 f9 c5 3e 99 63 27 3e 0d 0d ba bd 14 9e d9 bd
       0.3866723 0.16346587 -0.090845205 -0.10625854
000230 f4 78 05 bf 1c 18 46 be 27 93 8a bd f0 df d7 bd
       -0.52137685 -0.19345134 -0.06766348 -0.105407596
000240 f5 53 6d bd e5 68 1f be 4c 26 5f 3d 1a 1a 1e be
       -0.057941396 -0.15567358 0.054479882 -0.15439644
000250 5e b8 b4 bd dc 1f e0 bd 3f d9 0d bd 7f 3a 1c be
       -0.08824228 -0.10943577 -0.03463101 -0.1525669
000260 6e d0 0c be bc 20 4c 3d fb 79 1b 3d 3d 3e ac 3c
       -0.13751385 0.049835905 0.037958127 0.021025771
000270 18 44 b2 bc 76 7a ff bd 4f ec 43 3d d1 3f 9e bd
       -0.021760985 -0.124745294 0.047832783 -0.07727016
000280 16 67 db 3d bc 9c ac 3d e9 f2 8b 3c 91 2e 7a 3d
       0.107130215 0.08428332 0.017083602 0.061079565
000290 6d 13 96 bd 7a a4 55 3d 58 ff ef 3d 7a 7e 84 bd
       -0.07327924 0.05215881 0.11718625 -0.06469436
0002a0 dd 31 ac bd 47 cf 11 bb ae 57 de bd 88 28 b2 b9
       -0.08407948 -0.002224879 -0.10856567 -0.00033981004
0002b0 53 31 62 3d 16 db 79 be a9 aa 0e be 8d c9 46 bd
       0.05522282 -0.24399981 -0.13932289 -0.048532058
0002c0 7a 4c 83 3e 6e da 1d be 43 7b 04 bd bc b0 3c 3d
       0.25644284 -0.15415356 -0.032344114 0.046066985
0002d0 a6 b8 88 3d e4 bd 17 3d ea ce ab 3d 9c d5 63 be
       0.06675844 0.03704633 0.08389075 -0.22249454
0002e0 4a 15 24 3e 14 53 e7 bd 99 17 03 3e 3d 8b 06 be
       0.16023746 -0.11295143 0.1280197 -0.13139053
0002f0 16 08 25 3e a8 0c 3d bd 44 8d 22 3e 77 9b a7 be
       0.16116366 -0.046154648 0.15874201 -0.32735798
000300 92 a4 96 3c 22 ec 17 be c6 2d 09 be b7 e6 0b 3d
       0.01838902 -0.14836171 -0.13396367 0.034155574
000310 68 6e 35 bd 8d 5a b7 3d 3c aa ad bd 0b 53 5d bd
       -0.044294745 0.08952818 -0.08479735 -0.054034274
000320 7e dc 82 3e be 19 c1 bd 00 1e e4 bc 46 62 60 3e
       0.25558847 -0.09428738 -0.027846336 0.21912488
000330 c7 fc 0f 3d 73 4f 29 bd 94 fb c9 bc 82 58 06 bf
       0.035153177 -0.041335534 -0.024656095 -0.524788
000340 3f 46 5c bc fa 97 98 3e f1 06 27 be 79 5c 09 bd
       -0.013444482 0.2980345 -0.16311242 -0.033535454
000350 9d 8d 31 be 56 de f9 3d ac 38 87 3d a1 c4 90 bd
       -0.17339177 0.1220061 0.06602606 -0.07068754
000360 20 cf 73 bd a1 66 d5 bd f0 5e c4 bd 4b c3 9f 3d
       -0.0595237 -0.104199655 -0.095884204 0.07800921
000370 79 79 b2 bd a5 26 28 3e b5 14 04 bf 58 7f c4 bb
       -0.08714575 0.16420992 -0.51594096 -0.005996626
000380 0a 6b d4 3d ad 06 3e 3e 95 a5 a1 3d 11 df 1f be
       0.103719786 0.18557234 0.078929104 -0.15612437
000390 a0 16 60 bf 64 7d 10 bc ef 46 d2 3d db 6a 80 3e
       -0.87534523 -0.008818958 0.10267436 0.25081524
0003a0 8d b2 66 3d 3a 24 e3 be a4 cc 76 bf 40 b2 64 3e
       0.056322623 -0.44363576 -0.96406007 0.22333622
0003b0 f8 95 d6 bd 36 92 65 bd ed 83 09 3c f6 5c 91 3b
       -0.10477823 -0.05604764 0.00839327 0.0044361306
0003c0 b1 52 19 be 8b 0f 42 3c 7e a1 90 bd 90 98 23 be
       -0.1497295 0.011844526 -0.07062052 -0.15976167
0003d0 ae 54 89 bd e5 f0 9f 3d b4 b4 46 bd db d5 a3 bd
       -0.067056045 0.07809619 -0.048512176 -0.07999774
0003e0 d0 af 7c bd d5 6b 8a be 18 e1 2d be 54 da c4 3d
       -0.061691105 -0.27035394 -0.16980398 0.09611955
0003f0 7e 0c e7 bd 4a 10 90 3d 33 1f 90 bd 89 18 93 be
       -0.112816796 0.07034357 -0.07037201 -0.28729656

critic.network_body.linear_encoder.seq_layers.0.bias f4 [64]
000000 d7 db 8d bc a2 38 a8 bb 50 db 45 bc 6b 7c 5c bb
       -0.017316742 -0.0051337043 -0.012076214 -0.0033643495
000010 84 21 7a 3b 2e 9b 01 bd 72 d7 8e bc 4f 50 78 bc
       0.003816695 -0.03164213 -0.017436717 -0.015155866
000020 22 f5 da bb 65 d1 60 bb 9f de 05 bd 95 82 5e bc
       -0.006682054 -0.0034304496 -0.03268301 -0.013580938
000030 20 15 0c bd 21 6c 47 3b 71 d9 5c bc bd 47 9f bc
       -0.034199834 0.003042944 -0.013479576 -0.019443387
000040 e1 03 36 bc c1 c9 4e 3c 12 8b 7e 3d 37 b9 95 bc
       -0.011109323 0.012621344 0.062144347 -0.018276794
000050 6a db 07 3d 9a 6b 0f bd 36 82 91 3a 76 ea 79 bc
       0.033168234 -0.035014726 0.0011101428 -0.015253654
000060 fb 0d d9 bb 23 62 77 bd a3 c2 2d bc b5 69 49 bc
       -0.006623981 -0.060396325 -0.010605487 -0.012293269
000070 f4 8e 49 bd 7f 49 f6 bc 8a f8 ab bc 4d 3f 72 3c
       -0.049208596 -0.030064343 -0.020992536 0.0147856
000080 42 f7 7f 3c 62 b2 6f bc 1a 0f 8a 3c 20 6b d6 bc
       0.015622916 -0.014629932 0.016852904 -0.026174128
000090 c6 59 f2 bc 2f 2e 0c bd 11 24 90 bc c1 f8 36 bd
       -0.029583823 -0.03422373 -0.017595323 -0.044670824
0000a0 ac 35 af bc 34 71 fe bc 22 9b 0b bc 7f 23 50 bd
       -0.021387897 -0.031059839 -0.008520873 -0.0508151
0000b0 e4 dd f2 bc 1d 15 ac ba 50 af fb bc 7e a8 11 bd
       -0.029646821 -0.0013128851 -0.030723244 -0.035561077
0000c0 9c fa b0 bc b1 a3 2e 3c 71 2d 86 3c 2d ad 7f bc
       -0.021603875 0.010659144 0.01637909 -0.015605253
0000d0 93 46 a8 bc 9a 2d 14 bc 36 34 d2 3b 05 62 5d bd
       -0.020541465 -0.009044075 0.0064149154 -0.054048557
0000e0 71 f6 5f bc ba 69 9e bc 59 c4 47 3b 47 7b 1a 3b
       -0.013669596 -0.019337524 0.0030482023 0.0023572014
0000f0 44 0f 26 bd 44 56 d2 bc dd fa 71 bc e8 50 0f bd
       -0.040541902 -0.0256759 -0.014769283 -0.034989268

critic.value_heads.value_heads.extrinsic.weight f4 [1, 64]
000000 a6 2c b4 3d 5d 16 17 be d1 48 c9 bd ed 85 de 3e
       0.087975785 -0.14754625 -0.09828342 0.43461552
000010 9d ab 5d 3d 0d 40 c8 bd 31 7a 55 be 07 7c 32 be
       0.05411874 -0.09777842 -0.20847394 -0.17430125
000020 14 e1 2a 3e 05 94 8e bd cc 80 9f be a2 d5 92 bd
       0.16687423 -0.06961826 -0.31152952 -0.071696535
000030 15 aa 3a 3d 4f 59 42 be 14 4e f3 3d d7 45 e7 bd
       0.04557236 -0.18979381 0.118801266 -0.11292618
000040 cc ae 6f bd 58 e8 97 3e bf 5a 51 3e 4b 4a 55 be
       -0.05851631 0.29669452 0.20444773 -0.20829122
000050 18 2b 7b 3e b7 73 4f be 32 b1 4a 3e 3b 51 0f 3e
       0.24528158 -0.20258985 0.19794157 0.1399583
000060 a6 08 30 3e 5d f5 12 be 46 98 65 3c 92 d7 24 3e
       0.17190799 -0.14351411 0.014013356 0.16097859
000070 66 4b 0f be e6 94 7c be d0 64 17 3e e7 bc 55 3e
       -0.13993606 -0.24666175 0.1478455 0.20872842
000080 c4 6e 36 3e e5 22 85 3e 35 c2 ca 3d 83 23 92 3e
       0.17815691 0.26003185 0.09900323 0.28542718
000090 57 6e d9 bd a1 92 08 bb 05 1a 85 3c e3 6d c1 3d
       -0.10616749 -0.002083935 0.016247759 0.09444787
0000a0 41 dd b7 be 29 c3 91 be fd 60 4a 3e 92 cb 05 bd
       -0.3591099 -0.28469208 0.1976356 -0.032664843
0000b0 77 be c3 bd 7a 80 60 be 72 85 9a 3d 78 15 58 bc
       -0.09557813 -0.2192401 0.07544984 -0.013188712
0000c0 24 4b 49 be 81 89 9a 3d 0e 76 21 3e 2f 54 8c bc
       -0.1965757 0.07545758 0.1576769 -0.017129986
0000d0 84 cd 5b be 26 27 5c 3e 6e a6 23 3e fd 24 cf bd
       -0.21465117 0.21499309 0.15981457 -0.10114477
0000e0 f0 f8 c0 3d ce 5a 0a 3c e2 7f dd 3d d4 c3 99 3e
       0.09422481 0.008444501 0.10815407 0.30032218
0000f0 8c bc 63 be 3f db 70 3e 38 8f 2c 3e 46 01 a5 3c
       -0.22239894 0.23521136 0.16851509 0.020142209

exp_avg f4 [64, 67]
000000 82 0e 5c b7 98 f6 d1 37 9c a6 5f 37 1f 92 5a b5
       -1.31164e-05 2.502957e-05 1.3330628e-05 -8.142396e-07
000010 00 00 00 00 ba dd e8 34 c1 4a ad b1 00 00 00 00
       0.0 4.3374695e-07 -5.043461e-09 0.0
000020 c3 0f dd 34 d1 72 55 37 b8 41 59 b5 92 9c 05 37
       4.1175926e-07 1.2722522e-05 -8.0934433e-07 7.963872e-06
000030 12 98 85 b5 b9 91 58 37 0f e5 4c 37 36 f5 22 b5
       -9.95353e-07 1.2908532e-05 1.2212679e-05 -6.070653e-07
000040 00 0e 52 37 15 41 9c 37 e7 c4 cf 32 cd 76 47 37
       1.2520235e-05 1.8626955e-05 2.4187512e-08 1.1888985e-05
000050 44 d0 4a 37 76 d3 77 36 d3 e9 09 37 9b 98 0c 37
       1.2088629e-05 3.6928955e-06 8.220278e-06 8.3801815e-06
000060 3f 46 2f b5 17 d3 52 37 90 aa 52 37 62 c6 71 36
       -6.52948e-07 1.2566124e-05 1.2556688e-05 3.6027272e-06
000070 1d 6d 0b 37 d0 1e 0a 37 f7 c4 87 b6 95 e0 85 37
       8.3104505e-06 8.232615e-06 -4.0462432e-06 1.5959415e-05
000080 45 b9 80 37 0c b3 14 37 98 ae 4c 36 a5 e4 8a 36
       1.5345062e-05 8.863175e-06 3.0499996e-06 4.139338e-06
000090 aa 30 2f 37 85 70 c5 35 3e a9 49 37 83 c9 12 35
       1.0442143e-05 1.4710391e-06 1.2019938e-05 5.4682477e-07
0000a0 14 b2 3e 37 f7 98 41 37 1a c0 6a 36 a6 2e 0d 37
       1.1366345e-05 1.1539311e-05 3.4980535e-06 8.415116e-06
0000b0 d1 5a 49 37 2f d2 aa b5 f8 38 5d 37 95 2a 5c 37
       1.2001678e-05 -1.2727158e-06 1.3185891e-05 1.3122936e-05
0000c0 80 14 82 b7 d5 03 e6 37 0f 18 95 37 4e b1 23 b6
       -1.5506754e-05 2.7419921e-05 1.7773387e-05 -2.4392098e-06
0000d0 03 cb 70 37 53 4d 6f 37 9f 2d 5a b6 15 6a 7e 37
       1.4352382e-05 1.4263514e-05 -3.2511086e-06 1.5164279e-05
0000e0 e7 06 79 37 d7 1f 4b b7 43 7f c9 37 ee 2f c5 37
       1.4843164e-05 -1.2107156e-05 2.4020328e-05 2.3506549e-05
0000f0 82 cb 00 37 5b 26 8e 36 63 f9 da 36 1a 70 25 b8
       7.676777e-06 4.236395e-06 6.5259387e-06 -3.944347e-05
000100 00 00 00 00 04 00 00 80 46 4d e9 34 69 f4 18 b7
       0.0 -6e-45 4.3455856e-07 -9.116812e-06
000110 01 3e 07 38 f4 75 c8 37 e1 bf 7b b5 00 00 00 00
       3.2244254e-05 2.3896784e-05 -9.3784007e-07 0.0
000120 0e 59 5d 35 27 0c d2 2d 00 00 00 00 6b 86 56 35
       8.245851e-07 2.3879633e-11 0.0 7.9916816e-07
000130 fd 3d 82 36 4e 72 a1 37 c2 b6 b0 37 4b d9 80 b5
       3.8815183e-06 1.9245923e-05 2.1065938e-05 -9.599984e-07
000140 61 0f ca 37 0b 80 c4 37 3f ea 24 b6 16 9f d6 37
       2.4087438e-05 2.3424645e-05 -2.4574254e-06 2.5584868e-05
000150 4e fb f4 37 e1 fe 06 b5 c7 39 c6 37 98 da c6 37
       2.920409e-05 -5.028979e-07 2.3630344e-05 2.370523e-05
000160 11 ab 12 36 6b ac af 37 4b 61 b0 37 1b d1 71 b5
       2.185527e-06 2.0941914e-05 2.102614e-05 -9.0083785e-07
000170 5a 90 c9 37 34 36 c9 37 2d 52 de 35 ae 1c b4 37
       2.4028286e-05 2.3986307e-05 1.6564205e-06 2.1471027e-05
000180 fd 1f b2 37 13 c3 5b b6 31 7a dd 37 d2 92 d9 37
       2.123415e-05 -3.2747091e-06 2.6402153e-05 2.5936784e-05
000190 7d f6 d4 36 33 c4 8c 37 24 91 93 37 6f 50 3d 37
       6.3467874e-06 1.6780663e-05 1.7591352e-05 1.1284005e-05
0001a0 35 b3 46 37 17 f0 bf 37 04 7c 9f 34 de 83 bf 37
       1.1843445e-05 2.2880775e-05 2.970629e-07 2.283038e-05
0001b0 ce 54 c0 37 72 e5 b4 36 74 c8 94 37 ed 32 c2 37
       2.2927674e-05 5.391129e-06 1.7736318e-05 2.3150316e-05
0001c0 33 3d 8d b5 a3 d5 ca 37 e8 62 ca 37 6d 62 4d b7
       -1.052313e-06 2.4179759e-05 2.4126333e-05 -1.2241869e-05
0001d0 83 59 14 38 92 d7 ea 37 6c 35 00 b6 7f 08 d2 37
       3.5369314e-05 2.7995357e-05 -1.9104582e-06 2.5037907e-05
0001e0 72 5c d1 37 53 24 3a b6 59 46 d9 37 41 bc d7 37
       2.495779e-05 -2.7737303e-06 2.5901174e-05 2.571766e-05
0001f0 7f d5 20 b7 47 36 09 38 2c 8c 07 38 d7 3a 8e 36
       -9.586452e-06 3.2713895e-05 3.2317053e-05 4.2387796e-06
000200 1a 73 9e 37 a7 6e a9 37 98 a3 10 b8 00 00 00 00
       1.8888666e-05 2.0197896e-05 -3.4484634e-05 0.0
000210 04 00 00 00 d5 48 9f 33 0d 1d f2 b6 07 09 17 b8
       6e-45 7.4172625e-08 -7.215544e-06 -3.6009613e-05
000220 89 c2 21 b8 38 6b ed 35 00 00 00 00 76 ed ce b5
       -3.8566566e-05 1.7689081e-06 0.0 -1.5417306e-06
000230 dc e5 62 32 00 00 00 00 ea 81 c8 b5 cf a0 8e 37
       1.3207195e-08 0.0 -1.4938971e-06 1.7002601e-05
000240 12 9d 7c b8 78 97 33 b8 7b f4 2c 35 7b 00 38 b8
       -6.0227765e-05 -4.2817992e-05 6.443076e-07 -4.3869466e-05
000250 ba 08 38 b8 77 8d d5 36 58 fe 4f b8 5d 21 52 b8
       -4.3877146e-05 6.3643633e-06 -4.9589522e-05 -5.0098974e-05
000260 69 3a a2 35 7c 5e 3a b8 2f c1 3a b8 a5 2f f7 35
       1.208694e-06 -4.443385e-05 -4.4525772e-05 1.84168e-06
000270 27 06 3d b8 2c a7 3c b8 a6 83 98 35 c5 10 3a b8
       -4.506684e-05 -4.4978384e-05 1.1363197e-06 -4.4361474e-05
000280 fe 3d 3a b8 26 e8 13 37 b3 46 5a b8 77 6a 52 b8
       -4.440359e-05 8.815934e-06 -5.2041094e-05 -5.0167055e-05
000290 27 1b c2 36 0f 90 4d b8 69 14 4a b8 ce 71 91 b5
       5.7848115e-06 -4.9009974e-05 -4.817956e-05 -1.0836463e-06
0002a0 1a c1 30 b8 a4 46 32 b8 17 92 fe b7 77 0e 58 b7
       -4.214151e-05 -4.2504296e-05 -3.0347188e-05 -1.2877971e-05
0002b0 63 88 2b b8 d0 cd b5 b4 0d e1 33 b8 1b f3 33 b8
       -4.0896597e-05 -3.3863626e-07 -4.288652e-05 -4.2903335e-05
0002c0 05 b8 28 b8 4d 4a 49 b6 70 e7 28 b8 b2 3a fa 34
       -4.0225703e-05 -2.9994583e-06 -4.0269864e-05 4.6608835e-07
0002d0 1f 41 37 b8 de 40 37 b8 47 07 06 37 7b ce 56 b8
       -4.369125e-05 -4.3691012e-05 7.988717e-06 -5.1213876e-05
0002e0 ab 53 46 b8 b5 23 42 36 e4 6e 41 b8 67 00 41 b8
       -4.72848e-05 2.8929037e-06 -4.611806e-05 -4.601516e-05
0002f0 41 bd 45 35 9e 63 38 b8 63 0f 3d b8 47 42 88 36
       7.366362e-07 -4.3961794e-05 -4.507544e-05 4.0608315e-06
000300 f3 54 46 b8 ad 83 45 b8 19 cd 42 37 ed ff 65 b8
       -4.7285994e-05 -4.7091093e-05 1.1611054e-05 -5.4836204e-05
000310 41 be 56 b8 b4 0f 7b b8 00 00 00 00 04 00 00 80
       -5.1198764e-05 -5.9857688e-05 0.0 -6e-45
000320 80 94 c5 b6 49 dc 15 35 19 54 60 b7 2e 88 54 b7
       -5.888345e-06 5.582738e-07 -1.3371021e-05 -1.26678915e-05
000330 df ca 72 34 00 00 00 00 e1 fc f0 b4 88 92 0f 31
       2.261181e-07 0.0 -4.4887477e-07 2.0892532e-09
000340 00 00 00 00 cf b7 ed b4 9d 08 06 b6 2d 74 35 b7
       0.0 -4.4278428e-07 -1.997257e-06 -1.081549e-05
000350 92 f6 4a b7 af a2 04 34 e1 08 59 b7 85 4e 58 b7
       -1.2097547e-05 1.2352642e-07 -1.2936275e-05 -1.2892885e-05
000360 2d 4d b4 34 bf 98 5c b7 78 b3 63 b7 2f 29 ed 33
       3.3583765e-07 -1.3148586e-05 -1.357204e-05 1.1043664e-07
000370 a7 d0 58 b7 0d 15 59 b7 13 2a 76 b4 ad 1d 53 b7
       -1.2923184e-05 -1.2939109e-05 -2.2925842e-07 -1.25834895e-05
000380 71 5b 53 b7 01 f5 d4 33 3e a0 58 b7 ca e1 58 b7
       -1.259787e-05 9.916585e-08 -1.2911913e-05 -1.2927174e-05
000390 15 4c 49 34 84 1b 5a b7 cf 54 58 b7 fa e4 6a 35
       1.8747262e-07 -1.3000219e-05 -1.2894349e-05 8.7505e-07
0003a0 a3 a4 65 b7 56 66 63 b7 34 04 48 b5 11 76 4a b7
       -1.3687796e-05 -1.3554081e-05 -7.451192e-07 -1.2067628e-05
0003b0 5f 2b 4c b7 bd 59 3d b6 e5 9f 27 b7 a3 58 54 b7
       -1.2169446e-05 -2.821543e-06 -9.991204e-06 -1.2656822e-05
0003c0 93 4f 4e b4 16 bd 53 b7 25 7b 55 b7 a8 81 c7 b6
       -1.9214194e-07 -1.2620605e-05 -1.2724461e-05 -5.945756e-06
0003d0 02 6b e6 b6 e6 36 50 b7 69 ce 6e 33 22 e5 57 b7
       -6.8669915e-06 -1.2410548e-05 5.5601422e-08 -1.2868348e-05
0003e0 71 f2 57 b7 c9 a7 d4 35 4e 8b 71 b7 c6 ac 60 b7
       -1.2871446e-05 1.5844063e-06 -1.4397154e-05 -1.3391667e-05
0003f0 4d ab e8 34 af 3b 5e b7 ea 05 5e b7 bc 80 8c 34
       4.3338005e-07 -1.3246127e-05 -1.3233608e-05 2.61707e-07

exp_avg_sq f4 [64, 67]
000000 db 70 ce 35 93 f1 15 36 e2 80 42 36 4d 5e 04 34
       1.5381041e-06 2.2343345e-06 2.8983272e-06 1.2327764e-07
000010 00 00 00 00 5b 7c 9b 31 8d 47 8b 34 00 00 00 00
       0.0 4.5252313e-09 2.5942828e-07 0.0
000020 22 63 98 31 4b f0 8d 35 eb 30 38 36 56 87 4e 36
       4.4350523e-09 1.0575253e-06 2.744661e-06 3.0775168e-06
000030 8d 50 eb 34 b0 0b 66 36 82 c5 65 36 7a 17 83 35
       4.383077e-07 3.4279474e-06 3.4238624e-06 9.767093e-07
000040 08 d1 40 36 1e 5e 5a 36 6f 24 25 35 1a 7a 55 36
       2.8731902e-06 3.2539315e-06 6.152031e-07 3.1810546e-06
000050 ed a5 56 36 4a f8 56 35 94 b3 4f 36 89 a4 59 36
       3.1985066e-06 8.008252e-07 3.0949932e-06 3.2431292e-06
000060 ad fe 1e 35 22 70 5d 36 97 84 5d 36 68 29 4b 34
       5.923019e-07 3.2996836e-06 3.3008744e-06 1.8920912e-07
000070 b6 3e 75 36 87 1b 76 36 b5 70 ac 35 42 d3 32 36
       3.6544347e-06 3.667288e-06 1.2847801e-06 2.6647035e-06
000080 cd ac 32 36 eb 6a 31 34 29 d2 74 36 36 f7 75 36
       2.662465e-06 1.6523306e-07 3.6481163e-06 3.665174e-06
000090 0d 33 22 35 4b fc 51 36 2c 25 5d 36 91 32 18 34
       6.042399e-07 3.129028e-06 3.2953203e-06 1.4174499e-07
0000a0 ad b3 76 36 9b d8 76 36 30 0c 7c 35 60 0a 43 36
       3.6761442e-06 3.6782938e-06 9.389505e-07 2.9063303e-06
0000b0 ae 82 58 36 cf 21 db 32 6a a7 80 36 e8 a0 80 36
       3.2262574e-06 2.551033e-08 3.834187e-06 3.833429e-06
0000c0 dc b9 1a 35 72 db 55 36 39 0d 64 36 a1 b2 ca 32
       5.763993e-07 3.1867207e-06 3.3982344e-06 2.3597126e-08
0000d0 ae a1 80 36 b0 a2 80 36 82 1d 33 35 69 e6 59 36
       3.8335193e-06 3.8336366e-06 6.6725636e-07 3.2469636e-06
0000e0 7e 11 5b 36 93 a8 13 33 a7 35 7f 36 34 21 7f 36
       3.2643725e-06 3.4379422e-08 3.802919e-06 3.8017288e-06
0000f0 27 56 51 35 a0 2a 51 36 f3 58 52 36 77 57 e1 39
       7.7983935e-07 3.1168238e-06 3.1344214e-06 0.0004298051
000100 00 00 00 00 84 09 00 00 8f 82 3a 36 f0 2e 81 35
       0.0 3.414e-42 2.7792155e-06 9.62491e-07
000110 81 1a 9a 35 46 24 d3 35 c1 4d 8f 33 00 00 00 00
       1.1481608e-06 1.5731282e-06 6.6731e-08 0.0
000120 de b4 2e 31 d5 41 0c 34 00 00 00 00 96 1d 2c 31
       2.5423144e-09 1.3062466e-07 0.0 2.5046112e-09
000130 89 69 3e 35 2a 87 bf 35 35 9a de 35 6c 5e 79 34
       7.093409e-07 1.4269947e-06 1.6585169e-06 2.3224283e-07
000140 e2 86 02 36 78 3e 02 36 bc c6 10 35 7f 84 d8 35
       1.9450022e-06 1.9407871e-06 5.3933377e-07 1.6131816e-06
000150 92 d7 f4 35 cd df b0 34 06 09 f3 35 50 37 f4 35
       1.8242156e-06 3.294539e-07 1.8107537e-06 1.8195515e-06
000160 d0 be f4 34 ed 51 ea 35 d5 f5 f4 35 e0 10 a6 34
       4.5587376e-07 1.7458202e-06 1.8250963e-06 3.0932188e-07
000170 ac 1a fd 35 b7 0f fd 35 0a be de 33 8a c5 09 36
       1.8857731e-06 1.8854543e-06 1.03722485e-07 2.0529574e-06
000180 f0 48 0a 36 e6 09 35 35 97 4e d0 35 92 1f d0 35
       2.0606058e-06 6.744216e-07 1.552008e-06 1.5506396e-06
000190 37 92 c9 33 96 63 09 36 33 0e 0a 36 a6 f9 b2 34
       9.386388e-08 2.0472557e-06 2.0571867e-06 3.3336727e-07
0001a0 67 83 ec 35 25 d8 fc 35 f3 61 94 33 ba 36 0b 36
       1.7621613e-06 1.883837e-06 6.909604e-08 2.074447e-06
0001b0 e2 4d 0b 36 b6 76 09 35 35 f7 dc 35 3d 93 f4 35
       2.0757948e-06 5.1209224e-07 1.6463224e-06 1.8222269e-06
0001c0 70 09 43 32 a4 ab 10 36 3a a5 10 36 8b 14 b5 34
       1.135264e-08 2.155758e-06 2.1553847e-06 3.3728824e-07
0001d0 f0 e4 ef 35 12 01 00 36 23 86 43 32 d6 95 10 36
       1.7873517e-06 1.907411e-06 1.1380993e-08 2.1544888e-06
0001e0 08 98 10 36 5c 9e c3 34 d9 48 f7 35 29 63 f8 35
       2.1546166e-06 3.6436802e-07 1.8424136e-06 1.8506299e-06
0001f0 a6 58 bf 32 0c d2 0e 36 29 ce 0e 36 13 dc d7 34
       2.2275639e-08 2.1281912e-06 2.127965e-06 4.0206996e-07
000200 09 12 f0 35 e3 7b f1 35 78 8f 77 39 00 00 00 00
       1.7886642e-06 1.7991955e-06 0.00023609202 0.0
000210 f4 01 00 00 f8 10 a7 35 d1 dd 95 36 2e da 85 36
       7e-43 1.2447408e-06 4.466369e-06 3.9891083e-06
000220 57 40 ae 36 26 0e 72 35 00 00 00 00 f4 26 25 32
       5.1930942e-06 9.0172614e-07 0.0 9.613121e-09
000230 da f4 b9 34 00 00 00 00 36 60 2b 32 af 22 34 36
       3.4637088e-07 0.0 9.975386e-09 2.6842279e-06
000240 5c 9f bf 36 8e dc e1 36 1a ea 9a 35 d6 0e f9 36
       5.7107954e-06 6.7311985e-06 1.1542027e-06 7.4225054e-06
000250 75 40 fd 36 a0 52 c1 35 e6 a4 f0 36 60 6b 01 37
       7.5474914e-06 1.4403668e-06 7.171754e-06 7.713999e-06
000260 b5 bb c7 35 28 0f eb 36 d8 76 ee 36 de 24 8a 35
       1.4881285e-06 7.00531e-06 7.106788e-06 1.0292531e-06
000270 17 b0 01 37 5f 17 07 37 6d 04 aa 35 0e 9b f7 36
       7.729998e-06 8.052069e-06 1.2667275e-06 7.3792244e-06
000280 0a e1 f7 36 41 d3 3c 34 92 e2 0c 37 dd 86 0d 37
       7.3873716e-06 1.7585718e-07 8.397403e-06 8.435655e-06
000290 13 b6 11 36 78 b1 d7 36 32 4f d8 36 0a 0e ee 33
       2.1712665e-06 6.4281594e-06 6.446521e-06 1.1085292e-07
0002a0 3f 10 0f 37 db 32 0f 37 b3 8b 19 36 8b 15 d2 36
       8.527247e-06 8.535305e-06 2.2880092e-06 6.2609956e-06
0002b0 fa f6 e6 36 94 84 65 35 60 57 02 37 5c d3 02 37
       6.883286e-06 8.5502074e-07 7.768947e-06 7.797815e-06
0002c0 94 bb 3e 36 93 e7 be 36 d7 38 d8 36 fa 92 38 34
       2.842139e-06 5.6894e-06 6.4439187e-06 1.7189805e-07
0002d0 86 ab 0d 37 96 bc 0d 37 d3 67 27 36 b3 2a ca 36
       8.444191e-06 8.4481635e-06 2.4945373e-06 6.02504e-06
0002e0 e4 99 d4 36 5b 74 2b 34 ad b2 0d 37 8e c4 0d 37
       6.3360076e-06 1.5967946e-07 8.445856e-06 8.450019e-06
0002f0 84 c9 02 36 fa 7c e0 36 0c 5d e1 36 6a 1e 11 34
       1.9488807e-06 6.6902694e-06 6.7163546e-06 1.3515242e-07
000300 ac 6d 0e 37 83 8c 0e 37 2f 75 ea 35 57 cb e7 36
       8.4893945e-06 8.496575e-06 1.7468464e-06 6.9080083e-06
000310 d3 5b e9 36 61 2c 26 3a 00 00 00 00 51 03 00 00
       6.954631e-06 0.00063390104 0.0 1.19e-42
000320 73 8d 4c 37 18 1d 8c 33 1f c9 67 33 9e 53 9c 33
       1.2192281e-05 6.52455e-08 5.3966797e-08 7.279526e-08
000330 38 b4 da 31 00 00 00 00 07 20 19 2f 4e 2b af 31
       6.3651235e-09 0.0 1.3926647e-10 5.0980935e-09
000340 00 00 00 00 4d 45 18 2f c1 ce 60 33 2e fa 8e 33
       0.0 1.384894e-10 5.2342106e-08 6.657898e-08
000350 c8 9b b3 33 db 92 d7 32 22 0c d1 33 d2 94 d3 33
       8.3636735e-08 2.5096076e-08 9.734528e-08 9.8525234e-08
000360 09 35 78 32 b3 f4 de 33 24 35 ed 33 70 79 f6 32
       1.4447559e-08 1.0382191e-07 1.1045839e-07 2.8693393e-08
000370 41 d5 c2 33 68 78 ce 33 da bf 1a 32 b8 b7 f0 33
       9.0726196e-08 9.614524e-08 9.007602e-09 1.1209289e-07
000380 0e 3a f3 33 14 e4 3f 32 0b 3d ed 33 cd 1e ed 33
       1.13261294e-07 1.1169522e-08 1.1047276e-07 1.1041775e-07
000390 07 c6 9e 31 63 55 f2 33 2f 50 f3 33 73 e5 b6 32
       4.6209183e-09 1.1284535e-07 1.13301546e-07 2.129193e-08
0003a0 7a d3 d8 33 0c 99 d8 33 45 77 8f 31 3a f6 f3 33
       1.0096751e-07 1.0086123e-07 4.175407e-09 1.13603576e-07
0003b0 8f 7d f4 33 4e 22 f5 32 eb 0b c0 33 b3 fa d5 33
       1.13849744e-07 2.8537354e-08 8.9428646e-08 9.964187e-08
0003c0 1a 70 3b 32 86 4c eb 33 17 aa f0 33 87 4a f0 32
       1.09103215e-08 1.095696e-07 1.120681e-07 2.7973568e-08
0003d0 8d 4f c7 33 72 e2 d5 33 1d 25 f5 30 cf f2 fd 33
       9.28113e-08 9.9597756e-08 1.7836644e-09 1.1825397e-07
0003e0 03 64 fe 33 74 a2 f8 32 f3 23 c7 33 b7 27 cd 33
       1.1845989e-07 2.8944875e-08 9.273199e-08 9.5532805e-08
0003f0 05 de 2a 31 ec db fa 33 f2 d0 fb 33 5c 59 ef 32
       2.486446e-09 1.1681536e-07 1.1726105e-07 2.7863898e-08

exp_avg f4 [64]
000000 b6 de 47 37 cd 01 c2 37 a8 4c 35 b8 56 f6 56 b7
       1.1913178e-05 2.312744e-05 -4.3225155e-05 -1.28127485e-05
000010 07 c1 0e ba 4e fc 49 37 b4 d0 fa b7 16 a7 0f ba
       -0.00054456334 1.2039278e-05 -2.9899507e-05 -0.0005479915
000020 2f e5 e2 b8 4b 4e 1d ba 3d 76 34 b9 f4 a0 35 ba
       -0.000108192085 -0.0006000741 -0.00017210185 -0.0006928586
000030 f3 20 9f 37 e7 43 c9 b7 00 cf 13 b8 64 2e c9 38
       1.896962e-05 -2.3992687e-05 -3.5240315e-05 9.593068e-05
000040 5e 1c d0 b9 2b 3b 1e 39 cf 8b a1 b9 e6 50 69 b9
       -0.00039693987 0.00015090096 -0.00030812479 -0.00022250749
000050 66 3d 17 b8 2d 09 23 b7 f1 43 58 ba 7b bb ac b9
       -3.6058387e-05 -9.7176935e-06 -0.000824987 -0.0003294608
000060 e6 e2 19 b8 91 fb 31 b8 a8 2d 17 b7 ad f0 85 b9
       -3.668936e-05 -4.2434378e-05 -9.0109315e-06 -0.00025547054
000070 2c da 9d b7 39 06 e4 38 be 07 87 38 f5 b7 97 b9
       -1.8817453e-05 0.00010873046 6.438744e-05 -0.00028938023
000080 25 97 a2 b6 95 3d 8d 39 29 69 e5 b9 e8 ca 0e b8
       -4.8455718e-06 0.00026939498 -0.00043756634 -3.404441e-05
000090 9d cb 8e ba ad 38 1c 37 86 ed 75 39 12 2c b5 37
       -0.0010894422 9.31152e-06 0.00023453505 2.1597403e-05
0000a0 4b 94 bb 36 7a 1b 58 ba 00 f6 0d b9 a1 96 1b b8
       5.590298e-06 -0.00082438404 -0.0001353845 -3.7095164e-05
0000b0 91 e1 b7 39 c7 6b 8f b7 e2 ad 77 36 76 33 cf 39
       0.0003507254 -1.7097116e-05 3.6907081e-06 0.00039520458
0000c0 e6 89 3d ba 00 fc 19 b5 99 8f 81 39 37 6e 1e ba
       -0.00072303263 -5.736365e-07 0.00024711786 -0.0006043645
0000d0 59 5c 72 b8 31 4b 0f 37 a5 19 e1 37 5c 2f 9a b9
       -5.77833e-05 8.540971e-06 2.6834032e-05 -0.00029408454
0000e0 c9 d7 c7 39 af b3 69 ba fd cd a5 b7 b6 a6 37 b7
       0.0003811701 -0.00089150196 -1.9765454e-05 -1.0946465e-05
0000f0 67 e5 8f 36 5d 02 5c b7 db 25 20 ba 7c 4f d0 36
       4.288438e-06 -1.3113572e-05 -0.00061091565 6.2081363e-06

exp_avg_sq f4 [64]
000000 ce f3 80 36 89 e6 10 36 97 d8 10 37 d4 87 00 34
       3.84308e-06 2.1591861e-06 8.633498e-06 1.1970343e-07
000010 ea d4 88 37 73 d9 89 36 ae 83 64 33 15 07 97 37
       1.631161e-05 4.1082326e-06 5.320515e-08 1.80039e-05
000020 35 da 42 37 60 a6 0d 37 f0 cb 75 37 ee 3d bb 37
       1.1614106e-05 8.442992e-06 1.4650621e-05 2.2320975e-05
000030 de e4 e1 35 a6 ff c4 32 7c f6 56 33 d0 e5 47 36
       1.6830415e-06 2.2933659e-08 5.0049934e-08 2.978708e-06
000040 79 e4 a8 36 fb 09 be 35 b1 37 5b 37 59 a1 73 36
       5.033388e-06 1.4159008e-06 1.3066384e-05 3.6303738e-06
000050 14 81 98 33 22 49 13 35 4d d2 aa 37 26 af 19 37
       7.101531e-08 5.486819e-07 2.0363508e-05 9.160291e-06
000060 43 75 b7 33 4e 28 93 34 f1 fe 25 33 27 61 8c 37
       8.542931e-08 2.741021e-07 3.8648924e-08 1.673454e-05
000070 2a a7 1f 33 44 89 4e 37 1d d7 43 34 ee 58 ec 37
       3.7172107e-08 1.23105165e-05 1.8239048e-07 2.8174803e-05
000080 e6 93 c9 34 28 6c cd 36 68 e6 79 36 76 d4 3a 35
       3.7546778e-07 6.122067e-06 3.7238005e-06 6.959957e-07
000090 7a bb 19 38 da db 7c 34 f3 76 b1 37 10 6b 93 34
       3.6652644e-05 2.354931e-07 2.1155434e-05 2.7458782e-07
0000a0 28 66 19 35 e8 12 48 37 6d ca 8c 36 7a 17 0c 33
       5.71456e-07 1.1925331e-05 4.1958906e-06 3.2617642e-08
0000b0 53 88 02 37 8a c1 ef 33 6e 53 b3 35 c7 7a 61 38
       7.780344e-06 1.1164509e-07 1.336082e-06 5.3758526e-05
0000c0 87 fc 4f 38 89 d5 c2 34 32 c2 ca 37 2e 5f 2a 38
       4.958783e-05 3.6290683e-07 2.4170706e-05 4.06198e-05
0000d0 8f 81 87 33 96 fe 7e 34 4f d0 01 37 89 92 ed 36
       6.309994e-08 2.3748211e-07 7.7375e-06 7.0802093e-06
0000e0 35 bf 60 38 ee e7 36 38 56 98 8c 36 9a d4 77 34
       5.3583837e-05 4.3608183e-05 4.1900594e-06 2.3081012e-07
0000f0 aa 9a 2b 32 d3 7b 1a 34 a6 85 4b 37 77 59 e4 34
       9.9886766e-09 1.4387415e-07 1.213086e-05 4.2533404e-07

exp_avg f4 [3, 64]
000000 29 f1 84 3a 18 50 83 3a 9f 9e 2a bb 77 31 7e 3a
       0.0010142672 0.0010018377 -0.0026034487 0.0009696702
000010 02 2e a3 bb 03 00 85 3a 69 5f 9a 39 cf fb bd bb
       -0.00497985 0.0010147098 0.00029444255 -0.00579784
000020 9e a4 9e bb e2 28 04 bb 3b 10 ee bb 0f 1c b6 bb
       -0.0048414012 -0.002016597 -0.0072651184 -0.005557544
000030 4d 45 74 3a 0d 0a 9d 39 44 07 62 3a 18 9b 05 3a
       0.0009318188 0.00029952862 0.00086222985 0.0005096658
000040 ff 13 95 ba 5e aa b5 b9 e3 8e a2 bb b5 f3 59 bb
       -0.0011373757 -0.00034649944 -0.004960881 -0.0033256833
000050 48 28 de 39 b8 01 84 3a f2 95 a4 bb 97 22 2a bc
       0.00042373152 0.0010071313 -0.0050227577 -0.010384223
000060 83 64 4d 3a 11 78 21 3a 47 a7 68 3a 3d 9b 89 bb
       0.0007835107 0.0006159554 0.0008875024 -0.004199414
000070 8e 33 c8 39 e4 b7 3f 3a d2 c4 f0 ba 08 1f 30 bc
       0.00038185384 0.00073134736 -0.0018369204 -0.010749586
000080 c4 c4 78 3a 77 d3 39 ba 6d af 76 ba ea ac 47 ba
       0.00094897696 -0.00070887007 -0.0009410296 -0.0007617014
000090 b6 83 b2 bb 9d 40 79 3a b0 84 2a 39 a8 36 4e 3a
       -0.00544783 0.00095082243 0.00016261893 0.0007866421
0000a0 14 b7 5e 3a 84 09 ac bb 1f af 31 bb d6 c0 c5 39
       0.00084959087 -0.005250158 -0.0027112437 0.00037718442
0000b0 5f 05 80 ba 1a c1 70 3a 25 b0 78 3a e3 57 bb b9
       -0.0009767226 0.0009184048 0.0009486697 -0.000357329
0000c0 bd 6d 24 bc 2d 08 45 3a ab b8 3f b9 91 a1 24 bc
       -0.010035929 0.0007516172 -0.00018283974 -0.010048286
0000d0 cc 93 02 3a e5 9e 62 3a 59 ec fb 39 7f 0e f4 bb
       0.000498113 0.0008644893 0.00048050543 -0.007448017
0000e0 bb 9b 4f b8 d5 71 13 bc d5 db 1a 3a ce d6 7f 3a
       -4.949768e-05 -0.008999308 0.00059073913 0.00097594864
0000f0 68 c2 45 3a 10 d6 4b 3a 84 e3 b4 bb 6d 9c 80 3a
       0.00075439224 0.0007775733 -0.005520286 0.0009812244
000100 a3 a7 84 ba 52 d8 85 ba a9 c2 2d 3b e3 01 88 ba
       -0.001012076 -0.0010211563 0.0026513732 -0.0010376539
000110 55 df ab 3b be 8b 92 ba e2 07 a6 b9 1d fd c7 3b
       0.005245129 -0.0011180562 -0.0003166786 0.0061031715
000120 f5 c4 9e 3b 59 b4 08 3b 64 1d fa 3b 6b e4 bd 3b
       0.0048452565 0.0020859449 0.007632898 0.005795052
000130 ec a8 76 ba b6 34 aa b9 04 ed 71 ba ad ea 19 ba
       -0.00094093266 -0.000324642 -0.00092287385 -0.0005871456
000140 77 18 a9 3a 10 5d 99 39 af 02 ad 3b 4b 28 67 3b
       0.0012900968 0.0002925177 0.005279861 0.003527182
000150 90 6f f0 b9 09 b7 8d ba da c9 a9 3b 26 39 33 3c
       -0.00045859488 -0.0010811995 0.0051815333 0.010938918
000160 72 04 5a ba f2 b7 2e ba c6 11 7d ba d9 a5 8b 3b
       -0.00083167024 -0.0006664983 -0.00096538325 0.004261714
000170 81 05 d7 b9 c6 08 4f ba 6e b7 fe 3a 9f 3b 36 3c
       -0.00041012096 -0.00078977307 0.0019433328 0.011122613
000180 4a a3 83 ba c3 82 5c 3a 02 e1 9b 3a 8d 4c 3d 3a
       -0.0010043171 0.0008411819 0.0011892619 0.0007221185
000190 27 90 bc 3b 8d 22 8c ba 40 9d 5e b9 26 e4 59 ba
       0.005754489 -0.0010691449 -0.0002123015 -0.000831189
0001a0 51 b7 87 ba 1e 40 b8 3b 2c c7 3a 3b d4 86 d8 b9
       -0.0010354315 0.0056228777 0.0028500063 -0.00041299185
0001b0 bb a2 7c 3a 2d d4 81 ba ed 33 8c ba 1f 7e e1 39
       0.0009637286 -0.0009905152 -0.0010696627 0.00043009312
0001c0 a4 64 2b 3c d3 9a 47 ba 26 96 6f 39 1a 80 2a 3c
       0.010461006 -0.0007614318 0.00022848751 0.010406518
0001d0 7d a4 0a ba 88 a2 74 ba d7 e3 05 ba b2 48 fe 3b
       -0.0005288793 -0.00093320804 -0.0005107498 0.007760131
0001e0 cc 69 23 b8 c7 94 1b 3c 18 c6 1a ba a9 a9 89 ba
       -3.896076e-05 0.0094959205 -0.0005904152 -0.0010502833
0001f0 39 03 50 ba 8e 40 61 ba 46 33 c2 3b a7 89 8a ba
       -0.00079350505 -0.0008592688 0.0059265224 -0.0010569588
000200 d8 0a 13 b6 fa 0e a2 37 d0 01 49 b8 87 92 8e 38
       -2.1911019e-06 1.9318879e-05 -4.7923822e-05 6.7983805e-05
000210 10 15 8b b9 c8 bb d8 38 9c 87 ba 37 e5 14 a0 b9
       -0.0002652784 0.000103346596 2.2236076e-05 -0.00030533146
000220 4c 60 81 b6 cc 6e 91 b8 54 d2 c0 b9 18 0b 79 b9
       -3.85571e-06 -6.934776e-05 -0.000367778 -0.00023750623
000230 14 e8 18 37 92 aa d2 37 e6 5b 7e 38 9d 7c a2 38
       9.113941e-06 2.5113379e-05 6.0643906e-05 7.747973e-05
000240 d2 23 20 b9 68 6a 62 38 e3 3c a7 b9 97 49 53 b9
       -0.00015272133 5.3981697e-05 -0.00031898086 -0.00020149942
000250 fe 39 12 38 06 55 9b 38 c6 7c 26 b9 f1 68 11 ba
       3.4863122e-05 7.406813e-05 -0.00015877475 -0.00055469485
000260 ae fe 49 38 05 fe 53 38 25 54 a3 38 12 a7 82 b8
       4.8159323e-05 5.0542894e-05 7.788119e-05 -6.230002e-05
000270 0d 1f ed 37 2c 0e 75 38 f2 29 df b8 fc 92 c3 b9
       2.826706e-05 5.842575e-05 -0.000106412816 -0.0003730281
000280 f5 1c 68 38 41 bd 0a b9 33 25 82 b9 ee 05 26 38
       5.534008e-05 -0.00013231208 -0.00024823248 3.9583007e-05
000290 05 c7 a0 b9 e9 23 f8 38 45 62 50 38 c0 d7 3a 38
       -0.0003066586 0.0001183225 4.9682585e-05 4.454679e-05
0002a0 38 de 42 39 8c 69 c3 b9 ba 80 11 b9 f2 2f 16 38
       0.00018584065 -0.00037271937 -0.00013876232 3.580744e-05
0002b0 24 02 5a 37 17 3a 97 38 e2 bd fd 38 fd 98 98 b8
       1.2994311e-05 7.211061e-05 0.000120993485 -7.276421e-05
0002c0 2c dd de b9 97 a9 24 37 05 76 3f b8 58 d1 bb b9
       -0.00042507926 9.8146475e-06 -4.5647863e-05 -0.00035823393
0002d0 0c 0b 01 38 ff 1c 90 38 e4 b5 fd 37 ee a2 a3 b9
       3.0766285e-05 6.871856e-05 3.024465e-05 -0.00031211175
0002e0 cb 82 b9 38 07 2f 02 ba 1d dd ad b4 05 e4 9b 38
       8.8458495e-05 -0.0004966114 -3.2384642e-07 7.433448e-05
0002f0 14 0d 24 38 ff 53 ab 38 1d fc d4 b9 70 d3 9e 38
       3.9112827e-05 8.169561e-05 -0.0004062363 7.5734104e-05
