Config/results/BallCatcher_02/BoxBehavior/BoxBehavior-999995.pt (torch, 118031 bytes, 21 tensors)

network_body.linear_encoder.seq_layers.0.weight f4 [64, 67]
000000 b5 48 04 3c da 33 5f bd a7 f6 18 bd 8a e3 f1 be
       0.008073975 -0.05449281 -0.0373446 -0.4724391
000010 67 03 ae 3d 25 ed ac 3d 0b b1 19 3e 85 14 71 be
       0.08496743 0.08443669 0.15008943 -0.23542984
000020 69 80 85 bc 96 9e 30 3e 43 81 4b bd bf c6 2f be
       -0.016296582 0.17247996 -0.04968382 -0.1716566
000030 f0 69 43 bc 90 51 2e be 0c e9 a7 be 11 cd bf 3d
       -0.011927113 -0.17023301 -0.32794988 0.09365285
000040 48 a1 ff bd 41 9f 03 be 05 5e 3b bd 4d 04 85 be
       -0.12481934 -0.1285372 -0.04574396 -0.25979844
000050 4e eb 65 be b6 5e 20 3d 43 67 af 3c a8 16 74 3c
       -0.22453043 0.039152823 0.021411544 0.01489798
000060 91 f5 fa bc 8a 14 03 be e0 4d 13 3e fd 57 0a 3e
       -0.030634673 -0.12800804 0.14385176 0.13510127
000070 35 04 5b be fb cc e8 bc 1a 7d c3 bc 63 62 11 be
       -0.21388324 -0.028418055 -0.023863364 -0.14197688
000080 93 80 4c be 88 f6 c5 3d ee 70 52 bd c7 7b d0 3d
       -0.19970922 0.09666163 -0.05137723 0.10179859
000090 43 77 74 be 9f ee e6 3d e6 61 81 bd 47 11 39 3e
       -0.2387362 0.11275982 -0.06317501 0.18072997
0000a0 cd f8 24 be e2 e1 5f be 88 19 5a 3d 2c 37 75 3d
       -0.16110535 -0.21863511 0.053247005 0.05986707
0000b0 5b a9 a1 3d 74 c9 9f 3d 99 b2 5e be 05 f1 c4 3c
       0.0789363 0.07802096 -0.21747817 0.024040708
0000c0 6f ae 20 3e 42 bc fd 3b 29 1d 04 bc a6 db 8c bd
       0.15691541 0.0077433893 -0.008063593 -0.06877832
0000d0 0f c8 a2 b8 bb 37 0c be be f1 db 3b 4b 9d a5 3c
       -7.762026e-05 -0.13693134 0.0067121675 0.020216605
0000e0 10 5a 32 be aa 11 10 3c 53 e6 7b be 17 ba 7d 3d
       -0.17417169 0.008793274 -0.2459958 0.061945047
0000f0 a1 ae 8a 3d 64 73 80 be 74 b3 96 be ca 2e 69 3e
       0.06771589 -0.25088036 -0.29433787 0.22771755
000100 66 ee 11 3e 8c fa d4 bd 41 76 5b bd d0 16 43 bd
       0.14251098 -0.103993505 -0.053579573 -0.047629178
000110 e0 9d 94 be c8 f3 50 3b ed b2 87 bd 13 93 e2 3d
       -0.290267 0.0031883586 -0.06625924 0.110632084
000120 b8 fc 8c be 70 58 69 3d b4 8f f7 3a a5 af 8b bd
       -0.2753656 0.056969106 0.0018887431 -0.06820611
000130 e8 69 e3 3d a0 11 ca bd b1 61 6e be e5 27 a7 bd
       0.111041844 -0.09866643 -0.23279454 -0.08161906
000140 b6 c7 25 bd 1d 21 81 be bd 33 37 3e 27 c1 24 bd
       -0.040473662 -0.25220576 0.1789083 -0.040223267
000150 e4 26 6d be 29 93 1f 3e da dd 35 bd d8 78 fc bc
       -0.23159367 0.15583481 -0.044401027 -0.030819342
000160 11 97 85 bd c2 26 45 3e 4c ea 06 be c2 4f 12 bd
       -0.06522954 0.19253066 -0.13175315 -0.035720594
000170 87 03 06 be f7 d1 15 3e fd d9 ad bc c8 a7 65 bd
       -0.13087283 0.14630876 -0.021222109 -0.05606821
000180 7e c5 c7 3a 61 59 c1 bd 0d aa 08 be e1 eb 3f bd
       0.0015241352 -0.09440876 -0.13346119 -0.04685581
000190 68 c7 a5 3d 7d 65 23 3e 41 c3 e3 bd 19 14 a9 be
       0.08094674 0.15956683 -0.11121226 -0.33023146
0001a0 e1 e3 f7 3d 88 12 44 3e f8 86 2d 3e f2 65 93 3c
       0.12104011 0.19147694 0.16946018 0.017992947
0001b0 f8 fe 4e 3c af b4 a9 bd e6 b2 c3 3d d3 03 9d 3d
       0.0126340315 -0.08286416 0.095556065 0.07666745
0001c0 91 9a 49 3e 81 65 6d 3d 63 32 13 3d 73 3d d4 bd
       0.19687869 0.05795813 0.035936724 -0.10363283
0001d0 dc d5 9a 3d cb 1f 0c be f5 af 2b bd 07 48 31 3e
       0.07560322 -0.13684003 -0.041915853 0.17312633
0001e0 52 cb c0 bd a8 1d f5 3d 7e 03 1d 3e 32 87 75 3c
       -0.0941378 0.11968547 0.15333363 0.014985846
0001f0 cf 6e d0 3e 04 81 a5 be b2 2e 85 3d 33 9e 0e 3e
       0.4070954 -0.32324994 0.06503047 0.13927536
000200 b2 6c 96 bd 6f 2d 0a be 98 fb 66 3e 89 1a 8d 3d
       -0.07344951 -0.13493894 0.22556913 0.06889827
000210 7a c6 0a bc 1a c0 b5 be 13 f5 9a 3d 2b 71 57 3e
       -0.008470172 -0.35498124 0.075662754 0.21039264
000220 c6 d6 8c 3d e6 be af bd 34 8e d3 3c a2 fd 28 3d
       0.06876902 -0.08581333 0.025824644 0.041257508
000230 e7 78 a1 3e a0 bf 02 be ee d7 1b be 5a 84 84 be
       0.31537554 -0.12768412 -0.1521909 -0.25882226
000240 c9 1d 38 be ba 72 21 bb 5b e1 e8 3d a3 a0 8f be
       -0.17980112 -0.0024635033 0.11371108 -0.28052244
000250 91 07 b0 bd 91 a7 45 3e 3b bd 76 be 27 7e 83 be
       -0.08595193 0.19302203 -0.24095623 -0.25682184
000260 87 42 9b 3e 9e 55 6b be 65 26 d9 3c 65 04 9e bd
       0.30324194 -0.22981879 0.026507566 -0.07715682
000270 ef 89 ae bc aa 5a fb 3c 22 29 ee bb ff 74 5b be
       -0.021306006 0.03068288 -0.007268087 -0.21431349
000280 5a 26 63 3d c3 13 a0 3d 26 6a 9d 3e 45 b8 6a be
       0.055456497 0.07816269 0.30745047 -0.22921856
000290 fa 35 d0 3d 30 30 b3 bc 80 80 cc be ad 31 f7 3c
       0.10166545 -0.021873564 -0.39941788 0.030175054
0002a0 4b 57 1a be 40 c9 e9 bd f4 ae 84 3c 81 56 ff bb
       -0.15072362 -0.114153385 0.016196705 -0.0077922945
0002b0 da 75 05 be 46 6f b8 bd e4 63 84 be 4b 9d 64 bd
       -0.13033238 -0.09005599 -0.2585746 -0.05581407
0002c0 0e 74 31 3e c0 75 17 bd 1f 92 ca bd 6e 31 bb bd
       0.17329428 -0.03697753 -0.09891152 -0.09140287
0002d0 ed af 83 3d f9 7f 9f be 13 c9 68 3e 27 a2 4e be
       0.064300396 -0.31152323 0.22732954 -0.20179044
0002e0 ee ca 88 3c a4 fa 1a 3d f8 d9 b9 bc 39 20 f0 bd
       0.016698327 0.037836686 -0.022686943 -0.11724896
0002f0 02 64 ca 3d 14 a2 9e 3d 6a cd c0 bd 1c 77 81 ba
       0.09882356 0.07745758 -0.094141796 -0.0009877416
000300 d3 97 8d bd 85 08 0d be 1f ff 9b 3e d5 fa f7 bc
       -0.06913724 -0.13772781 0.3046808 -0.030270973
000310 4e fa 11 be 26 8f ea 3d f0 1a ba bd b7 00 a6 3d
       -0.1425564 0.11453085 -0.09087169 0.08105605
000320 4d 36 81 be 96 31 84 3c 98 07 50 bd d3 e6 81 be
       -0.2523674 0.016136926 -0.050788492 -0.25371417
000330 ba d7 c6 b8 35 5b 95 bd 7c 16 b7 be e9 13 b4 3d
       -9.481558e-05 -0.07292787 -0.35759342 0.0879286
000340 18 89 10 bc de 3f a6 be 69 06 a3 bd b4 70 29 be
       -0.008821748 -0.32470602 -0.07960207 -0.16546899
000350 bf c7 02 be 52 5e 05 be f6 8c 0a 3d b9 bc 15 be
       -0.1277151 -0.13024262 0.033825837 -0.14622773
000360 7d 12 80 3d 6f 7e a5 be 5e 57 8d be 59 bf e0 3d
       0.06253526 -0.32323024 -0.27605718 0.10973997
000370 50 22 95 be 39 ff 71 be fd 5b c0 be 9c 9d 91 be
       -0.2912774 -0.23632516 -0.3757018 -0.2844056
000380 6a 8e 1e be 8b 7f 83 be 8c ee 24 be 86 a6 66 3d
       -0.15484014 -0.25683245 -0.16106623 0.056311153
000390 67 08 71 bc be 5d 32 be 61 ff 1d be ff 2b 22 be
       -0.014711476 -0.17418572 -0.1542945 -0.15837096
0003a0 d5 b6 05 bd a2 a3 75 be 6d e2 3c be d7 71 85 be
       -0.032645065 -0.23988202 -0.1844575 -0.26063415
0003b0 3b e2 4a be d3 35 80 bd 0c 4f 80 bd de bc 6d be
       -0.19812863 -0.06260266 -0.06265077 -0.23216578
0003c0 c3 dc 44 bc 5f 72 0a be 87 c1 33 be f0 72 8d be
       -0.012015524 -0.13520192 -0.17554294 -0.27626753
0003d0 19 13 13 bd d2 da 85 be d1 09 af 3b e0 bf 81 be
       -0.035906885 -0.2614351 0.0053417464 -0.25341702
0003e0 71 33 4b be 3a 65 33 3e 25 e9 9c be 28 21 b1 be
       -0.19843842 0.17519084 -0.30646625 -0.3459561
0003f0 3c 49 b9 be b5 67 07 be 85 27 5f be 8f aa 9d 3e
       -0.36188686 -0.13223155 -0.21792419 0.30794188

network_body.linear_encoder.seq_layers.0.bias f4 [64]
000000 7a 32 96 bd 93 a3 cf bc 8b 6c 2e bd d3 2a 22 be
       -0.073338464 -0.025346553 -0.042583983 -0.15836649
000010 60 ab 48 bb 01 e4 13 3d 11 61 1f be 27 84 54 bb
       -0.0030619726 0.036106113 -0.15564372 -0.0032427402
000020 05 a4 2b bc 86 14 07 bc 05 d6 89 3c ce f9 0b bd
       -0.010476117 -0.008244639 0.016825685 -0.03417378
000030 2d ef 85 3d e2 9f 09 be 90 f6 90 bb ba c4 86 3d
       0.0653976 -0.13439897 -0.004423924 0.06580491
000040 e4 bb 87 bc 4d 3b 80 3d c1 54 0d bd 1c 42 04 3b
       -0.016569085 0.06261311 -0.034504656 0.0020181006
000050 a7 bf 27 be df 2e ac 3d 30 1b 92 3c 7e ae 57 3d
       -0.16381703 0.084073775 0.01783523 0.052656643
000060 bf 76 3c be 68 6e 1c be 6c 67 1c bc 95 f3 25 3b
       -0.18404673 -0.15276492 -0.009546142 0.0025322188
000070 85 66 16 be 02 62 27 3d a0 f9 32 3d ee 36 a8 3d
       -0.14687546 0.040864952 0.043695092 0.08213602
000080 8c 26 c1 3d d7 5c 43 3c c1 74 b7 3d 5a 27 11 3b
       0.0943118 0.01192399 0.08957816 0.00221487
000090 bb 0e db 3c 0b a2 67 3d ce 8b 86 3d b9 bd 44 bd
       0.026740422 0.05655102 0.065696344 -0.048032496
0000a0 c0 7b b5 bc f0 70 c9 bc d7 f2 55 bd 0a 50 1c be
       -0.022153735 -0.024589986 -0.052233543 -0.15264907
0000b0 4d f9 8c 3d cd 98 1e be 8e bf 93 3d 2a 49 82 3d
       0.06883488 -0.15487976 0.072142705 0.06361611
0000c0 58 a1 d0 b9 a8 6c 06 3e b6 dc 6b 3d bf 0c bd 3c
       -0.00039793062 0.13127387 0.057583533 0.023077367
0000d0 6b c1 1b be ce a4 8d bd 2f 0d f8 3c bb c6 8b 3b
       -0.15210502 -0.069161996 0.030279724 0.004265634
0000e0 f8 d4 9e 3d 25 53 1b 3d 4f 6a 52 3c f5 fe ec bd
       0.07755464 0.03792109 0.012842729 -0.11572067
0000f0 c5 4a e1 bd 9f 75 0a be e6 e5 f9 3a 54 36 66 3d
       -0.11000589 -0.13521431 0.0019065707 0.056204155

distribution.branches.0.weight f4 [3, 64]
000000 09 a2 4c 3d 36 d2 0f 3d 56 20 89 3d b8 ad 81 ba
       0.049959216 0.035112582 0.06695621 -0.0009893691
000010 b4 00 b2 3d 13 0c 27 be 54 c3 bd bd 40 f5 20 3d
       0.0869154 -0.163132 -0.092657715 0.03929639
000020 1d c3 1d 3d b3 e2 9b 3d e7 a8 56 bd 2e 11 b2 3d
       0.038516153 0.07611599 -0.05240717 0.08694683
000030 e3 69 1d be e9 16 75 bd 82 83 95 bd 8c 71 43 be
       -0.15372424 -0.059836302 -0.07300474 -0.19086283
000040 95 33 02 3e a9 a0 48 bd 24 c5 b1 3d 0b d0 96 3d
       0.1271499 -0.048981342 0.0868018 0.073639
000050 88 c0 76 bd 62 5f 8c bd 1a 7f 2c 3d a6 ba 59 bd
       -0.060242206 -0.0685413 0.0421134 -0.053156517
000060 df 9c e1 bc 43 a8 70 bd dc c9 33 3b 80 ae cc 3d
       -0.027540622 -0.058754217 0.002743355 0.09994221
000070 15 e4 2d bd 86 93 03 be bc b2 ad bd 77 94 42 bc
       -0.042453844 -0.12849244 -0.084813565 -0.011876217
000080 e7 5c e1 bd a2 1a f7 bd b1 59 dd bc d4 fd f2 3d
       -0.11004048 -0.12065627 -0.027020307 0.1186482
000090 a8 f2 a2 3d 86 c2 7f bd 57 d0 75 be 36 60 50 3c
       0.07956439 -0.06244137 -0.24005257 0.012718251
0000a0 47 93 7b b9 c8 71 b6 3d 68 63 a4 3d 8b c0 59 bd
       -0.0002399209 0.08908421 0.08026773 -0.05316214
0000b0 2b be dd bd 96 36 23 3b d1 9d 0a be b3 4e 67 be
       -0.10827287 0.0024904362 -0.13536765 -0.22588615
0000c0 eb 96 aa 3d 76 13 13 be 81 c5 21 be 11 a2 40 3d
       0.083295666 -0.14362893 -0.15797998 0.04702956
0000d0 84 4e 03 bd 36 49 4d 3d 4d 8f bb bd 68 6a 92 3d
       -0.0320573 0.050118648 -0.09158192 0.07149202
0000e0 0c ab 45 be 41 4a 54 3d 70 84 86 3c 39 9c 92 3c
       -0.1930353 0.051828627 0.016420573 0.017896758
0000f0 0a 5d 7e 3d 1c 2d 22 bc b1 d3 e1 3c f0 74 c4 bd
       0.062100448 -0.00989845 0.027566763 -0.095926166
000100 54 8d a4 3d 2b e4 16 3d 08 56 aa bd 2d 39 7a bc
       0.08034769 0.03683869 -0.083171904 -0.015272421
000110 06 ec 31 3c 18 07 60 3c 8d c9 98 3d f1 fa 0c be
       0.010859495 0.013673566 0.07460318 -0.13767602
000120 e4 c2 45 bd a6 66 17 be c0 c5 da 3d 5b 6b d0 bd
       -0.048281565 -0.14785251 0.10682249 -0.101767264
000130 ce 1c 3e ba a1 ba 80 3d 7d ef 53 3d e8 76 07 3d
       -0.0007252217 0.06285597 0.051742066 0.033072382
000140 4d 4d 49 be 8f ea c1 3d 9a 32 2b 3c 62 53 d1 bd
       -0.19658394 0.094685666 0.010449076 -0.10220982
000150 7b cd 88 3d 3f ea 24 3e af 2f ad bd b2 88 c1 3b
       0.06679817 0.16104983 -0.084563605 0.005906188
000160 c3 3b 6b bc 0a d8 41 3d 8a 09 4d 3d 44 e8 59 3c
       -0.01435751 0.04732517 0.050057925 0.013300005
000170 9f ac 51 bc cb 4a 9a bc bc 5d 45 3e 7a 93 58 3d
       -0.012797504 -0.018834492 0.19274038 0.05287502
000180 0e 34 e5 bc 70 45 8e 3d 48 73 02 be 85 b5 c8 bd
       -0.027978923 0.06946838 -0.12739289 -0.09800247
000190 03 11 28 be c6 91 65 3d ea 01 15 3d 23 3c 3c bd
       -0.1641274 0.056047224 0.03637878 -0.04595579
0001a0 10 09 da bc 0d 8d f1 bd a0 35 95 bd d6 74 a9 3d
       -0.02661565 -0.117944814 -0.07285619 0.08274238
0001b0 17 41 35 3e 83 57 28 3d 1a 30 de 3b 27 72 9c 3c
       0.17700611 0.041099083 0.0067806365 0.0190974
0001c0 cf fd 85 bd 17 78 ff 3c f4 24 a6 3c 15 35 ea 3d
       -0.06542551 0.031185193 0.020281292 0.11435906
0001d0 07 af a2 3d a1 6d 9a bb 16 52 18 bd ae 83 8f bd
       0.0794354 -0.004712776 -0.03718766 -0.07007538
0001e0 95 4a 5d 3d e4 ef 0b be 26 85 ba bd 36 35 23 3b
       0.054026205 -0.1366573 -0.09107427 0.0024903542
0001f0 93 91 0b bd 7c 04 eb bc 21 0d 96 bd e4 55 24 3e
       -0.034074377 -0.028688662 -0.07326723 0.1604839
000200 a9 48 fa bc 15 17 62 bd 41 78 94 bd d9 d5 a5 bc
       -0.030552225 -0.055197794 -0.07249499 -0.020243572
000210 e3 46 f3 bd 69 99 e7 3d 7b 78 af b9 38 50 78 3d
       -0.11878755 0.113085575 -0.00033468366 0.060623378
000220 d4 c4 9b 3b 3e d2 cf 3d d8 61 54 bc 3d 26 46 3d
       0.0047536884 0.101475224 -0.012962781 0.04837631
000230 59 e6 00 3e 1d 2b 83 3c ef 58 8a bd f9 03 14 3e
       0.1258787 0.016011769 -0.06755244 0.1445464
000240 58 f0 12 3d 8e 76 41 bd 37 af 3a bd 14 d0 66 bb
       0.03587374 -0.047232203 -0.045577254 -0.003521924
000250 1d c6 ee bc 46 57 85 ba 84 61 65 3d f1 98 94 3d
       -0.029147202 -0.0010173104 0.0560012 0.07255734
000260 5d c3 0b bd f7 24 8c bc 39 df 30 bd 36 be d1 bd
       -0.03412186 -0.01710747 -0.04318163 -0.10241358
000270 74 00 40 bc f8 68 20 3e d6 78 88 bd c1 77 11 bd
       -0.011718858 0.15665042 -0.066636726 -0.035514597
000280 aa 2d 0b 3e 08 c5 90 3d 8a 3e 13 3e 23 61 78 bd
       0.13591638 0.07068831 0.14379326 -0.06063951
000290 e3 7b d5 3d 53 9e 18 bb 6a b8 40 3e 9c fb 40 bd
       0.1042402 -0.0023287728 0.18820348 -0.047114953
0002a0 2a 16 0c 3d f9 be 85 3d 42 c3 2c bd 5b f4 9f bc
       0.034200825 0.06530566 -0.0421784 -0.019525697
0002b0 87 a5 8d bc b0 93 8f 3b 30 d4 ab 3d b8 25 76 3e
       -0.017290844 0.0043816194 0.08390081 0.24037826
0002c0 e2 54 c1 3c e0 bf f7 3d c4 b7 56 3e e6 b5 79 bd
       0.023600046 0.12097144 0.20968539 -0.060964487
0002d0 07 be fb bc 3d c1 2e bd 7a df e8 3d 97 b0 1a 3c
       -0.03073026 -0.042664755 0.1137075 0.009441516
0002e0 75 c4 66 3e ed 21 9c 3d 3f b3 91 3d 45 a7 8b bd
       0.2253588 0.07623658 0.071142666 -0.068190135
0002f0 0e 7c 30 bd d4 d0 11 3d 4c 28 9a 3d 37 7c 88 3c
       -0.043087058 0.035599545 0.07527217 0.016660793

distribution.branches.0.bias f4 [3]
000000 69 31 4e 3c 0d fa e3 bc e2 38 15 3d
       0.0125850225 -0.027829194 0.0364312

critic.network_body.linear_encoder.seq_layers.0.weight f4 [64, 67]
000000 9d c8 98 bd 15 b6 0e bd eb 4b e7 bd 0f 29 02 bc
       -0.07460139 -0.034841616 -0.11293777 -0.007944359
000010 70 a1 43 3d 51 ba 61 bd 3e 97 58 be b1 60 54 3d
       0.04776138 -0.055109326 -0.21151444 0.051850025
000020 6e 34 88 be 46 fd fa 3c e0 a2 62 bd 9f ee c8 bc
       -0.266025 0.030638348 -0.05533111 -0.024527846
000030 7c b8 d4 3d a4 3d 2b 3e cd f4 8c bc 52 b9 cb 3c
       0.1038675 0.16722733 -0.017206574 0.024868641
000040 1d 19 4b 3e 65 fd 63 bc 87 98 35 be 64 01 ba bd
       0.19833799 -0.013915394 -0.17733966 -0.090822965
000050 e8 0f 30 3e 93 af 9a 3d ba 2b e0 3c ae 69 11 3c
       0.17193568 0.075530194 0.0273646 0.008875294
000060 d7 78 8e 3c 17 e4 81 bd 72 71 57 3d a6 77 1b 3d
       0.017391605 -0.06342333 0.052598424 0.037955903
000070 c3 4c 2b be 06 1f 8d bd fb 4f 3a 3e a8 f4 05 3d
       -0.16728501 -0.06890683 0.18194573 0.032704026
000080 10 a9 d5 be 6c 7d 21 be 86 3f ed 3c 3f 69 8d 3d
       -0.41730547 -0.15770501 0.028960954 0.0690484
000090 30 ba 40 be c9 1e 49 be d8 40 ae bd 0a 3d 2d be
       -0.18821025 -0.1964065 -0.08508462 -0.16917816
0000a0 d2 03 40 be 33 25 8b 3e 97 eb 0a bd 21 67 24 bd
       -0.18751457 0.27176818 -0.033916082 -0.040137414
0000b0 b2 30 83 be 45 32 16 be 1a 15 7e bc b4 4d 66 be
       -0.2562309 -0.14667614 -0.015507961 -0.22490579
0000c0 0f dc ca 3d 04 6d a5 bb 6c 9f 72 be 36 93 90 3e
       0.09905254 -0.005048396 -0.23693627 0.28237313
0000d0 75 ad d1 3c e3 bb ed bd 19 a4 58 bb 3e b5 85 3d
       0.025595406 -0.11608102 -0.0033056794 0.0652871
0000e0 f9 d5 47 be 8d 35 2d be 73 66 ea bc 5f a9 97 3d
       -0.19515218 -0.16914959 -0.028613305 0.07405352
0000f0 74 db 56 3d 43 93 20 3d 16 e5 21 be bf e0 23 bc
       0.05245538 0.03920294 -0.15810046 -0.010002314
000100 49 c7 12 be 26 db 9c 3e 33 81 1b 3c 96 3e f5 3d
       -0.14333834 0.30635947 0.009491253 0.11974828
000110 30 78 af bd 02 77 06 3f 89 25 bd be cd 7c 0f 39
       -0.08567846 0.5252534 -0.369427 0.00013684035
000120 c6 18 82 be b1 11 0b bf 52 d2 1e be 7d 5a af bd
       -0.25409526 -0.5432387 -0.15509918 -0.08562181
000130 d1 9c 19 3a e4 4e f2 b9 9f 4e f7 3d 89 5f 60 3d
       0.0005859854 -0.00046216615 0.12075543 0.05477861
000140 94 13 0b be 2d 16 64 bd 9d a5 e3 3c ca a0 07 3e
       -0.13581687 -0.05568521 0.027788932 0.1324493
000150 b9 53 0d 3d f5 19 cd bd 83 65 29 be 17 8e 1a 3d
       0.034503672 -0.100147165 -0.1654263 0.037733164
000160 d5 ec c5 bd 87 e0 83 3e c6 f7 f5 bc 5d e9 82 3e
       -0.09664313 0.25757238 -0.030025374 0.25568667
000170 db b8 8e 3d 35 c7 52 3d 81 cd 8f be 04 83 89 3d
       0.06968852 0.05145951 -0.28086475 0.06714442
000180 b1 14 34 be 9a 30 65 be e9 f3 8a 3d 07 15 77 3e
       -0.17586018 -0.22381821 0.067848034 0.24129115
000190 ed 15 1a be 22 2d d3 bd a6 3a 12 3e fe 78 32 bd
       -0.15047427 -0.10311343 0.14280185 -0.04357242
0001a0 11 9e f0 3d 07 83 0d be 6f fc 8a bd a7 14 e2 bb
       0.11748899 -0.13819514 -0.06786429 -0.0068994346
0001b0 fe 1e 01 be f8 c0 04 be 25 ca 85 be 0a 1d a2 bd
       -0.12609479 -0.12964237 -0.26130787 -0.07915695
0001c0 e2 88 15 3e 67 5c 5d be 4d d9 6b bd 4c ba 02 be
       0.14602998 -0.2161728 -0.05758028 -0.12766379
0001d0 5c 10 ff bc b5 11 99 bd e8 40 6a 3d c9 65 c0 3d
       -0.03113573 -0.074740805 0.057190806 0.09394414
0001e0 b4 dd 5e bc 6a 07 46 bd 7d 9f 9f be 3a 03 1e bd
       -0.013602663 -0.048346914 -0.31176367 -0.038577296
0001f0 34 5a ef bb f2 9b 15 3d 62 dc ef bc 1d 24 3d be
       -0.007304454 0.036525674 -0.029279891 -0.18470807
000200 be a3 dc bd 98 ce 01 3e 57 f0 b4 bd b3 1c a0 3c
       -0.10773419 0.12676466 -0.08834904 0.019544935
000210 a5 46 eb 3d 4b 18 35 be a3 05 52 3e 2f 60 95 be
       0.11488084 -0.17685048 0.20509963 -0.29174945
000220 f1 12 d0 3e 61 9e cc 3d 0d 0d ba bd f0 2b e4 bd
       0.4063945 0.09991146 -0.090845205 -0.11141193
000230 08 86 12 bf 1c 18 46 be 55 43 72 bd f3 c6 18 be
       -0.57235765 -0.19345134 -0.059146244 -0.14919643
000240 cc be 3d bd f3 b9 5b be 2c 59 6c 3d cc 5f 2f be
       -0.046324536 -0.21457653 0.05770223 -0.17126387
000250 31 f4 c9 bd 00 e0 da bd 82 9d 54 bd 39 8a 12 be
       -0.09861029 -0.10687256 -0.051908024 -0.1431054
000260 0c 91 44 be ce 11 3d 3d ca 26 84 3c 56 82 c2 bc
       -0.19195956 0.046159558 0.016131777 -0.02374379
000270 be 1f ef bc d5 ad f4 bd ef 05 f0 3d b5 8b cb bd
       -0.02918994 -0.11947218 0.11719882 -0.099387564
000280 1d 75 92 3d 0c 9a e8 3a 70 52 35 3c 5e 7e 62 3d
       0.07151244 0.0017746105 0.011067018 0.055296294
000290 ff 53 a7 bc 74 4d cb 3c 57 4b d3 3d 97 6a 9f bd
       -0.020425795 0.024817206 0.10317104 -0.07784002
0002a0 37 ea cd bd 2d 28 a5 bc 41 b3 c1 bd 5e 63 b8 bc
       -0.100544386 -0.020160759 -0.09458018 -0.02250832
0002b0 13 11 49 3d b9 2b 86 be 4b db 18 be 92 49 3a bd
       0.04908855 -0.26205233 -0.14927404 -0.04548032
0002c0 c7 46 46 3e 84 6e f6 bd b9 51 13 bd ce b7 a7 3d
       0.19362937 -0.12032798 -0.03596661 0.08189355
0002d0 9b d1 5b 3d 45 56 ba 3c e1 73 90 3d b9 89 71 be
       0.053666692 0.022746215 0.07053352 -0.23587693
0002e0 72 94 2f 3e 1d 06 e2 be e1 2f 01 3e 47 d5 0b be
       0.17146471 -0.4414529 0.1261592 -0.13655578
0002f0 8c cf 1f 3e 88 94 6b bd 68 dc 04 3e 11 33 c7 be
       0.15606517 -0.057514697 0.12974703 -0.38906148
000300 d4 b5 9a 3b ae 42 23 be 0f 95 83 be bf 8f 70 3d
       0.0047213826 -0.15943405 -0.2569966 0.058730837
000310 7d 3e df bc 7a 44 81 3d 3c aa ad bd 0b 53 5d bd
       -0.027251476 0.06311889 -0.08479735 -0.054034274
000320 3b 18 90 3e e5 d5 a0 bc 0b c5 97 bd db 4a a0 3e
       0.28143486 -0.019633243 -0.0741063 0.3130711
000330 73 69 93 bd 73 4f 29 bd 5f d4 14 3d 7f 24 1e bf
       -0.07197847 -0.041335534 0.036335345 -0.6177444
000340 3f 46 5c bc 40 3d c8 3e 2c 03 36 be 6b b5 8d bc
       -0.013444482 0.3910923 -0.17774647 -0.01729842
000350 e8 8d 5f be 58 b8 10 3e f9 86 93 3d 39 9b fa bd
       -0.21831477 0.14132822 0.07203478 -0.122366376
000360 33 ac ce bd b0 74 82 bd 85 93 80 bd 21 56 3d 3d
       -0.10091438 -0.063699126 -0.06278137 0.046224717
000370 e2 92 50 bd 55 b1 21 3e 76 44 cb be 7e 61 a3 bc
       -0.05092133 0.15790303 -0.3970067 -0.019943949
000380 2b 12 db 3d 0b d7 6f 3e fa 95 8a 3d a8 e0 3d be
       0.10696825 0.23421876 0.06766887 -0.18542731
000390 7c 23 62 bf 38 e9 4e 3c 9e f2 fa 3d a3 e8 81 3e
       -0.88335395 0.012628846 0.12253307 0.253728
0003a0 dd 9f 8d 3d 1d ab e1 be 5e d5 97 bf 89 42 80 3e
       0.06915257 -0.44075862 -1.186199 0.25050762
0003b0 5b 37 a4 bd 1d b3 c5 bb bd ab 8c bb f0 a0 1c 3d
       -0.08018371 -0.006033315 -0.0042929337 0.03823942
0003c0 69 3b c9 bd 3b 88 2c 3b ea c1 f9 bc 13 f0 c3 bd
       -0.09825785 0.0026326317 -0.030487973 -0.09567275
0003d0 53 69 c1 bd 39 fa 0b 3d a0 16 24 be eb d0 02 bd
       -0.09443917 0.034174178 -0.16024256 -0.03193752
0003e0 7d 29 43 bc 2e d9 91 be 53 7e 15 be c6 1b 08 3e
       -0.011911747 -0.28486007 -0.1459897 0.13291845
0003f0 99 1c 30 bd b7 ff b3 3d 75 02 60 bd 96 a6 a0 be
       -0.042996023 0.08789008 -0.054689843 -0.31377095

critic.network_body.linear_encoder.seq_layers.0.bias f4 [64]
000000 cb c1 23 bd e8 05 0e bc a6 e5 df bc 56 6d a5 3c
       -0.039979737 -0.0086684 -0.027331185 0.020193737
000010 5e 13 a3 bb f8 53 3c bd b9 5f b6 bc fb 24 ba bc
       -0.004976674 -0.045978516 -0.022262441 -0.022722712
000020 37 e5 da 3a 8a 66 99 bc 5f b3 21 bd 19 f5 d7 bc
       0.0016700391 -0.018725652 -0.039477702 -0.026361989
000030 47 6d e5 bc be 88 83 bb 4d a2 98 bc d6 5f 07 bd
       -0.028006209 -0.0040141037 -0.018632079 -0.03305038
000040 24 4e d6 bc 3d fb ba 3c 6e cb 78 3d 74 49 05 bd
       -0.026160307 0.022824878 0.06074088 -0.032540753
000050 d2 cc f6 3c 15 98 90 bd 46 b5 3f bc 5b 8f d6 bc
       0.030126963 -0.07060257 -0.011700934 -0.026191404
000060 10 7f 4f ba 69 02 39 bd 94 d2 3c bc 49 73 21 bd
       -0.0007915357 -0.045168314 -0.011524815 -0.039416585
000070 68 84 b7 bd 28 d2 51 bd e9 96 0f bc 50 0b 04 3c
       -0.08960801 -0.05122581 -0.008764007 0.008059338
000080 33 36 93 3b ca dd 48 bc 4a d7 0b bb a1 98 7f bc
       0.004492545 -0.01225991 -0.002133804 -0.015600354
000090 84 32 86 bd 42 f1 fb bc a3 cb 05 bd 77 dc 9e bd
       -0.06552604 -0.03075469 -0.032664906 -0.07756894
0000a0 0b 13 bb bc 22 2d 16 bd 6b bb 27 bb fc b2 a2 bd
       -0.022836229 -0.036664136 -0.0025593888 -0.07944295
0000b0 d8 b2 0c bd 0a 38 9a bc b3 9c 74 bd 59 fc a2 bc
       -0.034350246 -0.01882555 -0.059719753 -0.01989572
0000c0 c4 0f 17 bd 79 7a 82 3c f5 73 9f 3b db 52 61 bd
       -0.03688027 0.01592754 0.004866118 -0.055010658
0000d0 31 df 16 bd f8 ea 9c bc 60 92 d5 bb 12 15 95 bd
       -0.036833946 -0.01915501 -0.0065176934 -0.072794095
0000e0 1d ec 03 bd e1 3f a2 bc ae a8 3c bc cd e7 36 bc
       -0.032207597 -0.01980585 -0.011514826 -0.011163664
0000f0 d8 a3 5c bd 14 d1 4c bd cc 8e 8f bc d4 00 29 be
       -0.05386719 -0.05000408 -0.017524146 -0.16504222

critic.value_heads.value_heads.extrinsic.weight f4 [1, 64]
000000 61 c7 26 3d 13 4e 26 be 14 6f c7 bd 64 c9 dc 3e
       0.040717486 -0.1624072 -0.09737983 0.431224
000010 54 e1 be 3c 7a 2c d6 bd fa d8 66 be b5 56 38 be
       0.023300804 -0.10457702 -0.22543707 -0.18001826
000020 2c 26 12 3e 2a ce a2 bd 40 7c a8 be a5 de c3 bc
       0.14272374 -0.07949479 -0.32907295 -0.023909876
000030 e2 09 3f 3d 93 d4 7f be 43 dd d5 3d 01 a1 e4 bd
       0.046640284 -0.24983434 0.10442593 -0.111635216
000040 a3 ac 58 bd b3 9a 90 3e 55 7e 49 3e 57 2c 3f be
       -0.052899014 0.28243026 0.19677098 -0.18669258
000050 00 dc 47 3e f9 f1 09 be 6d 03 f7 3d db 72 1e 3e
       0.19517517 -0.13471211 0.120612 0.15473501
000060 97 f8 13 3e cf 64 21 be 97 8e e7 3a 47 dd de 3d
       0.14450298 -0.15761112 0.0017666396 0.10882049
000070 7d e9 02 be 6f a7 58 be 18 e9 00 3e 2c 5f 8e 3e
       -0.12784381 -0.21157621 0.12588918 0.27806985
000080 61 c1 2b 3e 3c 83 5e 3e b9 26 06 3e 63 75 8d 3e
       0.16772987 0.2172975 0.13100709 0.2762862
000090 92 cb 96 bd 95 bf dd ba f0 49 52 3c 49 4e 8b 3d
       -0.07363047 -0.0016918058 0.012835011 0.06802041
0000a0 e7 a4 ce be 46 ad 98 be a6 5a 30 3e 31 e3 4f bd
       -0.40360186 -0.29819697 0.1722208 -0.050753776
0000b0 e7 6f f6 bd 31 01 4b be 42 25 18 3d e1 cd ef ba
       -0.120330624 -0.19824673 0.037144907 -0.001829561
0000c0 0c d2 39 be f4 f1 66 3d 17 8e 01 3e 3a 43 8b bd
       -0.18146533 0.05638309 0.12651859 -0.06799932
0000d0 95 5d 51 be 41 04 11 3e aa 21 9d 3d 7d 03 04 be
       -0.20445855 0.14161779 0.076724365 -0.12891956
0000e0 4c a1 70 3d 0a ff 23 bb 3d 6b 74 3d 17 e8 90 3e
       0.058747575 -0.0025023841 0.059672583 0.2830207
0000f0 00 5d 6f be ca a8 5c 3e fe 32 1f 3e 26 a7 47 bc
       -0.2337532 0.21548763 0.15546796 -0.012185847

exp_avg f4 [64, 67]
000000 5a 9e 1c 38 ac f0 63 37 0e e2 83 38 99 be f7 b4
       3.7340775e-05 1.358629e-05 6.288673e-05 -4.6146013e-07
000010 00 00 00 00 af df ed 35 f4 08 5e b8 00 00 00 00
       0.0 1.7722977e-06 -5.2937263e-05 0.0
000020 92 aa 5f 36 7f 26 59 b7 17 f2 85 38 0a 26 ac 38
       3.3328874e-06 -1.2943171e-05 6.387027e-05 8.2086844e-05
000030 f1 c8 a9 b8 1a 4b 0a 39 ec 95 0d 39 40 95 65 b8
       -8.095976e-05 0.00013188683 0.00013502658 -5.4736855e-05
000040 e5 97 dd 38 73 08 d7 38 09 24 9a b8 a7 78 02 39
       0.00010566394 0.00010253573 -7.350004e-05 0.00012442713
000050 36 76 00 39 a7 52 17 35 3f 3d 53 38 75 00 57 38
       0.00012251068 5.637216e-07 5.036336e-05 5.126042e-05
000060 3c a1 4e b8 df 1d d2 38 d9 ca d2 38 a5 3e 13 37
       -4.926439e-05 0.00010019144 0.00010051364 8.776468e-06
000070 e0 ca 30 38 be ff 36 38 de f0 82 b8 1f be ed 38
       4.2150612e-05 4.363036e-05 -6.243748e-05 0.000113364535
000080 c4 ee ea 38 62 b7 36 37 b0 ec 27 38 fd b2 2d 38
       0.00011202463 1.08907425e-05 4.0036335e-05 4.141311e-05
000090 9e 4e 88 b7 eb e0 8c 38 ee 49 81 38 d9 f1 56 37
       -1.6249072e-05 6.7176145e-05 6.16497e-05 1.28117035e-05
0000a0 12 de 1f 38 ff bf 3c 38 7d c4 93 b7 63 be 8f 38
       3.8115373e-05 4.5001503e-05 -1.7615263e-05 6.854234e-05
0000b0 6f cc 95 38 17 f9 90 35 c0 12 51 38 38 10 52 38
       7.1429524e-05 1.0801331e-06 4.9846945e-05 5.0083006e-05
0000c0 4f ef 5a b8 e8 44 d8 38 e0 a7 b3 38 d5 34 97 b6
       -5.2198124e-05 0.000103125174 8.566654e-05 -4.506301e-06
0000d0 28 81 68 38 8e ba 66 38 bd ce 54 b8 a4 34 d5 38
       5.5433396e-05 5.5010016e-05 -5.073728e-05 0.000101664366
0000e0 02 67 cd 38 35 6f 39 b6 7e 31 61 38 8a 76 60 38
       9.7943484e-05 -2.763188e-06 5.3690273e-05 5.351616e-05
0000f0 b4 de 38 38 af de e5 36 36 b0 2b 37 ec ff 16 b5
       4.4076427e-05 6.8506556e-06 1.0233422e-05 -5.625177e-07
000100 00 00 00 00 04 00 00 80 f4 51 34 b8 39 b9 c7 b9
       0.0 -6e-45 -4.299167e-05 -0.0003809424
000110 d7 e8 ad b7 f4 89 11 b9 cb b7 0d 34 00 00 00 00
       -2.0731632e-05 -0.00013879669 1.3198512e-07 0.0
000120 9f ec 68 b7 82 8f 02 b9 00 00 00 00 91 4d 28 b7
       -1.388337e-05 -0.00012451227 0.0 -1.003164e-05
000130 34 9f 36 b9 59 90 6e b9 62 a4 86 b9 4c d3 aa b8
       -0.0001741618 -0.00022751222 -0.00025680946 -8.145589e-05
000140 f3 e2 a7 b9 eb 7e a4 b9 78 91 f8 b8 68 73 94 b9
       -0.00032021813 -0.0003137508 -0.00011852657 -0.00028314744
000150 78 e9 90 b9 d9 fb f5 b8 cf 18 95 b9 f6 5f 95 b9
       -0.00027639768 -0.00011729421 -0.00028437978 -0.0002849099
000160 54 d9 a7 b7 30 1a c8 b9 00 dc c8 b9 94 30 01 b9
       -2.0009153e-05 -0.00038166484 -0.00038310885 -0.00012320495
000170 7d ff 91 b9 5e 3e 92 b9 4a 18 27 b7 03 5f cd b9
       -0.0002784691 -0.00027893757 -9.959631e-06 -0.00039171436
000180 e4 72 ce b9 37 df 1c b9 2c 28 84 b9 fd 0f 85 b9
       -0.00039376982 -0.00014960473 -0.00025206932 -0.0002537965
000190 f2 16 9b b7 56 e6 c8 b9 b1 81 ca b9 b1 bc 42 36
       -1.8488125e-05 -0.00038318586 -0.0003862507 2.9018086e-06
0001a0 3f 1d d4 b9 89 22 d2 b9 a0 e2 8c 35 a7 24 d3 b9
       -0.0004045758 -0.00040080052 1.0496769e-06 -0.00040272364
0001b0 65 21 d3 b9 33 3f cb b7 d4 e3 c5 b9 6e a2 cc b9
       -0.00040269937 -2.4228915e-05 -0.00037744513 -0.00039030932
0001c0 c0 09 27 36 da e5 d3 b9 a0 bf d3 b9 ee 1b 21 b8
       2.4890614e-06 -0.0004041631 -0.00040387828 -3.8411403e-05
0001d0 4a 74 be b9 e7 af d1 b9 14 97 0c 36 f4 b0 d3 b9
       -0.00036326266 -0.00039994644 2.0949565e-06 -0.00040376897
0001e0 2e a3 d3 b9 44 71 fd b8 74 3b 93 b9 3a 41 98 b9
       -0.00040366634 -0.000120850775 -0.0002808232 -0.00029040297
0001f0 86 24 93 36 59 e4 d4 b9 7e bf d4 b9 48 1b cb b9
       4.3851933e-06 -0.00040605923 -0.00040578464 -0.00038739503
000200 f7 8f 6f b7 45 24 35 b8 97 77 f2 38 00 00 00 00
       -1.42790295e-05 -4.318754e-05 0.000115617346 0.0
000210 04 00 00 00 18 df 1e 39 bc 3b a2 b8 67 81 a6 b6
       6e-45 0.00015151163 -7.735888e-05 -4.96225e-06
000220 5c 7b 0c b7 18 4d 17 34 00 00 00 00 d2 27 3f b6
       -8.373372e-06 1.4091017e-07 0.0 -2.8484396e-06
000230 7d 94 9d b8 00 00 00 00 f0 29 c8 b4 ae a9 a4 b8
       -7.5140015e-05 0.0 -3.7283417e-07 -7.851735e-05
000240 b0 44 7f b6 91 36 c6 b6 31 6c 98 b8 0c bd 21 b7
       -3.8037942e-06 -5.907212e-06 -7.268077e-05 -9.640364e-06
000250 c5 7c 32 b7 2a a7 9d b8 76 ca ef b6 53 a1 02 b7
       -1.0638677e-05 -7.51748e-05 -7.1463246e-06 -7.786165e-06
000260 84 bd 99 b8 7f 32 17 b7 e7 13 1e b7 a0 90 c5 36
       -7.3309086e-05 -9.012058e-06 -9.422168e-06 5.887894e-06
000270 dc fc b8 b8 9d 52 b9 b8 4f 85 9e b8 2f e8 e1 b6
       -8.8209024e-05 -8.836875e-05 -7.558858e-05 -6.7325523e-06
000280 bc ac fb b6 36 3d 2f b5 58 45 ab b8 0b 81 ab b8
       -7.500492e-06 -6.5281654e-07 -8.166832e-05 -8.1779515e-05
000290 2a 86 9d b8 7f da f1 b6 64 15 0b b7 21 50 87 b5
       -7.5113334e-05 -7.207796e-06 -8.290026e-06 -1.0081604e-06
0002a0 92 86 aa b8 bb ca aa b8 15 34 e2 35 a2 2c b0 b8
       -8.131297e-05 -8.143993e-05 1.685347e-06 -8.4006475e-05
0002b0 50 09 af b8 ec 24 ab b5 3e f7 a9 b8 16 5e ab b8
       -8.346385e-05 -1.2751239e-06 -8.1046004e-05 -8.17144e-05
0002c0 f7 15 14 36 82 44 b1 b8 1f 78 b1 b8 d8 d2 62 b4
       2.2066504e-06 -8.452778e-05 -8.462392e-05 -2.1124595e-07
0002d0 6b 32 ac b8 b5 47 ac b8 ba 67 85 b8 5f f0 9c b7
       -8.21099e-05 -8.2149556e-05 -6.361255e-05 -1.870858e-05
0002e0 d8 b2 5a b8 98 ac e8 34 80 8c ad b8 53 75 ad b8
       -5.214181e-05 4.3338946e-07 -8.275453e-05 -8.271136e-05
0002f0 f7 23 9e b8 b5 fd e7 b6 f1 38 59 b7 68 62 81 34
       -7.540726e-05 -6.913872e-06 -1.2947466e-05 2.4099722e-07
000300 36 25 ad b8 7a 1c ad b8 b2 1a ad b8 14 c3 6d 34
       -8.256214e-05 -8.254587e-05 -8.254255e-05 2.2143314e-07
000310 a5 56 be b6 aa b4 03 b6 00 00 00 00 04 00 00 80
       -5.672528e-06 -1.9625681e-06 0.0 -6e-45
000320 47 1d 49 36 36 a6 01 36 0f 8b 1a 33 0f 52 8d 34
       2.9968376e-06 1.9319245e-06 3.5982392e-08 2.6323002e-07
000330 4e 28 0d b3 00 00 00 00 96 f0 93 33 b7 6a e6 35
       -3.2865778e-08 0.0 6.888983e-08 1.7167393e-06
000340 00 00 00 00 fa e8 45 32 19 0c f3 35 62 a5 28 34
       0.0 1.1519882e-08 1.8108432e-06 1.5706385e-07
000350 3c 07 83 34 0d 6a bd 35 72 6d 15 35 f0 86 12 35
       2.4405915e-07 1.4112462e-06 5.566609e-07 5.45856e-07
000360 b8 89 e1 35 33 5c 9a 34 05 a3 93 34 cd bd c6 35
       1.6803888e-06 2.875182e-07 2.7499496e-07 1.4807389e-06
000370 f2 c5 02 35 e7 9a 00 35 6e 69 d6 33 31 ba fa 35
       4.871682e-07 4.790913e-07 9.984329e-08 1.868064e-06
000380 b1 99 fc 35 78 61 e6 35 39 fd 86 34 8b 21 8f 34
       1.8820193e-06 1.7164703e-06 2.514369e-07 2.666023e-07
000390 6c c6 c2 32 d7 8a 02 36 68 14 03 36 be cf f3 35
       2.2674804e-08 1.9452325e-06 1.95324e-06 1.8165372e-06
0003a0 4b 88 22 34 04 b6 39 34 86 3b df 32 ec 51 02 36
       1.5137009e-07 1.7295685e-07 2.5987685e-08 1.9419194e-06
0003b0 d5 bd 02 36 b4 cf 7d b4 5f ed 13 36 35 e1 0a 36
       1.9482006e-06 -2.3638023e-07 2.2042875e-06 2.069469e-06
0003c0 c7 9d 8d 33 e9 46 ff 35 d9 07 02 36 4d 7f 91 b4
       6.594524e-08 1.9019618e-06 1.9376077e-06 -2.7100978e-07
0003d0 4b 40 16 36 14 19 15 36 7a d2 8b b1 4d 56 04 36
       2.2389165e-06 2.2217328e-06 -4.069361e-09 1.9719766e-06
0003e0 16 5c 04 36 cd c4 82 35 fa 5b 85 35 a5 76 dd 35
       1.9723134e-06 9.743031e-07 9.936041e-07 1.6500313e-06
0003f0 dc 8b 02 b3 92 1a 06 36 35 ee 05 36 77 dc dc 35
       -3.0395185e-08 1.9983022e-06 1.99572e-06 1.6455441e-06

exp_avg_sq f4 [64, 67]
000000 27 63 97 33 e9 55 8d 33 ce 69 af 33 f9 32 a5 31
       7.049521e-08 6.581451e-08 8.168318e-08 4.807927e-09
000010 00 00 00 00 d3 44 33 2f 7e 1c 65 32 00 00 00 00
       0.0 1.6304406e-10 1.3336033e-08 0.0
000020 23 ef 27 2f 3c cb 3b 33 82 f6 d0 33 bc 1a e9 33
       1.527352e-10 4.372417e-08 9.730594e-08 1.0854771e-07
000030 e4 85 51 33 11 05 c0 33 88 58 d0 33 aa 1b fd 32
       4.8783377e-08 8.941618e-08 9.7018585e-08 2.9465657e-08
000040 d8 43 ee 33 f2 c7 f7 33 a2 f1 de 32 94 a0 e9 33
       1.1095079e-07 1.15382036e-07 2.5954083e-08 1.0879117e-07
000050 52 25 ed 33 88 7d 94 32 cd 39 01 34 68 6b 01 34
       1.1042961e-07 1.7286553e-08 1.2035089e-07 1.2053135e-07
000060 42 64 be 32 50 9c f9 33 ed 0b fa 33 25 53 23 32
       2.2164503e-08 1.1623399e-07 1.16437015e-07 9.506754e-09
000070 b9 df 0a 34 c3 d8 0a 34 13 d2 ed 32 7a 8a f0 33
       1.2933641e-07 1.2931109e-07 2.7685962e-08 1.12010596e-07
000080 d0 54 f1 33 95 e0 2d 32 52 0d 08 34 fb 52 08 34
       1.1237864e-07 1.0120989e-08 1.2670833e-07 1.2696175e-07
000090 2e 16 71 33 58 62 b2 33 7a e8 d1 33 05 cf c9 32
       5.6132357e-08 8.3066595e-08 9.774608e-08 2.3493621e-08
0000a0 b5 46 f8 33 0a c8 01 34 8e 67 3d 33 a7 5a cb 33
       1.15612615e-07 1.2086835e-07 4.4099174e-08 9.469414e-08
0000b0 78 e8 db 33 da b2 17 32 c4 5d 0a 34 29 6b 0a 34
       1.0240268e-07 8.830023e-09 1.2886363e-07 1.2891236e-07
0000c0 e0 42 a1 32 a3 ee fe 33 af 08 00 34 59 31 d9 31
       1.8773278e-08 1.18712045e-07 1.1924088e-07 6.3211414e-09
0000d0 52 cc 0d 34 ba de 0d 34 43 40 f1 32 18 21 ec 33
       1.320598e-07 1.3212676e-07 2.8085315e-08 1.0995626e-07
0000e0 8d dd ec 33 48 dd 96 30 2f 43 14 34 17 3b 14 34
       1.1029906e-07 1.0976828e-09 1.3808015e-07 1.3805071e-07
0000f0 37 67 70 33 04 16 b2 33 2a 37 b3 33 70 37 9f 35
       5.5973228e-08 8.2927755e-08 8.345371e-08 1.1862558e-06
000100 00 00 00 00 f4 01 00 00 80 3f 12 34 78 20 21 35
       0.0 7e-43 1.3620411e-07 6.002442e-07
000110 7e cc 5e 35 1f 4c 87 35 32 ac d2 33 00 00 00 00
       8.299902e-07 1.0080438e-06 9.810209e-08 0.0
000120 db ca e2 30 26 ba 42 34 00 00 00 00 ed 15 d2 30
       1.6501319e-09 1.8135378e-07 0.0 1.5285743e-09
000130 2e 31 26 35 08 5d 5c 35 b9 6f 85 35 bd 80 e2 34
       6.1911385e-07 8.2091765e-07 9.941788e-07 4.218945e-07
000140 e5 a6 84 35 cf bc 92 35 60 0d ea 34 36 32 84 35
       9.883339e-07 1.0932798e-06 4.3595628e-07 9.84938e-07
000150 09 cb 8f 35 ce a5 57 34 ca b9 a5 35 5b 48 a6 35
       1.0713421e-06 2.0083755e-07 1.234753e-06 1.2389022e-06
000160 57 58 46 34 f0 d6 a1 35 fd 5f a2 35 91 25 2b 34
       1.8472325e-07 1.205799e-06 1.2097877e-06 1.5939283e-07
000170 f0 be aa 35 ae d3 aa 35 86 35 b1 33 c0 a6 b4 35
       1.2721557e-06 1.2727594e-06 8.2519406e-08 1.3459576e-06
000180 20 96 b4 35 9a ef 98 34 c8 8b 9b 35 b6 a4 9b 35
       1.3454737e-06 2.848654e-07 1.1589082e-06 1.1596337e-06
000190 fd 5f f0 33 b6 bc ab 35 41 41 ac 35 48 35 53 34
       1.1193331e-07 1.2795415e-06 1.283399e-06 1.967029e-07
0001a0 d4 d9 a1 35 db 64 af 35 81 6e 47 34 02 71 a8 35
       1.2058831e-06 1.3067869e-06 1.857352e-07 1.2549865e-06
0001b0 46 b7 b0 35 c0 4f 80 34 19 69 9e 35 ff 78 aa 35
       1.3166361e-06 2.3899884e-07 1.1802505e-06 1.2701202e-06
0001c0 84 9e e4 32 1c 4e bb 35 11 9b bb 35 98 39 de 33
       2.6614778e-08 1.3955319e-06 1.3977716e-06 1.0348157e-07
0001d0 fe 0c b0 35 dc 22 b1 35 ff 5e e0 32 64 ae bc 35
       1.3116803e-06 1.3197673e-06 2.6120231e-08 1.4057846e-06
0001e0 02 ab bc 35 fc 83 a2 34 4d 25 95 35 5b 69 96 35
       1.4056861e-06 3.0270883e-07 1.1112221e-06 1.1206533e-06
0001f0 dd 1c 21 33 f4 da bc 35 75 c1 bc 35 eb cc 26 35
       3.7511985e-08 1.4070815e-06 1.4063395e-06 6.2138014e-07
000200 c7 dd 59 35 ac 1c 5c 35 cb cf 28 37 00 00 00 00
       8.116153e-07 8.199811e-07 1.0061961e-05 0.0
000210 f4 01 00 00 0d a6 a5 36 88 54 11 32 43 fa 98 31
       7e-43 4.936714e-06 8.459331e-09 4.4522337e-09
000220 96 ac a9 31 b5 29 6f 31 00 00 00 00 74 a1 63 2d
       4.938168e-09 3.4802785e-09 0.0 1.2939306e-11
000230 9f ea 7d 31 00 00 00 00 d1 12 63 2d d4 31 bb 31
       3.6949712e-09 0.0 1.2907634e-11 5.448081e-09
000240 87 fa fe 31 6f 4c 08 32 22 ab cd 31 bc 28 f0 31
       7.4208546e-09 7.933621e-09 5.985741e-09 6.9895503e-09
000250 3d 78 04 32 0c 68 a0 31 86 a4 0a 32 38 78 11 32
       7.71075e-09 4.6684416e-09 8.0700655e-09 8.467445e-09
000260 cc 97 a8 31 04 20 04 32 a1 60 05 32 6d e5 88 30
       4.906701e-09 7.690691e-09 7.76359e-09 9.960509e-10
000270 66 68 4a 32 68 ce 4a 32 ff 1e 00 32 3d c9 be 31
       1.1781685e-08 1.1804879e-08 7.457628e-09 5.552606e-09
000280 f8 eb be 31 b6 a2 07 30 f9 e3 52 32 7d dc 52 32
       5.5565543e-09 4.934394e-10 1.2275444e-08 1.2273742e-08
000290 3e 9b 04 32 80 5a b6 31 f9 44 b7 31 2f 9c 15 30
       7.718709e-09 5.307186e-09 5.3338423e-09 5.4427834e-10
0002a0 6d 3f 50 32 85 7c 50 32 de b6 e1 31 a3 4a e4 31
       1.2121615e-08 1.2135506e-08 6.5691514e-09 6.6441586e-09
0002b0 3d ac 04 32 90 f5 a1 31 53 56 0c 32 14 f1 1c 32
       7.722574e-09 4.713634e-09 8.1687e-09 9.13521e-09
0002c0 a4 8b ce 31 d0 44 f4 31 b5 e1 0b 32 e6 0c 61 30
       6.0112644e-09 7.1091577e-09 8.142185e-09 8.1872853e-10
0002d0 09 09 53 32 4a 0f 53 32 b5 97 9a 31 14 e8 12 32
       1.2283871e-08 1.2285293e-08 4.499237e-09 8.551087e-09
0002e0 3f f1 15 32 cd 16 00 30 7c e2 54 32 5c e2 54 32
       8.7277945e-09 4.659853e-10 1.2391521e-08 1.2391492e-08
0002f0 0c bf 01 32 2c d5 bd 31 58 d3 be 31 1d 0c 7b 2f
       7.552227e-09 5.524859e-09 5.553755e-09 2.283262e-10
000300 81 b1 58 32 71 b6 58 32 ee e5 11 32 67 33 a1 31
       1.26132145e-08 1.2614337e-08 8.492391e-09 4.6915605e-09
000310 d0 a0 a2 31 20 c9 c8 34 00 00 00 00 f4 01 00 00
       4.733103e-09 3.739924e-07 0.0 7e-43
000320 28 51 09 32 39 80 ca 2e 6e 05 d0 2e 36 a8 df 2e
       7.992902e-09 9.2086734e-11 9.4597094e-11 1.0170746e-10
000330 35 6e b0 2e 00 00 00 00 26 3f 4e 2a 21 85 9b 2d
       8.02313e-11 0.0 1.8318384e-13 1.7680581e-11
000340 00 00 00 00 9f f7 69 2a 13 79 af 2e 7d 28 e1 2e
       0.0 2.0780468e-13 7.979586e-11 1.02390076e-10
000350 61 36 0b 2f 22 97 3c 2e 5e 06 1f 2f aa db 21 2f
       1.2661296e-10 4.2880484e-11 1.4463228e-10 1.4720905e-10
000360 dd 9f 27 2e 1d 60 20 2f ae f2 23 2f 59 a3 5d 2e
       3.811339e-11 1.4586062e-10 1.4910981e-10 5.0394664e-11
000370 08 1b 14 2f ef ef 15 2f 03 50 a6 2d d6 f9 33 2f
       1.3470125e-10 1.3636713e-10 1.8907547e-11 1.6368715e-10
000380 13 55 34 2f be dd 06 2f 53 93 6e 2e 2a b7 74 2e
       1.6401129e-10 1.2266008e-10 5.4245785e-11 5.564186e-11
000390 bc 9f ff 2c 1c f7 42 2f cd f5 42 2f fc 04 07 2f
       7.26527e-12 1.7731988e-10 1.7731523e-10 1.2279949e-10
0003a0 75 ca 76 2e 77 bc 7c 2e ef 08 05 2d f1 25 40 2f
       5.6113742e-11 5.7465557e-11 7.562158e-12 1.7475778e-10
0003b0 93 5f 40 2f a4 c1 0b 2f 77 c6 79 2e 5a 78 8e 2e
       1.7496253e-10 1.2710771e-10 5.6792317e-11 6.478791e-11
0003c0 8d e6 d8 2e 15 d9 b5 2e 7f 37 c4 2e 62 fc f2 2e
       9.863497e-11 8.2694886e-11 8.922906e-11 1.1049718e-10
0003d0 ac 1f 90 2e 00 e0 94 2e b4 7d 58 2e af e4 0a 2f
       6.553988e-11 6.770051e-11 4.922436e-11 1.2632272e-10
0003e0 8c 59 0b 2f 6b 7f fa 2e 59 2c 8c 2e 87 5b 8d 2e
       1.267379e-10 1.1391318e-10 6.3743406e-11 6.428196e-11
0003f0 b4 de 4f 2c 1b 70 48 2f 06 6d 48 2f 2f 26 14 2f
       2.9540094e-12 1.8229722e-10 1.8228627e-10 1.3474087e-10

exp_avg f4 [64]
000000 89 9a 55 38 c8 97 d2 b9 d2 a3 ac b8 62 10 04 36
       5.092708e-05 -0.00040167407 -8.232113e-05 1.9679069e-06
000010 7a ad 25 ba c7 35 ac 3a 24 d1 1a 36 f3 9c e5 b7
       -0.00063201005 0.0013138585 2.3069524e-06 -2.7372012e-05
000020 5b 22 bd b8 87 b6 60 38 10 3f 89 ba ee fc 1d b8
       -9.0186215e-05 5.3575754e-05 -0.0010471065 -3.7667276e-05
000030 8a fc d6 3a d4 a5 49 b6 da 18 f4 b7 9e 05 c4 3a
       0.0016402167 -3.0047859e-06 -2.9098639e-05 0.0014955287
000040 56 e6 48 3a 61 87 be ba ec 60 34 b9 12 6c 4b b9
       0.0007663717 -0.0014536196 -0.00017202244 -0.00019399848
000050 89 7d 5b 37 0c 9e d1 ba ac d5 88 37 f8 20 52 3a
       1.3082646e-05 -0.0015992536 1.6311962e-05 0.0008015777
000060 24 d8 25 36 b6 d2 72 37 f2 e5 39 ba c8 54 b1 b9
       2.4712726e-06 1.4473384e-05 -0.00070914545 -0.00033823238
000070 25 a4 d5 b5 aa 77 0b 3b 76 bf 34 bb 7f 19 1a ba
       -1.5917509e-06 0.0021281042 -0.002757994 -0.0005878433
000080 89 32 fd 3a 67 eb 41 39 cb 92 4b 3b 84 56 49 b9
       0.0019317429 0.00018493609 0.0031062837 -0.00019201083
000090 cb f8 2e 38 b9 19 0c ba 15 44 06 3b 3f da 32 36
       4.171654e-05 -0.0005344409 0.0020487357 2.6651103e-06
0000a0 12 ac 5f 39 78 6d 02 3a 53 89 00 b9 6f 5e 5b 37
       0.00021331038 0.00049754186 -0.00012258189 1.3075404e-05
0000b0 a6 00 f6 ba a2 b0 38 36 19 ff 8b 3a 89 36 3b 3b
       -0.0018768504 2.752095e-06 0.0010680883 0.002856644
0000c0 f8 72 3d b9 17 f4 a2 3a 05 68 20 3b ec da 94 ba
       -0.00018067274 0.0012432364 0.0024476063 -0.0011356748
0000d0 55 95 af 37 4e 80 a7 37 38 5e 02 3b 6d 4d 6a b6
       2.0931164e-05 1.9967698e-05 0.0019892585 -3.4913785e-06
0000e0 78 a2 10 3b 0a ba 3c 3a f2 65 ca 3a a3 04 0f 38
       0.0022069495 0.0007199353 0.0015441759 3.4098175e-05
0000f0 c1 83 ad 37 65 97 66 b7 4b 7f 83 38 1a b9 a9 ba
       2.068456e-05 -1.3744318e-05 6.270277e-05 -0.0012948841

exp_avg_sq f4 [64]
000000 55 fd 14 34 05 91 bf 35 54 a9 5b 32 22 26 4b 2f
       1.3875736e-07 1.4272815e-06 1.27859785e-08 1.847629e-10
000010 c6 3d 59 37 fe 95 80 37 6b 64 b1 31 0a a8 96 36
       1.2948591e-05 1.5328635e-05 5.162794e-09 4.4899107e-06
000020 98 4e 9f 33 25 88 20 37 4a 84 09 38 42 6b f9 35
       7.4183106e-08 9.568442e-06 3.278655e-05 1.8583162e-06
000030 85 99 17 38 60 c7 25 31 26 ce 85 35 a4 88 22 38
       3.614418e-05 2.4123992e-09 9.969269e-07 3.8751066e-05
000040 df a6 14 37 fd fa 56 38 21 d6 82 35 aa 40 52 35
       8.86034e-06 5.1255327e-05 9.748074e-07 7.8325195e-07
000050 b6 53 d5 31 c7 75 91 38 a9 4e 1a 36 df 4e 17 37
       6.2086327e-09 6.9360765e-05 2.2993574e-06 9.018665e-06
000060 af 64 57 2f ae 8a 59 31 f9 7c 7e 37 7f 88 44 36
       1.9589906e-10 3.1656486e-09 1.5168677e-05 2.9285727e-06
000070 48 ee 21 30 b2 85 98 38 77 e8 36 39 4b 64 5d 37
       5.8910077e-10 7.2728275e-05 0.00017443472 1.3195978e-05
000080 15 1e 9f 38 26 5b f5 34 2b 6a 52 39 68 00 19 35
       7.587314e-05 4.5701125e-07 0.00020066711 5.699753e-07
000090 90 07 f8 37 fe f3 22 37 ac f1 8d 38 81 f7 41 32
       2.9567425e-05 9.712761e-06 6.768419e-05 1.1290354e-08
0000a0 16 0f c6 35 7e c2 98 36 bd d4 58 34 f3 e8 08 32
       1.475654e-06 4.552595e-06 2.0193961e-07 7.969208e-09
0000b0 c2 bd d4 38 8c bf 7d 30 81 7b 3f 37 61 39 08 39
       0.00010144293 9.231307e-10 1.1413243e-05 0.00012991346
0000c0 6a 16 62 35 57 a7 dc 37 7c 8d d2 38 33 49 79 38
       8.422418e-07 2.6303967e-05 0.00010039934 5.94344e-05
0000d0 2b 37 64 32 1c ec f2 32 25 04 d9 37 8b 0f e6 34
       1.328389e-08 2.8279878e-08 2.5870346e-05 4.2852147e-07
0000e0 36 df 81 38 49 03 a0 37 97 b5 7a 37 c5 63 98 32
       6.1927756e-05 1.9075016e-05 1.4943441e-05 1.7740499e-08
0000f0 21 07 a9 31 68 93 3b 32 f0 84 8f 36 33 39 6a 38
       4.919358e-09 1.0918349e-08 4.277208e-06 5.584322e-05

exp_avg f4 [3, 64]
000000 1f 08 47 39 2f 1e 21 ba 3d 61 81 36 ae 2c cd 38
       0.00018981144 -0.00061461603 3.8558196e-06 9.783484e-05
000010 d9 46 17 ba b5 46 7c b9 3b d7 75 39 2e 21 c0 ba
       -0.000577075 -0.00024058933 0.000234452 -0.0014658326
000020 3a 6d 08 b9 9b 4f 0e bb d0 10 4f ba 8e 3e 53 ba
       -0.00013010661 -0.002171493 -0.00078989286 -0.00080583326
000030 b4 bb 78 ba fc 4d 3e 39 e7 5c 10 b9 a1 48 df b9
       -0.0009488419 0.00018148863 -0.00013767519 -0.00042587987
000040 5c b8 47 bb a7 33 6c 38 04 67 99 b8 33 77 c8 ba
       -0.0030474877 5.631489e-05 -7.314797e-05 -0.0015294313
000050 9e 85 81 39 61 3b ee ba f3 30 55 ba 03 6c 8f ba
       0.0002470435 -0.0018175655 -0.0008132599 -0.0010942224
000060 0f f1 ab 38 19 f3 8b 39 cd 6c 67 b8 a7 ce 17 ba
       8.198816e-05 0.00026693268 -5.517602e-05 -0.00057909865
000070 93 64 cb 38 16 6c 80 ba 38 12 52 b9 26 5c 1c ba
       9.698528e-05 -0.0009797837 -0.00020033948 -0.0005964659
000080 68 f8 77 ba 4e 5f 55 b9 c7 e9 68 bb 14 94 99 ba
       -0.00094593177 -0.00020348767 -0.0035539733 -0.0011717104
000090 4f 03 3f bb aa 97 08 ba ad f0 79 ba 9d 93 a1 39
       -0.002914626 -0.0005210588 -0.00095344597 0.00030818293
0000a0 e7 4f d6 37 89 14 c9 ba 3e a0 02 ba ca d6 6c 39
       2.5547995e-05 -0.0015341203 -0.00049829844 0.00022586729
0000b0 90 91 f2 b9 27 5f 34 39 c1 1c 9c b9 e1 dc b9 ba
       -0.0004626629 0.00017201585 -0.00029776062 -0.0014180207
0000c0 76 bb b4 ba 04 91 9c ba 2b 1a e5 ba a5 30 27 39
       -0.0013788778 -0.0011945073 -0.0017479112 0.00015944483
0000d0 8a 1c 2d 39 92 cc 93 39 81 d7 64 ba db fe 8b b7
       0.00016509197 0.00028190442 -0.00087296224 -1.6688768e-05
0000e0 2f 8c d5 b9 ea e8 cf ba c3 31 4c ba 95 a6 84 39
       -0.0004073097 -0.001586226 -0.00077893975 0.00025301115
0000f0 ac 0f 05 39 2c 82 82 39 8f 02 1b bb 15 4b 8e ba
       0.00012689707 0.00024892518 -0.0023652648 -0.0010856116
000100 71 42 c0 3a e4 45 a5 3a d7 b6 5d 3a 02 ed a8 38
       0.0014668239 0.001260933 0.0008457726 8.0550104e-05
000110 dd db 4c 3a 66 d7 57 bc ba ab 82 39 5f 62 08 3b
       0.00078147446 -0.013173914 0.00024923478 0.0020810587
000120 55 51 f1 3a 04 50 2c 3b ac c7 12 bc 21 ac 10 3b
       0.001841108 0.002629281 -0.008958738 0.0022075253
000130 bd aa 7d bc 55 e1 09 39 2f 9a 1d 3b fd 33 f1 bc
       -0.015482602 0.00013149281 0.00240482 -0.029443735
000140 b0 c9 3b ba 7a 28 bd bc 45 4c 07 3b c9 89 c9 3a
       -0.00071635377 -0.02309059 0.0020644825 0.0015376146
000150 bd 16 86 39 fe 4b a3 bc 7e 73 28 3b f9 f9 28 bc
       0.00025575413 -0.019933697 0.0025703604 -0.010313504
000160 3c cb e2 38 7b 69 da 39 0b bf 4b bb 98 6d ff 3a
       0.00010814375 0.0004165879 -0.0031089212 0.0019487618
000170 9c ed 3b 39 07 21 5c bc 51 6b a5 bc f2 cd fe ba
       0.00017922226 -0.013435609 -0.020192774 -0.0019440039
000180 6f 63 78 bc d6 85 69 bc 58 a6 9a bc ad a2 f9 3a
       -0.015160426 -0.0142531 -0.018878147 0.0019045674
000190 4d 94 33 3b f8 9b ae bc 6b 23 07 bd b2 eb e1 3a
       0.0027401627 -0.021314606 -0.03299276 0.001723638
0001a0 8e 2b b4 3a a5 ee 1e 3a bd 7f 0f 3b e8 b1 68 39
       0.001374589 0.00060627825 0.0021896206 0.0002219152
0001b0 fe e5 f2 bc c6 b3 ca 38 2e b6 90 bc 99 5a 11 bd
       -0.029650684 9.665596e-05 -0.017664995 -0.03548679
0001c0 d9 ad 15 3b da b1 04 bd c7 bc eb bc 7a 56 91 ba
       0.0022839217 -0.032396175 -0.02877654 -0.0011088394
0001d0 08 e8 81 39 b4 0b ed 3a 6e 7a 63 bc 4f 1f 2e 3b
       0.00024777674 0.0018085153 -0.01388417 0.0026568954
0001e0 78 f7 cb bc 9e 6c b5 3a 4a e2 b1 bb 82 49 02 3a
       -0.024898276 0.0013841575 -0.005428587 0.000497006
0001f0 3a 9c c6 3a 59 b1 7d 39 4f 14 04 3b b5 54 32 bc
       0.001515276 0.00024194027 0.0020153706 -0.010884454
000200 74 23 d9 ba 9c 6d 29 ba 97 b9 5e ba d6 0c 3b b9
       -0.0016566352 -0.00064631714 -0.0008496283 -0.00017838491
000210 12 54 56 b9 85 c8 5b 3c 5a 97 fd b9 15 47 21 ba
       -0.00020439949 0.013414507 -0.00048368686 -0.00061522546
000220 ac 43 e0 ba 5d 03 f0 b9 bc b8 1f 3c fc b8 b7 ba
       -0.0017110012 -0.00045778873 0.009748634 -0.0014016922
000230 3d 9b 86 3c a7 17 a4 b9 62 94 14 bb 21 b1 f4 3c
       0.016431445 -0.0003129814 -0.002267145 0.029869618
000240 c7 aa 76 3b 64 b2 bc 3c 0d 81 02 bb a0 4b 09 b7
       0.0037638412 0.023034282 -0.0019913346 -8.183444e-06
000250 2d ce 03 ba b8 2f b2 3c 81 4e e6 ba 7a e7 3a 3c
       -0.0005027976 0.02175127 -0.0017571003 0.011407727
000260 24 5e 47 b9 4a 2e 33 ba c1 5c 4f 3b 40 86 b3 ba
       -0.00019013189 -0.0006835206 0.003164098 -0.0013696626
000270 f2 cf 90 b9 8a 2e 6c 3c 77 0f a7 3c 01 7e 26 3b
       -0.00027620752 0.014415393 0.020393116 0.0025404694
000280 78 f1 83 3c 52 db 6c 3c 8f c3 b7 3c 3a 1d 40 ba
       0.016106352 0.014456587 0.022432117 -0.0007328574
000290 4e f0 36 39 b3 e0 b2 3c 2d 0b 0b 3d 4c 28 05 bb
       0.00017446393 0.02183566 0.033946205 -0.0020318208
0002a0 cf 84 b7 ba 65 3a 73 3a 5d af dd ba 59 c4 ea b9
       -0.0014001372 0.0009278416 -0.0016913224 -0.00044778248
0002b0 46 b0 f6 3c 86 dc 8c b9 a2 26 93 3c 81 29 17 3d
       0.03011335 -0.00026867184 0.017962757 0.036904816
0002c0 71 40 6d ba 61 96 09 3d 67 0e fa 3c c0 e0 78 3a
       -0.0009050435 0.033590678 0.030524446 0.00094939396
0002d0 4d 76 d8 b9 6f ff 08 bb e8 c7 71 3c 51 07 2d bb
       -0.0004128687 -0.0020904203 0.014757134 -0.0026402066
0002e0 aa 4d cf 3c 65 e2 53 39 84 68 cb 3b cb 9c 44 ba
       0.025305588 0.00020206867 0.0062075276 -0.00075001706
0002f0 32 3e d7 ba 6c ad 00 ba fb 71 b7 39 18 1e 44 3c
       -0.0016421734 -0.00049086544 0.00034989402 0.0119700655
