Config/results/BallCatcher_02/BoxBehavior/BoxBehavior-1999995.pt (torch, 118031 bytes, 21 tensors)

network_body.linear_encoder.seq_layers.0.weight f4 [64, 67]
00000000: 028c 7cbd 6dfb 35be 80eb 22be 7772 f9be
00000010: 6703 ae3d aa95 98bd e56e 253e 8514 71be
00000020: de91 48be 5a29 0d3e 8cb9 40be 1847 92be
00000030: bffa 82be f18b 1ebe e4b1 b4be d148 21bd
00000040: 4cc4 47be 5878 62be dbc5 89bd 38e8 c2be
00000050: a659 b1be 095e 29bd 7619 e4bd f545 efbd
00000060: 3546 663d 3ebe 99be dbf5 b7bc a6b2 a03d
00000070: 160e b3be 3612 25be 941d c2bd d081 74be
00000080: 17c6 98be 237d 5c3d d660 42be 2353 18bd
00000090: 4d34 8fbe 8ed2 d2bc 49d6 5ebe 5c8a 0f3e
000000a0: 655a 96be 4676 bbbe 3c4f d63d cc77 22be
000000b0: fea6 e7bd 5f5d 8d3c d376 b3be 5513 e2bd
000000c0: 21b6 053d ec59 9ebd 23dd e2bd 0c0b d0bd
000000d0: 08eb 0ebe 2feb 8dbe de64 33be 182a 7bbd
000000e0: edbd 87be fdf7 bf3c 3b7b cabe fc4c b3bd
000000f0: 349e 16bd ce6c a9be 4f38 c3be 4e69 f03d
00000100: 66ee 113e 8cfa d4bd 2bd9 90bd 9699 d43b
00000110: 32ee adbe 3c30 9fbd 69cf 98bd 1393 e23d
00000120: cf87 88be 0266 b73d b48f f73a 57f4 98bd
00000130: ee9e c53d 57fb 7bbd 3c4c 53be 8dbf 153d
00000140: 5c25 b7bd adaf 9fbe 6cca a03e 4227 c0bd
00000150: 0420 5abe 6846 073e 0501 a53a 8755 503c
00000160: 6467 75be 7220 803e 6a20 a0bd 7b80 943c
00000170: 761e debd c8cd 2f3e 4995 40be 7da7 08bc
00000180: e7b5 3c3d 6c84 99bd c40f b0bd b057 593a
00000190: a281 f0bd 1aec 543e 1714 82bd b96e 8fbe
000001a0: fdd0 ee3d f545 493e 3892 883e a84d 8a3c
000001b0: 0a35 833c 8886 28be 36e2 1c3e 3d34 d83d
000001c0: c6c6 4f3e 3e58 8c3d 9d60 413d ab33 2f3d
000001d0: b6ed 183d 64e4 36be a4a5 85bd f8a1 453e
000001e0: 3477 98bd ef87 8a3e 55ea 113e 4181 553c
000001f0: 9f03 b73e 994a 98be 639b b73d 82e7 253e
00000200: 5035 27bd b99a d2bd 0819 143e 891a 8d3d
00000210: 7ac6 0abc 926d babe 6c93 0b3e a7bb 1a3e
00000220: fb49 453b 8719 ccbd 348e d33c 0bbc 543d
00000230: f138 b53e a0bf 02be df11 62be 6c44 38be
00000240: ed04 65be 533b 01bd 15e0 ea3d a08e 88be
00000250: 75f7 cebd 7dd1 9d3e 4743 8ebe 75c0 87be
00000260: 1dbe 993e 8adb 51be ddf8 5d3d 2086 12be
00000270: 3446 243d aadb b83d bc82 053e 6171 93be
00000280: 60b1 9c3c 0651 0a3e 3a7a ac3e 06b6 4abe
00000290: 3b2c 543e 4425 babd 4485 dcbe 64eb bb39
000002a0: 4ff0 f4bd 803f a6bd db54 c53d feeb 1cbd
000002b0: 96ec 3bbe 859a 183d 26b9 b5be 1ecb 0dbe
000002c0: 90e6 443e cd45 f5bc ce45 f4bd b0e7 15bd
000002d0: bf62 5c3d ac5a a5be 56e5 af3e 63f0 93be
000002e0: 02ae 57bd bfa4 d53d b672 31bc ff3b d7bd
000002f0: 8e80 553e 0885 a33b 08cf 23be 9e19 da3b
00000300: 01b3 2dbd 62b7 e2bd c669 c53e 0bd8 adbd
00000310: 729a 54be 6560 db3d f01a babd b700 a63d
00000320: c534 f6bd e53c bc3d 1388 4dbe 01e2 bebe
00000330: 3ee6 03bd 355b 95bd 82be b2be 739b 343e
00000340: 1889 10bc 58a7 b6be fd8b afbd 6640 24be
00000350: 0574 12be 7b55 28be 8e98 c83b d19b 4cbe
00000360: c47b 003e 0b0f d6be 0337 aebe a57d 663e
00000370: fa80 dbbe 185e b6be 68c4 f3be 5cab 8fbe
00000380: 074e 1cbe 368a 09be af66 56be 6811 123c
00000390: 2d0f 89bd 23fb 30be dea3 1cbe a852 c6bd
000003a0: 34c6 96bd 50ec 92be 63d0 80be bb98 82be
000003b0: acce 44be 41f5 a4bd b6c1 68bd 2188 82be
000003c0: 4b65 b8bc 7e65 04be 4e08 2dbe 9df5 7ebe
000003d0: e8ee 63bd e6b1 99be f95c 25be 9a53 6fbe
000003e0: 2146 37be 430e 553e b753 a7be 1a56 b9be
000003f0: 4284 e2be 77e2 02be 3494 5abe 61f4 9c3e
-0.06165696 -0.17771693 -0.15910149 -0.48720142 0.08496743 -0.07450421 0.16155584 -0.23542984
-0.19586894 0.13785306 -0.1882078 -0.28569865 -0.2558193 -0.15483071 -0.3529197 -0.039376084
-0.19508475 -0.2211622 -0.06727191 -0.38067794 -0.3463871 -0.041349445 -0.11137669 -0.11683265
0.0562193 -0.30027956 -0.0224561 0.078465745 -0.34971684 -0.16120228 -0.09478298 -0.23877645
-0.2983863 0.053830277 -0.18982252 -0.03718866 -0.2796959 -0.025735166 -0.21761431 0.14017624
-0.2936584 -0.36613673 0.104643315 -0.15866011 -0.11311148 0.017256437 -0.35051593 -0.110388435
0.032644395 -0.07731995 -0.11077335 -0.10158357 -0.13956845 -0.27718493 -0.17518947 -0.06131944
-0.2651209 0.02343368 -0.39547142 -0.08754918 -0.036771968 -0.33090824 -0.38128898 0.11738835
0.14251098 -0.103993505 -0.070726715 0.0064880354 -0.3397079 -0.07772872 -0.07461435 0.110632084
-0.26666114 0.08955003 0.0018887431 -0.07468479 0.09649454 -0.061518993 -0.2063455 0.03655963
-0.089426726 -0.31188717 0.31404436 -0.09382488 -0.21301275 0.13210452 0.0012588805 0.012715704
-0.23965222 0.25024754 -0.078186825 0.01812767 -0.10845654 0.17168343 -0.18806948 -0.008340714
0.046071913 -0.074959606 -0.08596757 0.00082909595 -0.117434755 0.2079319 -0.06351488 -0.28014162
0.11660955 0.19655593 0.26674056 0.016882733 0.016016502 -0.1645757 0.15320668 0.10556839
0.2029067 0.06852768 0.04721128 0.042773884 0.037336074 -0.17860562 -0.06525734 0.19300067
-0.07444611 0.27056834 0.14249547 0.013031305 0.3574495 -0.29744413 0.089651845 0.16201594
-0.040822327 -0.10283417 0.14462674 0.06889827 -0.008470172 -0.3641172 0.13630456 0.15110646
0.003010391 -0.099658065 0.025824644 0.051937144 0.35395005 -0.12768412 -0.2207713 -0.17994851
-0.2236516 -0.031550717 0.114685215 -0.26671314 -0.101057924 0.3082389 -0.27785704 -0.2651402
0.30027857 -0.20493904 0.054192413 -0.14308977 0.040106013 0.090262726 0.13038152 -0.2879744
0.019127548 0.1350747 0.33687 -0.19795999 0.20719998 -0.09089139 -0.43070424 0.000358428
-0.11959898 -0.081175804 0.096353255 -0.038310997 -0.18351969 0.037256736 -0.3549282 -0.13847014
0.19228578 -0.02994051 -0.11927377 -0.036597908 0.05380511 -0.3229574 0.34354657 -0.28894338
-0.05265618 0.104318134 -0.010830572 -0.1050949 0.20849821 0.004990224 -0.15996945 0.006655886
-0.04240704 -0.11070134 0.3855726 -0.084884726 -0.20762041 0.10711745 -0.09087169 0.08105605
-0.12021784 0.09191302 -0.2007144 -0.37281802 -0.032201998 -0.07292787 -0.3491097 0.17637424
-0.008821748 -0.35674548 -0.085716225 -0.16040191 -0.1430207 -0.16438858 0.0061217016 -0.19981314
0.12547213 -0.41808352 -0.34026346 0.22508867 -0.4287184 -0.35618663 -0.47610784 -0.28060424
-0.1526414 -0.1343163 -0.20937608 0.008915283 -0.06692348 -0.17283301 -0.15296885 -0.09683734
-0.07362023 -0.28695917 -0.25158986 -0.2550715 -0.19219464 -0.08054591 -0.056825362 -0.25494483
-0.022509238 -0.12929341 -0.16897699 -0.24898382 -0.05564776 -0.30018538 -0.16148748 -0.23371735
-0.17897846 0.20806222 -0.32681057 -0.36198503 -0.4424153 -0.12781702 -0.21345598 0.30655196

network_body.linear_encoder.seq_layers.0.bias f4 [64]
00000000: fffb 62be 3183 41bc 7032 04bc 0cf0 28be
00000010: 0a6f 25bd b9c4 523d 89a4 4cbe ff31 99bd
00000020: 001d 79bd e815 9fbd 9875 c43b e723 adbd
00000030: 8ba2 753d 05c2 2bbe a00a c2bd 3741 a73d
00000040: fa53 a2bd 3d49 6e3d bdf0 c5bc ddd2 2cbd
00000050: 514f 61be fd8f d03d 2068 46bd a288 f53c
00000060: 58c5 3bbe 5530 54be 3230 9fbc 57c2 88bc
00000070: 7ef5 2dbe 2cf2 833d 3f15 5d3d 1508 873d
00000080: b9f9 c63d 8e93 0e3d fada 31bd 9884 32bd
00000090: ad78 87bd 020e 6c3d 42fd a83d b9b8 26bd
000000a0: 0e1b 033b 8dc9 b0bd c4cd afbd ec9c 5abe
000000b0: f72b a63d 5018 13be 5391 c13d 8518 963d
000000c0: 5df8 19bd f523 f33d e3ed 853d 74ad acb9
000000d0: 7c58 58be 6042 1d3d ae8b 093d af41 67bc
000000e0: 1c44 ab3d ce9d 20bd 63fc a7bb 7e01 37be
000000f0: 0a48 f0bd ec8d c3bd d959 56bd 14db a53d
-0.22166441 -0.011811064 -0.008068666 -0.1649782 -0.0403891 0.05145714 -0.1998464 -0.07480239
-0.060818672 -0.0776785 0.0059954636 -0.084541135 0.059969466 -0.16773231 -0.09474683 0.081667356
-0.079261735 0.058175314 -0.024162645 -0.042193282 -0.22002913 0.101837136 -0.048439145 0.029972378
-0.18337 -0.20721562 -0.019432161 -0.016694231 -0.16988179 0.06442675 0.05397534 0.065933384
0.097155996 0.034808688 -0.043421723 -0.043583483 -0.06614814 0.057630546 0.0825143 -0.04070351
0.002000514 -0.08632193 -0.085841686 -0.21348923 0.081138544 -0.14364743 0.094515465 0.073288955
-0.037590373 0.11872093 0.06539514 -0.0003293563 -0.21127504 0.03839338 0.033580475 -0.014114781
0.083626 -0.039212994 -0.0051265224 -0.17871663 -0.1173249 -0.09548554 -0.05233178 0.080984265

distribution.branches.0.weight f4 [3, 64]
00000000: 8e37 cc3c ca54 9a3c 7563 a83d c4ba 12bd
00000010: c6ca bd3d 77c6 1bbe 776c dbbd 183e ad3d
00000020: 7ddf 223e be0c 243e 7294 5cbd 331f bd3d
00000030: 1d3b 1ebe 967c 55bd 5685 ddbd 4db2 6dbe
00000040: 697c 3c3e d48b 91bd 9b97 c23d e88c 243e
00000050: be3e adbd f9d8 afbd 411b 073e c599 bdbc
00000060: 0c68 09bd 556b 8dbd c384 b83c 821f 023e
00000070: 275c cbbc 1686 54be 45cb c6bd 3abd 893c
00000080: 35a6 31be 0951 20be 6dfc ab3d 84dd 1e3e
00000090: 3306 3e3e c933 9bbd 6a76 91be 134d c63c
000000a0: 6fa1 dd3c c205 0d3e d4bc 273e c8e3 8fbd
000000b0: f8dd 12be 7ee5 593c edfb 5dbe bc1f 89be
000000c0: cec0 043e 9703 32be 9233 62be 473f 8d3c
000000d0: f244 37bd c841 83bd 0cf8 82bd ce32 f43d
000000e0: 2942 56be 6a0e 843d 38aa fd3d 8bd1 083d
000000f0: 8626 ea3d a3ab 823d f4be f83d ce25 d8bd
00000100: 5ce2 953c 2bac 3e3d b025 84bd b38d 81bd
00000110: ea6b bdbc a23a a0bb 3ac4 643d 7ad9 14be
00000120: 62ca 80bd d2be 47be 11da ce3d 1739 e3bd
00000130: 5963 c83c bc9e 523c 0a74 bcbc cf58 803c
00000140: 4c1b 6bbe b2a4 973d 3a93 5e3d 5da2 08be
00000150: 2700 f43c 4d2a 1b3e 4691 09be 4729 bc3d
00000160: ccff 7cbd 6c96 d63c 1b0c 9a3d c315 56ba
00000170: 0280 953c d5b1 22bd 9a5a 1c3e bc06 ab3d
00000180: f272 1dbb 9c0f 0a3d 83b2 70bb 3fe4 b5bd
00000190: c910 40be 55f7 af3d c210 213c e056 f2bc
000001a0: f99a 92bd 4644 4dbe 7a6a 00be e75e f73c
000001b0: e241 443e 6ae9 26bd 278f 82bb 689c ad3c
000001c0: 4d71 e4bd 702d 2d3b e00b 553c 1a0c 0b3e
000001d0: 3bd7 183d 8555 c43c 875b 7bbd 4d63 633c
000001e0: c78d 5c3d 3c7b f2bd e6f2 09bd 4cda 4fbd
000001f0: 8f4a 75bd d108 adbd 7ba6 33be b5e5 3a3e
00000200: d833 c43a f53a 4bbd c8a0 c8bd d722 0d3d
00000210: 1075 a3bd b3fc 193e b7f8 2f3c 0b1c f4bb
00000220: 9d50 86bd ebec 923d 5efa 253c e29a a93c
00000230: fc30 e83d 7b7b 8c3d 96c3 6abc 500b 3a3e
00000240: f750 843c d4fe b8b9 67b4 5dbd 3cae 6fbd
00000250: 8f5a f13b 7c3d b33c 2d1e 053c 92ee a73b
00000260: 3e72 123c 6c15 b2bc 75e1 4fbd 7aa7 b1bd
00000270: dbbd bcbd b794 533e 2eb7 01bc 7b3f 0fbd
00000280: fd3b 083e ba14 f13d be78 76bb 3011 a4bd
00000290: e34d 0d3d 1424 36bb 5d2e 723e 44e0 68bd
000002a0: 342f ce3d 6771 903d d528 68bd 22f4 413d
000002b0: 0692 96ba 3674 9e3d 0bf4 f73d 7d7a 823e
000002c0: ac6f 453c 3f7d 343e aa15 783e 28ad 56bd
000002d0: 37cb 2d3c b290 3cbd 68d4 1f3e 865e 60bd
000002e0: 5c0b 7e3e 75c6 893c 2951 743c 2b6e 32bd
000002f0: 6dd5 a2bd cef8 013d a82e b53d 94d7 b03b
0.024928834 0.018839259 0.08222095 -0.035822645 0.092671916 -0.15212427 -0.107140474 0.08459109
0.15905567 0.16020486 -0.053852506 0.092344664 -0.15452237 -0.052120768 -0.108164474 -0.23212548
0.18406834 -0.07106748 0.09501573 0.16069376 -0.08459233 -0.08586306 0.1319399 -0.023144612
-0.033546492 -0.069052376 0.022524243 0.12707332 -0.024824215 -0.20754275 -0.09706739 0.016813863
-0.17348559 -0.15655912 0.08397756 0.15514189 0.18557052 -0.075782366 -0.28410655 0.024206674
0.027054517 0.13771728 0.16380626 -0.07025868 -0.14342487 0.013299344 -0.21678133 -0.26782024
0.12964174 -0.17384182 -0.22089985 0.017242087 -0.044743486 -0.06409031 -0.063949674 0.11923753
-0.20923676 0.06448062 0.12385982 0.03340296 0.11433129 0.06380393 0.121457964 -0.10554086
0.018296413 0.04655091 -0.06452501 -0.06325855 -0.023122746 -0.004889802 0.0558512 -0.14536086
-0.062886015 -0.19506386 0.101001866 -0.110948734 0.024461435 0.012855228 -0.02300455 0.015667347
-0.22959632 0.0740446 0.054339625 -0.13343187 0.029785229 0.15152855 -0.13434324 0.091875605
-0.061767384 0.026194774 0.0752184 -0.0008166695 0.018249515 -0.039720375 0.15268937 0.08350894
-0.0024024812 0.033706293 -0.0036727495 -0.08881425 -0.18756403 0.08592097 0.0098306555 -0.02958244
-0.07158465 -0.20045575 -0.12540618 0.03019662 0.19165757 -0.040749945 -0.0039843502 0.021192744
-0.11154423 0.0026424788 0.0130033195 0.13578835 0.037314635 0.02396656 -0.061366584 0.013878656
0.053846147 -0.11839911 -0.03367891 -0.050745293 -0.059885558 -0.08448947 -0.17543976 0.18251689
0.0014969064 -0.049616773 -0.097962916 0.034457054 -0.07981312 0.15037803 0.010740451 -0.007449632
-0.065583445 0.07174095 0.010130493 0.020703737 0.11337468 0.068594895 -0.014328858 0.18168378
0.016151888 -0.00035285077 -0.054127123 -0.058515772 0.0073655318 0.021879904 0.00812487 0.0051248753
0.00893837 -0.02173873 -0.050752122 -0.08674522 -0.092158996 0.20662199 -0.007917209 -0.03497265
0.13304134 0.117715314 -0.003760859 -0.08011091 0.034498107 -0.00277925 0.23650499 -0.0568545
0.10067597 0.0705288 -0.056679565 0.047351964 -0.001148761 0.07737009 0.121070944 0.25484076
0.01205055 0.17625903 0.24227014 -0.05241123 0.010607532 -0.04603643 0.1560837 -0.054777645
0.24809021 0.016818264 0.014911928 -0.043562096 -0.07950864 0.03173142 0.088467896 0.0053967927

distribution.branches.0.bias f4 [3]
00000000: 217b 03bc 68a4 2bbc c7e1 353d
-0.008024962 -0.010476209 0.04440477

critic.network_body.linear_encoder.seq_layers.0.weight f4 [64, 67]
00000000: de74 babc 6583 e3bd 4443 7ebe e126 74bc
00000010: 70a1 433d 5fd8 7b3d 1442 02be b160 543d
00000020: 3d3d 8cbe 79ca e33d bd9d 0abe 8e21 a0bd
00000030: 60b9 113e 300d 093e b583 b0bd 2893 d3bd
00000040: 696d 623e 5503 e53c 1a98 c5be 8831 9dbc
00000050: ec40 5e3e e605 573d 60f8 e43c 9a80 ec3b
00000060: bc9c 20bd 0f2c d2bc 89ea ad3d 975a 2f3e
00000070: 2a96 3fbe d6ad adbd 7eee 263e a66e 143d
00000080: a690 0dbf 579b 8bbe 6918 ba3c 1ab6 583d
00000090: 6ec4 61be e31c 11be b5b8 30bd e6c2 45be
000000a0: 53c8 04be e57c b53e 091f dabd 4d6e 093d
000000b0: bdfc f0be 8790 98be 07e5 a0bc 870d 65be
000000c0: d0a8 c93d 3d4b e8bc 66e2 7dbe 1c3a fd3e
000000d0: 5260 fdbc 1659 1fbe 18d1 84bd ee70 fb3d
000000e0: c87e 2bbe 785d ffbe f4f3 273b 8a87 d33d
000000f0: f1e2 543c 65f5 863d 8c13 14be 903d 9abd
00000100: 49c7 12be 26db 9c3e e0ca 86bc f51f 753e
00000110: 99a0 42be 84ca 103f 917f a5be cd7c 0f39
00000120: f45e 7bbe ed93 46bf 52d2 1ebe dfa3 8dbd
00000130: 12fd 44ba a077 6d3b 18e8 153e ec57 65bc
00000140: 091a c7bd 734f 63bd 4a90 703d 6a2e f93d
00000150: 8f04 9b3c 70ad f9bd 04f2 22be cde3 d23c
00000160: 6256 12bb cf95 7d3e 2d55 55bd c1fc 9c3e
00000170: bbb0 653d fec2 5b3c 3c53 78be 4029 813d
00000180: 6c12 38be 40d3 17be 7628 283d 9f39 7a3e
00000190: 0c58 95be 563b cdbd d21e 0f3e f601 083b
000001a0: 4731 bb3d c3ce 2dbe 9642 d7bc c894 cdbc
000001b0: 9de2 12be b506 c7bd 49a6 92be e7bc f3bd
000001c0: 00ed a63d 124f 51be 670b 5bbd cdee 29be
000001d0: b382 cbbc ffa6 d0bd d340 2f3d a623 c13d
000001e0: 6824 83bc 2229 c33c cc74 abbe cad2 c4bd
000001f0: 226a cd3c 5839 f03c c769 3cbd b572 1cbe
00000200: a8bc f6bd b8fe 323e 9702 66bd b31c a03c
00000210: a546 eb3d 90cd 78be dec5 ab3e 8aa5 04bf
00000220: 7646 4b3e 3727 19bd 0d0d babd 9d5e b9bd
00000230: e920 29bf 1c18 46be bf73 3cbd 077a cdbd
00000240: 1425 0cbe e4ea aebe ba24 4b3d e417 61be
00000250: 4e9b 11be feb2 1abe d0f8 a5bd c8dc babd
00000260: 2228 72be 470a 9b3c 1af8 4ebc 4cdb c93d
00000270: 8e48 b4bd 8bba 08be 5e4b 393e 4df1 19be
00000280: 6b6a 823c 2544 9abd f140 64bc ce39 123d
00000290: c1ef 70ba 005f bab9 18ba 013d c963 f3bd
000002a0: 022a fcbd 83d8 f7bc 367c 10be 7c4c 0fbd
000002b0: d2dd 843d d9c5 c8be 45a0 16be 41d7 1abd
000002c0: 77e6 cb3d bda7 b0bd e0d4 acbd b57f 91bc
000002d0: e1da cb3c 5307 59bb dae0 9dbd 283a 4bbe
000002e0: 359b 5f3e b903 10bf 3f7e c23d e08f 2abe
000002f0: 232c 103e f0ea b4bd 88df cf3d d82c a3be
00000300: 3f1f 2bbd ec08 49be cdbe a7be 6b09 683d
00000310: e175 babd 5988 da3d 3caa adbd 0b53 5dbd
00000320: e86c 743e 54fa 2dbc e978 acbd e419 a33e
00000330: 307e 3dbe 734f 29bd 0a53 f43d 7d02 2ebf
00000340: 3f46 5cbc f0f9 f63e 126a fcbd b254 1abd
00000350: 8364 81be 7c3f 203e 951d a83d e03a fcbd
00000360: ba2c 04be 100d fabc e882 8cbc f267 953d
00000370: ccd9 4cbd 41ea 003e 14c3 bdbe 55fe b9bc
00000380: ac5f f53d b898 793e a294 973d f17b 4fbe
00000390: f5d4 4bbf 03df 583c 2139 fd3d 5d9c 8c3e
000003a0: 8f37 733d 0e2a edbe 9457 9fbf 5624 843e
000003b0: 1b9a 99bd da0f 373c 4cef a2bb f10b fb3c
000003c0: 9d15 81bd 67eb 423b 276e 323c f416 bdbd
000003d0: b149 e7bd 2268 1fbc d88c 3dbe a853 18bd
000003e0: 4acd 05bc b529 a6be 1729 f2bd a933 0d3e
000003f0: 85f8 78bd aeed d73d cc9b 29bd a705 abbe
-0.022760805 -0.11109046 -0.24830347 -0.014901848 0.04776138 0.061485644 -0.1272052 0.051850025
-0.2739047 0.11122603 -0.13536735 -0.078189 0.14230871 0.13383937 -0.08618871 -0.10330802
0.22112049 0.02795569 -0.38592607 -0.019188657 0.21704453 0.05249586 0.027950466 0.007217479
-0.039211974 -0.025655774 0.08492 0.17124401 -0.18709627 -0.08480422 0.16301915 0.036238335
-0.5529884 -0.27266952 0.022716718 0.05290804 -0.22047588 -0.14171176 -0.0431449 -0.19312629
-0.12967043 0.3544685 -0.10650451 0.033552457 -0.47067824 -0.29797766 -0.019640459 -0.22368442
0.098466516 -0.028356189 -0.24793395 0.49458396 -0.030929718 -0.15561327 -0.06485194 0.12277399
-0.16747582 -0.49875998 0.0025627585 0.103285864 0.01299356 0.06589774 -0.14460582 -0.07531273
-0.14333834 0.30635947 -0.01645416 0.23937972 -0.19006576 0.56559014 -0.32323888 0.00013684035
-0.2454794 -0.77569467 -0.15509918 -0.069160216 -0.0007514517 0.0036234632 0.14639318 -0.013998013
-0.09721763 -0.05549569 0.058731355 0.12167056 0.018923072 -0.12191284 -0.15912634 0.02574339
-0.002232932 0.24764179 -0.052083183 0.30661586 0.056076746 0.013413189 -0.24250501 0.06306696
-0.17975777 -0.14826679 0.04105421 0.24436043 -0.29168737 -0.10021083 0.13976601 0.0020753122
0.09140258 -0.16973405 -0.026276868 -0.025095358 -0.14344259 -0.09718076 -0.2864249 -0.11901265
0.08150673 -0.20440319 -0.05347767 -0.16595002 -0.024842596 -0.10188102 0.04278643 0.094306275
-0.01600857 0.023823325 -0.33487546 -0.09610517 0.025075022 0.029324219 -0.045999315 -0.15278132
-0.12047702 0.1747998 -0.056154814 0.019544935 0.11488084 -0.24297166 0.33549398 -0.5181509
0.19851097 -0.037390914 -0.090845205 -0.09051249 -0.6606584 -0.19345134 -0.04600882 -0.100330405
-0.13686019 -0.34163582 0.049595572 -0.2198177 -0.142194 -0.15107343 -0.08104098 -0.09124142
-0.23648122 0.018925799 -0.012632394 0.09856281 -0.08802901 -0.1335241 0.18095157 -0.15033455
0.015919885 -0.07532529 -0.013931499 0.035699658 -0.00091909996 -0.00035547465 0.031671613 -0.11884267
-0.123127 -0.030254608 -0.14109883 -0.03498505 0.06487621 -0.39213446 -0.14709575 -0.03780294
0.09956067 -0.086257435 -0.0843904 -0.01776109 0.024884643 -0.0033115938 -0.07708903 -0.19846404
0.2183655 -0.5625568 0.09496736 -0.16656446 0.14079337 -0.08833873 0.10150057 -0.3187015
-0.041777845 -0.1963231 -0.32762757 0.056649607 -0.09104515 0.106705375 -0.08479735 -0.054034274
0.2386967 -0.010618765 -0.08421499 0.3185569 -0.18505168 -0.041335534 0.11929901 -0.67972547
-0.013444482 0.48237562 -0.12324919 -0.037678428 -0.25271997 0.15649217 0.08208767 -0.12315917
-0.12907687 -0.030523807 -0.017152265 0.072952166 -0.050012395 0.12589361 -0.37062895 -0.022704283
0.119811386 0.24374664 0.07401396 -0.20262124 -0.7962182 0.013236764 0.12364412 0.27463046
0.059379157 -0.46321148 -1.2448602 0.25808972 -0.075000964 0.011173213 -0.004972374 0.030645343
-0.063029505 0.0029742362 0.01089052 -0.092328936 -0.112933524 -0.009729417 -0.18510759 -0.037189156
-0.0081666205 -0.32453695 -0.118242435 0.13789238 -0.06078388 0.10543381 -0.041408345 -0.3340275

critic.network_body.linear_encoder.seq_layers.0.bias f4 [64]
00000000: b2f0 3bbd 79a8 58bc 903d 7ebd c370 113d
00000010: debc 0a3c cefe 57bd c46d f2bc aa55 f1bc
00000020: 451f 583c 879b 09bd 9a36 2bbd b0f5 05be
00000030: a16b 3abd d0c1 a7ba 44e3 3abc 31cd 93bc
00000040: ffa3 81bd 57b0 4b3d a31a 7a3d 15c4 2dbd
00000050: 407f c43c 6c50 bbbd f2ff 87bc b90e 28bd
00000060: 870c 5fbc 7816 35bd 3b97 05bd 8fda 57bd
00000070: f986 ffbd faaf babd 5df6 123c b5d5 84ba
00000080: 950a d43b da10 8dbb c1bb a4bc 9823 263b
00000090: 13ce 75bd 340c f6bc 6969 48be a678 85bd
000000a0: 5d3f eebc 0ea4 57bd 6ffb 7b3c 086a 86bd
000000b0: 7a23 0ebd abb6 03bd 637b b4bd 4e84 fdbc
000000c0: fe63 59bd 9321 98bc a1af d33a a5c4 a6bd
000000d0: 92ec 4abd 4bc7 9fbc bd85 bdbc 71d4 a4bd
000000e0: a0c3 e1bc bad2 8bbc 1e68 83bc 0ff9 e9bc
000000f0: 76f9 70bd 6714 9cbc 8bb2 a2bc c84d 31be
-0.04588384 -0.013223761 -0.06207043 0.03550793 0.008467881 -0.052733235 -0.029593356 -0.029459793
0.013191049 -0.033595588 -0.04180012 -0.13082004 -0.0455128 -0.001279885 -0.011406723 -0.018042179
-0.06330108 0.049728718 0.06106056 -0.042423327 0.023986459 -0.09146199 -0.016601536 -0.041029666
-0.013613827 -0.04421088 -0.032614928 -0.052698668 -0.12476916 -0.09115596 0.00896987 -0.001013449
0.006470988 -0.0043049874 -0.02010906 0.0025350805 -0.06001098 -0.030035116 -0.19571461 -0.065171525
-0.029082948 -0.05264669 0.015379771 -0.065631926 -0.0347018 -0.032156628 -0.08812597 -0.030946877
-0.053073876 -0.018570697 0.0016150364 -0.08142976 -0.049542017 -0.01950421 -0.02313506 -0.080483325
-0.027559102 -0.017068256 -0.016040858 -0.028561143 -0.058831654 -0.019052697 -0.019860527 -0.17314827

critic.value_heads.value_heads.extrinsic.weight f4 [1, 64]
00000000: 700a 153c b0f3 16be fc4c b5bd 49f4 e03e
00000010: b72b 893c c7d9 c1bd d0c2 6cbe d2b0 62be
00000020: ab43 003e 6a01 a4bd 88d8 acbe 789e 3a3a
00000030: fd8b 103d d597 6cbe 9d3a b53d ffd8 a5bd
00000040: 6762 afbd 0a10 863e 206e 4c3e 928e 21be
00000050: 1eb7 b83d 52d2 f3bd 9d42 223d 7ad7 3b3e
00000060: 30b6 043e f9e3 32be 290f f039 f631 973d
00000070: 9207 f0bd be20 37be f46b 093e 2334 af3e
00000080: 7847 203e 7a17 253e 5f69 6f3e 1678 843e
00000090: dda5 99bd d49a 8a3b 3e24 0b3c e2c7 b83d
000000a0: 520d c2be 1afb 9abe bfd4 273e d13d f8bd
000000b0: 3a8a 47be c137 1ebe 0c43 d43c fae9 7abb
000000c0: 6fb9 2dbe 977e 4b3d 031e 813d 0308 33be
000000d0: a6da 4fbe 3d07 083e 3438 a03c 6fd8 29be
000000e0: 0feb 0f3d 987b 9837 418b 2c3a b5d7 873e
000000f0: b2b0 85be e29c 6f3e 3879 093e b67f 6bbd
0.009096727 -0.14741397 -0.08852574 0.43936375 0.016744478 -0.09465366 -0.2312119 -0.22137764
0.12525813 -0.08008082 -0.3375895 0.00071189506 0.035289753 -0.23104794 0.0884907 -0.08098029
-0.08563691 0.26184112 0.19963884 -0.15777043 0.09019302 -0.1190535 0.03961431 0.18343917
0.12960124 -0.17469777 0.00045787662 0.07382576 -0.11720194 -0.17883584 0.13420087 0.34219465
0.15652263 0.16122237 0.2338004 0.25872868 -0.07502339 0.0042298827 0.0084925275 0.090224996
-0.37900788 -0.302697 0.1638975 -0.121211655 -0.19486323 -0.15450956 0.025910877 -0.0038286434
-0.16965269 0.049681272 0.063045524 -0.17483525 -0.20298252 0.13284011 0.01955805 -0.16586469
0.03513628 1.8177365e-05 0.000658203 0.2653176 -0.2611137 0.2339969 0.13425148 -0.05749484

exp_avg f4 [64, 67]
00000000: 5a65 88b6 f533 af36 fa7e ae36 9899 8bb6
00000010: 0000 0000 3586 2234 b400 88b4 0000 0000
00000020: 8020 9a33 c6c6 ac34 7811 6035 2486 6b35
00000030: ab85 c735 eb2c b1b4 bcb6 7034 f118 c534
00000040: 64e8 5335 80eb 7235 1fe0 4836 cf85 f6b5
00000050: 4653 04b6 93ab 4334 fec4 8235 2f5f 8435
00000060: 638c b335 878f 42b4 2189 8eb4 b1c8 5634
00000070: 5861 8035 6791 8235 fab4 ab35 4dd4 03b4
00000080: 12d3 40b4 0e68 5934 750d 8035 b716 8335
00000090: cbb6 86b6 6585 ad36 72e9 ad36 0f69 85b6
000000a0: aa37 ac36 252c ad36 49d0 8e35 93a2 c633
000000b0: fa0c eeb4 d253 bcb5 22c7 2b36 26a3 2836
000000c0: cb49 9935 8b51 7832 751b 0234 ba6e a033
000000d0: 8833 9135 dd6d 9035 47b0 e5b3 7695 a935
000000e0: fbdd a935 0f49 d833 e3b5 8d35 ce7c 8d35
000000f0: 2efe 7335 5fed 8434 1578 a034 fbbc dc34
00000100: 0000 0000 0400 0080 0a7c 9335 40ad a939
00000110: ff03 cab9 bc90 c7b9 c946 ae39 0000 0000
00000120: 6d9b 42b7 1e22 8439 0000 0000 5dfe f5b6
00000130: 4ca9 04b9 8af7 8738 de6a 8f38 170e a7b7
00000140: 042f 2fb8 257b 8038 3054 20b9 4d4d bf38
00000150: fb9e 1f38 92db dfb9 cd84 bf39 0bd8 c539
00000160: c3d9 15b8 99b8 d9b7 baea ecb7 538c 93b9
00000170: 1c6b 6639 f29a 6d39 4b71 1db8 c189 cab7
00000180: d3a9 f5b7 9ad0 8fb9 aaf3 5e39 bf13 6439
00000190: e2b8 70b8 8ee9 8fb6 5f36 6cb7 029a ba39
000001a0: c7f0 dab9 eaad dbb9 52d1 9e39 1528 bfb9
000001b0: 0cd2 c8b9 ab47 acb8 7cb2 ab37 fb8b cc38
000001c0: 5607 b738 3631 1cb9 70ae 1ab9 144f 46b9
000001d0: 91a1 0539 9cff d738 9e07 a437 025d aab8
000001e0: e41d a6b8 c917 6439 a862 92b9 2135 8eb9
000001f0: 6924 32b5 9fed 7fb8 bf98 81b8 ede6 0f38
00000200: 7b4e c9b8 0423 f4b8 9e20 8c39 0000 0000
00000210: 0400 0000 a474 233a b2e7 b139 62ba 94b9
00000220: f314 94b9 7d87 b439 0000 0000 8a99 02b7
00000230: e3a7 ad38 0000 0000 46f3 5fb6 56b2 92b5
00000240: 0000 6e38 9df3 6238 c807 e436 74e9 4c38
00000250: a897 ae38 8cf3 59b7 abf3 8f38 64ad 7638
00000260: aa5a 1fb8 8e62 c438 0e34 f238 943e 9bb6
00000270: 4ad2 7c38 9945 7b38 3400 9638 e32b 85b7
00000280: 1e6a b1b5 30e2 3c36 4d9c 5d38 5d25 5f38
00000290: 7e6a 9238 4baa 6db7 52e4 74b6 d7e7 c536
000002a0: 6cad 5038 a699 5338 bb9e b239 6e71 95b9
000002b0: b13a 93b9 056c bf39 b63e a2b9 dba8 9eb9
000002c0: 8a65 7838 69b1 6fb6 c4e4 1438 81a0 ec38
000002d0: 98d6 6fb8 3e8d 5fb8 6221 8338 a7c2 e6b6
000002e0: 46ae 32b7 6551 6eb6 8a4f 7838 5156 7738
000002f0: acb2 8a38 91eb 2fb7 bb66 41b7 42fe 10b6
00000300: 567a 7238 6a65 7238 70f8 5938 2f20 7736
00000310: 46d4 ca36 6571 f3b8 0000 0000 0400 0080
00000320: 08e2 5db9 c245 3c38 98bb 3ab8 b8de 39b8
00000330: df19 4038 0000 0000 e9ca a7b5 c794 f236
00000340: 0000 0000 a964 04b5 9600 70b6 a351 8436
00000350: cb60 8136 2db2 c9b6 8a03 d636 6706 7936
00000360: 48ff 74b6 f8d0 8636 663a 5836 a029 97b7
00000370: f53d 9a37 39ec aa37 6a43 f3b5 7744 1236
00000380: 36f0 0936 a2b7 e533 2ca7 8b34 9b23 e635
00000390: 963b 84b5 1481 b535 68d9 a935 7111 7434
000003a0: 7c18 1634 a8e5 9d35 02dd 57b5 d833 9d35
000003b0: f08b 9035 3545 3f38 0abb 3db8 6bf4 3db8
000003c0: 016a 3d38 d5df 3bb8 9514 3bb8 a0ef c9b5
000003d0: ec34 fb35 4bee e936 7252 7837 c429 72b7
000003e0: e420 6ab7 b174 6db6 b60b 8336 82ad 3936
000003f0: 11d8 96b4 8df6 2d35 6d4d 3535 e29e b736
-4.0649147e-06 5.221455e-06 5.200386e-06 -4.1604035e-06 0.0 1.513625e-07 -2.5332486e-07 0.0
7.1770955e-08 3.2182123e-07 8.3471923e-07 8.773952e-07 1.4865558e-06 -3.30015e-07 2.241822e-07 3.6712257e-07
7.89418e-07 9.049472e-07 2.9932778e-06 -1.8367372e-06 -1.9718004e-06 1.8223209e-07 9.743087e-07 9.862468e-07
1.3377397e-06 -1.8119873e-07 -2.6549336e-07 2.0003314e-07 9.565074e-07 9.728072e-07 1.2793164e-06 -1.227756e-07
-1.795818e-07 2.0247555e-07 9.54066e-07 9.766871e-07 -4.014791e-06 5.171331e-06 5.1829784e-06 -3.9759393e-06
5.1324796e-06 5.160941e-06 1.0640443e-06 9.2496656e-08 -4.4340396e-07 -1.4031486e-06 2.5596896e-06 2.5128916e-06
1.1420865e-06 1.4454041e-08 1.2117182e-07 7.4707216e-08 1.081834e-06 1.076081e-06 -1.0695708e-07 1.263498e-06
1.2656086e-06 1.0071573e-07 1.0558255e-06 1.0541642e-06 9.0894434e-07 2.4759626e-07 2.9889694e-07 4.1115695e-07
0.0 -6e-45 1.0988454e-06 0.00032363273 -0.0003853142 -0.00038064073 0.00033240605 0.0
-1.1599489e-05 0.0002520242 0.0 -7.3311808e-06 -0.00012651569 6.4834094e-05 6.838677e-05 -1.9914512e-05
-4.1767038e-05 6.126453e-05 -0.00015290151 9.121988e-05 3.8056616e-05 -0.00042697467 0.00036529303 0.00037735733
-3.5727175e-05 -2.5954376e-05 -2.8242695e-05 -0.00028142575 0.0002197441 0.00022659803 -3.753723e-05 -2.4144423e-05
-2.9285357e-05 -0.00027430506 0.00021262342 0.0002175113 -5.7392645e-05 -4.2889214e-06 -1.4079355e-05 0.0003559143
-0.00041759593 -0.0004190051 0.00030292064 -0.00036460222 -0.0003830347 -8.214948e-05 2.0467902e-05 9.7535514e-05
8.7274864e-05 -0.00014895652 -0.00014751568 -0.0001891221 0.00012744057 0.0001029961 1.955387e-05 -8.123556e-05
-7.9210644e-05 0.00021752635 -0.00027920795 -0.00027123935 -6.636315e-07 -6.101804e-05 -6.1796505e-05 3.4308923e-05
-9.599045e-05 -0.00011641349 0.00026727183 0.0 6e-45 0.00062353374 0.00033932697 -0.00028367626
-0.00028244368 0.00034433222 0.0 -7.784352e-06 8.280554e-05 0.0 -3.3371193e-06 -1.092975e-06
5.6743622e-05 5.410948e-05 6.7958354e-06 4.885481e-05 8.325215e-05 -1.2990913e-05 6.864158e-05 5.8812453e-05
-3.799299e-05 9.3643655e-05 0.00011549155 -4.626645e-06 6.027733e-05 5.990788e-05 7.152595e-05 -1.5875272e-05
-1.3218412e-06 2.8145841e-06 5.2836072e-05 5.320214e-05 6.981658e-05 -1.416595e-05 -3.6491733e-06 5.898047e-06
4.9752576e-05 5.0449416e-05 0.0003406907 -0.00028504006 -0.00028081753 0.0003651084 -0.0003094577 -0.00030261916
5.9222373e-05 -3.5717042e-06 3.5499004e-05 0.00011283253 -5.7181896e-05 -5.3298885e-05 6.252785e-05 -6.8771947e-06
-1.0650203e-05 -3.5512141e-06 5.9201884e-05 5.8969777e-05 6.613633e-05 -1.048566e-05 -1.1527615e-05 -2.160567e-06
5.781123e-05 5.7791745e-05 5.1968207e-05 3.6824601e-06 6.044781e-06 -0.00011608264 0.0 -6e-45
-0.00021160406 4.488766e-05 -4.4520566e-05 -4.431486e-05 4.580046e-05 0.0 -1.2501524e-06 7.229482e-06
0.0 -4.932031e-07 -3.5763128e-06 3.9434103e-06 3.8557678e-06 -6.011009e-06 6.378109e-06 3.7107618e-06
-3.6507427e-06 4.0178384e-06 3.22205e-06 -1.8019986e-05 1.8387082e-05 2.0375579e-05 -1.8124531e-06 2.1795547e-06
2.0554412e-06 1.0697046e-07 2.60124e-07 1.7146698e-06 -9.852108e-07 1.3523118e-06 1.2654755e-06 2.2730616e-07
1.3978746e-07 1.176425e-06 -8.041535e-07 1.17125e-06 1.0769563e-06 4.5602403e-05 -4.5235305e-05 -4.5288743e-05
4.5159835e-05 -4.4792734e-05 -4.4603443e-05 -1.5045407e-06 1.871636e-06 6.971682e-06 1.4801148e-05 -1.4434048e-05
-1.3955145e-05 -3.5383675e-06 3.9054676e-06 2.7668143e-06 -2.8096886e-07 6.48063e-07 6.7540424e-07 5.4723214e-06

exp_avg_sq f4 [64, 67]
00000000: 4fbb b52f 4d0c 942e af34 a82e 2a94 952e
00000010: 0000 0000 68c3 e52a db65 9b2f 0000 0000
00000020: 2717 932a 69f8 8a2f 59d5 172f a3c4 1e2f
00000030: 0c75 a82f 2daf b52e 1fff e42e 19e4 8c2f
00000040: 7b79 112f 4ab6 202f 924c a92f c702 a02e
00000050: 649f aa2e 467b 0e2e 562f c42f 0442 c42f
00000060: 6f25 be2f b212 4a2e 87c8 4c2e 7c6b a42d
00000070: 502f cd2f ac27 cd2f ad24 bc2f 0829 572e
00000080: abd0 592e 76be 8a2d 73fc ce2f 15ec ce2f
00000090: e495 dd2e c71f a02f c57d a72f 83d8 c82e
000000a0: 8fa2 a22f ed18 a72f 6172 ee2e 2db2 992f
000000b0: 9f24 a02f 3f3a e72d b881 c72f 12fd c72f
000000c0: 808a 052f 78d3 922f 4b0b 932f 0150 962d
000000d0: 0483 cc2f d6d9 cc2f a9c5 bd2f 99c9 512e
000000e0: 2902 592e 31ae 3f2d ab6b d02f 698e d02f
000000f0: fd3a c92f 8cea d02d b4ba e02d ca8a 0931
00000100: 0000 0000 f401 0000 dbd2 a82e 7220 f635
00000110: 7272 ae35 4854 ce35 314a 2735 0000 0000
00000120: ed6b 5331 76a8 9f35 0000 0000 653d 3a31
00000130: 6a3f 7c35 735c 1736 91ac 1936 d39c d935
00000140: c081 c835 588e f435 c3d6 c435 0bd8 d535
00000150: f750 0736 b2ea 9435 e357 f935 e45a 0036
00000160: 9ca2 8534 5601 3a36 3645 3b36 bd94 ca35
00000170: baff ce35 9d00 d035 7aa6 0633 c602 4c36
00000180: ee0a 4c36 8681 dc35 325e b935 b4b8 ba35
00000190: f8ed af32 b073 4d36 2c71 4d36 e38f 8935
000001a0: fabe 0836 d979 1336 3ce7 3235 133d 2136
000001b0: 2be5 2236 a5f4 4e35 6d2b 1636 d162 1d36
000001c0: b4bc 9733 4190 4a36 45ac 4a36 3a9d 9d35
000001d0: 6e80 fe35 5121 0136 a70c e832 1117 4d36
000001e0: 052e 4d36 25e5 ee35 1cac bb35 c146 bd35
000001f0: da2e 3f33 7da8 4c36 ebc0 4c36 dae9 0336
00000200: c3c1 9635 612b 9835 d89e 2a37 0000 0000
00000210: f401 0000 2178 9036 ca12 3e35 5f6d ad33
00000220: 87bc b833 809e 1d35 0000 0000 4873 d72f
00000230: e4d0 bb34 0000 0000 5994 0d30 2439 ff33
00000240: e4d1 2a35 3ca1 2b35 cdb2 6d34 b289 0e35
00000250: 0826 1a35 eab0 e634 4dc0 a734 903c 0135
00000260: 25cc cd34 ceb0 9b34 6e06 a734 34ca 7e32
00000270: 9a46 4635 1750 4635 c110 4835 7d90 a932
00000280: 0baa c032 ccb4 1931 413a 4c35 5620 4c35
00000290: b809 4835 c19a 8e32 d7ed a632 b47d 4833
000002a0: 9a6c 4035 6969 4035 a049 2a35 79f1 2034
000002b0: 7d69 3434 3cbf be34 dd46 ca34 b0a8 cc34
000002c0: 9ff0 2835 286e 0334 acc3 1c34 78d0 1d33
000002d0: 7032 3d35 bdaa 3d35 b892 2b35 d2bf 0034
000002e0: 4cd8 0134 07a0 5432 a698 4535 e1f6 4535
000002f0: 5f98 4735 5eb9 aa32 0f64 b032 3bab 0132
00000300: 4d74 4735 4ab4 4735 4711 4935 2ac5 8132
00000310: e4aa 8832 43eb df35 0000 0000 f401 0000
00000320: 26f7 3234 ed5a 3832 c534 e630 cf68 0431
00000330: 3dec 0032 0000 0000 2d45 002d 6365 1132
00000340: 0000 0000 440d ce2c 807c 4631 f3d4 1e32
00000350: 5f67 2032 6083 a231 4a64 f631 18f9 0832
00000360: 085a 9631 3fab 0532 0ede 1732 cc69 bd31
00000370: cb19 aa31 a484 c131 51d4 5030 b7b5 3f32
00000380: 8275 4032 952d 4432 de56 2330 87d0 3230
00000390: f433 412f 221a 4e32 b20f 4e32 b32f 4532
000003a0: 5b49 2030 f8c3 2c30 939f 002f b20d 5032
000003b0: f6ef 4f32 33d9 0d32 f4db 8831 0a44 9231
000003c0: d20c e731 b2db b331 9b50 b531 11df 1232
000003d0: 1db8 5731 7891 7131 999b 0f30 1234 4032
000003e0: 9b1e 4132 3f85 1f32 d15f 2c31 04c0 2d31
000003f0: 76ee 632f f09e 4632 5256 4732 d470 4832
3.30568e-10 6.732446e-11 7.649114e-11 6.802055e-11 0.0 4.0814162e-13 2.8266708e-10 0.0
2.612851e-13 2.527856e-10 1.3809166e-10 1.4439876e-10 3.064219e-10 8.2620445e-11 1.0413558e-10 2.5627925e-10
1.3230832e-10 1.4616677e-10 3.0795327e-10 7.276451e-11 7.7590184e-11 3.239655e-11 3.5685827e-10 3.56991e-10
3.4587397e-10 4.5946087e-11 4.6562334e-11 1.8692374e-11 3.73229e-10 3.731747e-10 3.422306e-10 4.8921783e-11
4.9525422e-11 1.5773365e-11 3.7650558e-10 3.7638928e-10 1.00765424e-10 2.912641e-10 3.0466488e-10 9.133407e-11
2.9583133e-10 3.0394834e-10 1.0843305e-10 2.795714e-10 2.912985e-10 2.6287526e-11 3.629006e-10 3.6377706e-10
1.2145485e-10 2.6707503e-10 2.6747168e-10 1.7088555e-11 3.7200476e-10 3.7262166e-10 3.4519346e-10 4.7700153e-11
4.9342006e-11 1.0895771e-11 3.7911482e-10 3.7936168e-10 3.66036e-10 2.3751022e-11 2.5548764e-11 2.0015016e-09
0.0 7e-43 7.677211e-11 1.8337871e-06 1.2997318e-06 1.5372725e-06 6.232031e-07 0.0
3.076589e-09 1.1895452e-06 0.0 2.710146e-09 9.3969595e-07 2.2554566e-06 2.2899223e-06 1.6213402e-06
1.4938923e-06 1.8220844e-06 1.4665642e-06 1.5932613e-06 2.0163695e-06 1.1095165e-06 1.8577524e-06 1.9126392e-06
2.4891494e-07 2.7716937e-06 2.7905458e-06 1.5093461e-06 1.5422622e-06 1.5497386e-06 3.1350716e-08 3.0399983e-06
3.040473e-06 1.6428974e-06 1.3810989e-06 1.3911836e-06 2.0480897e-08 3.061472e-06 3.0613255e-06 1.0249172e-06
2.0376742e-06 2.1975632e-06 6.664666e-07 2.402642e-06 2.4273274e-06 7.7096985e-07 2.237702e-06 2.3452342e-06
7.06581e-08 3.0184312e-06 3.020062e-06 1.174317e-06 1.8961853e-06 1.924189e-06 2.7014108e-08 3.0560807e-06
3.0574167e-06 1.7799072e-06 1.3982676e-06 1.4102189e-06 4.4513264e-08 3.0496442e-06 3.0510662e-06 1.965664e-06
1.1232263e-06 1.1337507e-06 1.0169773e-05 0.0 7e-43 4.3055193e-06 7.080786e-07 8.075835e-08
8.6024606e-08 5.8717706e-07 0.0 3.9190184e-10 3.4983452e-07 0.0 5.1506316e-10 1.1884757e-07
6.3635366e-07 6.393709e-07 2.2137392e-07 5.3099495e-07 5.7424813e-07 4.296956e-07 3.124609e-07 4.8144375e-07
3.833276e-07 2.8999642e-07 3.1110852e-07 1.48307215e-08 7.3863487e-07 7.3877294e-07 7.4530186e-07 1.9739895e-08
2.2429068e-08 2.2367201e-09 7.608069e-07 7.6042977e-07 7.451995e-07 1.660135e-08 1.94331e-08 4.6680455e-08
7.168361e-07 7.1678966e-07 6.3437074e-07 1.4989008e-07 1.6802183e-07 3.55294e-07 3.7676992e-07 3.8120697e-07
6.2935027e-07 1.22404e-07 1.4599817e-07 3.6744012e-08 7.0481383e-07 7.0656444e-07 6.391597e-07 1.1990713e-07
1.209275e-07 1.237641e-08 7.361035e-07 7.3747475e-07 7.4355006e-07 1.98749e-08 2.0534598e-08 7.547722e-09
7.4302517e-07 7.439563e-07 7.4903477e-07 1.5107236e-08 1.5910196e-08 1.6683265e-06 0.0 7e-43
1.6667454e-07 1.0730884e-08 1.67497e-09 1.9268105e-09 7.504295e-09 0.0 7.291318e-12 8.4631635e-09
0.0 5.856345e-12 2.8883562e-09 9.2452295e-09 9.33673e-09 4.729756e-09 7.170944e-09 7.972879e-09
4.37581e-09 7.780556e-09 8.839846e-09 5.5126517e-09 4.9505835e-09 5.6321188e-09 7.597168e-10 1.115898e-08
1.1202589e-08 1.1419066e-08 5.94225e-10 6.505236e-10 1.7571705e-10 1.199672e-08 1.1994347e-08 1.1477755e-08
5.8311905e-10 6.2851724e-10 1.1698224e-10 1.2110307e-08 1.2103547e-08 8.256666e-09 3.9831267e-09 4.2568944e-09
6.7244423e-09 5.234562e-09 5.276957e-09 8.549038e-09 3.1391274e-09 3.5152805e-09 5.2244215e-10 1.118771e-08
1.1241037e-08 9.285315e-09 2.508376e-09 2.5283962e-09 2.0730248e-10 1.1561255e-08 1.16029515e-08 1.1667186e-08

exp_avg f4 [64]
00000000: 723a 9b35 0f5b 81b8 706a 6938 9f14 c534
00000010: 04cd 24b9 8775 40b9 a33c d136 46bd 3239
00000020: 3d14 c538 70c3 493a c122 1db9 c1d9 3139
00000030: 1fb0 d539 f92c 2937 1def e5b5 e56b fe39
00000040: ee56 ac3a 8601 4038 1f41 19b8 74e4 073a
00000050: a68c 7236 e052 36ba 0146 03ba 3d33 e2b8
00000060: db5c d036 ce1b 9737 eae3 2b3a 34a8 82b8
00000070: 652d c237 bfee 3d3a 549c 16b8 ea06 d9b9
00000080: e61a bd39 7b65 5439 00f2 02b5 ec51 0a39
00000090: 9eb5 783a 5386 d336 7d9d 6a3a ca71 f438
000000a0: 78ba 47b9 1767 c73a 0b7d 8838 fd21 bc36
000000b0: 6658 e8b9 be94 22b8 f273 9938 4e88 1f3a
000000c0: b059 573a d97c 263a 45a0 2f3a 6d0c 7239
000000d0: d5fa 9936 b873 92b9 d0a6 5139 cfa9 f9b7
000000e0: 31f0 4b39 e2de 213a 7149 5539 e927 b0b6
000000f0: 5d9f fa37 07e2 cab8 0f71 983a ca46 7cba
1.156541e-06 -6.16816e-05 5.5650657e-05 3.6709113e-07 -0.00015716633 -0.00018354329 6.2357444e-06 0.00017045913
9.397462e-05 0.0007696664 -0.00014985634 0.00016961155 0.00040757746 1.0083656e-05 -1.7131421e-06 0.00048527043
0.0013148466 4.5777786e-05 -3.653869e-05 0.00051838835 3.6142678e-06 -0.00069550984 -0.0005007685 -0.00010786064
6.209693e-06 1.801355e-05 0.0006557094 -6.230213e-05 2.314774e-05 0.0007245354 -3.590838e-05 -0.00041394617
0.0003606893 0.000202557 -4.878093e-07 0.00013191224 0.0009487512 6.3039274e-06 0.0008949859 0.000116560215
-0.00019047584 0.0015213218 6.5082764e-05 5.6067934e-06 -0.0004431635 -3.8762337e-05 7.317205e-05 0.00060856796
0.00082149636 0.0006351001 0.0006699602 0.00023083547 4.588956e-06 -0.00027933507 0.00019993936 -2.9762186e-05
0.00019449067 0.0006174875 0.00020340622 -5.249855e-06 2.9876532e-05 -9.6742115e-05 0.0011630374 -0.00096235855

exp_avg_sq f4 [64]
00000000: 793d d72f ec73 4f36 9cba 4b35 572b 5032
00000010: ce6e dd35 bbde 0138 0eb5 3d32 0bef 1d36
00000020: 36f3 6634 7de3 7837 71c9 7537 ffe5 9636
00000030: 83ad 5837 1729 4832 66fb 8031 7361 8e38
00000040: 4a88 0c38 9905 3437 236e 0f37 37e1 2236
00000050: 49a6 9231 ef16 1b38 8ab2 2736 0a8a 1837
00000060: cbbf 6d32 faa8 f931 ec5c 7237 e790 1536
00000070: a732 7832 c3fd 0f39 a25a 5638 5728 9a37
00000080: bd05 3638 6ee4 8137 ee18 3a33 23f2 8635
00000090: 1f4e 1a37 241e 8c37 c4ff 0239 8b84 0634
000000a0: 5940 5237 84bf 2b37 719b 8d35 e97a 4d31
000000b0: 25a4 ad38 d3b0 5733 111b 1538 960d 0e39
000000c0: a440 8436 5757 8538 edac 0639 daa5 3738
000000d0: 216b fd30 3d6d 0c37 e670 5438 6789 ad35
000000e0: 49ac 9438 2c81 bf36 12e1 2835 fc0e 1a31
000000f0: b148 d032 df2b 2d34 8223 a437 7497 9338
3.915195e-10 3.091288e-06 7.5894945e-07 1.2117048e-08 1.6498032e-06 3.096343e-05 1.1042415e-08 2.3533964e-06
2.1508899e-07 1.4834918e-05 1.465004e-05 4.4971234e-06 1.2915002e-05 1.1650875e-08 3.753871e-09 6.789239e-05
3.350553e-05 1.0730139e-05 8.549107e-06 2.4270973e-06 4.2680637e-09 3.697624e-05 2.4988863e-06 9.092046e-06
1.3838824e-08 7.266064e-09 1.4445959e-05 2.2287074e-06 1.4447017e-08 0.00013732076 5.1105984e-05 1.8377015e-05
4.3397526e-05 1.548437e-05 4.3329173e-08 1.0054249e-06 9.197304e-06 1.6703336e-05 0.00012493046 1.2527941e-07
1.25319575e-05 1.0236985e-05 1.0550558e-06 2.9901293e-09 8.279857e-05 5.021941e-08 3.5549576e-05 0.00013547236
3.9414317e-06 6.3582025e-05 0.00012843656 4.378506e-05 1.8438621e-09 8.370084e-06 5.0649884e-05 1.2929494e-06
7.0892806e-05 5.707281e-06 6.29124e-07 2.2418467e-09 2.4247443e-08 1.6127841e-07 1.9566858e-05 7.0377166e-05

exp_avg f4 [3, 64]
00000000: a8f9 e7b7 f7d4 86b7 4c33 143a 131b 6db8
00000010: dee3 7439 9193 0539 cc6b 96b8 1e5b b739
00000020: d709 1d39 d8ab c239 abd9 0a3a 36a6 153a
00000030: cb21 9338 7384 acb8 c717 37b8 4728 f539
00000040: 3d5b 723a 41c0 5a39 388c 9939 24c6 343a
00000050: e29d 8fb8 2b25 0439 301e cfb7 5ffc ae39
00000060: e9f2 b8b8 2d3c 72b8 2d72 9239 8067 a237
00000070: 9ed1 05b8 9197 803a 5499 87b9 de22 113a
00000080: 1332 0a3a 1c20 3939 e1a0 1db9 1f8c b439
00000090: 13ad 9439 3b31 8b3a a5eb 8a39 48c4 4337
000000a0: 312e 2338 7686 9739 d2fa cdb8 cdfb 4cb8
000000b0: fa44 8c3a 6996 6db8 f6f1 0a3a 4035 0a3a
000000c0: 90b2 8d39 841d 0739 fce4 1f3a 6f7e 4a3a
000000d0: ed48 0ab8 4024 883a 0d14 113a 059b 5539
000000e0: 371e 003a 3035 9539 9ffa c4b8 7e5c 42b8
000000f0: 1867 1db9 81ae 14b9 5ead dd39 5c02 9739
00000100: bfcf d338 2724 8bba d67d 123b 203a 52b6
00000110: 47dc 3338 d0ec 213b c34f c7b8 cddb 193b
00000120: ac66 183b 5f7a aa38 ee0a b1ba b69c 4d3b
00000130: 5b86 a2bb e0ac 65b9 1987 9d3a 97b8 bfb9
00000140: 3539 53bb 4692 963b ff6f 3f3b 0a0b 9abb
00000150: 3ac9 4fb9 033b a9bb 106f 543b cf06 eb3a
00000160: f835 56b9 b203 e439 4449 103c 1b35 bd3a
00000170: 0a8e 9139 4f8e acbc 94ef f736 0632 4fbb
00000180: f127 cebb 5ee0 d9ba 983a a039 20a7 a93a
00000190: b5d9 84ba 5484 b63c 36b3 9dbb 33a5 6f3b
000001a0: 3223 af39 84f8 1cbb 384f f939 d8c2 0cb9
000001b0: e400 063c e9a3 183a 48b1 b53b 7a84 6abb
000001c0: 1262 66bb 9f88 10bc c155 71bc b1ee a23b
000001d0: 0d09 0239 abc3 0cbc c65c c4bb 8ee0 8a3a
000001e0: b67b 94bb a19b 19bb ac7c c0ba ea3e 2b3a
000001f0: 5082 a5b9 89ab 623a 099b 9bba b850 30bc
00000200: 56d1 99b8 7d3f 8d3a a88a 37bb b93e 7a38
00000210: 62ed 90b9 0846 2abb d1dd 2e39 31c7 30bb
00000220: 4937 22bb 5a4a edb9 393c 573a 4706 73bb
00000230: ca39 a03b 89f7 9d39 5cce 97ba c9be d5b8
00000240: 74a2 163b 4568 9dbb 8ca1 52bb 4772 833b
00000250: 16cc 8b39 e719 a53b d4d0 52bb 0963 0bbb
00000260: b457 9939 34bc c5b9 d5dc 14bc b6be bfba
00000270: d4d3 80b9 d384 a43c 48b9 8339 48e9 2a3b
00000280: b7e1 bc3b 74bc c23a 46d4 22b9 29ca d6ba
00000290: e35c 3f3a 6037 bfbc 8204 953b f868 70bb
000002a0: fe88 c3b9 b407 0a3b 7ad0 c5b9 d101 4039
000002b0: 8589 17bc 83ca 09ba 820f c7bb 48f7 473b
000002c0: bcab 543b 2b6c 0e3c 6a57 673c 7f3e bcbb
000002d0: aced beb8 467e f73b 433a b23b f293 a5ba
000002e0: f377 843b faf4 063b 52cc cc3a 2219 1fba
000002f0: e735 f439 e47f 3dba 655f 483a af98 2b3c
-2.7653601e-05 -1.6073214e-05 0.0005653396 -5.6530418e-05 0.0002335454 0.00012738841 -7.172636e-05 0.00034972368
0.00014976352 0.00037130597 0.0005296717 0.0005708666 7.015801e-05 -8.22627e-05 -4.3652744e-05 0.0004676005
0.0009245163 0.0002086172 0.00029286905 0.00068959803 -6.848179e-05 0.00012602347 -2.469038e-05 0.00033375897
-8.819049e-05 -5.775334e-05 0.00027932358 1.93601e-05 -3.1904892e-05 0.0009810795 -0.00025863445 0.00055365067
0.0005271744 0.00017654937 -0.00015032619 0.00034436674 0.0002835771 0.001061953 0.0002649698 1.1668606e-05
3.8905247e-05 0.00028901146 -9.821881e-05 -4.8871898e-05 0.0010701709 -5.6645284e-05 0.0005300337 0.0005272217
0.00027026655 0.00012885599 0.000609949 0.00077245286 -3.296968e-05 0.001038678 0.0005534299 0.00020371012
0.0004887315 0.00028459122 -9.39269e-05 -4.6339344e-05 -0.00015011092 -0.00014179388 0.00042281573 0.00028802722
0.0001009996 -0.0010615633 0.0022352836 -3.1326272e-06 4.2882075e-05 0.0024707802 -9.503916e-05 0.0023476959
0.0023254557 8.129025e-05 -0.0013507286 0.0031373925 -0.004959864 -0.00021903543 0.0012018412 -0.0003656789
-0.0032230143 0.004595074 0.0029211042 -0.004701023 -0.00019816021 -0.0051645054 0.0032414831 0.0017931106
-0.00020428735 0.00043490302 0.00880653 0.0014435382 0.00027762383 -0.021063952 7.389064e-06 -0.003161551
-0.0062913825 -0.0016622653 0.00030561234 0.0012943484 -0.0010135683 0.022279896 -0.0048126234 0.0036566972
0.00033404824 -0.0023951838 0.00047552004 -0.00013424025 0.008178923 0.00058227644 0.005544815 -0.0035784529
-0.003515367 -0.0088216355 -0.014729918 0.004972302 0.00012401138 -0.008591573 -0.005992505 0.0010595487
-0.004531349 -0.002343871 -0.0014685593 0.0006532507 -0.00031568343 0.00086467766 -0.0011871766 -0.010761432
-7.3346004e-05 0.0010776367 -0.002800623 5.966306e-05 -0.00027642684 -0.0025981683 0.00016676566 -0.0026974196
-0.002475219 -0.0004525956 0.0008210573 -0.00370826 0.0048897015 0.00030129802 -0.0011581886 -0.00010192168
0.0022985013 -0.0048036897 -0.0032139746 0.0040114257 0.00026664202 0.005038488 -0.0032167928 -0.0021268746
0.00029247778 -0.0003771499 -0.009085854 -0.001462898 -0.00024571887 0.020082867 0.00025124312 0.0026078988
0.005764212 0.0014857189 -0.00015528602 -0.0016387153 0.0007299913 -0.023341835 0.0045476565 -0.003668366
-0.00037295365 0.002106172 -0.00037730095 0.00018311224 -0.009249096 -0.0005256312 -0.0060748467 0.0030512381
0.0032450994 0.008692781 0.014119962 -0.005744755 -9.104176e-05 0.0075528948 0.0054390742 -0.0012632592
0.0040426194 0.0020592795 0.0015624857 -0.0006069114 0.00046579467 -0.0007228835 0.00076436094 0.010473414

exp_avg_sq f4 [3, 64]
00000000: 1942 1733 b3d1 b636 4ea3 2736 07c0 d534
00000010: 0450 6237 a944 2a36 8b9d 6035 221c c836
00000020: 15e8 0236 f603 0737 ca51 8338 5e32 e137
00000030: 9e6f 6c36 1c6c 7735 a45f 0d35 fbda 9537
00000040: 5f8e 9b38 1137 8337 295d 1638 0541 1537
00000050: 356e 2935 83f6 2b39 e2c4 3836 98f0 f636
00000060: 8be5 1f35 71ed 3e35 ecdd 7137 5056 7a36
00000070: c75c 9034 3730 bf38 386d 6938 2b50 2e38
00000080: 274f b737 3b8e 1536 87c1 7236 c3f5 9136
00000090: ce3c f536 a985 8c38 ebc5 d437 0281 ab35
000000a0: 0ed6 1536 993d 5537 3439 5a36 267e eb34
000000b0: fc38 bc38 fde2 9d35 9785 4b37 4e89 3338
000000c0: 22ca 9937 7431 a737 72cb 5438 8622 2639
000000d0: 4fb6 9634 44c9 bf38 c28d 1437 88de a835
000000e0: 41ed b036 621e ad37 ce62 b535 9664 4335
000000f0: 173e 3b36 d1b4 5836 2935 1d38 9577 da38
00000100: 6e95 4135 21fd 7b39 63cd 7138 c3e1 1436
00000110: 0bdd fd38 f0c9 833a 94db a736 5992 f337
00000120: c0d4 3b38 55e9 9638 1d04 ef3a 627c 9138
00000130: 9546 c63a 398a c336 1c2d 6a37 e18b dd3b
00000140: c84d ec39 5974 9d3b 5c17 ae39 152b c138
00000150: 99e3 9236 349c 6e3c f850 5a38 510c 913a
00000160: 7ac7 c436 3ab4 9f36 8e13 d139 35ce df38
00000170: fdaf 0536 d78f d33b d842 ff3b 91a3 2b3a
00000180: 18f3 d83b 6a43 4f3b ba57 fa38 2a21 3c38
00000190: 99d0 8938 9963 d23b 27aa 233c 33e1 0e38
000001a0: f002 3039 c450 3638 378f 7b38 ce07 3436
000001b0: 5a61 773c ff06 3237 3a9a 843b c026 0b3c
000001c0: d4df 9638 a089 283c 1d0b 023c a95c cb3a
000001d0: de64 fa35 5c07 133b f695 463a 642a 9538
000001e0: 98a5 803b e848 0a39 eaea be38 55f4 a936
000001f0: d96d 4a38 1339 1038 7d68 1539 579b 6c3c
00000200: d091 4335 6af5 7b39 352d 6c38 9bc7 2036
00000210: 0c39 f038 d4e8 833a 7aec ad36 1454 0438
00000220: 0591 3a38 cd10 9c38 4011 f13a 9210 b038
00000230: 409f c63a 17c4 c636 641c 6c37 1171 de3b
00000240: b461 fb39 50a8 9d3b da00 a839 2906 c438
00000250: d968 9636 9a2f 703c 7ad1 5538 a0bc 903a
00000260: c081 c836 4780 a836 e731 ce39 1e09 df38
00000270: f720 0f36 c413 d53b 62a6 ff3b 410c 2c3a
00000280: 41b0 d93b 9be9 4f3b 8827 fc38 f614 4138
00000290: 657b 8e38 4b85 d33b 4682 243c e006 1138
000002a0: 8f9e 3039 eda0 4438 ca9d 7838 dd8f 3536
000002b0: 4cde 783c 00c7 3837 c965 843b edb7 0b3c
000002c0: 4518 a938 129e 283c 37d0 023c d15f c63a
000002d0: afb9 fc35 d238 133b d1e6 463a 6ade 9338
000002e0: afd8 803b b54d 0339 5a73 bc38 c5f5 b336
000002f0: 6c74 4e38 7e8a 1338 ce9c 2839 b6a4 6d3c
3.5217543e-08 5.448435e-06 2.4979995e-06 3.981406e-07 1.348928e-05 2.537194e-06 8.367576e-07 5.9637396e-06
1.95066e-06 8.047549e-06 6.261801e-05 2.6845544e-05 3.523171e-06 9.217199e-07 5.266577e-07 1.7864155e-05
7.4174946e-05 1.564206e-05 3.584955e-05 8.896231e-06 6.311778e-07 0.00016399664 2.7532737e-06 7.35938e-06
5.9566145e-07 7.112604e-07 1.441639e-05 3.7303143e-06 2.6889595e-07 9.1165704e-05 5.5653247e-05 4.1559495e-05
2.1852158e-05 2.228552e-06 3.6173458e-06 4.349947e-06 7.3086476e-06 6.700616e-05 2.5364532e-05 1.2778039e-06
2.2327326e-06 1.2710131e-05 3.2517828e-06 4.3863946e-07 8.975153e-05 1.1763474e-06 1.2130847e-05 4.28048e-05
1.8333147e-05 1.993098e-05 5.0734212e-05 0.00015843855 2.8072324e-07 9.1450784e-05 8.854493e-06 1.258174e-06
5.2728287e-06 2.0637355e-05 1.3514307e-06 7.278953e-07 2.7901312e-06 3.2291757e-06 3.7481226e-05 0.00010417324
7.211555e-07 0.00024031523 5.765016e-05 2.218513e-06 0.000121051526 0.0010054689 5.00255e-06 2.9036006e-05
4.4782413e-05 7.196019e-05 0.0018235479 6.937307e-05 0.0015127236 5.827544e-06 1.395799e-05 0.0067610596
0.0004507138 0.0048051295 0.0003320527 9.210982e-05 4.377635e-06 0.014563609 5.205066e-05 0.0011066293
5.8644773e-06 4.7595504e-06 0.00039878156 0.00010671878 1.9920983e-06 0.006456356 0.007789951 0.00065475056
0.006620776 0.0031625875 0.00011937269 4.485358e-05 6.5715234e-05 0.0064205644 0.009989298 3.406517e-05
0.00016785762 4.34674e-05 5.9976443e-05 2.6826633e-06 0.015098894 1.0611256e-05 0.0040467056 0.008493125
7.1942486e-05 0.010286719 0.00793722 0.0015515286 1.8655808e-06 0.0022434806 0.00075754465 7.1127695e-05
0.0039259903 0.00013187865 9.103662e-05 5.0650365e-06 4.8262857e-05 3.438543e-05 0.00014248672 0.014441333
7.2855346e-07 0.00024028649 5.6308887e-05 2.3958044e-06 0.000114547176 0.0010063895 5.1833313e-06 3.1549556e-05
4.4480916e-05 7.441789e-05 0.0018391982 8.3954204e-05 0.0015153661 5.9236877e-06 1.4073306e-05 0.006788381
0.00047947245 0.004811324 0.00032044091 9.347156e-05 4.4825542e-06 0.014659787 5.0978248e-05 0.0011042543
5.9755694e-06 5.0217236e-06 0.00039328562 0.00010635167 2.1327849e-06 0.0065026004 0.007801817 0.0006563105
0.0066433256 0.0031724933 0.0001202366 4.6034307e-05 6.794072e-05 0.0064550987 0.010040825 3.4577097e-05
0.00016843736 4.6879915e-05 5.927476e-05 2.7054841e-06 0.015189718 1.1013588e-05 0.004040454 0.008527738
8.0630685e-05 0.010291593 0.007984213 0.0015134757 1.8829504e-06 0.0022464287 0.0007587495 7.050934e-05
0.0039320807 0.00012522082 8.9860245e-05 5.363227e-06 4.9222654e-05 3.5176512e-05 0.00016080143 0.014504602

exp_avg f4 [3]
00000000: 08da 0d3a 1c0e 5dbb 9a97 393b
0.00054112123 -0.0033730334 0.0028319121

exp_avg_sq f4 [3]
00000000: 7ed3 5938 2158 013b 9db6 023b
5.19338e-05 0.0019736367 0.0019945272
