Config/results/BallCatcher_02/BoxBehavior/BoxBehavior-2999995.onnx (onnx, 19875 bytes, 4 tensors)

distribution.branches.0.bias f4 [3]
0	0xbc297c20	-0.010344535
1	0xbc216d02	-0.00985265
2	0x3d82dc70	0.06389701

distribution.branches.0.weight f4 [3, 64]
0	0x3d360d4b	0.04444627
1	0x3d42d047	0.04756191
2	0x3e2cbd24	0.16869026
3	0xbda29721	-0.07938982
4	0x3e0a79e0	0.13523054
5	0xbdd7fdf7	-0.10546487
6	0xbe13210f	-0.1436808
7	0x3dd6981d	0.10478232
8	0x3e60f2dd	0.21967645
9	0x3e2699ff	0.16269682
10	0xbd59f1fb	-0.053209286
11	0x3dd48e82	0.10378744
12	0xbe459456	-0.19294867
13	0xbdb5800c	-0.08862314
14	0xbd972347	-0.073797755
15	0xbe5f5576	-0.21809945
16	0x3e6811be	0.22663018
17	0xbd6083dc	-0.05481325
18	0x3e05d8f8	0.13071048
19	0x3e2a6e45	0.16643627
20	0xbded06bd	-0.11573551
21	0xbdea2eb5	-0.1143469
22	0x3e319395	0.17341454
23	0xbd6b4b2d	-0.05744474
24	0xbd8a2a94	-0.067464024
25	0xbdc5eb50	-0.09664023
26	0xbd2e64c8	-0.04257658
27	0x3e334f3c	0.17510694
28	0xbd76f27a	-0.060289837
29	0xbe390156	-0.18066916
30	0xbdedd284	-0.11612418
31	0x3cdc0370	0.026857108
32	0xbe36ff29	-0.17870773
33	0xbe3c159d	-0.1836762
34	0x3dcc2039	0.099670835
35	0x3e639b51	0.22227217
36	0x3e2aaa8b	0.1666662
37	0xbdc8f068	-0.09811479
38	0xbe801e0a	-0.25022918
39	0x3d5071d8	0.05088982
40	0x3db35aba	0.08757539
41	0x3e440d49	0.19145693
42	0x3e2b9357	0.16755424
43	0xbdcbc6d5	-0.099500336
44	0xbe28f2e8	-0.16498911
45	0x3944da03	0.00018773232
46	0xbe46c63b	-0.19411556
47	0xbe5cfbb5	-0.21580394
48	0x3e2c4067	0.16821443
49	0xbe6fef01	-0.23431017
50	0xbe39eef3	-0.18157558
51	0x3c7f2181	0.015571953
52	0xbce98998	-0.028507993
53	0xbd2ffeaa	-0.042967476
54	0xbd13c8b2	-0.03608007
55	0x3e486cac	0.19572705
56	0xbe060b8f	-0.13090347
57	0x3e5b6092	0.21423557
58	0x3e5e13d5	0.21687253
59	0x3c8d01a2	0.017212693
60	0x3dc0b0f6	0.094087526
61	0xbc7e6c3b	-0.015528734
62	0x3dc6bf74	0.097044855
63	0xbe0aab0b	-0.1354181
64	0x3d814da4	0.06313637
65	0xbd05a986	-0.032632373
66	0x3ce0274c	0.027362488
67	0xbddd82dd	-0.10815976
68	0x3d8121dc	0.06305286
69	0x3c32eef6	0.010921231
70	0x3997f4db	0.00028983396
71	0xbe2f1fec	-0.17102021
72	0x3d054d04	0.03254415
73	0xbe886c40	-0.26645088
74	0x3de8ea4e	0.11372815
75	0xbdfa04d8	-0.12207955
76	0xbc923fde	-0.01785272
77	0xbd1dba36	-0.038507663
78	0x3d9aca64	0.07558134
79	0x3cba0aac	0.022710167
80	0xbe7d7746	-0.2475253
81	0x3dbda4b2	0.09259929
82	0x3dd86d87	0.10567766
83	0xbe259dc3	-0.16173463
84	0xbcf7d99d	-0.030255133
85	0x3de522d2	0.11188282
86	0xbe315b75	-0.17320044
87	0xbd0efb1e	-0.034907453
88	0xbdd36644	-0.1032224
89	0x3cd0fa44	0.025509961
90	0x3dd18f26	0.102323815
91	0x3da545d6	0.08069961
92	0x3ca60690	0.020266801
93	0xbc933407	-0.017969145
94	0x3e0186da	0.12649098
95	0x3e02a97b	0.12759964
96	0x3b562316	0.0032674721
97	0x3d02b2ea	0.031908907
98	0x3d135a34	0.035974696
99	0x3c8c06e7	0.017093135
100	0xbe74da7f	-0.23911475
101	0x3db3ee0d	0.08785639
102	0x3c35413d	0.011062917
103	0x3e17aa8c	0.14811152
104	0xbd4ffde9	-0.050779257
105	0xbe84347c	-0.25821292
106	0xbe6e32da	-0.23261586
107	0xbc1d176c	-0.009588104
108	0x3e690627	0.22756253
109	0xbcca47a2	-0.02469236
110	0x3d09c289	0.03363279
111	0x3cd502d8	0.026002333
112	0xbe1859fa	-0.14878073
113	0x3c8dba5c	0.017300777
114	0x3cc3fdce	0.023924734
115	0x3e5d0f6f	0.21587919
116	0x3dbc29b3	0.09187641
117	0x3d6e4568	0.05817166
118	0xbc1d8c02	-0.0096159
119	0x3df1bb8b	0.11803349
120	0x3df1035a	0.117682174
121	0xbde0095d	-0.10939286
122	0x3d94e2b7	0.07269805
123	0x3b928d14	0.004472384
124	0xbddeab2d	-0.10872493
125	0xbe407bdc	-0.18797249
126	0xbe87b22f	-0.2650313
127	0x3e0baa80	0.1363926
128	0xbd90d005	-0.070709266
129	0x3d23d6da	0.03999982
130	0xbe50b699	-0.20382155
131	0x3d807a56	0.06273334
132	0xbe1b62d4	-0.15174419
133	0x3df93bb9	0.12169594
134	0x3cdd4cc8	0.027014151
135	0x3be195ac	0.0068842974
136	0xbe121540	-0.14265919
137	0x3e1f4682	0.1555424
138	0xbb5062ac	-0.0031797094
139	0x3d8ea505	0.06965069
140	0x3e1ea56e	0.15492794
141	0x3dc744e6	0.09729938
142	0xbe05c2f0	-0.13062644
143	0x3e33b7a0	0.17550516
144	0x3d910596	0.070811436
145	0xbc1b1d3d	-0.00946742
146	0xbdb757d3	-0.08952298
147	0xbb73d2ac	-0.0037204428
148	0x3d08cbb9	0.03339741
149	0x3d93ad92	0.0721084
150	0x3d9fa082	0.07794286
151	0x3e1132cd	0.14179535
152	0x3d0be7cb	0.034156602
153	0xbd5b840a	-0.05359272
154	0xbd57bc9b	-0.052670103
155	0xbe114420	-0.14186144
156	0xbdf17def	-0.11791598
157	0x3e452dcf	0.19255756
158	0x3c9ed0bf	0.019386647
159	0xbd8875a8	-0.06663066
160	0x3e0f745c	0.14009231
161	0x3e05e789	0.13076605
162	0xbd75a00b	-0.059967082
163	0xbe386c9e	-0.18010184
164	0x3dd77e0b	0.10522088
165	0x3c78f932	0.015196132
166	0x3e7279f4	0.23679334
167	0xbe640e13	-0.22270994
168	0x3d72dd2d	0.05929296
169	0x3e087e8c	0.13329524
170	0x3d91f2ed	0.071264125
171	0x3d6fe70c	0.058569953
172	0xbc97feb7	-0.018554075
173	0x3cf6a64f	0.030108599
174	0x3dbec935	0.09315721
175	0x3e802478	0.25027823
176	0x3d8850a2	0.066560045
177	0x3e359cc9	0.1773559
178	0x3e6f6888	0.2337972
179	0xbe0c4b44	-0.13700587
180	0xbdaad1c8	-0.08340794
181	0xbd79e17f	-0.061006065
182	0x3dc1a5df	0.094554655
183	0xbe1b9ad5	-0.15195782
184	0x3e347c91	0.17625643
185	0x3c6110a1	0.013736875
186	0xbdbc9cc8	-0.09209591
187	0xbdf93978	-0.121691644
188	0xbd5236b8	-0.051321715
189	0x3e28de18	0.16490972
190	0x3e45a375	0.19300635
191	0x3d8535f2	0.0650443

network_body.linear_encoder.seq_layers.0.bias f4 [64]
0	0xbe2ee37c	-0.17078966
1	0xbc21f5dd	-0.0098852785
2	0x3d28e92a	0.041237988
3	0xbe06113f	-0.13092516
4	0xbcc09630	-0.023509115
5	0x3d2653d4	0.04060729
6	0xbe62d2b1	-0.22150685
7	0xbdf1c86d	-0.11805806
8	0x3c8853d1	0.01664153
9	0xbd764c80	-0.06013155
10	0x3c1a1d66	0.009406423
11	0xbddb623f	-0.10712098
12	0x3dbb9f9d	0.09161303
13	0xbe068c3c	-0.13139433
14	0xbdab6584	-0.08368972
15	0x3dcacc92	0.099023
16	0xbdf97610	-0.12180722
17	0x3d84f2e8	0.06491643
18	0xbd185ece	-0.037199788
19	0xbd81c43e	-0.06336258
20	0xbe60de50	-0.21959805
21	0x3d9c633e	0.076361164
22	0xbc145e30	-0.009055659
23	0x3d863ef9	0.0655498
24	0xbe342f90	-0.17596269
25	0xbe779987	-0.2417966
26	0xbb94d467	-0.004541922
27	0xbb35f838	-0.0027766358
28	0xbe2e91a6	-0.17047748
29	0x3db35bf7	0.08757775
30	0x3d201674	0.039083913
31	0x3d8c2cc1	0.06844474
32	0x3df1cfc4	0.11807206
33	0x3d845c3f	0.06462907
34	0xbde2bb17	-0.11070841
35	0x3c035b9d	0.008017448
36	0xbd81f5ff	-0.06345748
37	0x3d4314f4	0.047627404
38	0x3dc7c6df	0.097547285
39	0x3cfc1835	0.030773262
40	0xbc511e6d	-0.012763602
41	0xbdba7c92	-0.09105791
42	0xbd12070b	-0.035651248
43	0xbe480096	-0.19531474
44	0x3dbddb2c	0.09270319
45	0xbe1327eb	-0.14370696
46	0x3de783dd	0.11304448
47	0x3dc3fc25	0.09569577
48	0xbd4aa3d5	-0.04947265
49	0x3e1bd39e	0.15217444
50	0x3dacabe9	0.08431227
51	0x3d35b69c	0.044363603
52	0xbe2d35c6	-0.16915044
53	0x3d319b9c	0.04336129
54	0x3d21ee6f	0.03953403
55	0x3c8ed2de	0.017434534
56	0x3da8bd89	0.08239276
57	0xbd337e92	-0.04382188
58	0x3c8302a9	0.01599248
59	0xbe0af759	-0.13570918
60	0xbe182f94	-0.148619
61	0x3cc899c3	0.024487382
62	0xbcffa6f1	-0.031207534
63	0x3d8b8488	0.06812388

network_body.linear_encoder.seq_layers.0.weight f4 [64, 67]
0	0xbd67f38b	-0.056628745
1	0xbde70122	-0.11279513
2	0xbd9a63c2	-0.075385585
3	0xbf0f1beb	-0.55901974
4	0x3dae0367	0.08496743
5	0xbd0c11df	-0.03419673
6	0x3e6d995d	0.23203035
7	0xbe711485	-0.23542984
8	0xbe382775	-0.17983802
9	0x3e71d292	0.23615482
10	0xbe5d53b9	-0.21613969
11	0xbea9ccb3	-0.33163986
12	0xbdf9a93d	-0.12190483
13	0xbe773042	-0.24139503
14	0xbed267f9	-0.4109495
15	0x3dffe58b	0.12494954
16	0xbea3833f	-0.3193607
17	0xbe962b05	-0.29329696
18	0xbc9a960f	-0.018870382
19	0xbeae93b8	-0.34097075
20	0xbe9f4af8	-0.31111884
21	0x3d53f064	0.051742926
22	0xbddf450d	-0.10901842
23	0xbdea3252	-0.11435379
24	0x3d6212f9	0.055193875
25	0xbe63ff78	-0.22265422
26	0x3cf77fca	0.030212302
27	0x3e17b7b8	0.14816177
28	0xbeac678c	-0.3367275
29	0xbe169285	-0.1470433
30	0xbdb612f2	-0.08890332
31	0xbe092203	-0.1339188
32	0xbe615c2f	-0.22007822
33	0x3d65400a	0.055969276
34	0xbe1feee1	-0.15618469
35	0xbb726aca	-0.003698992
36	0xbeccc181	-0.39991382
37	0x3dfb4ae0	0.12270141
38	0xbdc636c5	-0.09678415
39	0x3dbada76	0.09123699
40	0xbe6aabed	-0.22917147
41	0xbe8d70b8	-0.2762506
42	0x3c9480d8	0.018127844
43	0xbd0923e1	-0.033481482
44	0x3ca13a84	0.019681223
45	0x3c82c1b9	0.015961515
46	0xbe97a547	-0.29618284
47	0xbd6bdcb4	-0.057583526
48	0xbd706154	-0.05868657
49	0x3d2ff622	0.04295934
50	0x3b47d461	0.0030491578
51	0xbe09458e	-0.1340544
52	0xbdb0a8bc	-0.086259335
53	0xbe664036	-0.22485432
54	0xbe09e6aa	-0.13466898
55	0xbcf3e370	-0.029771537
56	0xbe4a842f	-0.19776987
57	0xbcad1c85	-0.021131763
58	0xbeaf54dd	-0.34244433
59	0xbd0cfd3d	-0.034421194
60	0x3c273223	0.010204825
61	0xbec3299d	-0.38117686
62	0xbec32264	-0.38112175
63	0x3da9772b	0.082746826
64	0x3e11ee66	0.14251098
65	0xbdd4fa8c	-0.103993505
66	0xbd6be420	-0.057590604
67	0x3cc2cd1b	0.023779443
68	0xbeba6733	-0.3640686
69	0xbd9e6964	-0.077349454
70	0xbd95ce86	-0.07314782
71	0x3de29313	0.110632084
72	0xbe920ce7	-0.2852547
73	0x3d19362c	0.037405178
74	0x3af78fb4	0.0018887431
75	0xbdcf87b5	-0.10133306
76	0x3dde8201	0.1086464
77	0xbd365ca7	-0.044521954
78	0xbe4188cf	-0.18899845
79	0x3da9163c	0.08256194
80	0xbdf9ce96	-0.12197606
81	0xbe9d8bb1	-0.3077064
82	0x3ea96da5	0.33091465
83	0xbdb531d3	-0.08847394
84	0xbe62ef0f	-0.22161506
85	0x3dbad2c1	0.09122229
86	0x3ca0a8b5	0.019611696
87	0x3ca8b932	0.02059612
88	0xbe2c85d4	-0.16847926
89	0x3e7a31af	0.24433015
90	0xbdaeb456	-0.0853049
91	0xbd6801d3	-0.056642365
92	0xbd1f341c	-0.038868055
93	0x3e69ab6c	0.22819299
94	0xbe80fa29	-0.25190857
95	0xbba706ae	-0.005097232
96	0x3d47a084	0.048737064
97	0xbe0f8ec0	-0.14019299
98	0xbd21647a	-0.039402463
99	0x3d195712	0.037436552
100	0xbe1bd20b	-0.15216844
101	0x3e581009	0.21099867
102	0xbd77eaec	-0.060526773
103	0xbea20b5c	-0.31649292
104	0x3e0dbcf4	0.13841611
105	0x3e5907a1	0.21194316
106	0x3e8ba09b	0.2727097
107	0x3c1bce62	0.009509655
108	0x3ccd6cb8	0.025076255
109	0xbe076810	-0.1322329
110	0x3e1c7c7d	0.15281864
111	0x3dd8b14a	0.1058069
112	0x3e4326f7	0.19057833
113	0x3d9f04f8	0.077646196
114	0x3d644ba9	0.055736218
115	0x3d811569	0.06302912
116	0x3cc7f5f4	0.024409272
117	0xbe3c4ce8	-0.18388712
118	0xbdb9d23b	-0.090733014
119	0x3e4de610	0.20107293
120	0xbd87a1ca	-0.06622656
121	0x3e7189c9	0.23587717
122	0x3e6656cf	0.22494052
123	0x3d968170	0.07348907
124	0x3ea62d02	0.32456213
125	0xbe93e2b0	-0.28883886
126	0x3dc7b8cf	0.09752046
127	0x3e0a49e4	0.1350475
128	0xbc212550	-0.009835556
129	0xbd993795	-0.074813046
130	0x3e2f4cac	0.17119092
131	0x3d8d1a89	0.06889827
132	0xbc0ac67a	-0.008470172
133	0xbecb2e2d	-0.39683667
134	0x3e31d0d7	0.17364822
135	0x3e3276fc	0.17428201
136	0x3bb7d806	0.005610469
137	0xbd053ecb	-0.032530587
138	0x3cd38e34	0.025824644
139	0x3dcd4963	0.10023763
140	0x3eafd04b	0.34338602
141	0xbe02bfa0	-0.12768412
142	0xbe80a113	-0.2512289
143	0xbe4549a6	-0.19266376
144	0xbe27207f	-0.1632099
145	0x3d3d16ef	0.04616445
146	0x3d563c48	0.052303582
147	0xbdd3c147	-0.10339599
148	0x3cfd260c	0.030901931
149	0x3e89bdc3	0.2690259
150	0xbe36e20a	-0.17859665
151	0xbe555626	-0.20833644
152	0x3ea38224	0.31935227
153	0xbe21cef3	-0.15801601
154	0x3dd8f28b	0.105931364
155	0xbe6f8ed4	-0.23394328
156	0x3dea7c70	0.11449516
157	0x3e28cb4f	0.16483806
158	0x3e4558a1	0.1927209
159	0xbe926b92	-0.28597695
160	0x3d707fc6	0.058715604
161	0x3de6b08c	0.112641424
162	0x3ec77f6f	0.38964412
163	0xbe135612	-0.14388302
164	0x3e8517a8	0.2599461
165	0xbe1a6c04	-0.15080267
166	0xbeeaaeab	-0.45836386
167	0xbccd6dff	-0.025076864
168	0xbd8579bb	-0.06517359
169	0xbcdaec42	-0.026723985
170	0x3e1836a0	0.14864588
171	0xbd039756	-0.032126747
172	0xbe28df28	-0.16491377
173	0x3d865bba	0.06560464
174	0xbe9adefa	-0.30248243
175	0xbd96ed64	-0.073694974
176	0x3eae86fa	0.34087354
177	0xbe13e734	-0.14443666
178	0xbe3767de	-0.17910716
179	0xbe3e59ec	-0.1858899
180	0x3e0537cc	0.13009566
181	0xbe7d4383	-0.24732785
182	0x3ef0f369	0.47060707
183	0xbebcf2de	-0.36904043
184	0xbdcf6f7f	-0.10128688
185	0xba80f2f5	-0.0009838032
186	0x3d759ecf	0.059965905
187	0xbd0ffa66	-0.035150908
188	0x3e896564	0.26835167
189	0x3cde16a3	0.027110403
190	0xbe41e802	-0.1893616
191	0xbdb910d4	-0.09036413
192	0x3ce75b43	0.02824176
193	0xbd2a3057	-0.041550007
194	0x3ee7d3b5	0.45278707
195	0xbd02aac1	-0.031901125
196	0xbe662793	-0.22476034
197	0x3e5aea7e	0.21378514
198	0xbdba1af0	-0.09087169
199	0x3da600b7	0.08105605
200	0xbdfb2cfb	-0.12264439
201	0x3e124159	0.1428274
202	0xbe664a8a	-0.22489372
203	0xbec52f5a	-0.3851269
204	0x3db56f51	0.088591225
205	0xbd955b35	-0.07292787
206	0xbe9d08ee	-0.30670875
207	0x3e0011ed	0.12506838
208	0xbc108918	-0.008821748
209	0xbeab7834	-0.33490145
210	0xbe142f59	-0.14471187
211	0xbd6f4727	-0.058417466
212	0xbd025255	-0.0318168
213	0xbe881aff	-0.26583096
214	0x3e467262	0.19379571
215	0xbd31d038	-0.043411463
216	0x3c474487	0.012162334
217	0xbe9d680e	-0.3074345
218	0xbe87d601	-0.2653046
219	0x3e6baaee	0.23014423
220	0xbebb6b56	-0.36605328
221	0xbe926810	-0.28595018
222	0xbf143b08	-0.57902575
223	0xbe6124b7	-0.21986662
224	0xbdbe7e00	-0.09301376
225	0xbda8fdea	-0.08251555
226	0xbe470070	-0.1943376
227	0x3d467018	0.048446745
228	0xbdd1a46e	-0.102364406
229	0xbe048208	-0.12940228
230	0xbddf119e	-0.10892032
231	0xbd7b4739	-0.06134722
232	0xbd8471a6	-0.06466989
233	0xbe822331	-0.25417474
234	0xbe7284f0	-0.23683524
235	0xbe5da934	-0.21646577
236	0xbe1d0ba1	-0.15336467
237	0x3d8a9355	0.067663826
238	0xbe26a3c2	-0.16273406
239	0xbeb10453	-0.34573612
240	0x3da2cc44	0.07949117
241	0xbe1d0f3c	-0.15337843
242	0xbe32e775	-0.17471106
243	0xbd9d885f	-0.07692026
244	0xbe4b013b	-0.19824688
245	0xbed734a4	-0.4203235
246	0xbe5aceeb	-0.21367995
247	0xbe46b95b	-0.19406645
248	0xbe0cceea	-0.13750806
249	0x3e9a75db	0.30168042
250	0xbebd67b9	-0.36993197
251	0xbecd1eba	-0.40062505
252	0xbeff9691	-0.4991956
253	0xbda876b5	-0.082257666
254	0xbe2c0231	-0.16797711
255	0x3eaea5ef	0.34110972
