Config/results/BallCatcher_01/BoxBehavior/BoxBehavior-1499995.pt (torch, 141071 bytes, 21 tensors)

network_body.linear_encoder.seq_layers.0.weight f4 [64, 82]
000000 8f 1f 23 3e ff f2 66 be ca de 4c be 32 d7 b5 bd
       0.15930007 -0.22553633 -0.20006862 -0.08878936
000010 66 f6 a2 be ba 9c 00 be f4 68 b8 3e ed 23 79 be
       -0.31828612 -0.12559786 0.36017573 -0.24330111
000020 a3 4f ca be 50 c4 18 be 21 43 b0 be 29 70 98 be
       -0.39513883 -0.14918637 -0.34426215 -0.2977307
000030 f9 02 28 3e 8b a1 af be 31 4c d3 3c 91 7a 8d 3e
       0.16407384 -0.34302935 0.025793167 0.27632573
000040 5d 5f 5b be e9 5e 82 be 03 58 d7 3d 20 8e 04 be
       -0.21423097 -0.25463036 0.10514834 -0.12944841
000050 1d 7d c1 bc 2f 19 86 3e d9 60 ab be 99 2c b6 be
       -0.023619229 0.2619109 -0.33472326 -0.355809
000060 f3 8c 73 3e 13 04 8b bd 10 2e 0b be a9 a6 3d 3e
       0.23784237 -0.067878865 -0.1359179 0.18520607
000070 3c 96 a1 be e5 2f c8 be 87 c8 bc 3d 27 2e 71 3e
       -0.31559932 -0.3909904 0.09217935 0.23552762
000080 27 ae 0e be 65 4e fb 3e 2c 18 ac 3c 7a 9f 1f be
       -0.13933621 0.49083248 0.02100762 -0.15588179
000090 92 08 83 3e 16 04 1a be 2e 1c 2d bd b0 fb 88 be
       0.25592476 -0.15040621 -0.042263202 -0.26754522
0000a0 7c 6e 45 3e ca 92 9f bd 8f 4f 3e be 4e 1b 15 be
       0.19280428 -0.0779167 -0.18585037 -0.14561197
0000b0 e1 dd 77 3d 0e c7 01 be 22 8f e5 3d da b7 ee be
       0.060514335 -0.1267359 0.11208941 -0.46624643
0000c0 ba 82 a7 3d cc 3b 06 3e 66 35 b9 bd 2b a1 0b 3e
       0.08179231 0.13108748 -0.09043388 0.136357
0000d0 10 07 ab 3d 90 5e 4e be ff d0 ab be d5 48 54 bd
       0.083509564 -0.2015326 -0.3355789 -0.05182727
0000e0 1d 34 58 3d ef ed 99 3c ae 26 ae 3d 82 f4 50 3e
       0.052784074 0.018790213 0.08503471 0.20405772
0000f0 ad 08 9a 3d 90 da eb 3d 65 d3 b5 bd e3 91 eb 3d
       0.07521186 0.11516297 -0.08878211 0.11502435
000100 84 55 5a be 40 db ee bd b5 14 cf bd e4 d1 87 3d
       -0.21321684 -0.11662912 -0.101113714 0.0663183
000110 8e 25 25 be c5 2a b0 3e 9b 5a 44 be eb de a0 bd
       -0.16127607 0.3440763 -0.19175188 -0.07855018
000120 ee 51 33 be b0 87 a9 bd 25 13 b7 3d 54 e6 19 3e
       -0.17511722 -0.082778335 0.089391984 0.1502927
000130 20 5d 0c 3d 37 87 01 be 02 1d 8e 3c e5 f6 c2 3c
       0.0342685 -0.12649237 0.017347816 0.02379937
000140 be 7b e0 3d 87 90 5c be d6 a9 54 bd de 7d 47 bd
       0.10961102 -0.21539508 -0.05191978 -0.04870402
000150 c9 ba ff bd c9 a6 a1 bd e6 5a 16 3d 8b c2 bf 3d
       -0.12486798 -0.0789314 0.03670778 0.09363278
000160 ae a4 81 bd 22 0c fe 3c 02 68 7b 3c 87 96 9a 3d
       -0.06330238 0.031011645 0.015344622 0.07548242
000170 4a 84 8a be 3a 1b 87 be fc 1b cb 3d cc 32 ef 3d
       -0.27054054 -0.2638796 0.09917447 0.116796106
000180 6d 63 d9 bd fc b1 c8 3e 5b da f5 3b 18 74 ed 3d
       -0.10614667 0.3919829 0.0075028366 0.11594409
000190 3e 57 ad 3e b2 97 28 be ff 61 4e bd 00 e7 ac 3e
       0.33855623 -0.16464117 -0.050386425 0.3376999
0001a0 d6 8c d8 3c 58 70 74 bd 59 59 4d 3e f4 f8 b8 bd
       0.026434343 -0.05967745 0.20053615 -0.09031859
0001b0 ea c1 73 3d b0 85 66 3e 00 d9 a2 bd f4 54 df bd
       0.059511103 0.22511935 -0.07951546 -0.109048754
0001c0 3b 89 e5 3e e3 57 06 bd 8c 6a b9 bd 68 c9 af 3e
       0.4483126 -0.03279866 -0.09053525 0.34333348
0001d0 2f 8b 12 be 8b 2b e4 3d 90 85 cd 3e a3 cc 69 bd
       -0.14310907 0.11141118 0.40140963 -0.057079922
0001e0 b5 35 e7 bd 1f 8a 1b 3e 60 ff 8b be fb e7 d6 3c
       -0.11289541 0.15189408 -0.27343273 0.026233664
0001f0 1b f2 ab 3e ab 97 d8 3c 4f e4 89 bd 4b fc af 3d
       0.3358315 0.026439508 -0.067329995 0.08593043
000200 f1 35 30 3d e7 af 13 be c1 72 c5 3e 8b db 81 3e
       0.043020193 -0.1442257 0.38564113 0.2536281
000210 3c c9 85 3d 6f 24 78 be a7 58 47 3e d5 c7 10 3e
       0.06532523 -0.24232648 0.19467412 0.1413873
000220 bc 41 8a 3e 39 1b 13 be d4 fb f6 bd 8f cb 84 be
       0.27003276 -0.14365853 -0.12059751 -0.25936553
000230 36 39 ad 3d 41 b0 62 3e 81 e5 c9 3c cc 66 7e 3d
       0.08458178 0.22137548 0.024645569 0.062109753
000240 1f 3f 27 3d 4a ad 8e bd bb a1 03 3d 28 cc f3 bd
       0.04083168 -0.06966646 0.03213666 -0.11904174
000250 4f 3c 92 3e 09 18 2b bc fe 44 02 bd 9f d1 74 3e
       0.28561637 -0.010442742 -0.031804077 0.23908089
000260 90 d9 eb 3d 99 ce 73 bd f1 7d 7c 3e de e3 dd bd
       0.11516106 -0.0595232 0.24657418 -0.10834478
000270 12 04 b3 3d ec 9f ce 3e c8 73 91 3d 6f 29 2d 3e
       0.08741011 0.40356386 0.07102162 0.16910337
000280 11 ee 88 3e e4 05 06 3e c1 c0 97 3d 0b 2d 34 bd
       0.2674413 0.13088185 0.07409812 -0.04398827
000290 a1 e5 82 3e 3d 8b bf bd 41 be be bd 3e 05 9a 3e
       0.25565818 -0.093527295 -0.09313632 0.30082124
0002a0 ea 7d 0d be 9b 94 c4 3d 50 f4 a8 bc 6a 77 b2 bd
       -0.13817564 0.09598657 -0.02062431 -0.08714183
0002b0 ed d0 b9 bd 43 26 29 be a2 b9 99 3d 88 70 a0 3e
       -0.090730526 -0.16518502 0.0750611 0.31335855
0002c0 1b 46 d8 be 97 13 97 3d a3 e7 4e 3e bd a5 85 bd
       -0.42240986 0.07376783 0.2020555 -0.06525753
0002d0 de b6 bd 3d 5b e0 d1 3d 94 f5 cd bd e4 53 93 3b
       0.09263395 0.102478705 -0.10056606 0.0044960845
0002e0 39 0e 36 3e 58 87 59 3d 26 56 e6 bb 13 e7 d3 3c
       0.17778863 0.05310759 -0.0070293127 0.02586702
0002f0 16 74 d1 3d 4f 77 fd 3d b4 f5 e9 bd fb 3a ba bb
       0.1022722 0.12376272 -0.11423817 -0.0056833006
000300 d9 cf bd 3d 98 1d 1b bd bb df 4f be 98 27 f5 3c
       0.092681594 -0.03787002 -0.2030019 0.029926106
000310 50 21 f3 3a 5c bc 8d be 15 04 54 bd 90 50 ee bb
       0.0018549357 -0.2768277 -0.051761705 -0.0072727874
000320 85 bd 76 bd 59 41 b6 bd a2 c2 5a bd 18 48 9a 3e
       -0.060239334 -0.08899183 -0.053408273 0.30133128
000330 24 39 33 be 00 86 14 be e1 5e 8c 3d 20 0e 01 bd
       -0.17502266 -0.14504242 0.06854034 -0.03150761
000340 76 e0 93 bd fe c4 bb 3e 98 91 60 be 6a 1c 9b bd
       -0.07220547 0.3667373 -0.2193054 -0.07573779
000350 a4 cb e1 bd bc 42 34 3e 4d ca 6b 3d c7 92 01 3e
       -0.110251695 0.17603582 0.057565976 0.12653647
000360 a5 4b 96 bd 2d 62 57 bc a2 99 30 be 68 51 6e bc
       -0.07338647 -0.0131459655 -0.17246106 -0.014545776
000370 56 36 f5 bc d0 89 a9 3d 56 cc 39 3e a5 e8 a3 bd
       -0.029933136 0.08278239 0.18144354 -0.08003358
000380 ae 94 05 be d2 66 f7 3d f7 32 14 be e6 17 dc bd
       -0.13044998 0.12080158 -0.14472567 -0.10746746
000390 66 ad 1d be 34 58 30 3e 35 e0 63 bd cc a5 1d 3d
       -0.15398178 0.17221147 -0.055633742 0.038488194
0003a0 aa 3a b6 3d 93 96 06 be 89 24 86 bd 32 52 d4 bd
       0.08897908 -0.13143377 -0.06549937 -0.1036724
0003b0 b6 1f 0c 3e 94 2d 70 bd c5 db 23 3e 4a 13 19 3e
       0.13683972 -0.058637217 0.16001804 0.14948764
0003c0 7f e1 48 3d 3e d0 0a bd 59 20 0d bd 18 a1 a2 3c
       0.049043175 -0.03389 -0.034454677 0.019852206
0003d0 65 1f 43 3e 40 68 00 3e 3a 64 0a bd f9 1c f7 3d
       0.19054945 0.12539768 -0.03378699 0.12066073
0003e0 8b e1 10 3c e6 74 74 be 28 72 10 3e 4d 0f bb 3b
       0.008842836 -0.23872718 0.14106047 0.005708611
0003f0 86 5b 2e 3e 18 19 34 be 21 e4 9b bd 08 57 8a 3e
       0.17027101 -0.17587698 -0.076118715 0.27019525

network_body.linear_encoder.seq_layers.0.bias f4 [64]
000000 a8 0e 8a bd b0 a7 a9 3c 92 95 27 3d b6 42 b1 3c
       -0.06741077 0.020709842 0.040914126 0.021638256
000010 fe 51 71 3d 07 7b 8d 3b c4 82 50 3d 09 7f fa bd
       0.058916084 0.0043176445 0.050905958 -0.12231261
000020 86 11 d9 bc aa 33 66 3d 4b ca 4b 3c 0e f4 76 3c
       -0.026497614 0.056201614 0.012438367 0.015072836
000030 63 23 f8 bd 01 37 dd 3c e5 26 28 3c 31 c5 2c bd
       -0.121161245 0.027003767 0.010263179 -0.042180244
000040 9e 4f a3 3d 1e a4 03 be 5d 50 65 3a 30 97 cc bd
       0.0797417 -0.12855574 0.0008747632 -0.09989774
000050 ea fd 13 bd b7 3d 58 3d 21 69 d3 3d c4 34 39 bd
       -0.036130823 0.05279323 0.10322786 -0.045216337
000060 46 d9 c3 bd fe e4 2d 3c d6 1b 4a 3c 35 5c 58 3d
       -0.09562926 0.010613678 0.012335738 0.05282231
000070 63 4b c7 bd fa e1 b2 3c c0 6e 10 3d 6b 1a 23 3d
       -0.09731176 0.02183627 0.03526187 0.039820116
000080 56 40 ed 3c ca 13 32 3b e2 bb 0c bd 02 af bc bd
       0.028961342 0.002717244 -0.034358867 -0.092130676
000090 1a 8b f5 38 a1 45 a1 bd 11 13 08 be bb 50 fa bd
       0.0001170842 -0.07874609 -0.13288523 -0.12222429
0000a0 dc 4a 0b bd 10 3b 22 bd bd 49 e1 3c 4d 47 db bd
       -0.03400694 -0.039607108 0.027500981 -0.10706959
0000b0 7b 78 00 3b 70 db f8 bd 0e a0 86 bc 37 e4 0e 3d
       0.0019603062 -0.121512294 -0.016433742 0.03488561
0000c0 a2 29 ae 3b 77 7c ef 3c f7 0d 71 3d 2b 86 1a bc
       0.0053150216 0.029234154 0.05885121 -0.009431402
0000d0 a6 7f 15 bc 0e 81 ff bd 8b 93 17 3d 8e 79 85 bd
       -0.009124672 -0.12475787 0.037005942 -0.06517325
0000e0 9d 94 92 3c b8 60 d5 3c 8c 46 70 3c d8 e2 e9 bd
       0.01789313 0.026047096 0.014665257 -0.1142022
0000f0 d0 8c 9b 3c 3f e5 5b 3d ba 71 11 bc 4b 3f fe 3b
       0.018988043 0.053685423 -0.008877212 0.00775901

distribution.branches.0.weight f4 [3, 64]
000000 a1 bc fc bd a4 87 2c 3c 38 03 a5 3c e0 a4 73 3b
       -0.123406656 0.010530386 0.020143136 0.003717713
000010 0a bf 10 3e 8d c2 e8 bd c4 6e 43 3e 6d 3d 1e bd
       0.14135376 -0.113652326 0.19085222 -0.0386328
000020 a9 e0 22 bd b2 fb 2d 3e 2a ed 20 be d6 b5 1d bd
       -0.039765034 0.16990545 -0.15715471 -0.03850349
000030 47 ad 80 bd bf ef da 3d 9f 60 4b 3d 58 c3 93 bd
       -0.0628305 0.10690259 0.049652692 -0.07214993
000040 dd ef 0e 3e ed 3b ed bc 07 35 fd bd e5 5c 8b bd
       0.13958688 -0.028959239 -0.1236363 -0.068048276
000050 19 23 e7 bc b2 df c5 3d c8 c7 a9 3d 67 37 94 bd
       -0.028214978 0.09661807 0.082900584 -0.0723713
000060 f6 83 d7 bd 3d 41 99 3d ad 5d 9e 3d fa 35 03 3e
       -0.105232164 0.07483146 0.07732711 0.12813559
000070 c0 cf 98 bc a4 05 17 3d d1 f5 e9 3d 9f 50 1b 3e
       -0.01865375 0.036870614 0.11423839 0.15167473
000080 88 21 43 bd 37 fa e9 3d c7 f9 ca bd f5 db 97 bd
       -0.0476394 0.11424678 -0.099109225 -0.07415
000090 89 14 b0 3d ce 5a a0 bd 5a 32 3d 3c 07 2b 27 bd
       0.08597667 -0.078298196 0.011547649 -0.04081252
0000a0 3d 56 4a bd a4 f5 82 3c 22 86 3e bd 44 cb aa bc
       -0.04939865 0.015986271 -0.046514638 -0.020848878
0000b0 bc 66 67 bd 01 4d a2 bd 73 f7 8e bc e8 eb 10 3e
       -0.05649446 -0.079248436 -0.017451977 0.14152491
0000c0 ca d0 28 be ef f3 cd 3d 3b e2 41 3e 8e 8f 98 bd
       -0.16485897 0.10056292 0.18933956 -0.07449256
0000d0 4b 02 05 3d b9 d2 9a bd f4 a4 97 3c f5 7c ea bd
       0.03247289 -0.075597234 0.018511273 -0.11449615
0000e0 14 ac d2 3d bf e0 e1 3d 4c e9 c7 bd 83 c1 8b bd
       0.102867275 0.11029195 -0.09761295 -0.06824019
0000f0 0b 12 df 3d a7 39 9f bd 18 9f 25 bd cb e1 f4 bd
       0.10892113 -0.07774668 -0.040434927 -0.11957129
000100 86 76 b0 3d bd e9 eb 3c 4d e1 d8 3c 7d 29 86 bc
       0.086163566 0.028797979 0.02647462 -0.016377205
000110 d9 d0 c0 3d d6 f5 cd 3d 84 3b 01 3e e6 74 8f b9
       0.094148345 0.10056655 0.1262036 -0.00027362182
000120 e3 95 32 3d 9d c1 67 3d c1 bb 04 3e ae 47 b7 bc
       0.043599974 0.05658113 0.12962247 -0.022373047
000130 b8 59 e0 3d 8c 6c 02 3e 0b 8c 37 bd d3 2d bd 3c
       0.109546125 0.1273672 -0.04481129 0.02309314
000140 86 5b 44 3c de 0a 62 3d 95 81 dc 3d 4f 09 c6 3d
       0.0119847115 0.055186145 0.10766903 0.09669744
000150 d5 6d 30 3d 17 59 01 bd 87 b6 e4 bd 81 b6 b4 3d
       0.043073494 -0.031579103 -0.11167627 0.08823872
000160 8a 22 d5 3d 07 eb 12 3d 0a 78 be 3d b3 51 53 bd
       0.104069784 0.03586867 0.093002394 -0.051591586
000170 d9 5f 14 3d a3 a1 99 bd ac a9 eb bd 8e 7a 1d be
       0.03622422 -0.07501533 -0.11506972 -0.15378782
000180 f7 13 15 3d b6 9d 6f 3d aa 55 b7 3d 40 41 0a 3d
       0.036395993 0.058500014 0.08951886 0.033753633
000190 f1 03 fb bc dc e3 1f 3e 6a e4 80 3c 64 4a 91 3d
       -0.030641528 0.15614265 0.015733916 0.07094267
0001a0 25 9e 33 3d a2 dc 00 3d af 5c 05 bd 83 3d b0 3d
       0.04385199 0.03146041 -0.032559093 0.086054824
0001b0 75 2e 73 3c 24 ed 20 3d 8f 52 1b bc 7a 9f f7 bc
       0.014842619 0.039288655 -0.009480133 -0.030227412
0001c0 e6 8c 7d 3d 4a 45 8c 3c 04 e8 ed 3d 3a d5 7b 3d
       0.06190195 0.017122883 0.11616519 0.061482646
0001d0 76 07 1f bd c4 b5 4e 3d 12 d6 d8 bc 47 8b 66 3d
       -0.038825475 0.050466314 -0.026469264 0.05628517
0001e0 6c c2 9d 3d 54 37 16 3d 28 5c f1 3d 47 c3 bd 3c
       0.07703099 0.03667386 0.117851555 0.023164405
0001f0 68 04 a3 3c bb a2 b7 bc 9c 3a 11 3b 9b 94 eb 3d
       0.019899562 -0.022416463 0.0022160178 0.115029536
000200 ea fa 29 3d 3a 63 e6 3d da ad 41 bd 3f e7 f2 3d
       0.041499056 0.11249395 -0.04728494 0.11860513
000210 8c 4c 2e be e8 67 1a 3d 12 cb 79 be c0 f6 b9 3c
       -0.17021388 0.03769675 -0.24393871 0.022700667
000220 b1 36 b2 3d 16 72 1b bd 4e 7f cf 3c db dc 0c 3d
       0.08701838 -0.037950598 0.025329258 0.03439031
000230 03 ad 71 bd df 29 04 be 5f 3a b3 3d 03 03 11 3c
       -0.059002887 -0.12906598 0.08751368 0.008850816
000240 d4 97 b1 bd 0d a6 90 bd 63 c6 c1 3d 1b 7c 57 bd
       -0.08671537 -0.07062922 0.094616674 -0.05260859
000250 4f 0f 8f 3c 7a b4 62 3d e7 c0 c2 3d 1d 62 73 bd
       0.017463354 0.055347897 0.095094495 -0.05941974
000260 bb 65 14 bd 1f 6e 0c bd 90 c1 06 be d8 ee 15 3d
       -0.03622983 -0.034284707 -0.13159776 0.036604732
000270 c0 41 37 3d b9 da f2 3d bb a8 ce 3d 0b 38 c4 3d
       0.04474044 0.11858124 0.100907765 0.09581002
000280 dd 1e e1 3d d4 99 16 3d ab 6e a2 3c 4c 73 b3 bb
       0.10992215 0.036767796 0.019828161 -0.005476391
000290 01 0c 76 3d f6 fa 33 bd 14 35 ba bd ce fc c1 bd
       0.06007004 -0.043940507 -0.09092155 -0.09472047
0002a0 3f fb b3 3d f7 3f d8 3c 00 e7 00 3e 96 e2 9f bd
       0.08788156 0.026397688 0.1258812 -0.0780689
0002b0 15 c3 06 3e 40 e6 87 bd bb f3 c1 bb 4c 4d 2d 3d
       0.13160355 -0.066357136 -0.0059189475 0.042310044
0002c0 26 a3 04 3e 0e 5f 45 bd 89 7d 45 be 01 01 1f 3d
       0.12952861 -0.048186354 -0.19286169 0.038819317
0002d0 e8 a3 44 ba d5 b1 2e bd 96 ff c6 3d 7f e8 99 3d
       -0.00075012306 -0.042650063 0.09716718 0.07515048
0002e0 79 94 c0 bd 59 40 f7 bc 63 f3 2b 3d b4 d9 c2 3c
       -0.09403319 -0.03018205 0.04198016 0.02378545
0002f0 b8 65 45 3d 92 01 de 3d b5 d4 45 3d 1d c2 91 3d
       0.04819271 0.10840143 0.048298556 0.07117102

distribution.branches.0.bias f4 [3]
000000 a6 65 59 3d ea 61 9a bc b0 3a 09 3d
       0.053075455 -0.018845517 0.033503234

critic.network_body.linear_encoder.seq_layers.0.weight f4 [64, 82]
000000 f7 e3 bf bd b4 fe f8 bc 56 c9 f0 bc d6 55 28 3e
       -0.09369653 -0.03039489 -0.02939288 0.16438994
000010 1f 80 da 3d 37 96 81 3d 9a 4e 0b bd c4 a2 73 bb
       0.106689684 0.06327479 -0.034010507 -0.0037175873
000020 48 49 e1 3c 26 ee f1 3d 14 72 cb bd 66 6b 8f 3e
       0.027500764 0.11813001 -0.09933868 0.28011626
000030 3e 56 af be 16 1a 43 bd 63 ca d9 bb 45 e3 1f be
       -0.34245485 -0.0476323 -0.006646441 -0.1561404
000040 ae 82 e1 3d ad 36 ad bc f0 3d 07 bd 58 86 02 be
       0.11011253 -0.021144236 -0.033018053 -0.1274656
000050 66 16 85 bd d4 93 24 3e 01 c9 61 be 3d 4a b4 bd
       -0.06498413 0.16072017 -0.22049333 -0.08803222
000060 f7 55 dd 3c 2c c7 0d 3a 37 c2 fb bd 2c ab 37 3d
       0.02701853 0.0005408402 -0.12292903 0.044840977
000070 c4 08 57 3d 56 0a 18 bd c9 d2 c9 3e 13 ff 23 3c
       0.052498594 -0.037119232 0.3941863 0.010009545
000080 ac 7e e3 3d e8 d3 6c 3e 29 11 54 bd 83 1a 76 bc
       0.11108145 0.23127711 -0.051774178 -0.015020969
000090 3d 08 2d 3e b2 2e 30 bd d3 69 f2 bc b1 9a f0 bd
       0.16897674 -0.043013282 -0.029591477 -0.11748255
0000a0 95 cc 9f bd 4f b2 82 3d 81 b1 92 bd f0 a4 96 bc
       -0.07802693 0.06381666 -0.071627624 -0.018389195
0000b0 ec 3c 05 bd ce 58 e3 3c 93 28 50 bc 42 8f 50 3c
       -0.032528803 0.027752306 -0.012704986 0.012729468
0000c0 df 20 cc bc 7f 0d 02 3d 18 be 2d 3d d5 e7 2b be
       -0.024918018 0.031751152 0.042417616 -0.16787656
0000d0 d8 61 c5 bd 8b 2f a9 bc 6f 01 92 be ce ff 0f 3c
       -0.09637803 -0.020652553 -0.2851672 0.008789016
0000e0 e4 37 25 3d f5 e1 1c 3e 44 f8 9e bd 1d b6 e4 b9
       0.040336505 0.15320571 -0.07762197 -0.00043623234
0000f0 b4 f0 0f bd cc c7 bc bb 82 2c c7 3d 5a 9b cb bd
       -0.03514166 -0.0057611223 0.09725286 -0.0994174
000100 3d e1 f5 bd ce 24 0c 3e a1 89 83 bc 70 d7 c5 bb
       -0.120058514 0.13685915 -0.016056838 -0.006037645
000110 62 e1 b6 bd 02 0d 2e bd ca 6a fa 3d a9 2d 1e 3e
       -0.08929707 -0.042492874 0.122274 0.15447105
000120 68 60 39 3e 6c 21 09 3e 6d 4d 74 bb 01 d7 b3 3e
       0.18103182 0.13391656 -0.0037277595 0.35124972
000130 ce fd 1f be 32 4b 80 bb b2 11 0d 3d 76 a4 c7 bc
       -0.15624163 -0.003915214 0.034440704 -0.024370413
000140 64 bd bc bd 3d 69 86 bc 4a b9 97 be 17 4b 49 3d
       -0.09215811 -0.016407603 -0.29633552 0.049143877
000150 59 e5 b8 bd f9 a1 68 be 2d 95 ae bd a0 98 2f bd
       -0.090281196 -0.22718038 -0.08524547 -0.042870164
000160 27 9b fd bc e1 28 71 be ab 79 1d 3e d7 a4 ae 3e
       -0.030957771 -0.2355075 0.15378444 0.34110138
000170 6a 1d 08 be 31 35 1c 3e ec 1d 1d bf 46 eb d4 3d
       -0.1329247 0.15254666 -0.6137378 0.10396437
000180 12 52 95 bd da 19 08 be e4 2d 2d bc fe 94 27 be
       -0.07291044 -0.13291112 -0.010570023 -0.1636543
000190 68 09 70 bf f0 90 bf bd 18 ed 93 bd 09 bf 1f 3d
       -0.9376435 -0.093538165 -0.072229564 0.039000545
0001a0 5e dc e3 3d 07 4f a1 bd 13 be 35 bf ea 6f b6 3d
       0.11126016 -0.078764014 -0.70993155 0.08908065
0001b0 26 84 6a 3d 8c a3 db bd 75 68 99 bd 30 dc 50 3d
       0.057254933 -0.107245535 -0.07490627 0.050991237
0001c0 6b 26 e8 bd a8 1c ca bd b8 eb 29 bd bf fe 91 be
       -0.11335453 -0.09868747 -0.041484565 -0.28514668
0001d0 79 24 20 bb c5 c6 be bc fa 8f 85 bd 98 56 da bd
       -0.0024435802 -0.02328814 -0.06521602 -0.10661048
0001e0 d1 2d ec 3c 8e 9d fb bd 5f d1 89 3c c5 57 ae 3c
       0.02883044 -0.122859105 0.016823469 0.021282086
0001f0 d5 15 6c bd fb f5 b6 bd 1d e4 26 3e ad a0 a0 be
       -0.05763801 -0.08933636 0.16297956 -0.31372586
000200 16 0a 0c bd 58 7b 8f bd ee 73 83 be 22 2f 94 3d
       -0.034189306 -0.07005948 -0.25674385 0.07235552
000210 9a c5 db bd e4 80 57 3e 5c 76 81 be 31 01 08 3e
       -0.10731049 0.21045262 -0.25285614 0.13281704
000220 85 2f 8e 3e ee a3 ec bd 26 e8 d0 3d 95 dc 32 bc
       0.2777063 -0.115547046 0.10200529 -0.010916849
000230 9b 42 90 be 23 90 ab 3c 25 bf 2f 3e f4 2f 2d 3d
       -0.28175816 0.020942753 0.1716276 0.04228206
000240 0f 9b 51 be 8f d8 ff be f6 d0 9a bc 65 32 27 3c
       -0.20469306 -0.4996991 -0.018898468 0.010204886
000250 be 91 16 3e 44 2c 0f be 68 aa 8c 3c 7e 17 4c 3e
       0.14704034 -0.1398173 0.0171711 0.19930837
000260 44 57 8a bd ae e4 06 3d 2a fa cf 3c 05 9d bd bd
       -0.06754926 0.03293293 0.025387842 -0.09258465
000270 d3 07 67 bd 4b d6 ab 3e 97 d3 ea 3d 2a 30 11 bd
       -0.056403946 0.3356193 0.11466139 -0.035446323
000280 e1 e8 38 3d 06 50 da bd ac 5b b3 3d f4 e3 94 3d
       0.045143966 -0.106597945 0.087577194 0.07270041
000290 fc 5f 9a 3e 73 7c d4 be 5f e5 ab 3e 04 1d 71 3e
       0.30151355 -0.41501197 0.33573434 0.23546225
0002a0 91 c4 7a be d5 6d 33 3e 69 c1 b7 be a8 35 3f be
       -0.24489047 0.17522366 -0.35889748 -0.18672812
0002b0 c5 36 7a 3d 8d 3b 66 be 69 84 4b 3c 54 20 2b bc
       0.06108739 -0.22483654 0.012421706 -0.010444719
0002c0 ce 1d f9 be 4e 21 c8 3c 44 62 a7 3d 57 28 f2 be
       -0.48655552 0.024429943 0.081730396 -0.47296402
0002d0 72 83 27 3e 00 a3 36 3e 42 bc f7 be e8 e4 ba 3d
       0.16358736 0.17835617 -0.48385817 0.09125692
0002e0 1e 86 78 be bc ee 35 be 91 bd b2 3d 43 2d 25 be
       -0.24269912 -0.17766851 0.08727563 -0.16130547
0002f0 f3 f4 c2 be 45 16 66 bc 4b 5c ae bd 2a 49 3f 3e
       -0.38077506 -0.014043395 -0.08513697 0.18680254
000300 c8 03 43 be be 5f 1b bd 30 a2 3c be c0 b3 ae 3b
       -0.19044411 -0.037933104 -0.18421245 0.0053314865
000310 e3 2d fd bd d5 ad 26 3b 9f 84 bb 3e ba 03 50 be
       -0.12362268 0.0025433202 0.3662462 -0.20313922
000320 68 4a 09 bf de 22 70 3d 78 0f a0 bd d5 2b 21 3e
       -0.5362916 0.058627002 -0.078154504 0.15739377
000330 b9 5e 85 be eb 5c de 3d a3 65 c7 3d 04 c4 38 be
       -0.2604883 0.108575664 0.097361825 -0.18043524
000340 63 84 0c 3e 44 e8 93 3e a0 13 f3 be 24 a4 39 3e
       0.13722377 0.28888142 -0.4747591 0.18129021
000350 67 d1 fc be 02 ef 2d 3e 4f a4 8e 3d 86 02 5f bf
       -0.4937851 0.16985705 0.06964933 -0.87113225
000360 ee b8 9b 3d 76 88 5a bd fe f6 37 bf 6b bc a1 3d
       0.07603632 -0.053352796 -0.71861255 0.07897266
000370 bc 5d c7 3c 51 98 7e bf 16 7e 8d bd 73 1c ba 3d
       0.024336688 -0.99451166 -0.069088146 0.090874575
000380 fe 5e 3d bf 6b 3f 1f be e6 a0 1d 3d ee 6b 29 bf
       -0.7397307 -0.15551536 0.038483523 -0.6618031
000390 c1 59 fb bc 70 8b 85 bd 70 9a b1 bd 25 7d 1a 3d
       -0.030682446 -0.06520736 -0.08672035 0.037717003
0003a0 b7 71 d8 bd 69 23 b0 be 4e d6 8c bc de 01 99 3d
       -0.105685644 -0.34402016 -0.017192032 0.07471059
0003b0 31 4b 40 be 81 66 d1 b9 a0 eb b3 bd b0 f6 4c be
       -0.18778683 -0.00039939958 -0.08785176 -0.20015979
0003c0 58 cb 4d 3e 5a a0 b6 bd 45 a6 31 bb 5e 9a 1c bd
       0.200971 -0.089173034 -0.002710716 -0.038233154
0003d0 a9 90 ce 3a 93 78 e3 bd fe ad 9f be 5d 23 79 3e
       0.0015759665 -0.11106982 -0.31187433 0.24329896
0003e0 b8 fa 9b 3d 34 bc d8 3d 12 56 34 3e d7 92 fa be
       0.0761618 0.10582772 0.17610958 -0.48940155
0003f0 ba b2 7a 3e 2c e8 a5 bd 28 91 e9 be 1d 09 c1 be
       0.24482241 -0.08100924 -0.45618558 -0.37702265

critic.network_body.linear_encoder.seq_layers.0.bias f4 [64]
000000 5b c8 39 bd 4e 25 97 bd 36 6f 89 bd eb 1e 12 3d
       -0.04535709 -0.07380162 -0.06710665 0.035674017
000010 e4 55 e7 3b 5f e1 02 bd fb 46 48 bd 92 2c 15 bd
       0.0070597995 -0.031953212 -0.048895817 -0.03641946
000020 c7 3d 76 bb 6a 1a 19 bd 00 e5 bd 3c 15 e8 47 bd
       -0.0037573443 -0.037378706 0.023180485 -0.048805315
000030 2b 21 55 3a d7 88 2d bb b6 e4 2b 3b b6 ec 65 bd
       0.00081302476 -0.0026479268 0.0026228852 -0.05613395
000040 5c 7a 0d be 6e dc de bc f9 41 21 bd 06 07 99 bc
       -0.13816208 -0.027204718 -0.039369557 -0.018680107
000050 76 6c 24 bd d5 c1 9c bc cf ac ff bb 5d 62 40 bd
       -0.0401425 -0.019135395 -0.007802583 -0.046968807
000060 c3 e9 2d 3c a3 e1 89 bd e5 51 3f bd 8b 85 67 bc
       0.010614815 -0.0673249 -0.04670896 -0.01413096
000070 2b 07 72 bd cb ea 63 bd c8 29 67 3c 93 b6 05 bd
       -0.059088867 -0.055643838 0.0141090825 -0.03264482
000080 ea 4b 8e bc b4 3a e9 3c 29 22 66 bd 80 32 42 3b
       -0.017370183 0.028470375 -0.05618492 0.002963215
000090 ed fb bb bc 0c 20 92 bd 2d 66 c0 bc 13 19 f5 bc
       -0.022947276 -0.07135019 -0.023486221 -0.029919183
0000a0 e5 56 90 3c d4 94 97 3b 34 5b 03 bc 2e 7c 89 bd
       0.01761956 0.004625896 -0.00801735 -0.067131385
0000b0 d4 06 f9 3b 04 20 15 bd 21 1f 1e bd 83 35 11 bd
       0.007599691 -0.036407486 -0.038603906 -0.035451423
0000c0 dc 66 3f bd 3e 23 80 bc 21 8a 3b 3d e0 b5 70 bd
       -0.046728954 -0.015641805 0.045786027 -0.0587672
0000d0 33 bd cc bb ad e0 25 bc 76 a5 bf bc c1 ba 6f bd
       -0.0062481402 -0.010124368 -0.023394328 -0.05852771
0000e0 a2 6e e8 bc 7f 37 4e bd 49 4a d2 bb b1 2c bb bc
       -0.028373066 -0.050345894 -0.006417547 -0.022848459
0000f0 5d 98 56 bd e3 0c 2a bc c9 48 e8 bc 9f be 0c bd
       -0.0523914 -0.010379049 -0.02835502 -0.034361478

critic.value_heads.value_heads.extrinsic.weight f4 [1, 64]
000000 3d ca c7 3a 59 0c ee bd 85 a0 0d be 19 5f b1 3e
       0.0015242767 -0.11623449 -0.13830765 0.34642866
000010 b2 86 e5 3d 30 b0 b4 bd 2c 31 1d be 24 5c 8e be
       0.11207332 -0.088226676 -0.15350789 -0.27804673
000020 d7 9a 57 3c cb 64 3a 3e 79 48 b5 be 0b 5a 8d 3d
       0.013159475 0.18202512 -0.35406855 0.0690194
000030 d1 c1 24 3e bc 8f 81 3d 88 f0 c5 3d f8 d8 be bc
       0.1608956 0.06326243 0.09665018 -0.023296818
000040 1e a2 e5 ba 24 21 a4 be 36 19 17 be 36 bc 1f 3e
       -0.0017519628 -0.32056534 -0.14755711 0.1559914
000050 97 af 65 3e b0 98 c1 3e 59 ab 39 bd bc 83 c4 bd
       0.22430263 0.37811804 -0.045329425 -0.09595439
000060 70 97 b5 3c 7c ba 6a be b9 89 e7 bd 17 80 d2 3d
       0.022166938 -0.229227 -0.113055654 0.102783374
000070 8e 52 32 bd 68 07 86 be 39 5d e1 3e 33 95 89 be
       -0.04353576 -0.26177526 0.44016436 -0.26871642
000080 60 e3 e2 3d 0a ef 80 be fa 74 b8 be 92 29 94 3e
       0.110785246 -0.25182372 -0.36026746 0.28937966
000090 c2 6d 90 3e 4c 39 ea bd 79 15 5d 3e 37 2e 7a 3e
       0.2820874 -0.1143671 0.21590222 0.24431692
0000a0 5a 10 b0 3d 00 01 0f 3e 2f bc 28 be 2f 2e 86 be
       0.08596869 0.13965225 -0.16478036 -0.2620711
0000b0 4d 03 19 be 7c 09 92 bb 8c 1d 11 3d 56 5d 94 be
       -0.14942665 -0.004456697 0.03542857 -0.2897746
0000c0 7f 39 02 bd 35 79 cb 3e 1d f6 2c be b9 74 63 be
       -0.031793114 0.3974091 -0.1689076 -0.22212495
0000d0 f2 8d bf 3d c2 d1 4f 3e 9e 31 48 be f5 a7 c7 bd
       0.09353246 0.2029486 -0.19550177 -0.09748832
0000e0 cb 38 2c be cf 27 c1 bd bb 31 78 3e 69 7f 3c 3e
       -0.1681854 -0.09431421 0.2423772 0.18407978
0000f0 18 cb 90 bc ba f9 a3 3e df a9 e1 3d a1 a2 ca be
       -0.017674968 0.32026464 0.110187285 -0.395772

exp_avg f4 [64, 82]
000000 29 6b 70 39 fd 17 83 37 24 a2 9c 37 aa 5e 65 39
       0.00022928104 1.5627587e-05 1.8672152e-05 0.00021874407
000010 d1 7b db 37 c5 ac 8e 37 e2 fb 79 39 8d 48 da 36
       2.6164491e-05 1.7008171e-05 0.00023840324 6.5053523e-06
000020 a2 f4 ae 37 88 3d 79 39 eb 13 f2 36 3f 3f 6d 37
       2.0856332e-05 0.00023769413 7.214481e-06 1.4141026e-05
000030 c8 e3 62 39 fb 52 ef 37 6c ea ee 37 e2 25 79 39
       0.00021637895 2.8529661e-05 2.8480972e-05 0.00023760603
000040 89 08 f5 36 ac c5 07 37 dc 7c ea b7 e1 0e 8f 39
       7.3025626e-06 8.092651e-06 -2.7953116e-05 0.0002728617
000050 01 3a 8e 39 52 4c 7b 39 87 3a b0 36 ff 9d dd 36
       0.00027127567 0.00023965657 5.252022e-06 6.6047064e-06
000060 a4 ab 32 b6 6a cc 81 39 1e 37 81 39 df 68 76 39
       -2.6623975e-06 0.00024757098 0.00024645863 0.00023499456
000070 70 54 26 37 3a 4e 3b 37 02 9a b0 36 56 49 7b 39
       9.914031e-06 1.1164282e-05 5.2631376e-06 0.00023964545
000080 28 2f 7b 39 ae dd 7a 39 00 00 00 00 f6 5a 3f 36
       0.00023954792 0.0002392444 0.0 2.8514164e-06
000090 db 72 b4 36 04 00 00 00 98 22 dc 38 fb d9 43 37
       5.377789e-06 6e-45 0.00010496861 1.1673658e-05
0000a0 88 90 74 39 e3 2d 7b 39 ea dc c3 b4 09 98 80 39
       0.00023323495 0.0002395432 -3.6482317e-07 0.00024527338
0000b0 87 73 80 39 97 de 7a 35 43 d3 7f 39 89 1e 80 39
       0.00024500137 9.345617e-07 0.00024397396 0.00024436813
0000c0 1f e9 28 b6 e6 b8 81 39 0c 76 81 39 c2 dd 87 37
       -2.5169645e-06 0.00024742557 0.0002469275 1.6196518e-05
0000d0 6f d2 6f 39 41 31 7c 39 02 cf c5 b5 e2 2c 81 39
       0.00022871209 0.00024050941 -1.4737891e-06 0.00024638238
0000e0 f9 1c 81 39 4d d8 00 b7 d6 6d 84 39 8a 39 83 39
       0.00024626384 -7.679756e-06 0.00025258836 0.00025029137
0000f0 24 65 be b5 7a 25 81 39 c5 12 81 39 13 6a 62 39
       -1.4185539e-06 0.0002463272 0.00024618782 0.00021592555
000100 98 20 f3 37 23 f5 38 38 e8 f1 a7 b5 06 0f 81 39
       2.8983035e-05 4.409732e-05 -1.2512874e-06 0.0002461599
000110 60 fd 80 39 e5 e1 71 39 f4 c3 6e 37 0f d9 fc 37
       0.00024602842 0.00023067703 1.4231529e-05 3.0141817e-05
000120 55 cb 3c b5 00 00 00 00 b1 a8 e7 38 8d d0 36 b5
       -7.0331345e-07 0.0 0.000110463596 -6.8103765e-07
000130 00 00 00 00 02 d7 42 36 1d 68 69 b8 00 00 00 00
       0.0 2.9033404e-06 -5.5648492e-05 0.0
000140 04 00 00 80 47 63 2a b8 04 e2 b5 38 09 ea d9 38
       -6e-45 -4.0623618e-05 8.672851e-05 0.00010390959
000150 ea 33 c3 38 03 d3 4f 38 4a f1 13 39 e2 ee a8 38
       9.307994e-05 4.9549166e-05 0.000141089 8.05536e-05
000160 57 61 2b 39 8e 25 e4 37 ad 45 71 38 18 ed 2f 39
       0.00016344093 2.7197206e-05 5.752377e-05 0.00016777625
000170 70 c7 bf 37 06 b7 f5 37 34 86 1c 39 4f 7f 2d 38
       2.2861845e-05 2.9291503e-05 0.00014927314 4.136498e-05
000180 cc d8 69 38 f7 47 40 39 ec c1 f3 36 5d 3a 40 37
       5.5753437e-05 0.00018337356 7.26454e-06 1.1457681e-05
000190 1e 1c 2c b8 0e ed 72 39 a6 da 65 39 ca b0 3b 39
       -4.103418e-05 0.00023167228 0.00021920595 0.00017899569
0001a0 bc 53 43 37 c6 b7 6b 37 6f 7d 81 37 5a b6 37 39
       1.1642402e-05 1.404988e-05 1.5436408e-05 0.00017520171
0001b0 5d 60 3c 39 78 23 5a 39 78 eb 91 b7 1b ff 3f b7
       0.00017964975 0.00020803313 -1.7394996e-05 -1.14438835e-05
0001c0 93 ad be b7 ba bb 5f 39 28 36 5f 39 c5 62 28 39
       -2.2730592e-05 0.00021336871 0.00021287112 0.00016058523
0001d0 00 00 00 00 d2 f4 09 36 7d 9d d0 b7 04 00 00 00
       0.0 2.0557095e-06 -2.4868868e-05 6e-45
0001e0 1d dd bf 38 62 21 42 b8 5e 6e 78 39 2f fb 67 39
       9.148775e-05 -4.6284295e-05 0.00023692238 0.0002212345
0001f0 1d 9c 36 38 01 3f 1a 39 0e 89 2b 39 2d cd fd b6
       4.3537573e-05 0.00014710055 0.00016358888 -7.563873e-06
000200 72 d4 4f 39 1b 4f 4c 39 6a 7c bd 37 7b 36 30 39
       0.000198202 0.00019484425 2.258849e-05 0.00016804964
000210 ee bd 32 39 ef 5e b3 37 29 7a 31 39 df 33 36 39
       0.00017046157 2.138267e-05 0.00016925544 0.00017376196
000220 0d 9b ad 37 a5 32 32 39 ca 77 33 39 ce 00 1e 38
       2.0695408e-05 0.0001699427 0.00017115395 3.7670885e-05
000230 d3 65 20 39 63 f3 2b 39 4a ae a8 37 3d d0 32 39
       0.00015296722 0.000163985 2.010832e-05 0.00017052978
000240 85 3f 34 39 72 6a 43 39 5a 72 8f 36 97 de e4 37
       0.000171898 0.00018636303 4.2750444e-06 2.728337e-05
000250 e1 63 9e 37 8b 19 34 39 da 72 35 39 fc d4 65 39
       1.8881577e-05 0.00017175653 0.0001730429 0.00021918485
000260 b5 77 ef b7 af b3 10 b7 a8 89 7d 37 00 00 00 00
       -2.8546763e-05 -8.624905e-06 1.5112026e-05 0.0
000270 8a af b1 38 b1 54 39 35 00 00 00 00 60 df 16 36
       8.4727144e-05 6.904111e-07 0.0 2.2481763e-06
000280 71 7d 8b b9 00 00 00 00 04 00 00 00 37 e8 46 38
       -0.00026605607 0.0 6e-45 4.7423146e-05
000290 8f dd 95 b7 0c 26 23 38 da 3d 16 38 64 30 d2 36
       -1.7865355e-05 3.8897662e-05 3.582039e-05 6.264121e-06
0002a0 e8 c4 77 37 92 e9 0a 38 6e 04 a6 b7 7d 39 2b 38
       1.4768193e-05 3.3119293e-05 -1.9790805e-05 4.0823117e-05
0002b0 45 06 22 38 c1 0e 08 b8 07 46 60 38 16 ff 5a 38
       3.862965e-05 -3.2438667e-05 5.347098e-05 5.2212818e-05
0002c0 db fa da b7 b6 b4 45 38 da 78 2e 38 f6 d9 16 b8
       -2.6104439e-05 4.713676e-05 4.1597385e-05 -3.596578e-05
0002d0 3b 11 6f 38 80 2b 6b 38 51 0f e2 37 19 83 c6 b6
       5.6998088e-05 5.606888e-05 2.6948432e-05 -5.9161216e-06
0002e0 39 15 88 36 e1 ae 13 b8 22 e6 6b 38 58 6c 68 38
       4.0555865e-06 -3.52104e-05 5.6242694e-05 5.5414013e-05
0002f0 96 04 a2 b6 b4 ef d8 37 fe b4 cb 37 4d a4 3f b8
       -4.82851e-06 2.5860827e-05 2.4283767e-05 -4.5690966e-05
000300 ca ed 8b 38 b7 66 88 38 aa ee 0e 37 6b ee 51 37
       6.672328e-05 6.5041175e-05 8.519428e-06 1.2512882e-05
000310 61 ce 55 37 35 8f ec b7 00 00 00 00 2e ba b1 34
       1.2743841e-05 -2.8200078e-05 0.0 3.3104283e-07
000320 9c 5b 31 37 04 00 00 80 ee cd 06 37 3b e5 88 37
       1.0571352e-05 -6e-45 8.034969e-06 1.6319207e-05
000330 34 25 9e 36 4a 92 1a 37 6b 5c 81 37 95 48 bc 36
       4.713098e-06 9.213176e-06 1.5421034e-05 5.6112863e-06
000340 f6 60 91 37 e5 56 2a 36 ad 23 9b 37 b5 cd b2 37
       1.7330498e-05 2.5382553e-06 1.8494053e-05 2.1315043e-05
000350 10 a6 8d b6 08 d8 d3 37 21 4b d0 37 42 0d 63 35
       -4.2214597e-06 2.5253757e-05 2.4830517e-05 8.458338e-07
000360 22 56 a9 37 3e 96 db 37 ad 54 b6 b6 b5 03 de 37
       2.0186479e-05 2.6176796e-05 -5.4338802e-06 2.6466189e-05
000370 3d 5e da 37 a4 70 0c b7 da a6 f6 37 80 89 ee 37
       2.6031508e-05 -8.3708765e-06 2.9403182e-05 2.843584e-05
000380 44 2e ad b6 1b ba db 37 37 31 d7 37 4b 74 0b b8
       -5.161188e-06 2.6193497e-05 2.5652915e-05 -3.324849e-05
000390 8d ab 63 38 6c fd 4f 38 2a ef 8d b6 57 ea d3 37
       5.4280787e-05 4.9588663e-05 -4.22997e-06 2.5262283e-05
0003a0 59 50 d0 37 20 f1 58 b8 36 94 98 38 cd 1a 8e 38
       2.4832947e-05 -5.172298e-05 7.275531e-05 6.77608e-05
0003b0 75 e2 11 b6 00 00 00 00 f0 0d e1 36 74 32 80 b3
       -2.17385e-06 0.0 6.707145e-06 -5.969642e-08
0003c0 00 00 00 00 eb cc 85 34 05 4a 28 39 00 00 00 00
       0.0 2.4922278e-07 0.00016049303 0.0
0003d0 04 00 00 80 6c 91 53 b8 2f d2 e0 38 49 ee 94 38
       -6e-45 -5.0441755e-05 0.00010720302 7.101574e-05
0003e0 3c b8 9d 38 80 86 bd 38 f7 39 b8 38 69 f1 6a 38
       7.52066e-05 9.037275e-05 8.7846005e-05 5.601478e-05
0003f0 5d 39 09 39 7b 9b 46 38 b0 b9 79 38 cf 65 6d 39
       0.00013086708 4.735168e-05 5.953916e-05 0.00022640008

exp_avg_sq f4 [64, 82]
000000 8a 28 9e 35 11 19 6a 33 20 05 85 33 d8 b9 9f 35
       1.1783716e-06 5.450517e-08 6.194227e-08 1.1900511e-06
000010 9c a2 54 33 07 79 6c 33 07 b3 a2 35 1d 6c f1 32
       4.950799e-08 5.5058106e-08 1.2122044e-06 2.8105257e-08
000020 97 cd 45 33 34 79 9f 35 2e 05 55 33 28 8e 5c 33
       4.605462e-08 1.1881698e-06 4.9597638e-08 5.1352032e-08
000030 17 cc 91 35 51 db 31 34 f3 36 33 34 0f 86 a0 35
       1.086274e-06 1.6564196e-07 1.6690664e-07 1.1959945e-06
000040 df 8b 68 33 81 69 68 33 5d 42 f0 32 52 59 a1 35
       5.414392e-08 5.4112665e-08 2.7969856e-08 1.202143e-06
000050 bd 84 a1 35 ab 3a a0 35 79 af 65 33 da 73 65 33
       1.2034067e-06 1.1938004e-06 5.347781e-08 5.3423584e-08
000060 8e 3a d1 32 ba c8 a1 35 b5 ee a1 35 18 c3 9f 35
       2.435743e-08 1.2053854e-06 1.2064908e-06 1.1903203e-06
000070 d4 8c 6e 33 80 9d 6e 33 36 ed da 32 18 a7 a1 35
       5.5541776e-08 5.555694e-08 2.5486411e-08 1.2044065e-06
000080 95 b4 a1 35 76 f9 29 34 00 00 00 00 97 2e 35 2f
       1.2047991e-06 1.5830105e-07 0.0 1.6478406e-10
000090 7b 8f db 32 cc 5d ee 1d f3 9f 84 34 f4 bf 80 33
       2.5560203e-08 6.309506e-21 2.4703294e-07 5.9953805e-08
0000a0 86 27 9e 35 69 90 a0 35 0c 5d 44 34 9d 45 90 35
       1.178342e-06 1.1962958e-06 1.8287773e-07 1.0749096e-06
0000b0 37 8e 99 35 eb c9 a2 34 63 dd 7a 35 b3 63 8c 35
       1.1440778e-06 3.0321766e-07 9.345442e-07 1.0459829e-06
0000c0 e4 63 d9 31 1e 25 a5 35 26 0b a5 35 dc d4 09 34
       6.3268875e-09 1.230426e-06 1.2296703e-06 1.2836557e-07
0000d0 c0 3c 94 35 cc 13 9a 35 ee d2 07 31 e4 bd a4 35
       1.104454e-06 1.1479656e-06 1.9764985e-09 1.2274218e-06
0000e0 37 e1 a4 35 3f 33 ae 33 66 c2 9c 35 40 c0 9c 35
       1.2284498e-06 8.111828e-08 1.1679483e-06 1.1678858e-06
0000f0 c9 20 ea 30 68 37 a5 35 57 33 a5 35 5a 44 a0 35
       1.7035059e-09 1.2309583e-06 1.23084e-06 1.1940822e-06
000100 0e 16 56 33 e1 b1 71 33 2c 6c 67 30 e3 64 a5 35
       4.9845816e-08 5.6273965e-08 8.419103e-10 1.232282e-06
000110 68 5c a5 35 cc 99 a1 35 ce 91 44 33 95 30 5b 33
       1.2320352e-06 1.2040196e-06 4.5767415e-08 5.1034096e-08
000120 5f 92 74 30 00 00 00 00 b6 f3 7d 34 d8 3c 33 31
       8.897469e-10 0.0 2.3651123e-07 2.6082514e-09
000130 00 00 00 00 45 15 3d 2f a5 5f 0f 36 00 00 00 00
       0.0 1.7197006e-10 2.1364333e-06 0.0
000140 f4 01 00 00 3d 26 f4 33 05 63 ec 35 cc 9d 67 36
       7e-43 1.1369091e-07 1.7612189e-06 3.4513532e-06
000150 67 c3 81 36 e7 ad 78 35 bc 70 89 36 24 5e 91 36
       3.8672474e-06 9.264026e-07 4.096042e-06 4.332296e-06
000160 e0 58 e1 35 e2 10 62 36 b0 0f 86 36 73 98 9e 35
       1.6789672e-06 3.3686451e-06 3.9953375e-06 1.1816286e-06
000170 90 c5 85 36 06 22 8b 36 b0 14 89 35 a4 54 86 36
       3.986708e-06 4.1464837e-06 1.0213316e-06 4.0033647e-06
000180 01 60 8c 36 30 2a 0e 35 c6 e8 98 36 d1 a4 98 36
       4.1835015e-06 5.2960513e-07 4.5570514e-06 4.54914e-06
000190 69 f5 29 34 25 23 a4 36 3f eb a3 36 bf 68 19 35
       1.5828631e-07 4.8916722e-06 4.885165e-06 5.714937e-07
0001a0 87 61 97 36 6b 58 97 36 a2 5b 3d 34 70 9d a3 36
       4.5115044e-06 4.510444e-06 1.7635332e-07 4.8761067e-06
0001b0 ac b1 a3 36 3c be 3e 35 86 38 94 36 7f 2b 94 36
       4.8784623e-06 7.1057343e-07 4.417324e-06 4.4158073e-06
0001c0 c1 11 2e 34 a9 64 a3 36 bd 5f a3 36 be d3 ce 33
       1.6211472e-07 4.869497e-06 4.868924e-06 9.631138e-08
0001d0 00 00 00 00 6c 1d 40 30 0e de 34 34 5c ae 52 1c
       0.0 6.9891004e-10 1.684459e-07 6.9708526e-22
0001e0 bb ee c8 35 82 88 3d 35 7f 9c 94 36 e4 1e a0 36
       1.4970641e-06 7.060663e-07 4.4289623e-06 4.7719677e-06
0001f0 dc a2 81 35 37 ca 8b 36 30 3d 95 36 7a 16 f4 35
       9.658647e-07 4.1660637e-06 4.447669e-06 1.8185958e-06
000200 f0 2c 63 36 70 bc 8a 36 fe cf 15 34 53 69 a6 36
       3.3851793e-06 4.1346575e-06 1.3952373e-07 4.959447e-06
000210 ba 48 a6 36 16 1a 4f 35 25 00 90 36 b0 03 9d 36
       4.955652e-06 7.715147e-07 4.2915512e-06 4.679394e-06
000220 fd 80 0e 34 66 7e a5 36 95 8d a5 36 6b de a9 34
       1.3271706e-07 4.932098e-06 4.9338655e-06 3.1640533e-07
000230 24 12 a2 36 bc 10 a5 36 39 34 16 34 a4 98 a5 36
       4.830088e-06 4.9193313e-06 1.3988837e-07 4.935153e-06
000240 ba a2 a5 36 1f 45 1d 35 5d f3 95 36 f0 4b 96 36
       4.936327e-06 5.858764e-07 4.4688773e-06 4.4791886e-06
000250 cd f2 00 34 67 88 a5 36 86 8c a5 36 b0 9f 40 35
       1.200926e-07 4.9332625e-06 4.9337423e-06 7.175795e-07
000260 2f d1 92 36 48 03 93 36 58 d8 ee 33 00 00 00 00
       4.3754912e-06 4.3813234e-06 1.1122091e-07 0.0
000270 0b 47 20 35 4b 5b 4a 32 00 00 00 00 62 e7 41 30
       5.9708026e-07 1.1778705e-08 0.0 7.0541806e-10
000280 ab 68 29 39 00 00 00 00 f4 01 00 00 10 c1 37 36
       0.00016156088 0.0 7e-43 2.7381502e-06
000290 19 4d f8 34 aa cb 84 35 da 76 a4 35 d2 ae 35 34
       4.6249696e-07 9.89404e-07 1.2253543e-06 1.6920538e-07
0002a0 bf 29 b4 35 5f 1e c1 35 49 ef 26 35 b3 ab 61 35
       1.3423195e-06 1.438846e-06 6.2188025e-07 8.4068887e-07
0002b0 68 80 a0 35 0c 2a 0d 34 d4 d1 bb 35 61 66 c0 35
       1.19583e-06 1.3146945e-07 1.3993654e-06 1.4334911e-06
0002c0 8c 2d 89 33 f5 22 c6 35 21 c2 c8 35 a0 16 25 33
       6.3878446e-08 1.4762323e-06 1.495766e-06 3.8437634e-08
0002d0 75 1f ca 35 a0 45 ca 35 6f e8 0c 32 7c a0 ce 35
       1.5059328e-06 1.5070436e-06 8.201922e-09 1.5394903e-06
0002e0 01 4c ce 35 c2 22 3c 33 45 b8 cb 35 eb 71 cb 35
       1.5370316e-06 4.3803773e-08 1.5178308e-06 1.5157833e-06
0002f0 60 99 6d 32 5d 97 cd 35 99 b0 cd 35 90 d4 95 33
       1.3830089e-08 1.5317743e-06 1.5325087e-06 6.977018e-08
000300 8f c0 c8 35 30 94 c8 35 ba 24 1c 32 4c 20 cd 35
       1.4957203e-06 1.494429e-06 9.088746e-09 1.528309e-06
000310 ba 5f cd 35 53 eb a8 31 00 00 00 00 94 42 6c 2f
       1.530155e-06 4.916197e-09 0.0 2.1487728e-10
000320 db 72 3e 32 04 b7 dd 21 e5 7a f5 34 40 96 94 34
       1.1085571e-08 1.5023986e-18 4.5724224e-07 2.767647e-07
000330 85 30 aa 35 79 22 be 35 2f 5b 6a 34 1b f8 b1 35
       1.2680108e-06 1.4166136e-06 2.182612e-07 1.3259736e-06
000340 b7 5b be 35 b7 ca 47 35 e1 7b 53 35 57 6d 96 35
       1.4182796e-06 7.4428266e-07 7.878389e-07 1.1207693e-06
000350 11 9a d0 32 88 a8 ce 35 36 95 ce 35 36 8b fd 34
       2.4284448e-08 1.5397245e-06 1.5391622e-06 4.7226212e-07
000360 45 7d 89 35 01 fc ab 35 f8 32 95 32 37 f7 cd 35
       1.0243754e-06 1.2813836e-06 1.736906e-08 1.5345639e-06
000370 ab f6 cd 35 a6 5f 60 33 2e 8f cd 35 6e 55 cd 35
       1.534548e-06 5.2241056e-08 1.5315361e-06 1.5298554e-06
000380 9c bf ab 32 2d 93 cd 35 29 98 cd 35 06 11 1f 33
       1.9994154e-08 1.5316524e-06 1.5317975e-06 3.7035555e-08
000390 31 3f cc 35 8d 43 cc 35 48 54 96 32 25 05 cd 35
       1.5217576e-06 1.5218844e-06 1.7500625e-08 1.5275187e-06
0003a0 bb 18 cd 35 b8 53 85 33 44 83 c7 35 9e b4 c7 35
       1.5280888e-06 6.2085235e-08 1.4864859e-06 1.4879222e-06
0003b0 dc 73 8d 32 00 00 00 00 85 11 4d 34 32 90 28 31
       1.6467247e-08 0.0 1.9098486e-07 2.4529183e-09
0003c0 00 00 00 00 21 eb 6c 2f f3 9f 36 38 00 00 00 00
       0.0 2.154761e-10 4.3541146e-05 0.0
0003d0 f4 01 00 00 eb 77 48 35 b5 b2 67 36 9f f5 29 37
       7e-43 7.468031e-07 3.4525704e-06 1.0130373e-05
0003e0 1f 0a 3d 37 b9 3a db 35 f9 e0 47 37 4e 19 51 37
       1.1267634e-05 1.6333862e-06 1.1913705e-05 1.24632625e-05
0003f0 b3 3b aa 36 20 b2 0a 37 73 f6 33 37 e1 22 fc 35
       5.0733447e-06 8.266914e-06 1.0726612e-05 1.8785614e-06

exp_avg f4 [64]
000000 13 67 80 39 09 e6 47 39 8a 6e b0 37 3c e0 3a 39
       0.0002449086 0.00019063814 2.1032309e-05 0.00017821876
000010 0f eb 0b b9 d9 dc 00 39 bf 85 c6 b9 6f 61 92 b6
       -0.00013343639 0.00012289303 -0.00037865152 -4.362482e-06
000020 1d 70 3e 39 92 5f c7 b8 ca a6 2d b9 34 c5 b7 38
       0.00018161577 -9.506861e-05 -0.000165607 8.762852e-05
000030 9e 8b 82 36 0c 39 d3 37 9c 21 5d 39 e2 a7 6b 38
       3.8905555e-06 2.5179725e-05 0.00021088723 5.618472e-05
000040 78 f2 00 b9 dd e9 a7 36 03 c4 dd 39 49 ef 83 37
       -0.00012297358 5.004213e-06 0.00042298445 1.5727843e-05
000050 f0 a4 af 36 81 a9 27 39 b7 2a f6 39 b4 8a 1a 38
       5.2346077e-06 0.00015989506 0.000469526 3.684564e-05
000060 6e 78 4a 37 43 24 44 38 7c a4 c1 37 db b0 98 39
       1.2068178e-05 4.6763813e-05 2.3083987e-05 0.00029123467
000070 9f 8d 19 36 4b 0e cb 39 a1 93 ec 39 92 ad 26 3a
       2.288121e-06 0.00038729826 0.0004512342 0.00063582615
000080 46 16 98 38 d5 24 02 39 b4 bb e2 37 2d 8f 3a 35
       7.2520736e-05 0.00012411487 2.7028706e-05 6.949875e-07
000090 f5 d1 43 39 e8 02 ef 37 f2 89 07 37 c8 78 38 37
       0.00018674864 2.8492374e-05 8.078745e-06 1.0995376e-05
0000a0 79 d5 51 39 44 cc 99 36 42 23 6f 39 4e 7d 37 37
       0.00020011318 4.583535e-06 0.0002280595 1.0936825e-05
0000b0 f1 6b 7d 39 89 f2 04 35 46 8a b5 35 a7 0f 8f 39
       0.00024168172 4.9526767e-07 1.3525794e-06 0.00027286747
0000c0 56 01 53 b9 94 e9 0b b9 da 15 cc b9 d6 55 24 39
       -0.00020123026 -0.00013343088 -0.00038926193 0.00015672235
0000d0 26 3b 90 38 6e c1 f2 34 75 63 8a 39 ee 5c b3 b7
       6.877472e-05 4.521675e-07 0.00026395512 -2.1381737e-05
0000e0 0c 09 0a 39 31 b9 5c 38 99 78 93 39 fc 9d 0f b7
       0.00013164076 5.262456e-05 0.00028127877 -8.560248e-06
0000f0 d4 51 0e 38 8b 3f 46 39 84 79 22 39 a3 45 eb 39
       3.3931647e-05 0.00018906423 0.00015494792 0.00044874576

exp_avg_sq f4 [64]
000000 b3 2e a5 35 d8 f5 a8 36 fc 9b ce 35 86 04 63 37
       1.2307049e-06 5.03541e-06 1.5393593e-06 1.3531308e-05
000010 d1 43 44 38 e2 8c 09 38 d2 78 0c 39 e6 63 5b 32
       4.67932e-05 3.2794553e-05 0.0001339645 1.2770192e-08
000020 66 df 88 36 ad 11 28 38 2d fc 83 38 e1 ac 84 36
       4.079123e-06 4.0070783e-05 6.293538e-05 3.9540323e-06
000030 20 f1 cc 32 e2 92 d6 37 d8 5e a9 36 ef 60 0a 34
       2.3858377e-08 2.5579186e-05 5.0476337e-06 1.2887516e-07
000040 75 ec 5a 38 f3 fc 77 31 05 bc 1d 38 40 01 d0 33
       5.2195468e-05 3.6087016e-09 3.7606824e-05 9.685982e-08
000050 c9 ef 87 33 5e 8c 12 37 d8 55 e6 37 5c 2b 9f 34
       6.330044e-08 8.73496e-06 2.745811e-05 2.9647606e-07
000060 40 9e 42 34 43 c9 77 36 c5 d0 e9 36 24 7f d0 37
       1.8125229e-07 3.6923018e-06 6.968245e-06 2.4854737e-05
000070 2d 81 fe 32 d2 5a 62 37 65 ff c3 37 7c ca 8a 38
       2.9628234e-08 1.34917955e-05 2.3364739e-05 6.6180684e-05
000080 03 38 9b 37 61 87 cc 35 83 ee d4 34 d9 ba e3 32
       1.8503522e-05 1.5238585e-06 3.9661617e-07 2.6511247e-08
000090 9d 16 e6 36 4a e6 99 34 09 9d bb 31 07 27 48 33
       6.8571667e-06 2.8666028e-07 5.460269e-09 4.6601624e-08
0000a0 c7 ee 9c 35 1f 1c 80 32 5d b8 f9 37 a9 35 f1 32
       1.1692399e-06 1.491395e-08 2.9768964e-05 2.8080494e-08
0000b0 0f ac b5 37 cb 11 f3 32 ca 96 f2 31 e0 6d dd 37
       2.1657002e-05 2.8297015e-08 7.0602697e-09 2.6396418e-05
0000c0 1f bf 01 38 49 fd 78 37 e1 16 e2 38 5a 26 c3 34
       3.0933992e-05 1.4840924e-05 0.00010780781 3.6349485e-07
0000d0 7b 9b 75 36 eb 4e 37 32 66 c0 95 36 20 7a 46 33
       3.6598346e-06 1.0669946e-08 4.462944e-06 4.621154e-08
0000e0 2f 2a 37 37 89 cf 71 37 29 89 e1 37 18 44 56 33
       1.0917472e-05 1.441304e-05 2.688596e-05 4.988769e-08
0000f0 7f 54 09 37 c8 e6 04 38 58 db b3 34 38 af d2 37
       8.18551e-06 3.1686184e-05 3.3500942e-07 2.5115543e-05

exp_avg f4 [3, 64]
000000 9a 43 b7 ba 45 c7 3d bb 36 bd 65 3b 8e fa 1d bb
       -0.0013981939 -0.0028957885 0.0035055405 -0.002410564
000010 60 a0 8b 3b 96 19 2b bb 94 4e 95 3b 91 9d c6 38
       0.0042610615 -0.002610778 0.0045564864 9.470725e-05
000020 8c 6e af ba cf 8c b4 3b 7f 61 43 ba 19 4b 31 bb
       -0.0013384386 0.0055099498 -0.0007453188 -0.0027052818
000030 dd a0 aa 38 89 30 bc 3b 08 d7 0e bb 44 fb 56 39
       8.136195e-05 0.0057430905 -0.002179565 0.00020502234
000040 1d 27 96 3b d6 f6 c9 38 34 ea 08 bb 63 76 29 39
       0.0045822994 9.630404e-05 -0.002089155 0.00016161198
000050 f2 7d fd 38 1d 82 36 ba df e4 67 ba 44 fa 8f b8
       0.00012087439 -0.00069621374 -0.0008846055 -6.865387e-05
000060 06 21 70 39 de ce 40 3b b7 4f 29 bb de 43 ab 3b
       0.00022900486 0.0029420177 -0.0025834867 0.0052265963
000070 1e ae 95 b8 9a d4 96 39 55 f3 c4 38 11 72 1d 3a
       -7.1373055e-05 0.0002876863 9.3913324e-05 0.0006006072
000080 fb 36 cf 39 14 33 20 3b b7 98 1f 39 1e c1 eb 39
       0.0003952308 0.0024444507 0.00015220312 0.00044966576
000090 3b 53 3d 38 93 77 d1 38 a7 7d 09 39 df 98 b7 39
       4.5138626e-05 9.988169e-05 0.00013112147 0.00035018378
0000a0 a6 7f d8 ba 22 59 c9 37 c6 95 39 ba 9d 9a 59 39
       -0.0016517534 2.4002573e-05 -0.0007079508 0.0002075233
0000b0 e4 08 db ba b6 ee 9e 39 45 82 2f b8 5c 79 c9 3b
       -0.0016711024 0.00030313962 -4.1844574e-05 0.0061485004
0000c0 a3 07 6e 3a b1 3d ca ba d0 57 65 3b ec 58 ec b9
       0.00090801175 -0.0015429762 0.0034994967 -0.0004507968
0000d0 de 85 f8 39 4f ff 86 39 ef e9 9f ba 95 c7 3d 39
       0.00047401985 0.0002574869 -0.0012200455 0.00018098795
0000e0 0c a5 66 3b 48 7a 80 3b 48 d0 1d bb a9 fd 2b 39
       0.003519359 0.003920827 -0.0024080444 0.00016402327
0000f0 af 4b 3c 3a 83 3d 3b ba 50 74 03 bb fb 45 3d bb
       0.00071829086 -0.000714265 -0.0020058341 -0.0028880823
000100 2a 35 30 39 af 9c f5 3a fe 83 23 bb 71 7c 24 3a
       0.00016804473 0.0018738712 -0.00249505 0.0006274647
000110 97 dd 74 bb eb f4 1c 3b 47 5f 94 bb e9 d5 45 b7
       -0.0037363523 0.0023949693 -0.0045279595 -1.179192e-05
000120 f8 e8 81 3a 6c bf d3 bb 59 6d 1e 3a a8 08 f1 b8
       0.0009911349 -0.0064620283 0.0006043516 -0.00011493388
000130 dd b5 ec 37 1d 0b 8c bb d6 3d 77 ba 20 89 b2 37
       2.8218079e-05 -0.0042737857 -0.00094315165 2.1283107e-05
000140 37 77 cb bb 86 c0 99 37 ed 57 9d 3a b3 f4 ef 38
       -0.00620928 1.8328672e-05 0.0012004353 0.00011441987
000150 01 bf 83 39 b3 8d ff ba 78 fd 1d bb ca 44 d7 39
       0.00025128576 -0.0019497186 -0.0024107378 0.00041059247
000160 e2 fd f0 38 81 97 11 bb 06 88 27 3b 76 73 d9 bb
       0.00011491381 -0.0022215548 0.0025563254 -0.0066360785
000170 65 bb 33 39 69 77 35 bb 49 e3 1f bb 0a 0a 8e bb
       0.0001714058 -0.0027689582 -0.0024396947 -0.004334693
000180 0a 7d 11 bb b2 42 ef ba 2e 69 5b 39 84 e1 d9 b7
       -0.0022199773 -0.001825413 0.0002092465 -2.597343e-05
000190 c1 15 d6 ba c8 4c 31 39 c6 60 d4 b7 6f 47 87 b7
       -0.0016333387 0.00016908639 -2.5317433e-05 -1.6126518e-05
0001a0 3d fa 88 3a 73 ba b1 39 6e 27 26 bb 0a 66 c1 37
       0.0010450553 0.00033898986 -0.0025353092 2.3054909e-05
0001b0 ea 00 b1 38 6c ab 05 b6 c3 10 e5 39 f0 84 e2 bb
       8.440188e-05 -1.9918325e-06 0.00043690772 -0.00691282
0001c0 12 1e 89 ba c0 57 b5 b9 e5 15 91 bb dd 80 3e 39
       -0.0010461232 -0.0003458839 -0.004427659 0.00018167817
0001d0 3a 17 0e b9 be 10 80 37 51 b2 20 bb 98 1d 83 38
       -0.00013550828 1.5266585e-05 -0.0024520347 6.252079e-05
0001e0 f4 af 04 bb 4d 29 80 bb 70 4f 20 3b fb 04 5f 38
       -0.0020246478 -0.0039111734 0.002446141 5.317198e-05
0001f0 ae c3 24 bb 2e 98 21 bb b0 e3 6f 3a 75 aa d1 3a
       -0.0025141048 -0.0024657357 0.00091510545 0.0015996235
000200 f6 3c a1 3a d9 f1 85 3a 70 72 84 ba e4 b6 e9 3a
       0.0012301493 0.0010219171 -0.0010104906 0.0017830995
000210 9b 8c 09 ba 31 4b 62 39 08 46 ef b7 ca e2 ad b8
       -0.0005247087 0.0002158105 -2.8523631e-05 -8.2915256e-05
000220 51 16 b6 39 da 94 79 3a ab d0 13 39 5c d3 38 3b
       0.00034730372 0.0009520777 0.00014096747 0.0028202152
000230 58 ce e5 b8 a6 95 c0 ba 83 a6 4c 3b 62 4c 6d b9
       -0.000109580054 -0.0014693036 0.0031227178 -0.00022630536
000240 49 40 d5 3a f5 66 f0 b8 f2 f8 68 3a 5d b8 90 b9
       0.0016269769 -0.00011463269 0.00088871934 -0.00027603182
000250 7e 1e c3 b9 5c 67 2d 3b aa f6 57 3b 3e 46 b3 b9
       -0.00037216017 0.0026459312 0.003295342 -0.00034193875
000260 fb 4f b4 b9 79 dd 3c ba 1b d8 e3 37 75 be b8 3a
       -0.00034391865 -0.0007204633 2.716114e-05 0.0014094847
000270 ae c8 d1 b8 d4 9c 22 3b ae bb 19 3b 90 b7 74 3b
       -0.00010003276 0.0024812715 0.0023457813 0.0037340857
000280 54 2c ef 3a df 46 22 ba f0 80 bd b9 09 23 de b9
       0.0018247464 -0.000619037 -0.00036144955 -0.00042369243
000290 24 2b d0 3a 48 04 8d b9 1c e3 dd b8 6d 24 af b9
       0.0015881998 -0.00026896806 -0.000105804036 -0.0003340574
0002a0 d0 0a 1f 3a fe 4f be b9 e4 8c 54 3b 5f c7 71 b9
       0.000606698 -0.00036299223 0.003243261 -0.00023057823
0002b0 d0 f8 cf 3a 5d e3 9d b9 76 20 cf b9 7a 5c 48 3a
       0.0015866999 -0.00030114772 -0.00039506302 0.00076431746
0002c0 f5 d1 10 39 a4 93 f7 3a ff 4f 73 3a 7c 18 8d 39
       0.00013811125 0.0018888605 0.00092816347 0.00026911858
0002d0 40 7a b1 b9 5a 00 8f b9 48 a7 70 3b 5c 56 7f b9
       -0.00033851154 -0.00027275347 0.00367208 -0.00024350866
0002e0 2e ea c3 ba 66 f0 21 b7 ac c9 1f b8 e3 be 63 b9
       -0.001494711 -9.65232e-06 -3.8096376e-05 -0.00021719518
0002f0 85 61 eb 3a 8d 67 50 3b c2 f6 8e 3a 79 e1 a8 3a
       0.001795814 0.0031800002 0.001090728 0.0012884579
