Config/results/BallCatcher_01/BoxBehavior/BoxBehavior-499995.pt (torch, 141007 bytes, 21 tensors)

network_body.linear_encoder.seq_layers.0.weight f4 [64, 82]
0	0xbc95a6b0	-0.01826796
1	0xbde88444	-0.11353353
2	0xbe01f1fa	-0.12689963
3	0xbe232212	-0.15930966
4	0xbe94772c	-0.2899717
5	0xbda4097f	-0.08009624
6	0x3e4b31bf	0.19843195
7	0xbda5ad16	-0.08089654
8	0xbe9fd237	-0.3121507
9	0xbe952bc9	-0.29134968
10	0xbe707387	-0.2348157
11	0xbe4b4478	-0.19850338
12	0x3e1a492b	0.15066974
13	0xbeb0983e	-0.34491152
14	0x3d57c645	0.05267932
15	0x3dd051a8	0.10171825
16	0xbd664796	-0.056220613
17	0xbdd86784	-0.10566619
18	0x3e00d543	0.12581353
19	0xbe40c001	-0.18823244
20	0xbdaaabfc	-0.08333585
21	0x3e4be907	0.19913112
22	0xbe8a4da5	-0.27012363
23	0xbe91715d	-0.28406802
24	0x3e75069b	0.23928301
25	0xbdf1be5a	-0.11803885
26	0xbe3f853e	-0.18703172
27	0x3d6b6e59	0.057478283
28	0xbe4ad0de	-0.19806239
29	0xbe8a0e43	-0.26964006
30	0x3d8dea78	0.06929487
31	0x3e3da028	0.18518126
32	0xbe4553fe	-0.19270322
33	0x3e525238	0.20539176
34	0x3cac182c	0.02100762
35	0xbe2dd268	-0.16974795
36	0x3e6782a3	0.22608428
37	0xbe1b5cdc	-0.15172142
38	0xbdbc2779	-0.09187216
39	0xbe2686d5	-0.16262372
40	0x3d224bc0	0.039623022
41	0xbe510db3	-0.20415382
42	0xbe1a17b1	-0.150481
43	0xbe50f301	-0.20405199
44	0xbd05ddbb	-0.03268216
45	0xbddcf782	-0.10789396
46	0x3d09cc08	0.033641845
47	0xbf0cf630	-0.5506315
48	0x3ddb015d	0.106936194
49	0x3d568fa2	0.052383073
50	0xbe3a072d	-0.181668
51	0x3e059983	0.13046841
52	0xbce82c19	-0.02834134
53	0xbeb3645e	-0.35037512
54	0xbe0d8004	-0.13818365
55	0xbe243521	-0.16035892
56	0xbd520e24	-0.051283017
57	0x3dd4bd64	0.10387686
58	0xbd8ed669	-0.06974489
59	0x3d786dca	0.060651578
60	0x3d0deb08	0.03464797
61	0x3cd8026f	0.026368348
62	0xbe32e251	-0.17469145
63	0x3dbd7b7d	0.09252069
64	0xbe380421	-0.17970325
65	0xbdea06bf	-0.11427068
66	0xbdeee3fa	-0.11664577
67	0xbcd7f276	-0.026360732
68	0xbe8086d1	-0.25102857
69	0x3e86853d	0.26273528
70	0xbe148228	-0.14502776
71	0xbd6ddd76	-0.05807253
72	0xbe2685a9	-0.16261925
73	0xbda987b0	-0.082778335
74	0xbc3424d0	-0.010995105
75	0x3e0a1676	0.1348513
76	0x3d0c5d20	0.0342685
77	0xbe387f5f	-0.18017338
78	0x3d419eb3	0.047270488
79	0x3cc2f6e5	0.02379937
80	0x3de07bbe	0.10961102
81	0xbd0982f7	-0.033572163
82	0xbe22d770	-0.15902495
83	0xbc94ee09	-0.01817991
84	0xbdf65d8b	-0.12029561
85	0xbd1a00e7	-0.037598517
86	0xbd6e0419	-0.058109377
87	0x3ce9bf99	0.028533744
88	0xbe2dbc4f	-0.16966365
89	0x3d366c7c	0.044537053
90	0xbbbc4f10	-0.0057467297
91	0xbe964647	-0.29350492
92	0xbe2ae00c	-0.1668703
93	0xbe5e429e	-0.217051
94	0x3e12ba31	0.14328839
95	0x3d43a6e9	0.0477666
96	0xbe1329a8	-0.1437136
97	0x3dddcf7b	0.108305894
98	0x3c9fa580	0.019488096
99	0x3dfc7492	0.123269215
100	0x3e815bf0	0.25265455
101	0xbe5432bf	-0.20722483
102	0xbdbedbd9	-0.09319276
103	0x3e7c36c6	0.2463027
104	0x3c15c441	0.009141029
105	0xbda2ff2e	-0.07958828
106	0x3dbd5b6e	0.092459545
107	0xbdfc26ec	-0.12312111
108	0x3ccd0201	0.02502537
109	0x3e5d9b80	0.2164135
110	0xbdefd695	-0.1171085
111	0xbe131783	-0.14364438
112	0x3e35603d	0.17712493
113	0xbd48ae9f	-0.048994657
114	0xbde7d052	-0.11319031
115	0x3d9e5d7c	0.077326745
116	0xbe128b2f	-0.14310907
117	0x3d8b4ced	0.06801782
118	0x3e644866	0.22293243
119	0xbd6c0f9d	-0.057632077
120	0xbe06b96e	-0.13156673
121	0x3e0142c6	0.12623128
122	0xbe93b736	-0.28850716
123	0xbcb1f423	-0.021722859
124	0x3e52363b	0.205285
125	0x3d176a43	0.036966573
126	0xbd9a74d4	-0.075418144
127	0xbda6b8b5	-0.08140699
128	0x3dc9704f	0.09835874
129	0xbe0a9017	-0.13531528
130	0x3e8ab64a	0.270922
131	0x3e6528a6	0.22378787
132	0x3cf9c788	0.030490652
133	0xbe589322	-0.21149877
134	0x3e03b2b7	0.12861143
135	0x3ddb46ed	0.107068874
136	0x3e82f457	0.25577042
137	0xbe49307f	-0.19647406
138	0xbe321531	-0.17390896
139	0xbe3fe418	-0.18739355
140	0x3d1835c6	0.037160657
141	0x3e27ebe4	0.16398579
142	0x3d642fd0	0.05570966
143	0x3b6148ea	0.0034375736
144	0xbc7fc9cf	-0.01561208
145	0xbe28b647	-0.16475783
146	0x3c5f336b	0.013623099
147	0xbe14a4b7	-0.14515959
148	0x3e921e9c	0.28538978
149	0xbd89199e	-0.06694339
150	0xbdb1a78a	-0.08674534
151	0x3da85c62	0.082207456
152	0x3de99ca7	0.11406832
153	0xbd8d4675	-0.06898204
154	0x3e7caf2e	0.24676201
155	0xbddde3de	-0.10834478
156	0x3c938c01	0.018011095
157	0x3e8292f9	0.25502756
158	0x3d9173c8	0.07102162
159	0x3df66ca5	0.12032441
160	0x3e6e8c21	0.23295642
161	0x3e0605e4	0.13088185
162	0x3d97c0c1	0.07409812
163	0x3e05238d	0.13001843
164	0x3e2cdf1b	0.16881983
165	0xbdb5814c	-0.08862552
166	0xbe057868	-0.13034213
167	0x3e7b7ecb	0.24560086
168	0xbe29c09b	-0.1657738
169	0x3d955d1b	0.07293149
170	0xbe3b93d6	-0.18318114
171	0xbd33de18	-0.043912977
172	0xbdcba57d	-0.09943674
173	0x3d398ab2	0.045298286
174	0xbd41a0b8	-0.047272414
175	0x3e70c025	0.23510797
176	0xbe5a7509	-0.21333708
177	0x3c777054	0.015102465
178	0x3e2d4e38	0.1692437
179	0x3c9d3727	0.019191338
180	0x3d012e7d	0.031538475
181	0x3d2dac1e	0.042400472
182	0x3d0e5149	0.03474549
183	0xbc805e53	-0.015669977
184	0x3e20fb80	0.1572094
185	0x3d831f27	0.06402426
186	0xbd417389	-0.047229324
187	0xbc4c9e71	-0.012488947
188	0x3e8e4443	0.27786455
189	0x3dc398fc	0.09550664
190	0xbe11606c	-0.14196938
191	0xbde9a327	-0.11408072
192	0x3db5cdb2	0.08877124
193	0xbd3cb4b8	-0.046070784
194	0xbd3e514b	-0.046464246
195	0x3b144911	0.0022626559
196	0xbccbe4f6	-0.02488945
197	0xbe050686	-0.1299077
198	0xbd540415	-0.051761705
199	0xbcd21b98	-0.025647923
200	0x3e0323db	0.12806647
201	0xbda80899	-0.08204765
202	0xbdb52c77	-0.088463716
203	0x3ddf9ba9	0.10918362
204	0xbdb7b15f	-0.08969378
205	0xbdc22a77	-0.09480756
206	0x3e442859	0.19156016
207	0xbe11d717	-0.14242207
208	0xbe01c407	-0.12672435
209	0x3e9b3738	0.30315566
210	0xbe1ffaa4	-0.15622956
211	0xbd8b5e6d	-0.0680512
212	0xbcea4ec1	-0.028602006
213	0x3e21979e	0.15780494
214	0x3d52b4d1	0.05144197
215	0x3e119e07	0.14220439
216	0xbdf9c678	-0.12196058
217	0xbd4d972a	-0.05019299
218	0xbe563f92	-0.20922688
219	0xbc2f5f4e	-0.010703875
220	0xbcc73202	-0.024315838
221	0x3d9472ad	0.07248435
222	0x3e23f5de	0.1601176
223	0xbdbbced4	-0.09170309
224	0xbe5451d9	-0.20734347
225	0x3df1d76c	0.118086666
226	0xbe1816f7	-0.1485251
227	0xbe2ba952	-0.1676381
228	0xbe25f946	-0.16208372
229	0x3e2beace	0.1678879
230	0x3c94fc33	0.018186664
231	0x3cef32f3	0.0291991
232	0x3da3318f	0.07968437
233	0xbe02dadc	-0.127788
234	0xbdb3667d	-0.087597825
235	0xbdf8bad0	-0.12145007
236	0x3e37b9a7	0.17941914
237	0xbd702d94	-0.058637217
238	0x3e1f1c35	0.15538104
239	0x3e1273d0	0.14301991
240	0x3d48e17f	0.049043175
241	0xbd4a848b	-0.04944281
242	0xbd57f020	-0.052719235
243	0x3ca2a118	0.019852206
244	0x3e431f65	0.19054945
245	0x3d85b8b9	0.06529374
246	0xbe73ad04	-0.23796469
247	0x3e82e27c	0.2556342
248	0x3d932284	0.07184318
249	0xbde73e9a	-0.11291237
250	0x3da7a0e1	0.08184982
251	0x3b2ee75a	0.002668819
252	0x3d758a7e	0.05994653
253	0xbdb75399	-0.08951492
254	0xbd479073	-0.048721742
255	0x3cec39b1	0.028836103

network_body.linear_encoder.seq_layers.0.bias f4 [64]
0	0xbdfd7ce4	-0.123773366
1	0xbcfa55f1	-0.030558558
2	0x3cd0a1f4	0.02546785
3	0x3d06f3ab	0.032947224
4	0x3d0e6d59	0.03477225
5	0xbbcf6b1c	-0.006329907
6	0x3c95baba	0.018277515
7	0xbc8a3e0d	-0.016875291
8	0x3ca83293	0.020531928
9	0x3ba5a669	0.005055238
10	0x3bf457da	0.007456762
11	0x3ced6c42	0.028982285
12	0xbe07cfb2	-0.13262823
13	0x3c6d9a45	0.014502113
14	0x3b92404f	0.0044632326
15	0x3b99ef64	0.004697727
16	0x3d149c8c	0.036282107
17	0xbdcacb2e	-0.09902035
18	0x3d63e38c	0.055636927
19	0xbb693f4e	-0.003559071
20	0x3c740722	0.014894279
21	0x3d909d5f	0.07061266
22	0x3de6d6e2	0.112714544
23	0x3bdcf45c	0.006742997
24	0xbc136f1a	-0.008998657
25	0xbaf7a337	-0.0018893246
26	0x3ce289ab	0.027653536
27	0x3d1c842e	0.038211994
28	0x3b918ed0	0.0044420734
29	0x3c655db7	0.013999394
30	0x3d66d483	0.05635501
31	0x3ccc4b22	0.02493817
32	0x3c8dd1ca	0.01731195
33	0x3c1cff48	0.009582348
34	0x3cbd3417	0.023096127
35	0xbdbcd7c1	-0.09220839
36	0x3cce64ba	0.025194515
37	0x3b90a870	0.0044146106
38	0xbded321d	-0.11581824
39	0xbdf17ae9	-0.117910214
40	0x3ccb5080	0.024818659
41	0x3d31134a	0.043231286
42	0x3d022a76	0.031778775
43	0xbdd90010	-0.10595715
44	0x3d2b8799	0.041877363
45	0xbdb9eb79	-0.09078116
46	0x3d39019d	0.045167554
47	0x3c423790	0.011854067
48	0x3cb9cf94	0.022681989
49	0xbbc3f7f6	-0.005980487
50	0x3c56536b	0.013081412
51	0x3ced5764	0.028972335
52	0xbc9d0532	-0.019167516
53	0xbb3d9a34	-0.0028931024
54	0x3d032306	0.032015823
55	0xbdecc2f6	-0.11560623
56	0xbceb382b	-0.028713306
57	0xbbb436e9	-0.00549971
58	0x3d474c26	0.048656605
59	0xbc7d937a	-0.015477056
60	0xbcc0d904	-0.023540981
61	0x3cce9be9	0.025220828
62	0x3c3aa4ba	0.011391813
63	0x3d3d7728	0.046256214

distribution.branches.0.weight f4 [3, 64]
0	0x3a51002e	0.0007972744
1	0x3c2c41ac	0.010513704
2	0x3d15882b	0.036506813
3	0xbc7b6c63	-0.015345666
4	0x3dc431f5	0.09579841
5	0xbd77e34e	-0.06051951
6	0x3df2f9e1	0.11864067
7	0xbda3e7c4	-0.0800319
8	0xbda4fac7	-0.080556445
9	0x3dbb65e9	0.09150297
10	0xbd80c520	-0.062875986
11	0xbb8700de	-0.0041199764
12	0xbd803807	-0.06260686
13	0x3de66275	0.11249248
14	0x3da011a0	0.07815862
15	0x3c62aaee	0.013834698
16	0x3d81b082	0.06332494
17	0xbcdb3b9c	-0.026761822
18	0xbe089f07	-0.13341914
19	0x3da1b872	0.07896508
20	0x3d97acfa	0.074060395
21	0x3d7b408c	0.061340854
22	0x3d239ece	0.03994637
23	0x3c383c56	0.011244854
24	0xbcc524f2	-0.024065468
25	0x3d88e496	0.06684224
26	0xbb99bbcd	-0.004691577
27	0x3dd40d97	0.103541546
28	0xbdf263e7	-0.11835461
29	0x3d5b09fa	0.05347631
30	0x3d8535cc	0.065044016
31	0x3dafe494	0.0858852
32	0xbd1bd8b3	-0.038048457
33	0x3de005e4	0.109386235
34	0x3d738891	0.05945641
35	0xbc0ca1f1	-0.008583532
36	0x3d6ac683	0.05731822
37	0x3d43c63a	0.047796465
38	0xbd1b93e7	-0.037982848
39	0xbba9b9e6	-0.0051796315
40	0xbd9be4d3	-0.07612004
41	0xbd57c8b7	-0.05268165
42	0xbd7fac76	-0.06242033
43	0xbcee655f	-0.029101072
44	0xbda3ac6a	-0.0799187
45	0xbd080e85	-0.033216972
46	0x3d68ae23	0.056806695
47	0x3db2b63e	0.08726166
48	0xbdfec645	-0.12440161
49	0x3c46beab	0.01213042
50	0x3dc03312	0.09384741
51	0x3d595ec0	0.053068876
52	0xbd0e724b	-0.034776967
53	0x3d22133f	0.039569136
54	0x3d8f177f	0.069869034
55	0xbd2460ca	-0.040131368
56	0xbc591a50	-0.013250902
57	0x3d64bc99	0.055843923
58	0xbdd59ef5	-0.10430709
59	0xbdc2a912	-0.09504904
60	0x3d80f7eb	0.062972866
61	0x3d5d212e	0.05398672
62	0x3d37528a	0.04475645
63	0xbddea24f	-0.10870802
64	0xbb6ffc86	-0.0036619022
65	0x3cac4719	0.021029996
66	0x3cdec1b9	0.027191984
67	0xbc4ee24b	-0.012627195
68	0x3d0ba2e8	0.034090906
69	0x3cace021	0.021102967
70	0x3d7c963c	0.061666712
71	0x3d66071b	0.05615912
72	0x3c63a190	0.0138935
73	0xbd1260ed	-0.035736967
74	0x3d26fc83	0.040768158
75	0xbd8a06a3	-0.06739547
76	0x3c75c943	0.015001598
77	0x3daae9f5	0.08345405
78	0xbd910914	-0.0708181
79	0x3d160268	0.03662339
80	0xbe0c57f8	-0.13705432
81	0x3ca6a667	0.020343019
82	0x3d5fc0c1	0.054627184
83	0x3cb98f9c	0.022651486
84	0xbc66a6ec	-0.014077883
85	0xbddb7e09	-0.10717399
86	0xbdf3b45e	-0.11899637
87	0x3d8b0f22	0.06789996
88	0x3d9d6f9f	0.07687306
89	0x3b19d716	0.0023474148
90	0x3d946e79	0.072476335
91	0xbdcb64cb	-0.09931334
92	0x3d316b69	0.043315325
93	0xbdc27ac3	-0.09496071
94	0xbe1782df	-0.14796017
95	0xbdfff42f	-0.12497746
96	0xbd081d78	-0.03323123
97	0x3a459329	0.0007536882
98	0x3c417afd	0.011809108
99	0x3cb2fd7c	0.021849386
100	0xbdbf321f	-0.09335732
101	0x3d9101f6	0.07080452
102	0x3b0c4610	0.0021404065
103	0x3cfa5d1e	0.03056198
104	0x3c825293	0.015908515
105	0xbc885f28	-0.016646937
106	0xbd2f8a05	-0.042856235
107	0x3c77f72d	0.015134615
108	0xb9a2ce01	-0.00031052533
109	0x3ca6320b	0.020287534
110	0x3cbca206	0.023026478
111	0xbdb6fc76	-0.08934872
112	0x3d3c0a44	0.045908228
113	0x3ce52709	0.027972715
114	0x3ce42049	0.027847426
115	0xbd068457	-0.032841053
116	0x3d1aae26	0.037763737
117	0xbc24c601	-0.010056973
118	0xbdc50a86	-0.09621148
119	0xbc011f02	-0.007880928
120	0x3d2f19bf	0.042749163
121	0xbcac7948	-0.021053925
122	0x3d23a1c6	0.0399492
123	0x3d1a2342	0.03763128
124	0xbc642961	-0.013925881
125	0xbcea55cc	-0.028605364
126	0xbd1418b0	-0.036156356
127	0x3d1cb69b	0.038260084
128	0xbc224e0c	-0.009906303
129	0x3d304c19	0.043041322
130	0xbd2a87c9	-0.0416334
131	0x3d89f8a8	0.067368805
132	0xbdc32ce3	-0.09530046
133	0x3d1ec534	0.038762286
134	0xbe1724b8	-0.14760101
135	0x3be51922	0.0069915215
136	0x3dae9a20	0.08525491
137	0xbc99c8bf	-0.018772481
138	0x3caced7c	0.021109335
139	0x3d42cbe6	0.047557734
140	0x3c109447	0.008824415
141	0xbdd64725	-0.104627885
142	0x3bef99fc	0.0073120575
143	0xbc44463d	-0.011979637
144	0x3c8b999d	0.017041022
145	0xbc71d952	-0.014761286
146	0x3dbdd0c7	0.09268337
147	0xbdef8110	-0.116945386
148	0xbd0c81d9	-0.03430352
149	0x3cf84c05	0.030309686
150	0x3d4d65bb	0.050145846
151	0xbd69d2c5	-0.05708577
152	0xbd0b136e	-0.033954076
153	0xbd1927b0	-0.037391365
154	0xbd81973f	-0.06327676
155	0xbc88de2d	-0.016707504
156	0x3d165e62	0.036711104
157	0x3cb18915	0.021671811
158	0x3d6eb152	0.058274575
159	0x3cbc8045	0.023010382
160	0x3db7d5e0	0.0897634
161	0xbcaa5cc8	-0.020796195
162	0xbd8f960c	-0.07011041
163	0xbca8aff1	-0.020591708
164	0x3d9e9a05	0.07744221
165	0xbd850f1a	-0.06497021
166	0xbcc8609b	-0.024460128
167	0xbd4cbea1	-0.049986485
168	0x3db0090a	0.08595474
169	0x3da120e7	0.07867604
170	0x3dc2506b	0.09487995
171	0x39f6575e	0.0004698587
172	0x3dca64bf	0.09882497
173	0xbd51d22a	-0.05122582
174	0xbd83e593	-0.06440272
175	0x3bd5841d	0.0065159933
176	0x3d546a9f	0.051859494
177	0xbd6a99ac	-0.05727546
178	0xbdee1146	-0.116243884
179	0x3c3c04f0	0.011475787
180	0xbce6873d	-0.028140659
181	0xbd99c2db	-0.07507869
182	0x3c50fc42	0.012755455
183	0x3d55a69a	0.052160837
184	0xbcee73b5	-0.029107908
185	0xbd78fc27	-0.060787346
186	0x3d6ffadd	0.05858885
187	0x3d3a642b	0.045505684
188	0x3ac949ba	0.0015357055
189	0x3c3b8d8f	0.011447324
190	0x3c1bc5bf	0.009507596
191	0x3d9d1725	0.0767043

distribution.branches.0.bias f4 [3]
0	0xbb956f4b	-0.0045603863
1	0xbbb4b4b2	-0.0055147046
2	0x3d023567	0.03178921

critic.network_body.linear_encoder.seq_layers.0.weight f4 [64, 82]
0	0xbd7770eb	-0.06041042
1	0xbd3cfa41	-0.0461371
2	0xbd3c05ea	-0.045904078
3	0x3ddf07b6	0.108901426
4	0x3e0dabc1	0.1383505
5	0x3d83b692	0.06431307
6	0xbdd66981	-0.10469342
7	0x3cc1f767	0.023677541
8	0x3d1a65fc	0.037694916
9	0x3c440c6f	0.011965855
10	0xbd83d79a	-0.06437607
11	0x3e73e75b	0.23818724
12	0xbe02148f	-0.12703155
13	0xbda32284	-0.07965568
14	0xbcaf9e8a	-0.021437902
15	0x3ad5dade	0.0016315838
16	0x3db77aee	0.08958994
17	0xbcb433ed	-0.021997416
18	0xbc054d06	-0.00813604
19	0xbe034dd6	-0.12822661
20	0xbd83ece6	-0.06441669
21	0x3ddc2f96	0.10751264
22	0xbe624c84	-0.22099501
23	0xbd98b8f1	-0.0745715
24	0xbdda6579	-0.106638856
25	0x3c209bd3	0.009802776
26	0xbde6b19b	-0.11264344
27	0xbde3b538	-0.11118549
28	0x3d970cee	0.07375513
29	0xbcbe4504	-0.023226269
30	0xbd9ac0a2	-0.07556273
31	0x3d22e2b1	0.03976697
32	0x3e0f938e	0.14021131
33	0xbd293179	-0.041306946
34	0xbd541129	-0.051774178
35	0xbc05c25b	-0.008164014
36	0xbe9b94aa	-0.3038686
37	0xbc9f12e1	-0.019418182
38	0xbb6df844	-0.0036311308
39	0xbddb4f78	-0.10708517
40	0xbdb4602b	-0.08807405
41	0x3d5cdeb1	0.053923313
42	0xbdfd0f6c	-0.12356457
43	0x3a74ce02	0.0009338559
44	0xbcd803b1	-0.026368948
45	0xba873e87	-0.0010318317
46	0x3bc80f86	0.006105366
47	0xbb562083	-0.0032673187
48	0x3e73c932	0.23807219
49	0xbb02ab85	-0.001993866
50	0x3cc39711	0.023875745
51	0xbe0bba44	-0.13645273
52	0xbde324a9	-0.11090977
53	0xbd146554	-0.036229447
54	0xbe87bfd8	-0.26513553
55	0x3becb263	0.007223414
56	0x3d435714	0.047690466
57	0x3cdca2cb	0.026933094
58	0xbd55e48d	-0.052219916
59	0xbbd32803	-0.0064439788
60	0xbddf4e92	-0.10903658
61	0xbb1885cb	-0.0023273106
62	0x3dd6aa77	0.10481732
63	0x3d8d5b18	0.069021404
64	0xbe17b54b	-0.14815252
65	0x3e08515c	0.13312286
66	0xbde00b54	-0.10939661
67	0x3974a6c0	0.00023331773
68	0xbda612c4	-0.08109048
69	0xbe28bd87	-0.16478549
70	0x3e081527	0.13289319
71	0x3e1df250	0.15424466
72	0x3d42fbc3	0.04760338
73	0x3e09216c	0.13391656
74	0x3c9af4c0	0.018915534
75	0x3e0f42be	0.13990304
76	0xbe1ffdce	-0.15624163
77	0x3b34d11b	0.0027590457
78	0x3bdf3ccd	0.006812668
79	0xbcc7a476	-0.024370413
80	0xbdbcbd64	-0.09215811
81	0xbc5265cf	-0.012841656
82	0xbe0a3a4c	-0.13498801
83	0x3ca908fa	0.020634163
84	0xbc9a150e	-0.018808868
85	0xbe891629	-0.2677472
86	0xbd61e2d8	-0.055147976
87	0xbb80b37f	-0.0039276476
88	0xbcb907c7	-0.022586716
89	0xbe69d3d8	-0.22834718
90	0x3dc9ca81	0.09853078
91	0x3dc444c6	0.0958343
92	0xbca9c4fc	-0.020723812
93	0x3c9e4bbc	0.019323222
94	0xbe6da59d	-0.23207708
95	0x3d8c8dd5	0.0686299
96	0xbdb37256	-0.08762042
97	0xbe36227b	-0.17786591
98	0x3c9249c1	0.017857434
99	0xbe146916	-0.14493212
100	0xbf77ca57	-0.9679312
101	0xbd8a68b9	-0.067582555
102	0xbd7d6e2f	-0.061872657
103	0x3e03aedd	0.12859674
104	0x3df75095	0.12075917
105	0xbd7508f2	-0.059822984
106	0xbf5e23ca	-0.8677336
107	0x3df46923	0.11934116
108	0x3da37a8d	0.07982359
109	0xbd9e5334	-0.077307135
110	0xbd659345	-0.05604865
111	0x3d56bb04	0.052424446
112	0xbd49f73b	-0.049308043
113	0xbdb017b5	-0.08598272
114	0xbca6b231	-0.02034864
115	0xbed035b6	-0.40665978
116	0xbb202479	-0.0024435802
117	0xbb1bf1c2	-0.0023795222
118	0xbe296fe0	-0.16546583
119	0xbdf637dd	-0.12022374
120	0x3d576978	0.052590817
121	0x3cf9e5b6	0.030505043
122	0xbc97910a	-0.018501777
123	0x3d1aeec7	0.037825372
124	0xbde72984	-0.11287215
125	0xbd432d40	-0.047650576
126	0x3e394542	0.18092826
127	0xbe767ffd	-0.24072261
128	0xbd2d7828	-0.042350918
129	0xbd27bd24	-0.040951863
130	0xbd71796c	-0.058953688
131	0x3d88b5cc	0.066753
132	0xbd57e8ca	-0.05271224
133	0x3c25a895	0.010110994
134	0xbdc8d644	-0.09806493
135	0x3d44d8c4	0.048058286
136	0x3e585a7a	0.21128264
137	0xbdad2cd0	-0.08455813
138	0x3e1c8a3a	0.15287104
139	0xbe2af8ea	-0.16696516
140	0xbe6064c7	-0.21913444
141	0x3ce4a137	0.027908904
142	0x3e10eb1e	0.1415219
143	0x3d84fc98	0.06493491
144	0xbe318239	-0.17334832
145	0xbed53d34	-0.41648257
146	0xbbd8b8c2	-0.0066138217
147	0x3cdc7e20	0.02691561
148	0x3dfcc3bd	0.123420216
149	0xbdf0c45a	-0.11756201
150	0x3d3f8887	0.046761062
151	0xbd6ee6cf	-0.058325585
152	0xbbd5cb4f	-0.0065244804
153	0x3dc989c9	0.098407336
154	0x3d683324	0.056689397
155	0xbdbd9d05	-0.09258465
156	0x3c7d0847	0.015443868
157	0xbdef4507	-0.11683088
158	0x3dead397	0.11466139
159	0xbab0a0d7	-0.0013475668
160	0x3cff1766	0.031139087
161	0xbdda5006	-0.106597945
162	0x3db35bac	0.087577194
163	0x3e39d1e5	0.18146475
164	0x3d066ded	0.032819677
165	0xbe26c529	-0.16286148
166	0x3e2b35af	0.16719697
167	0x3d617d59	0.05505118
168	0xbdc8a446	-0.09796958
169	0x3d4994d0	0.049214184
170	0xbe9c46c3	-0.30522737
171	0xbe3f8305	-0.18702324
172	0x3c4523e0	0.012032479
173	0xbd5adf5a	-0.05343566
174	0xbcc20808	-0.02368547
175	0xbd337566	-0.04381313
176	0xbea1eead	-0.31627408
177	0x3cee9b0a	0.029126663
178	0x3da5fcf7	0.0810489
179	0x3d6882aa	0.056765236
180	0x3e0ce6d9	0.13759936
181	0x3e1d25df	0.15346478
182	0xbe9f049d	-0.31058207
183	0x3dc4870e	0.09596072
184	0xbe7373f1	-0.23774697
185	0x3daac8b3	0.083390616
186	0x3da8ef35	0.0824875
187	0xbe1a9286	-0.15094957
188	0xbde8ee19	-0.113735385
189	0xbc4dba9a	-0.012556696
190	0xbda3b523	-0.079935335
191	0x3db81916	0.0898916
192	0xbe295e26	-0.16539821
193	0xbcafd047	-0.021461619
194	0xbd84e100	-0.06488228
195	0x3c397cc2	0.0113212485
196	0xbdeff645	-0.11716894
197	0xbe9dba8e	-0.30806392
198	0x3ebb849f	0.3662462
199	0xbe413615	-0.18868287
200	0xbed2c6e4	-0.41167367
201	0x3dfc3c92	0.1231624
202	0xbd8d43ed	-0.068977214
203	0x3cc4ce2c	0.024024092
204	0xbe235828	-0.15951598
205	0x3dc56d43	0.09639981
206	0xbd016a15	-0.03159531
207	0xbdf41057	-0.11917179
208	0x3d25d07d	0.040482033
209	0x3dc519c9	0.09624059
210	0xbe751695	-0.23934396
211	0x3d25012b	0.040284317
212	0xbea14b5b	-0.31502804
213	0x3e34f22f	0.1767051
214	0x3d4d8249	0.050173078
215	0xbe908042	-0.28222853
216	0x3cc9ca95	0.024632731
217	0xbd4dd9b9	-0.050256465
218	0xbedfe547	-0.43729612
219	0x3da8a8c4	0.082353145
220	0x3cbe9594	0.023264684
221	0xbed13f10	-0.40868425
222	0xbdb0e8b7	-0.08638137
223	0x3da88c34	0.082298666
224	0xbec65b91	-0.38741735
225	0xbe213b20	-0.1574521
226	0x3d270178	0.040772885
227	0xbe2f20f7	-0.17102419
228	0xbd28f633	-0.04125042
229	0xbd8daae5	-0.06917361
230	0xbcafac1b	-0.021444371
231	0x3d33630b	0.043795627
232	0xbdc6e038	-0.09710735
233	0xbebf1803	-0.37323007
234	0xbbd007a4	-0.006348567
235	0x3dadf2dd	0.08493588
236	0xbe31faae	-0.17380783
237	0xb9d16681	-0.00039939958
238	0xbd8fd534	-0.07023087
239	0xbe98b1a7	-0.29823038
240	0x3e4dcb58	0.200971
241	0xbda2c540	-0.07947779
242	0xbc0ae83e	-0.008478222
243	0xbd1c9a5e	-0.038233154
244	0x3ace90a9	0.0015759665
245	0xbe22c794	-0.15896446
246	0xbe6a047e	-0.22853276
247	0x3e61aea5	0.22039278
248	0xbd3d107d	-0.046158303
249	0x3d8bb2a0	0.068211794
250	0x3e4437ff	0.19161986
251	0xbe943de6	-0.28953475
252	0x3e829fa2	0.25512415
253	0xbda83817	-0.08213823
254	0xbe653fde	-0.22387645
255	0xbdf98148	-0.121828616

critic.network_body.linear_encoder.seq_layers.0.bias f4 [64]
0	0xbd3158fa	-0.043297745
1	0xbd58ef82	-0.052962787
2	0xbd692add	-0.056925643
3	0x3d1320a8	0.035919815
4	0x3c088369	0.008332112
5	0xbcdd828d	-0.02703979
6	0xbcc25a14	-0.023724593
7	0xbcb3b187	-0.021935238
8	0xbbbcb3d3	-0.0057587414
9	0xbcd3397f	-0.025784252
10	0x3bca0d23	0.006166117
11	0xbd1dc211	-0.038515154
12	0xbc37a8d6	-0.011209687
13	0x3b8715ac	0.0041224565
14	0x3a064a5d	0.00051227753
15	0xbce05c09	-0.027387636
16	0xbd491c8b	-0.049099486
17	0xba48dae5	-0.00076620124
18	0xbcae7869	-0.02129765
19	0xbd04a153	-0.032380413
20	0xbd0a5b4d	-0.033778477
21	0xbc9ef06e	-0.019401755
22	0xbaff046d	-0.0019456275
23	0xbd0af21e	-0.033922307
24	0x3c07ca7b	0.008288021
25	0xbd034f99	-0.032058332
26	0xbccb11aa	-0.024788696
27	0xbcb7eb22	-0.022450987
28	0xbd198091	-0.037476126
29	0xbd0c311f	-0.034226533
30	0x3c1ab88e	0.009443415
31	0xbcb22140	-0.02174437
32	0xbc4f4fd7	-0.012653313
33	0x3d343a3b	0.044000845
34	0xbd3184b0	-0.04333943
35	0x3c5ca7ef	0.013467773
36	0xbcfdf816	-0.031002086
37	0xbd0363b7	-0.032077517
38	0xbcd0a73f	-0.025470374
39	0xbbbe9a0b	-0.005816703
40	0xbaad4d9b	-0.0013221981
41	0xbba9defd	-0.005184053
42	0xbb988702	-0.004654766
43	0xbca4980c	-0.020092033
44	0x3c9d3daa	0.019194443
45	0xbce198a8	-0.027538612
46	0xbc3de97c	-0.011591312
47	0xbcdd9d12	-0.027052436
48	0xbd08a9f6	-0.033365212
49	0xbc890245	-0.016724715
50	0x3d82c631	0.06385458
51	0xbd025b9e	-0.031825654
52	0x3bd37fd0	0.0064544454
53	0xbc915b9e	-0.017743882
54	0x3b1b8bb3	0.002373439
55	0xbcdb3b89	-0.026761787
56	0xbbb6252d	-0.005558631
57	0xbd0c654a	-0.034276284
58	0xbc9cf750	-0.019160897
59	0xbc545004	-0.01295853
60	0xbd1faa98	-0.03898105
61	0x3a97b9da	0.0011575774
62	0xbc2a46cc	-0.010392856
63	0xbc932325	-0.017961094

critic.value_heads.value_heads.extrinsic.weight f4 [1, 64]
0	0x3afba1da	0.0019198016
1	0xbe261d8e	-0.16222212
2	0xbda97c23	-0.0827563
3	0x3e4fe9ce	0.20304033
4	0x3d0ed321	0.034869317
5	0xbe25ed38	-0.16203773
6	0xbdcaef47	-0.0990892
7	0xbe90f460	-0.28311443
8	0x3dae6f64	0.0851734
9	0x3e40df73	0.18835239
10	0xbead486f	-0.33844325
11	0x3dd1bbb0	0.10240877
12	0x3e5a7efe	0.21337506
13	0x3d8c6a0b	0.068561636
14	0x3da483cf	0.08032953
15	0xbe106322	-0.14100316
16	0xbcbe846e	-0.023256507
17	0xbe97641c	-0.29568565
18	0xbe5e53cc	-0.21711653
19	0x3e1de57e	0.15419576
20	0x3e3a01ea	0.18164793
21	0x3e811b20	0.25216007
22	0xbd91cfc5	-0.07119707
23	0xbe372215	-0.17884095
24	0x3d06e906	0.032937072
25	0xbe503888	-0.20334065
26	0xbd8ca061	-0.06866527
27	0x3e0d39c0	0.13791561
28	0xbe08d17f	-0.13361166
29	0xbe886deb	-0.2664636
30	0x3eae3f6c	0.34032762
31	0xbe592542	-0.21205619
32	0x3daf90c6	0.08572535
33	0xbea07db1	-0.31345895
34	0xbe5f87c3	-0.21829133
35	0x3e5e94ac	0.21736401
36	0x3e6599df	0.22421978
37	0xbe74e247	-0.23914443
38	0x3e3cccea	0.18437544
39	0x3e874375	0.26418653
40	0x3da1f521	0.07908083
41	0x3e025189	0.12726416
42	0xbdf24e83	-0.11831381
43	0xbe873d89	-0.26414135
44	0xbdd3ffd3	-0.10351529
45	0xbdf3fff7	-0.11914056
46	0x3dedd85c	0.11613533
47	0xbe8b104a	-0.27160865
48	0xbd7ea420	-0.06216824
49	0x3e8d084c	0.27545393
50	0xbe5b06c9	-0.21389307
51	0xbe87011a	-0.26368028
52	0x3e66f310	0.22553658
53	0x3e7be03d	0.24597259
54	0xbe6a7f93	-0.22900228
55	0xbddafb9b	-0.10692521
56	0xbe0f6239	-0.14002313
57	0xbe350b99	-0.17680205
58	0x3e10464c	0.14089316
59	0x3e59bebf	0.2126417
60	0xbe25cae8	-0.16190684
61	0x3e9454b3	0.2897087
62	0x3ddbeb9b	0.107382976
63	0xbed87860	-0.4227934

exp_avg f4 [64, 82]
0	0xb279ff99	-1.4551824e-08
1	0x34248fa9	1.5325953e-07
2	0x3415ca3f	1.3950283e-07
3	0x3204877a	7.714215e-09
4	0x340ca737	1.3099348e-07
5	0x34117ccd	1.354958e-07
6	0xb3620561	-5.2624618e-08
7	0x344d710d	1.913324e-07
8	0x3429505f	1.576859e-07
9	0x336eb4b8	5.5578056e-08
10	0x33b284fb	8.31296e-08
11	0x34012fbd	1.2031428e-07
12	0x327b6737	1.4633591e-08
13	0x3405393e	1.2407415e-07
14	0x3413a90d	1.3751942e-07
15	0x30121250	5.3140514e-10
16	0x34145d9f	1.3817633e-07
17	0x34145071	1.3812839e-07
18	0x307344b0	8.8500496e-10
19	0x3413fc63	1.378226e-07
20	0x34148c51	1.3834621e-07
21	0xb0f643ab	-1.7918088e-09
22	0x3416dc37	1.4049952e-07
23	0x3415fe87	1.3969303e-07
24	0x2ea02192	7.281921e-11
25	0x3414dba9	1.3863486e-07
26	0x3414cd43	1.3858248e-07
27	0x3003e1eb	4.797857e-10
28	0x34146bc3	1.3822778e-07
29	0x3414760b	1.3826518e-07
30	0x2f3fa234	1.7428975e-10
31	0x3414bfc1	1.3853334e-07
32	0x3414b483	1.3849244e-07
33	0x2f048d91	1.2055625e-10
34	0x00000000	0.0
35	0x30e1753d	1.6404226e-09
36	0x304c2f52	7.4282014e-10
37	0x00000004	6e-45
38	0x3357f5ca	5.0282132e-08
39	0xb2d2440e	-2.4478165e-08
40	0x342f382b	1.6318579e-07
41	0x3415f767	1.3966711e-07
42	0x33624f91	5.269209e-08
43	0x33b8b78f	8.601557e-08
44	0x340ee2cd	1.330729e-07
45	0x31801e5d	3.728742e-09
46	0x3410eebb	1.3497895e-07
47	0x34152af1	1.3892328e-07
48	0xb0312dab	-6.4457123e-10
49	0x3415a0db	1.3935225e-07
50	0x34159611	1.39313e-07
51	0xb309048b	-3.190193e-08
52	0x343730d5	1.7060968e-07
53	0x3421f26b	1.5082485e-07
54	0xb14407d8	-2.8526213e-09
55	0x3417ffcd	1.415603e-07
56	0x34176af3	1.4101879e-07
57	0x32bd4afc	2.2036595e-08
58	0x33fa8ca5	1.1667115e-07
59	0x3411db3d	1.3583936e-07
60	0xaf835d95	-2.3895255e-10
61	0x3415315f	1.3894667e-07
62	0x34155047	1.3905911e-07
63	0x3097ff79	1.1059306e-09
64	0x3413bfb1	1.3760179e-07
65	0x3413e3d7	1.377333e-07
66	0xb00743d8	-4.9209126e-10
67	0x341576f3	1.391998e-07
68	0x34157f61	1.3923047e-07
69	0x30da69a7	1.5891616e-09
70	0x34133add	1.3711856e-07
71	0x341340e3	1.3714047e-07
72	0xb003bb4b	-4.792368e-10
73	0x00000000	0.0
74	0x339c3bb7	7.275178e-08
75	0xa9d006b0	-9.238216e-14
76	0x00000000	0.0
77	0x30e17b2e	1.6405914e-09
78	0xb501f2fd	-4.840984e-07
79	0x00000000	0.0
80	0x80000004	-6e-45
81	0x34a1b65d	3.0121274e-07
82	0x357220a1	9.0199507e-07
83	0xb39332ed	-6.854484e-08
84	0x352d77ba	6.462175e-07
85	0x3551f29e	7.821162e-07
86	0x335c7fa7	5.133884e-08
87	0x350a125e	5.1435734e-07
88	0x35c1663a	1.4409372e-06
89	0xb5231222	-6.074862e-07
90	0x34989365	2.841945e-07
91	0xb5a2af77	-1.2121008e-06
92	0x36094652	2.0455523e-06
93	0x35a1e4e7	1.2062054e-06
94	0x35bce185	1.4072726e-06
95	0xb51a0892	-5.738194e-07
96	0x3546ce5e	7.406105e-07
97	0xb320960a	-3.7389363e-08
98	0x3569c3c2	8.708413e-07
99	0x356850e2	8.6544435e-07
100	0x33ded9fc	1.0377332e-07
101	0x3543df22	7.296786e-07
102	0x3555476e	7.945263e-07
103	0xb2b0741e	-2.05419e-08
104	0x35653e1a	8.539952e-07
105	0x3565f9be	8.567257e-07
106	0xb13ed5b0	-2.7770106e-09
107	0x3560793a	8.362291e-07
108	0x355fbb22	8.334629e-07
109	0xb30e50b1	-3.313534e-08
110	0x35689f86	8.665887e-07
111	0x356792ca	8.626781e-07
112	0xb186819c	-3.914648e-09
113	0x3560c77e	8.37368e-07
114	0x355fd6ba	8.338644e-07
115	0xb0e07639	-1.6331746e-09
116	0x00000000	0.0
117	0x322970e5	9.862764e-09
118	0x3379b97f	5.8143538e-08
119	0x00000004	6e-45
120	0x35e56fa0	1.7094317e-06
121	0x360fdd08	2.1437318e-06
122	0xb5afdccf	-1.310278e-06
123	0x345e7f8a	2.072176e-07
124	0xb595c0b9	-1.1157455e-06
125	0x3602cefe	1.9491995e-06
126	0x3575e0d6	9.159679e-07
127	0x354aa50d	7.5491045e-07
128	0x33a8aa73	7.854114e-08
129	0x3552da96	7.854918e-07
130	0xb2b7d604	-2.1401327e-08
131	0x35657926	8.548544e-07
132	0x3566f8fa	8.6043985e-07
133	0x359061ec	1.0757335e-06
134	0xb48212eb	-2.4228152e-07
135	0x3515d20a	5.581247e-07
136	0xb100cd34	-1.8743096e-09
137	0x35603b42	8.3532734e-07
138	0x3561b23a	8.4078385e-07
139	0x3626ebf1	2.4873264e-06
140	0xb5ddfaa7	-1.6538733e-06
141	0x35039926	4.9024163e-07
142	0xb30930cf	-3.194219e-08
143	0x35684d9a	8.653966e-07
144	0x3567eed2	8.6401735e-07
145	0x33174f1f	3.5229387e-08
146	0x355645aa	7.9822587e-07
147	0x3558f636	8.0824555e-07
148	0xb30296b6	-3.0405054e-08
149	0x3567e3ce	8.6385705e-07
150	0x3567bbfa	8.632775e-07
151	0xb2e31a29	-2.6438174e-08
152	0x3566d36e	8.598935e-07
153	0x35649916	8.515939e-07
154	0xb30c9b25	-3.2737393e-08
155	0x00000000	0.0
156	0xb584ba0b	-9.888912e-07
157	0x2c74222a	3.469345e-12
158	0x00000000	0.0
159	0x32295a87	9.857678e-09
160	0x387c1966	6.0105136e-05
161	0x00000000	0.0
162	0x00000004	6e-45
163	0xb71107da	-8.644502e-06
164	0x36b45dd5	5.3753415e-06
165	0xb83523e0	-4.3187174e-05
166	0xb8218d76	-3.8517137e-05
167	0xb5e085d3	-1.6728249e-06
168	0xb81793f8	-3.6139012e-05
169	0xb81c1ed0	-3.7221995e-05
170	0x372f5035	1.04494875e-05
171	0xb84a6c32	-4.8261318e-05
172	0xb82f4942	-4.1791478e-05
173	0xb7c71c0f	-2.3735714e-05
174	0xb76c288c	-1.4076137e-05
175	0xb7fcc81c	-3.0133924e-05
176	0x347023a5	2.2364709e-07
177	0xb81f884a	-3.8035483e-05
178	0xb81e8fa4	-3.780391e-05
179	0x316dc29b	3.459866e-09
180	0xb81e9bdc	-3.781529e-05
181	0xb81e95ae	-3.7809536e-05
182	0x329a8c14	1.799166e-08
183	0xb81eab7a	-3.7829835e-05
184	0xb81ea110	-3.7820137e-05
185	0x33cb0eaf	9.455595e-08
186	0xb81efdae	-3.7906393e-05
187	0xb81ed088	-3.7864345e-05
188	0x32fa733f	2.9156238e-08
189	0xb81eb772	-3.7840982e-05
190	0xb81eafa2	-3.7833706e-05
191	0xb2dbc111	-2.5582752e-08
192	0xb81e7caa	-3.7786238e-05
193	0xb81e87d8	-3.779665e-05
194	0x32884398	1.5863222e-08
195	0xb81ea930	-3.7827704e-05
196	0xb81ea3f6	-3.7822836e-05
197	0x3194bbbe	4.3287107e-09
198	0x00000000	0.0
199	0xb4f01d13	-4.4724638e-07
200	0xb371292a	-5.6149624e-08
201	0x80000004	-6e-45
202	0xb72254a9	-9.675664e-06
203	0x36d22a4c	6.2634117e-06
204	0xb838dd70	-4.407525e-05
205	0xb81fff76	-3.814647e-05
206	0xb7c9aece	-2.4042467e-05
207	0xb7670304	-1.3769375e-05
208	0xb8154c36	-3.5595345e-05
209	0xb4241a00	-1.5283149e-07
210	0xb81df408	-3.765899e-05
211	0xb81edbe2	-3.7874917e-05
212	0x339ee394	7.3988446e-08
213	0xb81ee79a	-3.788583e-05
214	0xb81ebc02	-3.784523e-05
215	0x36fe17fa	7.572581e-06
216	0xb83e5b26	-4.538442e-05
217	0xb829f86e	-4.0524108e-05
218	0x34291a94	1.574902e-07
219	0xb81f413e	-3.7969316e-05
220	0xb81f249e	-3.7942656e-05
221	0x34c6610a	3.695098e-07
222	0xb82024e8	-3.8181344e-05
223	0xb81f1dca	-3.7936297e-05
224	0xb1aae676	-4.9738516e-09
225	0xb81e92d0	-3.7806865e-05
226	0xb81ea058	-3.7819467e-05
227	0x328c4235	1.6328253e-08
228	0xb81ea9b0	-3.782817e-05
229	0xb81ea458	-3.7823193e-05
230	0x32831afd	1.526268e-08
231	0xb81ea888	-3.7827092e-05
232	0xb81eac72	-3.7830738e-05
233	0xb40c587e	-1.307071e-07
234	0xb81e0bd2	-3.7681144e-05
235	0xb81e0ac2	-3.7680154e-05
236	0xb0f40dea	-1.7757291e-09
237	0x00000000	0.0
238	0xb7c8b544	-2.3926266e-05
239	0x2dbcda87	2.1470171e-11
240	0x00000000	0.0
241	0xb4f01a65	-4.4722688e-07
242	0x39a43f4d	0.0003132768
243	0x00000000	0.0
244	0x80000004	-6e-45
245	0xb7cd6ba5	-2.448803e-05
246	0xb6ecf1eb	-7.061511e-06
247	0xb750fe99	-1.2457044e-05
248	0xb79bace5	-1.855795e-05
249	0x36b075a1	5.2589025e-06
250	0xb7cfd92d	-2.4777453e-05
251	0xb7b45e6d	-2.1501643e-05
252	0xb7aa20f0	-2.0280917e-05
253	0x354caf6f	7.625121e-07
254	0xb74b7a59	-1.2128229e-05
255	0x37aefced	2.0860194e-05

exp_avg_sq f4 [64, 82]
0	0x2f8e9905	2.5938376e-10
1	0x30783f31	9.0311675e-10
2	0x3089a378	1.0014523e-09
3	0x2fc33680	3.5509018e-10
4	0x3060a5dc	8.1726426e-10
5	0x30823365	9.473352e-10
6	0x2f729fe9	2.2066583e-10
7	0x3083068c	9.533365e-10
8	0x308f2926	1.0416314e-09
9	0x2f838637	2.3924127e-10
10	0x307c5105	9.17922e-10
11	0x30830d27	9.535243e-10
12	0x2e5c877a	5.0142536e-11
13	0x3099c263	1.1187463e-09
14	0x309a134e	1.1210461e-09
15	0x2f6d6920	2.1592372e-10
16	0x307d1665	9.207269e-10
17	0x307e98fc	9.2622066e-10
18	0x2d9e1a1a	1.7974112e-11
19	0x309cdfc9	1.1414097e-09
20	0x309cf11a	1.1419019e-09
21	0x2fe8e987	4.2366485e-10
22	0x3049e335	7.3446255e-10
23	0x304adcb7	7.3800827e-10
24	0x2d8392f0	1.4958229e-11
25	0x309d9289	1.1464901e-09
26	0x309d9b41	1.1467379e-09
27	0x2fdd840c	4.029349e-10
28	0x30525961	7.652457e-10
29	0x3052ab3c	7.6640894e-10
30	0x2d4aa022	1.1517927e-11
31	0x309e1e85	1.1504687e-09
32	0x309e2b6c	1.1508354e-09
33	0x2d05fa47	7.6157474e-12
34	0x00000000	0.0
35	0x2a36bd14	1.6230447e-13
36	0x2d5cb501	1.2545743e-11
37	0x10724325	4.777781e-29
38	0x2f7c23a0	2.2931923e-10
39	0x3007a332	4.934463e-10
40	0x303711b5	6.6600175e-10
41	0x304d3ced	7.4665146e-10
42	0x2ff9aac9	4.5414186e-10
43	0x3040c443	7.01281e-10
44	0x3058ecbe	7.8916773e-10
45	0x30118f12	5.295401e-10
46	0x302c93c4	6.2783223e-10
47	0x30467cbc	7.220924e-10
48	0x2f934741	2.6789773e-10
49	0x307aa90a	9.118969e-10
50	0x307b5b39	9.1442903e-10
51	0x30073f0e	4.920232e-10
52	0x303e7eed	6.930197e-10
53	0x304b79ff	7.4024337e-10
54	0x2eadd1b4	7.90438e-11
55	0x3096c781	1.0970639e-09
56	0x3096b989	1.0966669e-09
57	0x2fd60bc7	3.8934742e-10
58	0x30523301	7.6470036e-10
59	0x3052b429	7.665358e-10
60	0x2e75031c	5.5709312e-11
61	0x3097e77e	1.105249e-09
62	0x3097ef57	1.105472e-09
63	0x2fd06506	3.790676e-10
64	0x30553be9	7.7574086e-10
65	0x3055a0f1	7.771766e-10
66	0x2e2a919e	3.878286e-11
67	0x309b0ec5	1.1281932e-09
68	0x309b0b86	1.128101e-09
69	0x2fd5a2c4	3.8860126e-10
70	0x3056ae6d	7.810062e-10
71	0x3056ee64	7.819152e-10
72	0x2e2a6da5	3.875091e-11
73	0x00000000	0.0
74	0x2f78aca9	2.261681e-10
75	0x2e81d710	5.9044436e-11
76	0x00000000	0.0
77	0x2a2e783b	1.5496018e-13
78	0x31966eb7	4.3781614e-09
79	0x00000000	0.0
80	0x000001f4	7e-43
81	0x30482559	7.281265e-10
82	0x3328a898	3.9268883e-08
83	0x3417c901	1.4136096e-07
84	0x342a9139	1.5885315e-07
85	0x334a9aee	4.7172698e-08
86	0x3407b29b	1.2637831e-07
87	0x341e0e05	1.4719997e-07
88	0x32aab007	1.9870653e-08
89	0x342a10d0	1.58386e-07
90	0x34336fd9	1.6711364e-07
91	0x3241ab15	1.1272978e-08
92	0x3434c1f7	1.683437e-07
93	0x343626cd	1.6964186e-07
94	0x32983c4d	1.772255e-08
95	0x342381c0	1.5227761e-07
96	0x3438847c	1.7184533e-07
97	0x31f7a753	7.2076687e-09
98	0x343a44a7	1.7347575e-07
99	0x343a2436	1.7335773e-07
100	0x30e0cfc3	1.6357194e-09
101	0x343df0ea	1.768964e-07
102	0x343e3f70	1.7718207e-07
103	0x3216dfe3	8.782055e-09
104	0x343695a5	1.7004511e-07
105	0x3437160a	1.7051221e-07
106	0x3103befa	1.9171567e-09
107	0x343dea01	1.7687127e-07
108	0x343df6f7	1.7691842e-07
109	0x322459f7	9.566512e-09
110	0x3434752c	1.6806433e-07
111	0x3434f92d	1.6854456e-07
112	0x309bca9b	1.1335318e-09
113	0x343e5a8b	1.7728068e-07
114	0x343e71fd	1.7736598e-07
115	0x2f4e3f5b	1.8758099e-10
116	0x00000000	0.0
117	0x2ddc2f84	2.5032205e-11
118	0x30dce4bd	1.6072118e-09
119	0x102797c9	3.3051874e-29
120	0x338eb5a9	6.645434e-08
121	0x33aa9cf6	7.944793e-08
122	0x33c01a6a	8.9455014e-08
123	0x340be2a7	1.302784e-07
124	0x327c9b8a	1.4703696e-08
125	0x3431e5dd	1.6568033e-07
126	0x34352c28	1.6873003e-07
127	0x3377612e	5.7597553e-08
128	0x33f75b73	1.1518468e-07
129	0x3418ade2	1.4219361e-07
130	0x31e8b287	6.772385e-09
131	0x3438c3ab	1.7207519e-07
132	0x3438dbcc	1.7216297e-07
133	0x32ab1bd6	1.9919678e-08
134	0x3424f93a	1.5364358e-07
135	0x34346935	1.680208e-07
136	0x31cd08aa	5.9672702e-09
137	0x343868bd	1.7174439e-07
138	0x34389d77	1.7193621e-07
139	0x32153707	8.685453e-09
140	0x3435c544	1.6928703e-07
141	0x3438a127	1.7194962e-07
142	0x318bd3d3	4.069514e-09
143	0x343bb1dc	1.7480437e-07
144	0x343bbb39	1.7483843e-07
145	0x31c6bd91	5.7841096e-09
146	0x34378183	1.7090319e-07
147	0x34389f57	1.7194303e-07
148	0x31797b86	3.6304484e-09
149	0x343c7186	1.7550164e-07
150	0x343c7a3b	1.7553332e-07
151	0x31e45dfa	6.6463572e-09
152	0x34384d1e	1.716439e-07
153	0x34389706	1.7191277e-07
154	0x317af0ac	3.6516594e-09
155	0x00000000	0.0
156	0x328249df	1.5167585e-08
157	0x30f95b89	1.814315e-09
158	0x00000000	0.0
159	0x2dda1d5f	2.4796774e-11
160	0x374874d6	1.1948132e-05
161	0x00000000	0.0
162	0x00000d1b	4.701e-42
163	0x345a7425	2.0345085e-07
164	0x357c1ae3	9.391644e-07
165	0x361ffead	2.3841087e-06
166	0x36348546	2.6899665e-06
167	0x358ed1f1	1.0640925e-06
168	0x3610b96b	2.15656e-06
169	0x362e3190	2.595687e-06
170	0x34a41165	3.0560037e-07
171	0x364590cb	2.9439568e-06
172	0x364dea83	3.0683884e-06
173	0x3517f524	5.660861e-07
174	0x363299ff	2.6613704e-06
175	0x363f3444	2.849164e-06
176	0x32aaa226	1.9864341e-08
177	0x3656e167	3.2019686e-06
178	0x3657aff7	3.2139922e-06
179	0x340bc182	1.3015782e-07
180	0x364b4590	3.0289848e-06
181	0x364c18ab	3.0412727e-06
182	0x326b976b	1.3713229e-08
183	0x36575838	3.2088847e-06
184	0x36575dbf	3.2092064e-06
185	0x345341e8	1.9674883e-07
186	0x3643d9ae	2.918397e-06
187	0x3644a514	2.9302364e-06
188	0x3295f95b	1.7459277e-08
189	0x3655e7da	3.1874429e-06
190	0x36561e05	3.1905959e-06
191	0x34417bbc	1.801954e-07
192	0x3646c8dd	2.9621217e-06
193	0x364720dd	2.967244e-06
194	0x325e0884	1.2924037e-08
195	0x3656b0df	3.1991437e-06
196	0x3656c719	3.2004375e-06
197	0x31457e0b	2.873892e-09
198	0x00000000	0.0
199	0x2ff75012	4.4985932e-10
200	0x327b2586	1.4618655e-08
201	0x14d96a8c	2.1953426e-26
202	0x3525dfde	6.179306e-07
203	0x358d175d	1.0512118e-06
204	0x360c0aff	2.0868026e-06
205	0x36257814	2.465681e-06
206	0x35897c5c	1.0243489e-06
207	0x360a56a1	2.0614027e-06
208	0x362f0be0	2.6083944e-06
209	0x35af2d70	1.305174e-06
210	0x3601a6e8	1.931965e-06
211	0x36219e81	2.408313e-06
212	0x33e915bd	1.0853862e-07
213	0x364d4c3a	3.059175e-06
214	0x364d94d6	3.0634014e-06
215	0x3508cb72	5.096e-07
216	0x36309319	2.6311666e-06
217	0x3639682a	2.762778e-06
218	0x33802542	5.9672416e-08
219	0x3651aed4	3.124519e-06
220	0x3651bebd	3.1254451e-06
221	0x34420b0f	1.8071681e-07
222	0x36479f82	2.9746157e-06
223	0x3647adb0	2.975441e-06
224	0x3353550f	4.9204626e-08
225	0x3652ddc8	3.1421532e-06
226	0x3652c3f6	3.1406503e-06
227	0x3418703e	1.4196937e-07
228	0x3649b91c	3.0059082e-06
229	0x3649d94f	3.0077824e-06
230	0x32754c5f	1.4278242e-08
231	0x36577a7a	3.2108787e-06
232	0x36577dfc	3.211083e-06
233	0x342e3108	1.622285e-07
234	0x364823f9	2.9823261e-06
235	0x36487888	2.987248e-06
236	0x328b3d52	1.6209615e-08
237	0x00000000	0.0
238	0x3536987b	6.802217e-07
239	0x336c8a7c	5.5073983e-08
240	0x00000000	0.0
241	0x2fefa770	4.3592818e-10
242	0x380187ca	3.088246e-05
243	0x00000000	0.0
244	0x000001f4	7e-43
245	0x3629209e	2.5201948e-06
246	0x36a2a68f	4.847366e-06
247	0x37ac50d8	2.0541644e-05
248	0x37bb2df3	2.2313534e-05
249	0x36b20a28	5.3059957e-06
250	0x37a1df3e	1.929665e-05
251	0x37b49f52	2.1531861e-05
252	0x366a6426	3.4927011e-06
253	0x37aea3f4	2.0818763e-05
254	0x37be939d	2.2718503e-05
255	0x365762d5	3.2095024e-06

exp_avg f4 [64]
0	0x3414efb1	1.3870773e-07
1	0x355fbac2	8.334574e-07
2	0xb81e9831	-3.7811875e-05
3	0xb7a3bba1	-1.9518486e-05
4	0xb95059a5	-0.00019869821
5	0x38ee7782	0.000113709844
6	0xb98fc536	-0.0002742202
7	0x3929c43e	0.00016190202
8	0x397eeea8	0.00024312234
9	0xb99d7d3c	-0.0003003868
10	0x3909aa4f	0.00013128783
11	0xb90e7fc7	-0.00013589776
12	0xb5c5e1f8	-1.4743409e-06
13	0xb926acda	-0.00015895386
14	0xb9cf62c1	-0.00039555694
15	0x38034bab	3.1303305e-05
16	0xba1a5393	-0.00058870873
17	0xb66f93ea	-3.5699873e-06
18	0x3a108de0	0.0005514305
19	0xb930394c	-0.00016806013
20	0xb9577fa0	-0.00020551542
21	0xba0880d6	-0.00052071863
22	0xba0333b5	-0.00050049584
23	0x38ee5b14	0.00011365689
24	0x38e133ee	0.00010738509
25	0xb8fa26f6	-0.00011928186
26	0x39521325	0.00020034293
27	0xba198de9	-0.0005857633
28	0x3982a3fd	0.00024917713
29	0xb9dec4fa	-0.000424899
30	0xba2d02be	-0.0006599835
31	0xba222243	-0.0006184915
32	0x3796526e	1.7919778e-05
33	0xb985b8c2	-0.00025505392
34	0xb8ddfcb1	-0.00010585169
35	0xb6ac591a	-5.1363722e-06
36	0xb9e7abe4	-0.00044187822
37	0x3823bf9d	3.9040682e-05
38	0xb5d1ba4a	-1.5625931e-06
39	0xb6561a2c	-3.190372e-06
40	0x39661e84	0.00021945877
41	0x38cc8da4	9.753861e-05
42	0x38c77beb	9.512141e-05
43	0xb69c7f77	-4.664001e-06
44	0x3971cd13	0.00023059947
45	0xb71c649b	-9.321749e-06
46	0x36ff9ee3	7.618089e-06
47	0xba0080c9	-0.0004902003
48	0x39950eec	0.00028430612
49	0xb8402d43	-4.581852e-05
50	0xb9af51da	-0.00033439585
51	0xb93037d9	-0.00016805473
52	0x388ff581	6.8645e-05
53	0xb8ee2226	-0.00011355085
54	0xb9ea426c	-0.00044681446
55	0xb5947632	-1.1061259e-06
56	0xb7498744	-1.2012028e-05
57	0xb9745ad9	-0.00023303497
58	0x39cb7134	0.0003880352
59	0x3987cc1d	0.00025901283
60	0xb8e2c05e	-0.00010812351
61	0xb908205a	-0.00012982023
62	0xb89b03f5	-7.391713e-05
63	0x39e82de0	0.00044284668

exp_avg_sq f4 [64]
0	0x309fe7a6	1.1634611e-09
1	0x34405707	1.7913054e-07
2	0x365809aa	3.2192133e-06
3	0x37ce224b	2.4573083e-05
4	0x383b391d	4.4637465e-05
5	0x3692fb52	4.3803966e-06
6	0x391e43bf	0.00015093292
7	0x3684c83a	3.957216e-06
8	0x38ad5fd9	8.267136e-05
9	0x3813ebe7	3.5267232e-05
10	0x36b72ae8	5.45882e-06
11	0x37845f4d	1.5780004e-05
12	0x30aa413e	1.2387671e-09
13	0x387dad0e	6.048107e-05
14	0x37853e3b	1.5883814e-05
15	0x35c376a1	1.4563158e-06
16	0x37be3809	2.2675858e-05
17	0x31453f37	2.8703206e-09
18	0x391fe715	0.00015249506
19	0x38336c65	4.2777876e-05
20	0x37cd4b81	2.4473064e-05
21	0x3797400c	1.8030427e-05
22	0x37a6976e	1.9859257e-05
23	0x36fbe9e4	7.5076114e-06
24	0x36a8c0df	5.0292433e-06
25	0x37525a00	1.253793e-05
26	0x376eb7f4	1.4228735e-05
27	0x384bda71	4.860241e-05
28	0x37bba909	2.237085e-05
29	0x373cb305	1.1247354e-05
30	0x3803e9ca	3.1450567e-05
31	0x37d3494a	2.5187288e-05
32	0x3813d937	3.524983e-05
33	0x3813a70a	3.52031e-05
34	0x37827324	1.5550824e-05
35	0x3272a87a	1.4124561e-08
36	0x37eeb26f	2.84549e-05
37	0x379243d3	1.743614e-05
38	0x3073824a	8.8588037e-10
39	0x32d0664a	2.4260903e-08
40	0x38901d09	6.871863e-05
41	0x384a997f	4.8303507e-05
42	0x38b96492	8.84022e-05
43	0x3197fb83	4.423272e-09
44	0x38d3fe4b	0.0001010863
45	0x33331fc9	4.1705594e-08
46	0x36faaeb3	7.4709183e-06
47	0x37d8a534	2.5826135e-05
48	0x383cbb63	4.499721e-05
49	0x36873788	4.029778e-06
50	0x38ab458e	8.166871e-05
51	0x3693dd21	4.406684e-06
52	0x3537daae	6.8491033e-07
53	0x375a940b	1.30282815e-05
54	0x3790968f	1.7236247e-05
55	0x316b92c7	3.4280434e-09
56	0x3473cb43	2.2705085e-07
57	0x3813793c	3.516044e-05
58	0x38886517	6.503815e-05
59	0x37c01906	2.2899836e-05
60	0x3694e7d3	4.4377316e-06
61	0x365f56b3	3.3280055e-06
62	0x366c17b2	3.5180533e-06
63	0x38b84b87	8.787872e-05

exp_avg f4 [3, 64]
0	0x38064e65	3.20211e-05
1	0x3a3e5762	0.0007260946
2	0x3a024cf4	0.00049705734
3	0xbae23481	-0.0017258079
4	0xb9f5ffff	-0.00046920773
5	0x3887249f	6.444123e-05
6	0xbac56fe2	-0.0015063251
7	0x399b873d	0.00029664664
8	0xbb58cfaf	-0.0033082773
9	0xbb62e9ae	-0.0034624147
10	0x39918178	0.00027753017
11	0xbb05e842	-0.0020432626
12	0x37c0742d	2.2942282e-05
13	0xb90e3631	-0.00013562363
14	0xbb59ebe1	-0.0033252167
15	0x39edc6cd	0.0004535228
16	0xbb9cf5c3	-0.0047900393
17	0x38d87091	0.0001032065
18	0xbbdf2ba8	-0.006810624
19	0xb9c16846	-0.00036889518
20	0xbad22412	-0.0016032478
21	0xbbdd62e6	-0.0067561744
22	0xbbf22345	-0.0073894584
23	0x39d1c39d	0.0004000933
24	0x3a2355d3	0.00062307453
25	0xb8b86057	-8.7917484e-05
26	0xba81e66d	-0.0009910591
27	0xbb970df3	-0.004609817
28	0xb8b004dd	-8.39324e-05
29	0xbb9871a4	-0.004652219
30	0xbbff304d	-0.0077877403
31	0xbba90ee0	-0.005159244
32	0xbaa06f19	-0.0012240141
33	0xbad47012	-0.0016207716
34	0x397e03c4	0.0002422473
35	0x39c46f58	0.0003746699
36	0xbbd64218	-0.0065386407
37	0x39d9fff1	0.00041580157
38	0x384cd42e	4.8834998e-05
39	0x38f5ea3b	0.00011726139
40	0xbadd8e42	-0.0016903358
41	0xbb0df9cd	-0.0021663785
42	0xbb2330a8	-0.0024900828
43	0x391cb2e9	0.00014943969
44	0xbb72d8ca	-0.0037055486
45	0x39b0642d	0.00033643973
46	0x38b8e46c	8.8163506e-05
47	0xbb8df117	-0.0043317187
48	0xb987dd67	-0.00025914164
49	0xb911251f	-0.00013842106
50	0xbb0ccd47	-0.002148466
51	0xbaab8106	-0.0013084717
52	0x3a2727b0	0.00063764583
53	0x383b2380	4.4617336e-05
54	0xbb7745b1	-0.0037730748
55	0x37e8c035	2.7746059e-05
56	0x3a3efec6	0.0007285889
57	0xbb3e5121	-0.0029040056
58	0xbb67bb08	-0.0035359282
59	0xba512a95	-0.00079790625
60	0xba0a14b2	-0.0005267366
61	0xb98ee1c1	-0.0002725255
62	0xba2cf7b2	-0.0006598189
63	0xbb931442	-0.004488499
64	0xb80cfbc2	-3.361307e-05
65	0xba7cccbb	-0.00096435443
66	0xba2f83bc	-0.000669535
67	0x3b3c8a3b	0.0028768915
68	0xb9f10e64	-0.00045977824
69	0x388c2d7c	6.684192e-05
70	0x39bf70d6	0.00036514428
71	0xb8e8ff58	-0.000111101836
72	0x3bb7ac17	0.0056052315
73	0xba6acc3e	-0.0008956826
74	0x39d7552c	0.00041071454
75	0x3adf3af0	0.0017031115
76	0xb7af2e74	-2.0883257e-05
77	0xb9cb2cce	-0.0003875256
78	0x3a98173b	0.0011603603
79	0xb9b4b281	-0.0003446527
80	0x3b27945c	0.0025570607
81	0xb8d0223b	-9.924589e-05
82	0x3c1abd38	0.009444527
83	0xb94fd347	-0.00019819765
84	0xba040958	-0.0005036793
85	0x3b684006	0.0035438552
86	0x3b6fe9a8	0.0036607776
87	0xb96f7691	-0.00022836986
88	0xba06f773	-0.0005148567
89	0xba33e24f	-0.0006862031
90	0x3a9ba7ef	0.001187561
91	0x3a753b82	0.00093548757
92	0x3a90437e	0.0011006442
93	0x3ad0507d	0.0015893128
94	0x3b8beedb	0.004270417
95	0x3a9eb7fc	0.0012109275
96	0x3adc45dc	0.0016805488
97	0xb983539a	-0.00025048555
98	0xba43b8ef	-0.0007466217
99	0xb99a6c09	-0.0002945366
100	0x3b927522	0.0044695297
101	0xb90f5bee	-0.00013671789
102	0xb84d5cb3	-4.896214e-05
103	0xb8fddc7c	-0.000121050485
104	0x3b795de6	0.0038050353
105	0x3b80e549	0.003933583
106	0x3b5c8e83	0.003365428
107	0xb902e1df	-0.0001248191
108	0x3bddf97f	0.006774127
109	0xb993d783	-0.00028198594
110	0x399b0f3c	0.00029575254
111	0x39ab9ce6	0.0003273256
112	0x3abb6368	0.0014296593
113	0xb9edc3ec	-0.00045350136
114	0xb9bc1c6c	-0.0003587933
115	0x3986669d	0.00025634925
116	0xb9b930e3	-0.00035322373
117	0xba12faae	-0.0005606812
118	0x3a08bc81	0.00052160776
119	0xb7ad9ede	-2.0697185e-05
120	0xba60983e	-0.0008567608
121	0xb91e3b69	-0.00015090186
122	0x3b9fa5a1	0.0048720394
123	0x3ab4f1db	0.0013804989
124	0xba6d1fc6	-0.0009045567
125	0x38d11cb5	9.971244e-05
126	0xba792594	-0.0009504196
127	0x3bb80f30	0.005617045
128	0x35d5ad20	1.5920123e-06
129	0x3979d547	0.00023825942
130	0x3934db00	0.00017247722
131	0xba96dff4	-0.0011510835
132	0x3a738736	0.00092898624
133	0xb909a90a	-0.0001312831
134	0x3a9593ae	0.001141181
135	0xb9428ee9	-0.0001855452
136	0xbb168876	-0.002296952
137	0x3b8ece5f	0.0043580974
138	0xba346b51	-0.00068824465
139	0x39b25689	0.0003401528
140	0xb60a2dfc	-2.059037e-06
141	0x3a0923f3	0.0005231492
142	0x3b0de03a	0.0021648542
143	0xb8e45123	-0.00010887
144	0x3b125723	0.002232977
145	0xb684e534	-3.9605893e-06
146	0xbb2c9d9e	-0.0026339064
147	0x3a14a901	0.00056709355
148	0x3b0a145f	0.002106927
149	0x3b5285c7	0.0032123195
150	0x3b745cdd	0.0037286796
151	0xb93410d4	-0.00017172407
152	0xb8e2f326	-0.0001082181
153	0x3a4aee5c	0.0007741207
154	0xb94e0c12	-0.00019650187
155	0x3b70cd02	0.0036743288
156	0xba854334	-0.0010167123
157	0x3b48bb11	0.0030629078
158	0x3b6682d7	0.0035173201
159	0x3b8160dd	0.0039483146
160	0xb9ef5ae4	-0.0004565335
161	0x3af544f4	0.0018712566
162	0x3a0437fc	0.0005043743
163	0xb8a80d2c	-8.013318e-05
164	0x3b0799fc	0.0020691147
165	0xb99251fe	-0.0002790838
166	0x34088a59	1.2716318e-07
167	0x367e4720	3.789035e-06
168	0xbb0a96b7	-0.0021146962
169	0xbae7a17f	-0.0017672031
170	0xba65775c	-0.00087534427
171	0xb7ce889a	-2.4620724e-05
172	0xbb491a29	-0.0030685759
173	0xb864655c	-5.4453834e-05
174	0xb9c9485a	-0.00038391614
175	0x3b83374c	0.0040043946
176	0xba996c04	-0.0011705165
177	0x3a1b2b3e	0.00059192243
178	0x3b2450d7	0.0025072598
179	0x3a89e75e	0.0010521223
180	0xb9951e84	-0.0002844223
181	0x3a074875	0.0005160638
182	0x3b55169e	0.0032514702
183	0xb6ec8551	-7.048868e-06
184	0x390665d0	0.00012817164
185	0x3b4834df	0.0030549092
186	0xbaaf2059	-0.0013361081
187	0xba18b91c	-0.0005825923
188	0x3abb9a40	0.0014312938
189	0x39353540	0.00017281342
190	0x3ad30ea1	0.0016102382
191	0xba93eb90	-0.0011285413
