Config/results/BallCatcher_01/BoxBehavior/BoxBehavior-1499995.onnx (onnx, 23715 bytes, 4 tensors)

distribution.branches.0.bias f4 [3]
0.053075455 -0.018845517 0.033503234
00000000: a665 593d ea61 9abc b03a 093d

distribution.branches.0.weight f4 [3, 64]
-0.123406656 0.010530386 0.020143136 0.003717713 0.14135376 -0.113652326 0.19085222 -0.0386328
-0.039765034 0.16990545 -0.15715471 -0.03850349 -0.0628305 0.10690259 0.049652692 -0.07214993
0.13958688 -0.028959239 -0.1236363 -0.068048276 -0.028214978 0.09661807 0.082900584 -0.0723713
-0.105232164 0.07483146 0.07732711 0.12813559 -0.01865375 0.036870614 0.11423839 0.15167473
-0.0476394 0.11424678 -0.099109225 -0.07415 0.08597667 -0.078298196 0.011547649 -0.04081252
-0.04939865 0.015986271 -0.046514638 -0.020848878 -0.05649446 -0.079248436 -0.017451977 0.14152491
-0.16485897 0.10056292 0.18933956 -0.07449256 0.03247289 -0.075597234 0.018511273 -0.11449615
0.102867275 0.11029195 -0.09761295 -0.06824019 0.10892113 -0.07774668 -0.040434927 -0.11957129
0.086163566 0.028797979 0.02647462 -0.016377205 0.094148345 0.10056655 0.1262036 -0.00027362182
0.043599974 0.05658113 0.12962247 -0.022373047 0.109546125 0.1273672 -0.04481129 0.02309314
0.0119847115 0.055186145 0.10766903 0.09669744 0.043073494 -0.031579103 -0.11167627 0.08823872
0.104069784 0.03586867 0.093002394 -0.051591586 0.03622422 -0.07501533 -0.11506972 -0.15378782
0.036395993 0.058500014 0.08951886 0.033753633 -0.030641528 0.15614265 0.015733916 0.07094267
0.04385199 0.03146041 -0.032559093 0.086054824 0.014842619 0.039288655 -0.009480133 -0.030227412
0.06190195 0.017122883 0.11616519 0.061482646 -0.038825475 0.050466314 -0.026469264 0.05628517
0.07703099 0.03667386 0.117851555 0.023164405 0.019899562 -0.022416463 0.0022160178 0.115029536
0.041499056 0.11249395 -0.04728494 0.11860513 -0.17021388 0.03769675 -0.24393871 0.022700667
0.08701838 -0.037950598 0.025329258 0.03439031 -0.059002887 -0.12906598 0.08751368 0.008850816
-0.08671537 -0.07062922 0.094616674 -0.05260859 0.017463354 0.055347897 0.095094495 -0.05941974
-0.03622983 -0.034284707 -0.13159776 0.036604732 0.04474044 0.11858124 0.100907765 0.09581002
0.10992215 0.036767796 0.019828161 -0.005476391 0.06007004 -0.043940507 -0.09092155 -0.09472047
0.08788156 0.026397688 0.1258812 -0.0780689 0.13160355 -0.066357136 -0.0059189475 0.042310044
0.12952861 -0.048186354 -0.19286169 0.038819317 -0.00075012306 -0.042650063 0.09716718 0.07515048
-0.09403319 -0.03018205 0.04198016 0.02378545 0.04819271 0.10840143 0.048298556 0.07117102
00000000: a1bc fcbd a487 2c3c 3803 a53c e0a4 733b
00000010: 0abf 103e 8dc2 e8bd c46e 433e 6d3d 1ebd
00000020: a9e0 22bd b2fb 2d3e 2aed 20be d6b5 1dbd
00000030: 47ad 80bd bfef da3d 9f60 4b3d 58c3 93bd
00000040: ddef 0e3e ed3b edbc 0735 fdbd e55c 8bbd
00000050: 1923 e7bc b2df c53d c8c7 a93d 6737 94bd
00000060: f683 d7bd 3d41 993d ad5d 9e3d fa35 033e
00000070: c0cf 98bc a405 173d d1f5 e93d 9f50 1b3e
00000080: 8821 43bd 37fa e93d c7f9 cabd f5db 97bd
00000090: 8914 b03d ce5a a0bd 5a32 3d3c 072b 27bd
000000a0: 3d56 4abd a4f5 823c 2286 3ebd 44cb aabc
000000b0: bc66 67bd 014d a2bd 73f7 8ebc e8eb 103e
000000c0: cad0 28be eff3 cd3d 3be2 413e 8e8f 98bd
000000d0: 4b02 053d b9d2 9abd f4a4 973c f57c eabd
000000e0: 14ac d23d bfe0 e13d 4ce9 c7bd 83c1 8bbd
000000f0: 0b12 df3d a739 9fbd 189f 25bd cbe1 f4bd
00000100: 8676 b03d bde9 eb3c 4de1 d83c 7d29 86bc
00000110: d9d0 c03d d6f5 cd3d 843b 013e e674 8fb9
00000120: e395 323d 9dc1 673d c1bb 043e ae47 b7bc
00000130: b859 e03d 8c6c 023e 0b8c 37bd d32d bd3c
00000140: 865b 443c de0a 623d 9581 dc3d 4f09 c63d
00000150: d56d 303d 1759 01bd 87b6 e4bd 81b6 b43d
00000160: 8a22 d53d 07eb 123d 0a78 be3d b351 53bd
00000170: d95f 143d a3a1 99bd aca9 ebbd 8e7a 1dbe
00000180: f713 153d b69d 6f3d aa55 b73d 4041 0a3d
00000190: f103 fbbc dce3 1f3e 6ae4 803c 644a 913d
000001a0: 259e 333d a2dc 003d af5c 05bd 833d b03d
000001b0: 752e 733c 24ed 203d 8f52 1bbc 7a9f f7bc
000001c0: e68c 7d3d 4a45 8c3c 04e8 ed3d 3ad5 7b3d
000001d0: 7607 1fbd c4b5 4e3d 12d6 d8bc 478b 663d
000001e0: 6cc2 9d3d 5437 163d 285c f13d 47c3 bd3c
000001f0: 6804 a33c bba2 b7bc 9c3a 113b 9b94 eb3d
00000200: eafa 293d 3a63 e63d daad 41bd 3fe7 f23d
00000210: 8c4c 2ebe e867 1a3d 12cb 79be c0f6 b93c
00000220: b136 b23d 1672 1bbd 4e7f cf3c dbdc 0c3d
00000230: 03ad 71bd df29 04be 5f3a b33d 0303 113c
00000240: d497 b1bd 0da6 90bd 63c6 c13d 1b7c 57bd
00000250: 4f0f 8f3c 7ab4 623d e7c0 c23d 1d62 73bd
00000260: bb65 14bd 1f6e 0cbd 90c1 06be d8ee 153d
00000270: c041 373d b9da f23d bba8 ce3d 0b38 c43d
00000280: dd1e e13d d499 163d ab6e a23c 4c73 b3bb
00000290: 010c 763d f6fa 33bd 1435 babd cefc c1bd
000002a0: 3ffb b33d f73f d83c 00e7 003e 96e2 9fbd
000002b0: 15c3 063e 40e6 87bd bbf3 c1bb 4c4d 2d3d
000002c0: 26a3 043e 0e5f 45bd 897d 45be 0101 1f3d
000002d0: e8a3 44ba d5b1 2ebd 96ff c63d 7fe8 993d
000002e0: 7994 c0bd 5940 f7bc 63f3 2b3d b4d9 c23c
000002f0: b865 453d 9201 de3d b5d4 453d 1dc2 913d

network_body.linear_encoder.seq_layers.0.bias f4 [64]
-0.06741077 0.020709842 0.040914126 0.021638256 0.058916084 0.0043176445 0.050905958 -0.12231261
-0.026497614 0.056201614 0.012438367 0.015072836 -0.121161245 0.027003767 0.010263179 -0.042180244
0.0797417 -0.12855574 0.0008747632 -0.09989774 -0.036130823 0.05279323 0.10322786 -0.045216337
-0.09562926 0.010613678 0.012335738 0.05282231 -0.09731176 0.02183627 0.03526187 0.039820116
0.028961342 0.002717244 -0.034358867 -0.092130676 0.0001170842 -0.07874609 -0.13288523 -0.12222429
-0.03400694 -0.039607108 0.027500981 -0.10706959 0.0019603062 -0.121512294 -0.016433742 0.03488561
0.0053150216 0.029234154 0.05885121 -0.009431402 -0.009124672 -0.12475787 0.037005942 -0.06517325
0.01789313 0.026047096 0.014665257 -0.1142022 0.018988043 0.053685423 -0.008877212 0.00775901
00000000: a80e 8abd b0a7 a93c 9295 273d b642 b13c
00000010: fe51 713d 077b 8d3b c482 503d 097f fabd
00000020: 8611 d9bc aa33 663d 4bca 4b3c 0ef4 763c
00000030: 6323 f8bd 0137 dd3c e526 283c 31c5 2cbd
00000040: 9e4f a33d 1ea4 03be 5d50 653a 3097 ccbd
00000050: eafd 13bd b73d 583d 2169 d33d c434 39bd
00000060: 46d9 c3bd fee4 2d3c d61b 4a3c 355c 583d
00000070: 634b c7bd fae1 b23c c06e 103d 6b1a 233d
00000080: 5640 ed3c ca13 323b e2bb 0cbd 02af bcbd
00000090: 1a8b f538 a145 a1bd 1113 08be bb50 fabd
000000a0: dc4a 0bbd 103b 22bd bd49 e13c 4d47 dbbd
000000b0: 7b78 003b 70db f8bd 0ea0 86bc 37e4 0e3d
000000c0: a229 ae3b 777c ef3c f70d 713d 2b86 1abc
000000d0: a67f 15bc 0e81 ffbd 8b93 173d 8e79 85bd
000000e0: 9d94 923c b860 d53c 8c46 703c d8e2 e9bd
000000f0: d08c 9b3c 3fe5 5b3d ba71 11bc 4b3f fe3b

network_body.linear_encoder.seq_layers.0.weight f4 [64, 82]
0.15930007 -0.22553633 -0.20006862 -0.08878936 -0.31828612 -0.12559786 0.36017573 -0.24330111
-0.39513883 -0.14918637 -0.34426215 -0.2977307 0.16407384 -0.34302935 0.025793167 0.27632573
-0.21423097 -0.25463036 0.10514834 -0.12944841 -0.023619229 0.2619109 -0.33472326 -0.355809
0.23784237 -0.067878865 -0.1359179 0.18520607 -0.31559932 -0.3909904 0.09217935 0.23552762
-0.13933621 0.49083248 0.02100762 -0.15588179 0.25592476 -0.15040621 -0.042263202 -0.26754522
0.19280428 -0.0779167 -0.18585037 -0.14561197 0.060514335 -0.1267359 0.11208941 -0.46624643
0.08179231 0.13108748 -0.09043388 0.136357 0.083509564 -0.2015326 -0.3355789 -0.05182727
0.052784074 0.018790213 0.08503471 0.20405772 0.07521186 0.11516297 -0.08878211 0.11502435
-0.21321684 -0.11662912 -0.101113714 0.0663183 -0.16127607 0.3440763 -0.19175188 -0.07855018
-0.17511722 -0.082778335 0.089391984 0.1502927 0.0342685 -0.12649237 0.017347816 0.02379937
0.10961102 -0.21539508 -0.05191978 -0.04870402 -0.12486798 -0.0789314 0.03670778 0.09363278
-0.06330238 0.031011645 0.015344622 0.07548242 -0.27054054 -0.2638796 0.09917447 0.116796106
-0.10614667 0.3919829 0.0075028366 0.11594409 0.33855623 -0.16464117 -0.050386425 0.3376999
0.026434343 -0.05967745 0.20053615 -0.09031859 0.059511103 0.22511935 -0.07951546 -0.109048754
0.4483126 -0.03279866 -0.09053525 0.34333348 -0.14310907 0.11141118 0.40140963 -0.057079922
-0.11289541 0.15189408 -0.27343273 0.026233664 0.3358315 0.026439508 -0.067329995 0.08593043
0.043020193 -0.1442257 0.38564113 0.2536281 0.06532523 -0.24232648 0.19467412 0.1413873
0.27003276 -0.14365853 -0.12059751 -0.25936553 0.08458178 0.22137548 0.024645569 0.062109753
0.04083168 -0.06966646 0.03213666 -0.11904174 0.28561637 -0.010442742 -0.031804077 0.23908089
0.11516106 -0.0595232 0.24657418 -0.10834478 0.08741011 0.40356386 0.07102162 0.16910337
0.2674413 0.13088185 0.07409812 -0.04398827 0.25565818 -0.093527295 -0.09313632 0.30082124
-0.13817564 0.09598657 -0.02062431 -0.08714183 -0.090730526 -0.16518502 0.0750611 0.31335855
-0.42240986 0.07376783 0.2020555 -0.06525753 0.09263395 0.102478705 -0.10056606 0.0044960845
0.17778863 0.05310759 -0.0070293127 0.02586702 0.1022722 0.12376272 -0.11423817 -0.0056833006
0.092681594 -0.03787002 -0.2030019 0.029926106 0.0018549357 -0.2768277 -0.051761705 -0.0072727874
-0.060239334 -0.08899183 -0.053408273 0.30133128 -0.17502266 -0.14504242 0.06854034 -0.03150761
-0.07220547 0.3667373 -0.2193054 -0.07573779 -0.110251695 0.17603582 0.057565976 0.12653647
-0.07338647 -0.0131459655 -0.17246106 -0.014545776 -0.029933136 0.08278239 0.18144354 -0.08003358
-0.13044998 0.12080158 -0.14472567 -0.10746746 -0.15398178 0.17221147 -0.055633742 0.038488194
0.08897908 -0.13143377 -0.06549937 -0.1036724 0.13683972 -0.058637217 0.16001804 0.14948764
0.049043175 -0.03389 -0.034454677 0.019852206 0.19054945 0.12539768 -0.03378699 0.12066073
0.008842836 -0.23872718 0.14106047 0.005708611 0.17027101 -0.17587698 -0.076118715 0.27019525
00000000: 8f1f 233e fff2 66be cade 4cbe 32d7 b5bd
00000010: 66f6 a2be ba9c 00be f468 b83e ed23 79be
00000020: a34f cabe 50c4 18be 2143 b0be 2970 98be
00000030: f902 283e 8ba1 afbe 314c d33c 917a 8d3e
00000040: 5d5f 5bbe e95e 82be 0358 d73d 208e 04be
00000050: 1d7d c1bc 2f19 863e d960 abbe 992c b6be
00000060: f38c 733e 1304 8bbd 102e 0bbe a9a6 3d3e
00000070: 3c96 a1be e52f c8be 87c8 bc3d 272e 713e
00000080: 27ae 0ebe 654e fb3e 2c18 ac3c 7a9f 1fbe
00000090: 9208 833e 1604 1abe 2e1c 2dbd b0fb 88be
000000a0: 7c6e 453e ca92 9fbd 8f4f 3ebe 4e1b 15be
000000b0: e1dd 773d 0ec7 01be 228f e53d dab7 eebe
000000c0: ba82 a73d cc3b 063e 6635 b9bd 2ba1 0b3e
000000d0: 1007 ab3d 905e 4ebe ffd0 abbe d548 54bd
000000e0: 1d34 583d efed 993c ae26 ae3d 82f4 503e
000000f0: ad08 9a3d 90da eb3d 65d3 b5bd e391 eb3d
00000100: 8455 5abe 40db eebd b514 cfbd e4d1 873d
00000110: 8e25 25be c52a b03e 9b5a 44be ebde a0bd
00000120: ee51 33be b087 a9bd 2513 b73d 54e6 193e
00000130: 205d 0c3d 3787 01be 021d 8e3c e5f6 c23c
00000140: be7b e03d 8790 5cbe d6a9 54bd de7d 47bd
00000150: c9ba ffbd c9a6 a1bd e65a 163d 8bc2 bf3d
00000160: aea4 81bd 220c fe3c 0268 7b3c 8796 9a3d
00000170: 4a84 8abe 3a1b 87be fc1b cb3d cc32 ef3d
00000180: 6d63 d9bd fcb1 c83e 5bda f53b 1874 ed3d
00000190: 3e57 ad3e b297 28be ff61 4ebd 00e7 ac3e
000001a0: d68c d83c 5870 74bd 5959 4d3e f4f8 b8bd
000001b0: eac1 733d b085 663e 00d9 a2bd f454 dfbd
000001c0: 3b89 e53e e357 06bd 8c6a b9bd 68c9 af3e
000001d0: 2f8b 12be 8b2b e43d 9085 cd3e a3cc 69bd
000001e0: b535 e7bd 1f8a 1b3e 60ff 8bbe fbe7 d63c
000001f0: 1bf2 ab3e ab97 d83c 4fe4 89bd 4bfc af3d
00000200: f135 303d e7af 13be c172 c53e 8bdb 813e
00000210: 3cc9 853d 6f24 78be a758 473e d5c7 103e
00000220: bc41 8a3e 391b 13be d4fb f6bd 8fcb 84be
00000230: 3639 ad3d 41b0 623e 81e5 c93c cc66 7e3d
00000240: 1f3f 273d 4aad 8ebd bba1 033d 28cc f3bd
00000250: 4f3c 923e 0918 2bbc fe44 02bd 9fd1 743e
00000260: 90d9 eb3d 99ce 73bd f17d 7c3e dee3 ddbd
00000270: 1204 b33d ec9f ce3e c873 913d 6f29 2d3e
00000280: 11ee 883e e405 063e c1c0 973d 0b2d 34bd
00000290: a1e5 823e 3d8b bfbd 41be bebd 3e05 9a3e
000002a0: ea7d 0dbe 9b94 c43d 50f4 a8bc 6a77 b2bd
000002b0: edd0 b9bd 4326 29be a2b9 993d 8870 a03e
000002c0: 1b46 d8be 9713 973d a3e7 4e3e bda5 85bd
000002d0: deb6 bd3d 5be0 d13d 94f5 cdbd e453 933b
000002e0: 390e 363e 5887 593d 2656 e6bb 13e7 d33c
000002f0: 1674 d13d 4f77 fd3d b4f5 e9bd fb3a babb
00000300: d9cf bd3d 981d 1bbd bbdf 4fbe 9827 f53c
00000310: 5021 f33a 5cbc 8dbe 1504 54bd 9050 eebb
00000320: 85bd 76bd 5941 b6bd a2c2 5abd 1848 9a3e
00000330: 2439 33be 0086 14be e15e 8c3d 200e 01bd
00000340: 76e0 93bd fec4 bb3e 9891 60be 6a1c 9bbd
00000350: a4cb e1bd bc42 343e 4dca 6b3d c792 013e
00000360: a54b 96bd 2d62 57bc a299 30be 6851 6ebc
00000370: 5636 f5bc d089 a93d 56cc 393e a5e8 a3bd
00000380: ae94 05be d266 f73d f732 14be e617 dcbd
00000390: 66ad 1dbe 3458 303e 35e0 63bd cca5 1d3d
000003a0: aa3a b63d 9396 06be 8924 86bd 3252 d4bd
000003b0: b61f 0c3e 942d 70bd c5db 233e 4a13 193e
000003c0: 7fe1 483d 3ed0 0abd 5920 0dbd 18a1 a23c
000003d0: 651f 433e 4068 003e 3a64 0abd f91c f73d
000003e0: 8be1 103c e674 74be 2872 103e 4d0f bb3b
000003f0: 865b 2e3e 1819 34be 21e4 9bbd 0857 8a3e
