Config/results/BallCatcher_01/BoxBehavior/BoxBehavior-999995.onnx (onnx, 23715 bytes, 4 tensors)

distribution.branches.0.bias f4 [3]
0.027081046 -0.017773042 0.036945675
00000000: 12d9 dd3c c598 91bc 5954 173d

distribution.branches.0.weight f4 [3, 64]
-0.010452021 0.10110059 -0.028897963 0.021741405 0.10175169 -0.0051827612 0.16329151 -0.05366316
-0.03483442 0.14448816 -0.058672216 -0.017094156 -0.0371783 0.10623304 0.060235403 -0.026900828
0.14705375 -0.014756058 -0.083800934 0.007986157 -0.0071825245 0.07776704 0.060515042 -0.064540334
-0.06251099 0.031322446 0.0583975 0.099235095 -0.075049445 0.042734064 0.089622475 0.10791868
0.0003305065 0.106118195 -0.02668324 -0.03717602 0.07939215 0.010925285 -0.043982618 -0.03157646
-0.04916981 0.0077515836 -0.043611128 -0.020782882 -0.03672437 -0.054702017 0.009387015 0.10381489
-0.14604469 0.10123783 0.1695403 -0.0034226577 -0.020902254 -0.034265663 0.07924951 -0.070348725
0.07365332 0.10449397 -0.04437632 -0.08504809 0.090633556 -0.034192517 -0.0063397298 -0.056499276
0.009987616 -0.04127249 0.06788895 -0.06199674 0.10151461 0.008080548 0.12522803 0.015691584
-0.012118637 0.06578115 -0.0060110018 -0.054096043 0.09676949 0.11206729 -0.05984328 -0.014223508
-0.032316454 0.047412917 0.049992014 0.03328037 0.026537333 -0.02009725 -0.10255905 0.09956198
0.07508343 0.07286288 0.107841656 -0.044510774 0.07128558 -0.067959785 -0.103964016 -0.1167434
-0.036518145 0.07321449 0.05302438 0.027841195 -0.060728714 0.10191982 0.046789087 0.07634178
-0.022241218 -0.035479963 -0.07466693 0.07129671 -0.039286986 0.019165337 -0.030564731 -0.02599596
-0.0033506502 0.034666438 0.11631405 0.011417211 -0.0010262968 0.0033548095 -0.08075391 0.008476785
0.08190375 0.043219123 0.035266317 0.031179791 0.01553206 -0.020476267 -0.03042286 0.032473657
-0.010201649 0.061092574 -0.01706557 0.11217982 -0.13387828 0.0044155405 -0.22100705 0.04958358
0.11231783 -0.07019086 0.06557948 0.07204162 -0.06821277 -0.115022205 0.07435936 0.027344296
-0.06872219 -0.061819345 0.0922119 -0.055276357 0.046604816 0.025449904 0.07564964 -0.047106616
-0.025751024 -0.026769249 -0.14598219 0.00566731 0.08034269 0.07731083 0.06366114 0.058246344
0.09206772 -0.005782647 -0.021940762 -0.022898648 0.07026972 -0.07096041 -0.06842927 -0.085307986
0.14197667 0.08713891 0.13710056 -0.048895225 0.13627791 -0.048026893 -0.0074415505 0.028594824
0.16804266 -0.14412251 -0.21003275 0.019931048 0.0003492092 -0.019546326 0.066999085 0.09906487
-0.08476946 -0.103413016 0.061330184 0.06733167 0.022519095 0.0707477 0.083979554 0.077513486
00000000: f43e 2bbc d30d cf3d 6cbb ecbc 081b b23c
00000010: 3163 d03d 27d4 a9bb e435 273e e7cd 5bbd
00000020: 89ae 0ebd b4f4 133e 4752 70bd 0b09 8cbc
00000030: 4648 18bd b590 d93d 66b9 763d 205f dcbc
00000040: 4295 163e 65c3 71bc d39f abbd 5fd8 023c
00000050: 625b ebbb 5344 9f3d 9fde 773d b92d 84bd
00000060: c305 80bd f74b 003d 3832 6f3d c53b cb3d
00000070: 86b3 99bd ea09 2f3d fd8b b73d 7804 dd3d
00000080: d547 ad39 7f54 d93d cf96 dabc e245 18bd
00000090: 5a98 a23d f7ff 323c 1e27 34bd 5156 01bd
000000a0: 4866 49bd ff00 fe3b 95a1 32bd dd40 aabc
000000b0: 4b6c 16bd 390f 60bd ffcb 193c e79c d43d
000000c0: bd8c 15be c855 cf3d f99b 2d3e ab4e 60bb
000000d0: 343b abbc 275a 0cbd 914d a23d fe12 90bd
000000e0: 8dd7 963d ef00 d63d f2c3 35bd b12d aebd
000000f0: 169e b93d 740d 0cbd 82bd cfbb c96b 67bd
00000100: 19a3 233c 580d 29bd 5d09 8b3d 4bf0 7dbd
00000110: e4e6 cf3d 4664 043c c73b 003e a38b 803c
00000120: 3f8d 46bc 44b8 863d f0f7 c4bb d093 5dbd
00000130: 152f c63d 8983 e53d 3a1e 75bd b709 69bc
00000140: 425e 04bd 0c34 423d 6dc4 4c3d ff50 083d
00000150: d264 d93c fda2 a4bc 7b0a d2bd 27e7 cb3d
00000160: 57c5 993d 2239 953d 16dc dc3d ee50 36bd
00000170: 2dfe 913d 802e 8bbd 16eb d4bd 2a17 efbd
00000180: 0d94 15bd 7bf1 953d 1830 593d 3813 e43c
00000190: acbe 78bd 57bb d03d eaa5 3f3d 1459 9c3d
000001a0: 3733 b6bc 7053 11bd faea 98bd 0204 923d
000001b0: 64eb 20bd a000 9d3c e362 fabc 7bf5 d4bc
000001c0: 9596 5bbb 65fe 0d3d 1036 ee3d 410f 3b3c
000001d0: ce84 86ba 5ddc 5b3b 4e62 a5bd 37e2 0a3c
000001e0: 27bd a73d 8906 313d 6a73 103d c36c ff3c
000001f0: 2e7a 7e3c d8bd a7bc 5d39 f9bc 1903 053d
00000200: d124 27bc 353c 7a3d 18cd 8bbc 89be e53d
00000210: 6317 09be 3db0 903b ac4f 62be 2718 4b3d
00000220: e406 e63d 3ac0 8fbd 894e 863d 8f8a 933d
00000230: 23b3 8bbd c390 ebbd b849 983d 2501 e03c
00000240: 38be 8cbd 4836 7dbd 98d9 bc3d 7669 62bd
00000250: b1e4 3e3d 517c d03c 33ee 9a3d def2 40bd
00000260: d0f3 d2bc 2f4b dbbc 5b7c 15be d8b4 b93b
00000270: b58a a43d 2455 9e3d c660 823d b893 6e3d
00000280: 008e bc3d 5c7c bdbb 1dbd b3bc f295 bbbc
00000290: 92e9 8f3d b153 91bd a524 8cbd f4b5 aebd
000002a0: 5562 113e e375 b23d 1764 0c3e 5c46 48bd
000002b0: 708c 0b3e d9b7 44bd 40d8 f3bb b13f ea3c
000002c0: 6013 2c3e da94 13be d312 57be 7046 a33c
000002d0: 1116 b739 9e1f a0bc d136 893d 86e2 ca3d
000002e0: 9c9b adbd 34ca d3bd 5c35 7b3d 30e5 893d
000002f0: f779 b83c 2ce4 903d 79fd ab3d 64bf 9e3d

network_body.linear_encoder.seq_layers.0.bias f4 [64]
-0.18921939 0.032693323 0.016170299 0.041742105 0.04358519 -0.012195321 0.034908332 -0.039288376
-0.003501675 0.035246626 -0.01267406 0.010161495 -0.11970311 0.009264539 -0.010767713 -0.04596255
0.05613233 -0.10807312 0.013937393 -0.12340645 -0.043631397 0.044119302 0.07954378 -0.007641091
-0.10355025 -0.017363153 0.057793368 0.032894827 -0.006267395 -0.01653753 0.014656037 0.0016878336
0.02051108 0.0029097204 -0.045355488 -0.13427286 0.0039903233 -0.079328574 -0.106564626 -0.105327584
0.005702134 0.031450268 0.03329785 -0.115405634 0.025657678 -0.12851469 0.021896439 0.009218051
0.014596527 0.035883315 0.041820757 -0.096629836 -0.03139429 -0.08996364 0.013456632 -0.09650047
0.010434094 0.023545198 -0.016881367 -0.035225533 0.0027885612 0.015063922 -0.0066334964 -0.009116973
00000000: bac2 41be 6fe9 053d 9377 843c c5f9 2a3d
00000010: 6286 323d e2ce 47bc 0afc 0e3d d9ec 20bd
00000020: 5c7c 65bb c45e 103d dca6 4fbc 667c 263c
00000030: e726 f5bd 4bca 173c 106b 30bc 3a43 3cbd
00000040: 04eb 653d 7155 ddbd aa59 643c 85bc fcbd
00000050: d6b6 32bd 71b6 343d d9e7 a23d 1e62 fabb
00000060: 2712 d4bd 2c3d 8ebc bdb8 6c3d babc 063d
00000070: b85e cdbb b779 87bc e01f 703c 4c3a dd3a
00000080: da06 a83c 02b1 3e3b adc6 39bd d37e 09be
00000090: 42c1 823b 0577 a2bd 8e3e dabd fdb5 d7bd
000000a0: f8d8 ba3b ffd1 003d 5463 083d ca59 ecbd
000000b0: 0d30 d23c 5b99 03be 2960 b33c 4f07 173c
000000c0: 4626 6f3c 62fa 123d 3e4c 2b3d dde5 c5bd
000000d0: 4d97 00bd db3e b8bd 3579 5c3c 0aa2 c5bd
000000e0: c3f3 2a3c dce1 c03c cb4a 8abc a648 10bd
000000f0: 4bc0 363b abce 763c cd5d d9bb 5b5f 15bc

network_body.linear_encoder.seq_layers.0.weight f4 [64, 82]
0.010516535 -0.20936513 -0.17864278 -0.23334761 -0.2982329 -0.096676625 0.20252757 -0.17386527
-0.36977693 -0.2990623 -0.30582982 -0.2581941 0.056732863 -0.38752562 -0.0016786356 0.10824591
-0.15199974 -0.1940204 -0.001374979 -0.22374156 -0.11960761 0.11321113 -0.29739842 -0.31685305
0.17619476 -0.1652205 -0.23498069 0.009939484 -0.24551105 -0.32345268 0.049715646 0.12727173
-0.24981725 0.29494756 0.02100762 -0.23506027 0.22028302 -0.15172142 -0.1492391 -0.25793627
0.027991343 -0.233643 -0.18317002 -0.25408265 -0.08077056 -0.12558715 -0.022231257 -0.6084176
0.089149766 -0.0047916076 -0.22670844 0.08643513 -0.04885296 -0.35066497 -0.22504057 -0.20384982
-0.09683337 -0.067802444 -0.008129974 0.110906795 0.1298164 -0.0340969 -0.23540704 -0.037296135
-0.15925898 -0.097109884 -0.09066023 -0.07634808 -0.30242032 0.17553593 -0.15554443 -0.07097774
-0.1704589 -0.082778335 -0.061378088 0.13453129 0.0342685 -0.24973598 0.026983602 0.02379937
0.10961102 -0.14179507 -0.0456945 -0.0297397 -0.09727428 -0.084361136 0.05306346 0.117962435
-0.11718074 0.07506577 0.04423851 -0.085885294 -0.19090289 -0.21032596 0.2862274 0.07319757
-0.10441816 0.31706244 0.036135156 0.14508227 0.33974057 -0.14937769 -0.034555197 0.3365103
0.048048913 -0.03625127 0.15974197 -0.06571886 0.08107111 0.1516472 -0.047205534 -0.07682096
0.316595 0.0018991834 -0.060979184 0.20095666 -0.14310907 0.12726235 0.36888692 -0.057632077
-0.08339751 0.20388529 -0.27899095 0.029411186 0.23410599 0.087100245 -0.027940895 0.1012498
0.05438239 -0.13432325 0.3412402 0.273498 0.084299214 -0.130047 0.16712424 0.1553847
0.22498985 -0.12867409 -0.10570086 -0.33655277 0.11870609 0.24406047 0.05084697 0.07059414
0.050189935 -0.20158227 0.07745112 -0.079370596 0.27793217 0.00060295284 -0.02030619 0.032677006
0.18260472 -0.00017301324 0.22896138 -0.10834478 0.08514495 0.19328016 0.07102162 0.18675885
0.32142457 0.13088185 0.07409812 0.007054619 0.16755052 -0.07976158 -0.1266709 0.27747634
-0.17821714 0.045762617 -0.12843184 -0.063864976 -0.10581059 -0.075882316 0.012681643 0.27447623
-0.3004388 0.030672573 0.17979401 -0.021243388 0.05918893 0.07093903 -0.10707575 -0.02128762
0.15161787 0.07729421 -0.049691137 -0.015310895 0.14861016 0.09372514 -0.14387335 0.032761786
0.03762466 -0.09066527 -0.1517233 -0.00036644298 -0.027880933 -0.3023607 -0.051761705 -0.03143882
-0.01902961 -0.08204765 -0.09312531 0.17242487 -0.119934484 -0.120784976 0.18080588 -0.11838282
-0.12645695 0.3242317 -0.21268018 -0.07604987 -0.08035768 0.145866 0.031879667 0.18467142
-0.16571602 -0.09786433 -0.25907862 -0.022348987 -0.03839825 0.22647451 0.08407728 -0.16343395
-0.22075701 0.107840076 -0.1582241 -0.02463669 -0.21159028 0.11907051 -0.1680818 0.02784595
0.07792941 -0.004600708 -0.13457723 -0.16983931 0.048357442 -0.058637217 0.16082679 0.20290539
0.049043175 -0.06726805 -0.12984695 0.019852206 0.19054945 0.11455254 -0.12852675 0.19727787
0.05460228 -0.19827266 0.14964715 0.02930294 0.12363933 -0.11709922 -0.046124864 0.13655812
00000000: 8b4d 2c3c d063 56be 22ee 36be adf2 6ebe
00000010: fcb1 98be 65fe c5bd 6363 4f3e bd09 32be
00000020: 6753 bdbe b21e 99be ba95 9cbe 0432 84be
00000030: b860 683d c269 c6be aa05 dcba 08b0 dd3d
00000040: d2a5 1bbe 49ad 46be a438 b4ba 821c 65be
00000050: d6f4 f4bd 3ddb e73d 9b44 98be 903a a2be
00000060: 666c 343e 902f 29be c79e 70be 38d9 223c
00000070: 4067 7bbe 979b a5be a2a2 4b3d 8553 023e
00000080: 18d0 7fbe 5e03 973e 2c18 ac3c a4b3 70be
00000090: df91 613e dc5c 1bbe 22d2 18be 3910 84be
000000a0: 1a4e e53c 1c40 6fbe ec90 3bbe 1f17 82be
000000b0: 096b a5bd eb99 00be 531e b6bc 41c1 1bbf
000000c0: 2794 b63d eb02 9dbb 4226 68be e704 b13d
000000d0: 0b1a 48bd 5c8a b3be 0971 66be 02be 50be
000000e0: 9350 c6bd 02dc 8abd 9533 05bc 1a23 e33d
000000f0: 97ee 043e 31a9 0bbd 8b0e 71be d5c3 18bd
00000100: c914 23be 8ce1 c6bd 12ac b9bd 625c 9cbd
00000110: d6d6 9abe b1bf 333e 0a47 1fbe c75c 91bd
00000120: c78c 2ebe b087 a9bd 9767 7bbd 92c2 093e
00000130: 205d 0c3d caba 7fbe b70c dd3c e5f6 c23c
00000140: be7b e03d ba32 11be 282a 3bbd aca0 f3bc
00000150: bd37 c7bd 88c5 acbd 1259 593d 4a96 f13d
00000160: 75fc efbd 15bc 993d 7133 353d a1e4 afbd
00000170: 0c7c 43be b05f 57be 668c 923e 9ce8 953d
00000180: 30d9 d5bd 0256 a23e 7502 143d 7290 143e
00000190: 7af2 ad3e 77f6 18be c089 0dbd 144b ac3e
000001a0: f0ce 443d 367c 14bd 6693 233e 9c97 86bd
000001b0: 9c08 a63d 6749 1b3e 975a 41bd 4f54 9dbd
000001c0: bd18 a23e 05ee f83a 4fc5 79bd 95c7 4d3e
000001d0: 2f8b 12be 1051 023e bfde bc3e 9d0f 6cbd
000001e0: 50cc aabd 4ec7 503e e7d7 8ebe baef f03c
000001f0: 7bb9 6f3e 9d61 b23d 4ee4 e4bc 0e5c cf3d
00000200: 12c0 5e3d 098c 09be 09b7 ae3e ee07 8c3e
00000210: 11a5 ac3d 0a2b 05be 9e22 2b3e 2b1d 1f3e
00000220: bd63 663e 24c3 03be b179 d8bd a550 acbe
00000230: 2e1c f33d fdea 793e ea44 503d a993 903d
00000240: f693 4d3d 956b 4ebe b19e 9e3d 0d8d a2bd
00000250: 204d 8e3e 7b0f 1e3a 2b59 a6bc 53d8 053d
00000260: bbfc 3a3e e36a 35b9 da74 6a3e dee3 ddbd
00000270: 7a60 ae3d 3ceb 453e c873 913d b63d 3f3e
00000280: c391 a43e e405 063e c1c0 973d 6f2a e73b
00000290: 5d92 2b3e 0a5a a3bd 04b6 01be 6111 8e3e
000002a0: 8e7e 36be 9571 3b3d a383 03be a4cb 82bd
000002b0: 39b3 d8bd 3068 9bbd aac6 4f3c 2688 8c3e
000002c0: 1dd3 99be 0c45 fb3c ec1b 383e 9d06 aebc
000002d0: 1770 723d 7b48 913d 884a dbbd 6063 aebc
000002e0: b741 1b3e 6d4c 9e3d ef88 4bbd 8cda 7abc
000002f0: 432d 183e f7f2 bf3d 8953 13be 3931 063d
00000300: 511c 1a3d b7ae b9bd 5a5d 1bbe 251f c0b9
00000310: 8e66 e4bc 06cf 9abe 1504 54bd fec5 00bd
00000320: fce3 9bbc 9908 a8bd 7cb8 bebd 2590 303e
00000330: 36a0 f5bd 1d5e f7bd 2d25 393e b172 f2bd
00000340: ee7d 01be b301 a63e d5c8 59be 09c0 9bbd
00000350: 9192 a4bd e65d 153e 4194 023d 811a 3d3e
00000360: 76b1 29be 186d c8bd f4a5 84be 3915 b7bc
00000370: 7c47 1dbd efe8 673e b530 ac3d 3b5b 27be
00000380: 200e 62be 42db dc3d 8005 22be e2d2 c9bc
00000390: 1fab 58be 3ddb f33d a31d 2cbe 311d e43c
000003a0: 7499 9f3d 89c1 96bb 9dce 09be 5bea 2dbe
000003b0: 7412 463d 942d 70bd c7af 243e 6ec6 4f3e
000003c0: 7fe1 483d d5c3 89bd 99f6 04be 18a1 a23c
000003d0: 651f 433e 869a ea3d 849c 03be 3603 4a3e
000003e0: a4a6 5f3d fd07 4bbe 1a3d 193e b80c f03c
000003f0: 9e36 fd3d b7d1 efbd 6ded 3cbd e4d5 0b3e
