Config/results/BallCatcher_01/BoxBehavior/BoxBehavior-499995.onnx (onnx, 23715 bytes, 4 tensors)

distribution.branches.0.bias f4 [3]
000000 4b 6f 95 bb b2 b4 b4 bb 67 35 02 3d
       -0.0045603863 -0.0055147046 0.03178921

distribution.branches.0.weight f4 [3, 64]
000000 2e 00 51 3a ac 41 2c 3c 2b 88 15 3d 63 6c 7b bc
       0.0007972744 0.010513704 0.036506813 -0.015345666
000010 f5 31 c4 3d 4e e3 77 bd e1 f9 f2 3d c4 e7 a3 bd
       0.09579841 -0.06051951 0.11864067 -0.0800319
000020 c7 fa a4 bd e9 65 bb 3d 20 c5 80 bd de 00 87 bb
       -0.080556445 0.09150297 -0.062875986 -0.0041199764
000030 07 38 80 bd 75 62 e6 3d a0 11 a0 3d ee aa 62 3c
       -0.06260686 0.11249248 0.07815862 0.013834698
000040 82 b0 81 3d 9c 3b db bc 07 9f 08 be 72 b8 a1 3d
       0.06332494 -0.026761822 -0.13341914 0.07896508
000050 fa ac 97 3d 8c 40 7b 3d ce 9e 23 3d 56 3c 38 3c
       0.074060395 0.061340854 0.03994637 0.011244854
000060 f2 24 c5 bc 96 e4 88 3d cd bb 99 bb 97 0d d4 3d
       -0.024065468 0.06684224 -0.004691577 0.103541546
000070 e7 63 f2 bd fa 09 5b 3d cc 35 85 3d 94 e4 af 3d
       -0.11835461 0.05347631 0.065044016 0.0858852
000080 b3 d8 1b bd e4 05 e0 3d 91 88 73 3d f1 a1 0c bc
       -0.038048457 0.109386235 0.05945641 -0.008583532
000090 83 c6 6a 3d 3a c6 43 3d e7 93 1b bd e6 b9 a9 bb
       0.05731822 0.047796465 -0.037982848 -0.0051796315
0000a0 d3 e4 9b bd b7 c8 57 bd 76 ac 7f bd 5f 65 ee bc
       -0.07612004 -0.05268165 -0.06242033 -0.029101072
0000b0 6a ac a3 bd 85 0e 08 bd 23 ae 68 3d 3e b6 b2 3d
       -0.0799187 -0.033216972 0.056806695 0.08726166
0000c0 45 c6 fe bd ab be 46 3c 12 33 c0 3d c0 5e 59 3d
       -0.12440161 0.01213042 0.09384741 0.053068876
0000d0 4b 72 0e bd 3f 13 22 3d 7f 17 8f 3d ca 60 24 bd
       -0.034776967 0.039569136 0.069869034 -0.040131368
0000e0 50 1a 59 bc 99 bc 64 3d f5 9e d5 bd 12 a9 c2 bd
       -0.013250902 0.055843923 -0.10430709 -0.09504904
0000f0 eb f7 80 3d 2e 21 5d 3d 8a 52 37 3d 4f a2 de bd
       0.062972866 0.05398672 0.04475645 -0.10870802
000100 86 fc 6f bb 19 47 ac 3c b9 c1 de 3c 4b e2 4e bc
       -0.0036619022 0.021029996 0.027191984 -0.012627195
000110 e8 a2 0b 3d 21 e0 ac 3c 3c 96 7c 3d 1b 07 66 3d
       0.034090906 0.021102967 0.061666712 0.05615912
000120 90 a1 63 3c ed 60 12 bd 83 fc 26 3d a3 06 8a bd
       0.0138935 -0.035736967 0.040768158 -0.06739547
000130 43 c9 75 3c f5 e9 aa 3d 14 09 91 bd 68 02 16 3d
       0.015001598 0.08345405 -0.0708181 0.03662339
000140 f8 57 0c be 67 a6 a6 3c c1 c0 5f 3d 9c 8f b9 3c
       -0.13705432 0.020343019 0.054627184 0.022651486
000150 ec a6 66 bc 09 7e db bd 5e b4 f3 bd 22 0f 8b 3d
       -0.014077883 -0.10717399 -0.11899637 0.06789996
000160 9f 6f 9d 3d 16 d7 19 3b 79 6e 94 3d cb 64 cb bd
       0.07687306 0.0023474148 0.072476335 -0.09931334
000170 69 6b 31 3d c3 7a c2 bd df 82 17 be 2f f4 ff bd
       0.043315325 -0.09496071 -0.14796017 -0.12497746
000180 78 1d 08 bd 29 93 45 3a fd 7a 41 3c 7c fd b2 3c
       -0.03323123 0.0007536882 0.011809108 0.021849386
000190 1f 32 bf bd f6 01 91 3d 10 46 0c 3b 1e 5d fa 3c
       -0.09335732 0.07080452 0.0021404065 0.03056198
0001a0 93 52 82 3c 28 5f 88 bc 05 8a 2f bd 2d f7 77 3c
       0.015908515 -0.016646937 -0.042856235 0.015134615
0001b0 01 ce a2 b9 0b 32 a6 3c 06 a2 bc 3c 76 fc b6 bd
       -0.00031052533 0.020287534 0.023026478 -0.08934872
0001c0 44 0a 3c 3d 09 27 e5 3c 49 20 e4 3c 57 84 06 bd
       0.045908228 0.027972715 0.027847426 -0.032841053
0001d0 26 ae 1a 3d 01 c6 24 bc 86 0a c5 bd 02 1f 01 bc
       0.037763737 -0.010056973 -0.09621148 -0.007880928
0001e0 bf 19 2f 3d 48 79 ac bc c6 a1 23 3d 42 23 1a 3d
       0.042749163 -0.021053925 0.0399492 0.03763128
0001f0 61 29 64 bc cc 55 ea bc b0 18 14 bd 9b b6 1c 3d
       -0.013925881 -0.028605364 -0.036156356 0.038260084
000200 0c 4e 22 bc 19 4c 30 3d c9 87 2a bd a8 f8 89 3d
       -0.009906303 0.043041322 -0.0416334 0.067368805
000210 e3 2c c3 bd 34 c5 1e 3d b8 24 17 be 22 19 e5 3b
       -0.09530046 0.038762286 -0.14760101 0.0069915215
000220 20 9a ae 3d bf c8 99 bc 7c ed ac 3c e6 cb 42 3d
       0.08525491 -0.018772481 0.021109335 0.047557734
000230 47 94 10 3c 25 47 d6 bd fc 99 ef 3b 3d 46 44 bc
       0.008824415 -0.104627885 0.0073120575 -0.011979637
000240 9d 99 8b 3c 52 d9 71 bc c7 d0 bd 3d 10 81 ef bd
       0.017041022 -0.014761286 0.09268337 -0.116945386
000250 d9 81 0c bd 05 4c f8 3c bb 65 4d 3d c5 d2 69 bd
       -0.03430352 0.030309686 0.050145846 -0.05708577
000260 6e 13 0b bd b0 27 19 bd 3f 97 81 bd 2d de 88 bc
       -0.033954076 -0.037391365 -0.06327676 -0.016707504
000270 62 5e 16 3d 15 89 b1 3c 52 b1 6e 3d 45 80 bc 3c
       0.036711104 0.021671811 0.058274575 0.023010382
000280 e0 d5 b7 3d c8 5c aa bc 0c 96 8f bd f1 af a8 bc
       0.0897634 -0.020796195 -0.07011041 -0.020591708
000290 05 9a 9e 3d 1a 0f 85 bd 9b 60 c8 bc a1 be 4c bd
       0.07744221 -0.06497021 -0.024460128 -0.049986485
0002a0 0a 09 b0 3d e7 20 a1 3d 6b 50 c2 3d 5e 57 f6 39
       0.08595474 0.07867604 0.09487995 0.0004698587
0002b0 bf 64 ca 3d 2a d2 51 bd 93 e5 83 bd 1d 84 d5 3b
       0.09882497 -0.05122582 -0.06440272 0.0065159933
0002c0 9f 6a 54 3d ac 99 6a bd 46 11 ee bd f0 04 3c 3c
       0.051859494 -0.05727546 -0.116243884 0.011475787
0002d0 3d 87 e6 bc db c2 99 bd 42 fc 50 3c 9a a6 55 3d
       -0.028140659 -0.07507869 0.012755455 0.052160837
0002e0 b5 73 ee bc 27 fc 78 bd dd fa 6f 3d 2b 64 3a 3d
       -0.029107908 -0.060787346 0.05858885 0.045505684
0002f0 ba 49 c9 3a 8f 8d 3b 3c bf c5 1b 3c 25 17 9d 3d
       0.0015357055 0.011447324 0.009507596 0.0767043

network_body.linear_encoder.seq_layers.0.bias f4 [64]
000000 e4 7c fd bd f1 55 fa bc f4 a1 d0 3c ab f3 06 3d
       -0.123773366 -0.030558558 0.02546785 0.032947224
000010 59 6d 0e 3d 1c 6b cf bb ba ba 95 3c 0d 3e 8a bc
       0.03477225 -0.006329907 0.018277515 -0.016875291
000020 93 32 a8 3c 69 a6 a5 3b da 57 f4 3b 42 6c ed 3c
       0.020531928 0.005055238 0.007456762 0.028982285
000030 b2 cf 07 be 45 9a 6d 3c 4f 40 92 3b 64 ef 99 3b
       -0.13262823 0.014502113 0.0044632326 0.004697727
000040 8c 9c 14 3d 2e cb ca bd 8c e3 63 3d 4e 3f 69 bb
       0.036282107 -0.09902035 0.055636927 -0.003559071
000050 22 07 74 3c 5f 9d 90 3d e2 d6 e6 3d 5c f4 dc 3b
       0.014894279 0.07061266 0.112714544 0.006742997
000060 1a 6f 13 bc 37 a3 f7 ba ab 89 e2 3c 2e 84 1c 3d
       -0.008998657 -0.0018893246 0.027653536 0.038211994
000070 d0 8e 91 3b b7 5d 65 3c 83 d4 66 3d 22 4b cc 3c
       0.0044420734 0.013999394 0.05635501 0.02493817
000080 ca d1 8d 3c 48 ff 1c 3c 17 34 bd 3c c1 d7 bc bd
       0.01731195 0.009582348 0.023096127 -0.09220839
000090 ba 64 ce 3c 70 a8 90 3b 1d 32 ed bd e9 7a f1 bd
       0.025194515 0.0044146106 -0.11581824 -0.117910214
0000a0 80 50 cb 3c 4a 13 31 3d 76 2a 02 3d 10 00 d9 bd
       0.024818659 0.043231286 0.031778775 -0.10595715
0000b0 99 87 2b 3d 79 eb b9 bd 9d 01 39 3d 90 37 42 3c
       0.041877363 -0.09078116 0.045167554 0.011854067
0000c0 94 cf b9 3c f6 f7 c3 bb 6b 53 56 3c 64 57 ed 3c
       0.022681989 -0.005980487 0.013081412 0.028972335
0000d0 32 05 9d bc 34 9a 3d bb 06 23 03 3d f6 c2 ec bd
       -0.019167516 -0.0028931024 0.032015823 -0.11560623
0000e0 2b 38 eb bc e9 36 b4 bb 26 4c 47 3d 7a 93 7d bc
       -0.028713306 -0.00549971 0.048656605 -0.015477056
0000f0 04 d9 c0 bc e9 9b ce 3c ba a4 3a 3c 28 77 3d 3d
       -0.023540981 0.025220828 0.011391813 0.046256214

network_body.linear_encoder.seq_layers.0.weight f4 [64, 82]
000000 b0 a6 95 bc 44 84 e8 bd fa f1 01 be 12 22 23 be
       -0.01826796 -0.11353353 -0.12689963 -0.15930966
000010 2c 77 94 be 7f 09 a4 bd bf 31 4b 3e 16 ad a5 bd
       -0.2899717 -0.08009624 0.19843195 -0.08089654
000020 37 d2 9f be c9 2b 95 be 87 73 70 be 78 44 4b be
       -0.3121507 -0.29134968 -0.2348157 -0.19850338
000030 2b 49 1a 3e 3e 98 b0 be 45 c6 57 3d a8 51 d0 3d
       0.15066974 -0.34491152 0.05267932 0.10171825
000040 96 47 66 bd 84 67 d8 bd 43 d5 00 3e 01 c0 40 be
       -0.056220613 -0.10566619 0.12581353 -0.18823244
000050 fc ab aa bd 07 e9 4b 3e a5 4d 8a be 5d 71 91 be
       -0.08333585 0.19913112 -0.27012363 -0.28406802
000060 9b 06 75 3e 5a be f1 bd 3e 85 3f be 59 6e 6b 3d
       0.23928301 -0.11803885 -0.18703172 0.057478283
000070 de d0 4a be 43 0e 8a be 78 ea 8d 3d 28 a0 3d 3e
       -0.19806239 -0.26964006 0.06929487 0.18518126
000080 fe 53 45 be 38 52 52 3e 2c 18 ac 3c 68 d2 2d be
       -0.19270322 0.20539176 0.02100762 -0.16974795
000090 a3 82 67 3e dc 5c 1b be 79 27 bc bd d5 86 26 be
       0.22608428 -0.15172142 -0.09187216 -0.16262372
0000a0 c0 4b 22 3d b3 0d 51 be b1 17 1a be 01 f3 50 be
       0.039623022 -0.20415382 -0.150481 -0.20405199
0000b0 bb dd 05 bd 82 f7 dc bd 08 cc 09 3d 30 f6 0c bf
       -0.03268216 -0.10789396 0.033641845 -0.5506315
0000c0 5d 01 db 3d a2 8f 56 3d 2d 07 3a be 83 99 05 3e
       0.106936194 0.052383073 -0.181668 0.13046841
0000d0 19 2c e8 bc 5e 64 b3 be 04 80 0d be 21 35 24 be
       -0.02834134 -0.35037512 -0.13818365 -0.16035892
0000e0 24 0e 52 bd 64 bd d4 3d 69 d6 8e bd ca 6d 78 3d
       -0.051283017 0.10387686 -0.06974489 0.060651578
0000f0 08 eb 0d 3d 6f 02 d8 3c 51 e2 32 be 7d 7b bd 3d
       0.03464797 0.026368348 -0.17469145 0.09252069
000100 21 04 38 be bf 06 ea bd fa e3 ee bd 76 f2 d7 bc
       -0.17970325 -0.11427068 -0.11664577 -0.026360732
000110 d1 86 80 be 3d 85 86 3e 28 82 14 be 76 dd 6d bd
       -0.25102857 0.26273528 -0.14502776 -0.05807253
000120 a9 85 26 be b0 87 a9 bd d0 24 34 bc 76 16 0a 3e
       -0.16261925 -0.082778335 -0.010995105 0.1348513
000130 20 5d 0c 3d 5f 7f 38 be b3 9e 41 3d e5 f6 c2 3c
       0.0342685 -0.18017338 0.047270488 0.02379937
000140 be 7b e0 3d f7 82 09 bd 70 d7 22 be 09 ee 94 bc
       0.10961102 -0.033572163 -0.15902495 -0.01817991
000150 8b 5d f6 bd e7 00 1a bd 19 04 6e bd 99 bf e9 3c
       -0.12029561 -0.037598517 -0.058109377 0.028533744
000160 4f bc 2d be 7c 6c 36 3d 10 4f bc bb 47 46 96 be
       -0.16966365 0.044537053 -0.0057467297 -0.29350492
000170 0c e0 2a be 9e 42 5e be 31 ba 12 3e e9 a6 43 3d
       -0.1668703 -0.217051 0.14328839 0.0477666
000180 a8 29 13 be 7b cf dd 3d 80 a5 9f 3c 92 74 fc 3d
       -0.1437136 0.108305894 0.019488096 0.123269215
000190 f0 5b 81 3e bf 32 54 be d9 db be bd c6 36 7c 3e
       0.25265455 -0.20722483 -0.09319276 0.2463027
0001a0 41 c4 15 3c 2e ff a2 bd 6e 5b bd 3d ec 26 fc bd
       0.009141029 -0.07958828 0.092459545 -0.12312111
0001b0 01 02 cd 3c 80 9b 5d 3e 95 d6 ef bd 83 17 13 be
       0.02502537 0.2164135 -0.1171085 -0.14364438
0001c0 3d 60 35 3e 9f ae 48 bd 52 d0 e7 bd 7c 5d 9e 3d
       0.17712493 -0.048994657 -0.11319031 0.077326745
0001d0 2f 8b 12 be ed 4c 8b 3d 66 48 64 3e 9d 0f 6c bd
       -0.14310907 0.06801782 0.22293243 -0.057632077
0001e0 6e b9 06 be c6 42 01 3e 36 b7 93 be 23 f4 b1 bc
       -0.13156673 0.12623128 -0.28850716 -0.021722859
0001f0 3b 36 52 3e 43 6a 17 3d d4 74 9a bd b5 b8 a6 bd
       0.205285 0.036966573 -0.075418144 -0.08140699
000200 4f 70 c9 3d 17 90 0a be 4a b6 8a 3e a6 28 65 3e
       0.09835874 -0.13531528 0.270922 0.22378787
000210 88 c7 f9 3c 22 93 58 be b7 b2 03 3e ed 46 db 3d
       0.030490652 -0.21149877 0.12861143 0.107068874
000220 57 f4 82 3e 7f 30 49 be 31 15 32 be 18 e4 3f be
       0.25577042 -0.19647406 -0.17390896 -0.18739355
000230 c6 35 18 3d e4 eb 27 3e d0 2f 64 3d ea 48 61 3b
       0.037160657 0.16398579 0.05570966 0.0034375736
000240 cf c9 7f bc 47 b6 28 be 6b 33 5f 3c b7 a4 14 be
       -0.01561208 -0.16475783 0.013623099 -0.14515959
000250 9c 1e 92 3e 9e 19 89 bd 8a a7 b1 bd 62 5c a8 3d
       0.28538978 -0.06694339 -0.08674534 0.082207456
000260 a7 9c e9 3d 75 46 8d bd 2e af 7c 3e de e3 dd bd
       0.11406832 -0.06898204 0.24676201 -0.10834478
000270 01 8c 93 3c f9 92 82 3e c8 73 91 3d a5 6c f6 3d
       0.018011095 0.25502756 0.07102162 0.12032441
000280 21 8c 6e 3e e4 05 06 3e c1 c0 97 3d 8d 23 05 3e
       0.23295642 0.13088185 0.07409812 0.13001843
000290 1b df 2c 3e 4c 81 b5 bd 68 78 05 be cb 7e 7b 3e
       0.16881983 -0.08862552 -0.13034213 0.24560086
0002a0 9b c0 29 be 1b 5d 95 3d d6 93 3b be 18 de 33 bd
       -0.1657738 0.07293149 -0.18318114 -0.043912977
0002b0 7d a5 cb bd b2 8a 39 3d b8 a0 41 bd 25 c0 70 3e
       -0.09943674 0.045298286 -0.047272414 0.23510797
0002c0 09 75 5a be 54 70 77 3c 38 4e 2d 3e 27 37 9d 3c
       -0.21333708 0.015102465 0.1692437 0.019191338
0002d0 7d 2e 01 3d 1e ac 2d 3d 49 51 0e 3d 53 5e 80 bc
       0.031538475 0.042400472 0.03474549 -0.015669977
0002e0 80 fb 20 3e 27 1f 83 3d 89 73 41 bd 71 9e 4c bc
       0.1572094 0.06402426 -0.047229324 -0.012488947
0002f0 43 44 8e 3e fc 98 c3 3d 6c 60 11 be 27 a3 e9 bd
       0.27786455 0.09550664 -0.14196938 -0.11408072
000300 b2 cd b5 3d b8 b4 3c bd 4b 51 3e bd 11 49 14 3b
       0.08877124 -0.046070784 -0.046464246 0.0022626559
000310 f6 e4 cb bc 86 06 05 be 15 04 54 bd 98 1b d2 bc
       -0.02488945 -0.1299077 -0.051761705 -0.025647923
000320 db 23 03 3e 99 08 a8 bd 77 2c b5 bd a9 9b df 3d
       0.12806647 -0.08204765 -0.088463716 0.10918362
000330 5f b1 b7 bd 77 2a c2 bd 59 28 44 3e 17 d7 11 be
       -0.08969378 -0.09480756 0.19156016 -0.14242207
000340 07 c4 01 be 38 37 9b 3e a4 fa 1f be 6d 5e 8b bd
       -0.12672435 0.30315566 -0.15622956 -0.0680512
000350 c1 4e ea bc 9e 97 21 3e d1 b4 52 3d 07 9e 11 3e
       -0.028602006 0.15780494 0.05144197 0.14220439
000360 78 c6 f9 bd 2a 97 4d bd 92 3f 56 be 4e 5f 2f bc
       -0.12196058 -0.05019299 -0.20922688 -0.010703875
000370 02 32 c7 bc ad 72 94 3d de f5 23 3e d4 ce bb bd
       -0.024315838 0.07248435 0.1601176 -0.09170309
000380 d9 51 54 be 6c d7 f1 3d f7 16 18 be 52 a9 2b be
       -0.20734347 0.118086666 -0.1485251 -0.1676381
000390 46 f9 25 be ce ea 2b 3e 33 fc 94 3c f3 32 ef 3c
       -0.16208372 0.1678879 0.018186664 0.0291991
0003a0 8f 31 a3 3d dc da 02 be 7d 66 b3 bd d0 ba f8 bd
       0.07968437 -0.127788 -0.087597825 -0.12145007
0003b0 a7 b9 37 3e 94 2d 70 bd 35 1c 1f 3e d0 73 12 3e
       0.17941914 -0.058637217 0.15538104 0.14301991
0003c0 7f e1 48 3d 8b 84 4a bd 20 f0 57 bd 18 a1 a2 3c
       0.049043175 -0.04944281 -0.052719235 0.019852206
0003d0 65 1f 43 3e b9 b8 85 3d 04 ad 73 be 7c e2 82 3e
       0.19054945 0.06529374 -0.23796469 0.2556342
0003e0 84 22 93 3d 9a 3e e7 bd e1 a0 a7 3d 5a e7 2e 3b
       0.07184318 -0.11291237 0.08184982 0.002668819
0003f0 7e 8a 75 3d 99 53 b7 bd 73 90 47 bd b1 39 ec 3c
       0.05994653 -0.08951492 -0.048721742 0.028836103
