Config/results/BallCatcher_01/BoxBehavior/BoxBehavior-999995.pt (torch, 141071 bytes, 21 tensors)

network_body.linear_encoder.seq_layers.0.weight f4 [64, 82]
0.010516535 -0.20936513 -0.17864278 -0.23334761 -0.2982329 -0.096676625 0.20252757 -0.17386527
-0.36977693 -0.2990623 -0.30582982 -0.2581941 0.056732863 -0.38752562 -0.0016786356 0.10824591
-0.15199974 -0.1940204 -0.001374979 -0.22374156 -0.11960761 0.11321113 -0.29739842 -0.31685305
0.17619476 -0.1652205 -0.23498069 0.009939484 -0.24551105 -0.32345268 0.049715646 0.12727173
-0.24981725 0.29494756 0.02100762 -0.23506027 0.22028302 -0.15172142 -0.1492391 -0.25793627
0.027991343 -0.233643 -0.18317002 -0.25408265 -0.08077056 -0.12558715 -0.022231257 -0.6084176
0.089149766 -0.0047916076 -0.22670844 0.08643513 -0.04885296 -0.35066497 -0.22504057 -0.20384982
-0.09683337 -0.067802444 -0.008129974 0.110906795 0.1298164 -0.0340969 -0.23540704 -0.037296135
-0.15925898 -0.097109884 -0.09066023 -0.07634808 -0.30242032 0.17553593 -0.15554443 -0.07097774
-0.1704589 -0.082778335 -0.061378088 0.13453129 0.0342685 -0.24973598 0.026983602 0.02379937
0.10961102 -0.14179507 -0.0456945 -0.0297397 -0.09727428 -0.084361136 0.05306346 0.117962435
-0.11718074 0.07506577 0.04423851 -0.085885294 -0.19090289 -0.21032596 0.2862274 0.07319757
-0.10441816 0.31706244 0.036135156 0.14508227 0.33974057 -0.14937769 -0.034555197 0.3365103
0.048048913 -0.03625127 0.15974197 -0.06571886 0.08107111 0.1516472 -0.047205534 -0.07682096
0.316595 0.0018991834 -0.060979184 0.20095666 -0.14310907 0.12726235 0.36888692 -0.057632077
-0.08339751 0.20388529 -0.27899095 0.029411186 0.23410599 0.087100245 -0.027940895 0.1012498
0.05438239 -0.13432325 0.3412402 0.273498 0.084299214 -0.130047 0.16712424 0.1553847
0.22498985 -0.12867409 -0.10570086 -0.33655277 0.11870609 0.24406047 0.05084697 0.07059414
0.050189935 -0.20158227 0.07745112 -0.079370596 0.27793217 0.00060295284 -0.02030619 0.032677006
0.18260472 -0.00017301324 0.22896138 -0.10834478 0.08514495 0.19328016 0.07102162 0.18675885
0.32142457 0.13088185 0.07409812 0.007054619 0.16755052 -0.07976158 -0.1266709 0.27747634
-0.17821714 0.045762617 -0.12843184 -0.063864976 -0.10581059 -0.075882316 0.012681643 0.27447623
-0.3004388 0.030672573 0.17979401 -0.021243388 0.05918893 0.07093903 -0.10707575 -0.02128762
0.15161787 0.07729421 -0.049691137 -0.015310895 0.14861016 0.09372514 -0.14387335 0.032761786
0.03762466 -0.09066527 -0.1517233 -0.00036644298 -0.027880933 -0.3023607 -0.051761705 -0.03143882
-0.01902961 -0.08204765 -0.09312531 0.17242487 -0.119934484 -0.120784976 0.18080588 -0.11838282
-0.12645695 0.3242317 -0.21268018 -0.07604987 -0.08035768 0.145866 0.031879667 0.18467142
-0.16571602 -0.09786433 -0.25907862 -0.022348987 -0.03839825 0.22647451 0.08407728 -0.16343395
-0.22075701 0.107840076 -0.1582241 -0.02463669 -0.21159028 0.11907051 -0.1680818 0.02784595
0.07792941 -0.004600708 -0.13457723 -0.16983931 0.048357442 -0.058637217 0.16082679 0.20290539
0.049043175 -0.06726805 -0.12984695 0.019852206 0.19054945 0.11455254 -0.12852675 0.19727787
0.05460228 -0.19827266 0.14964715 0.02930294 0.12363933 -0.11709922 -0.046124864 0.13655812
00000000: 8b4d 2c3c d063 56be 22ee 36be adf2 6ebe
00000010: fcb1 98be 65fe c5bd 6363 4f3e bd09 32be
00000020: 6753 bdbe b21e 99be ba95 9cbe 0432 84be
00000030: b860 683d c269 c6be aa05 dcba 08b0 dd3d
00000040: d2a5 1bbe 49ad 46be a438 b4ba 821c 65be
00000050: d6f4 f4bd 3ddb e73d 9b44 98be 903a a2be
00000060: 666c 343e 902f 29be c79e 70be 38d9 223c
00000070: 4067 7bbe 979b a5be a2a2 4b3d 8553 023e
00000080: 18d0 7fbe 5e03 973e 2c18 ac3c a4b3 70be
00000090: df91 613e dc5c 1bbe 22d2 18be 3910 84be
000000a0: 1a4e e53c 1c40 6fbe ec90 3bbe 1f17 82be
000000b0: 096b a5bd eb99 00be 531e b6bc 41c1 1bbf
000000c0: 2794 b63d eb02 9dbb 4226 68be e704 b13d
000000d0: 0b1a 48bd 5c8a b3be 0971 66be 02be 50be
000000e0: 9350 c6bd 02dc 8abd 9533 05bc 1a23 e33d
000000f0: 97ee 043e 31a9 0bbd 8b0e 71be d5c3 18bd
00000100: c914 23be 8ce1 c6bd 12ac b9bd 625c 9cbd
00000110: d6d6 9abe b1bf 333e 0a47 1fbe c75c 91bd
00000120: c78c 2ebe b087 a9bd 9767 7bbd 92c2 093e
00000130: 205d 0c3d caba 7fbe b70c dd3c e5f6 c23c
00000140: be7b e03d ba32 11be 282a 3bbd aca0 f3bc
00000150: bd37 c7bd 88c5 acbd 1259 593d 4a96 f13d
00000160: 75fc efbd 15bc 993d 7133 353d a1e4 afbd
00000170: 0c7c 43be b05f 57be 668c 923e 9ce8 953d
00000180: 30d9 d5bd 0256 a23e 7502 143d 7290 143e
00000190: 7af2 ad3e 77f6 18be c089 0dbd 144b ac3e
000001a0: f0ce 443d 367c 14bd 6693 233e 9c97 86bd
000001b0: 9c08 a63d 6749 1b3e 975a 41bd 4f54 9dbd
000001c0: bd18 a23e 05ee f83a 4fc5 79bd 95c7 4d3e
000001d0: 2f8b 12be 1051 023e bfde bc3e 9d0f 6cbd
000001e0: 50cc aabd 4ec7 503e e7d7 8ebe baef f03c
000001f0: 7bb9 6f3e 9d61 b23d 4ee4 e4bc 0e5c cf3d
00000200: 12c0 5e3d 098c 09be 09b7 ae3e ee07 8c3e
00000210: 11a5 ac3d 0a2b 05be 9e22 2b3e 2b1d 1f3e
00000220: bd63 663e 24c3 03be b179 d8bd a550 acbe
00000230: 2e1c f33d fdea 793e ea44 503d a993 903d
00000240: f693 4d3d 956b 4ebe b19e 9e3d 0d8d a2bd
00000250: 204d 8e3e 7b0f 1e3a 2b59 a6bc 53d8 053d
00000260: bbfc 3a3e e36a 35b9 da74 6a3e dee3 ddbd
00000270: 7a60 ae3d 3ceb 453e c873 913d b63d 3f3e
00000280: c391 a43e e405 063e c1c0 973d 6f2a e73b
00000290: 5d92 2b3e 0a5a a3bd 04b6 01be 6111 8e3e
000002a0: 8e7e 36be 9571 3b3d a383 03be a4cb 82bd
000002b0: 39b3 d8bd 3068 9bbd aac6 4f3c 2688 8c3e
000002c0: 1dd3 99be 0c45 fb3c ec1b 383e 9d06 aebc
000002d0: 1770 723d 7b48 913d 884a dbbd 6063 aebc
000002e0: b741 1b3e 6d4c 9e3d ef88 4bbd 8cda 7abc
000002f0: 432d 183e f7f2 bf3d 8953 13be 3931 063d
00000300: 511c 1a3d b7ae b9bd 5a5d 1bbe 251f c0b9
00000310: 8e66 e4bc 06cf 9abe 1504 54bd fec5 00bd
00000320: fce3 9bbc 9908 a8bd 7cb8 bebd 2590 303e
00000330: 36a0 f5bd 1d5e f7bd 2d25 393e b172 f2bd
00000340: ee7d 01be b301 a63e d5c8 59be 09c0 9bbd
00000350: 9192 a4bd e65d 153e 4194 023d 811a 3d3e
00000360: 76b1 29be 186d c8bd f4a5 84be 3915 b7bc
00000370: 7c47 1dbd efe8 673e b530 ac3d 3b5b 27be
00000380: 200e 62be 42db dc3d 8005 22be e2d2 c9bc
00000390: 1fab 58be 3ddb f33d a31d 2cbe 311d e43c
000003a0: 7499 9f3d 89c1 96bb 9dce 09be 5bea 2dbe
000003b0: 7412 463d 942d 70bd c7af 243e 6ec6 4f3e
000003c0: 7fe1 483d d5c3 89bd 99f6 04be 18a1 a23c
000003d0: 651f 433e 869a ea3d 849c 03be 3603 4a3e
000003e0: a4a6 5f3d fd07 4bbe 1a3d 193e b80c f03c
000003f0: 9e36 fd3d b7d1 efbd 6ded 3cbd e4d5 0b3e

network_body.linear_encoder.seq_layers.0.bias f4 [64]
-0.18921939 0.032693323 0.016170299 0.041742105 0.04358519 -0.012195321 0.034908332 -0.039288376
-0.003501675 0.035246626 -0.01267406 0.010161495 -0.11970311 0.009264539 -0.010767713 -0.04596255
0.05613233 -0.10807312 0.013937393 -0.12340645 -0.043631397 0.044119302 0.07954378 -0.007641091
-0.10355025 -0.017363153 0.057793368 0.032894827 -0.006267395 -0.01653753 0.014656037 0.0016878336
0.02051108 0.0029097204 -0.045355488 -0.13427286 0.0039903233 -0.079328574 -0.106564626 -0.105327584
0.005702134 0.031450268 0.03329785 -0.115405634 0.025657678 -0.12851469 0.021896439 0.009218051
0.014596527 0.035883315 0.041820757 -0.096629836 -0.03139429 -0.08996364 0.013456632 -0.09650047
0.010434094 0.023545198 -0.016881367 -0.035225533 0.0027885612 0.015063922 -0.0066334964 -0.009116973
00000000: bac2 41be 6fe9 053d 9377 843c c5f9 2a3d
00000010: 6286 323d e2ce 47bc 0afc 0e3d d9ec 20bd
00000020: 5c7c 65bb c45e 103d dca6 4fbc 667c 263c
00000030: e726 f5bd 4bca 173c 106b 30bc 3a43 3cbd
00000040: 04eb 653d 7155 ddbd aa59 643c 85bc fcbd
00000050: d6b6 32bd 71b6 343d d9e7 a23d 1e62 fabb
00000060: 2712 d4bd 2c3d 8ebc bdb8 6c3d babc 063d
00000070: b85e cdbb b779 87bc e01f 703c 4c3a dd3a
00000080: da06 a83c 02b1 3e3b adc6 39bd d37e 09be
00000090: 42c1 823b 0577 a2bd 8e3e dabd fdb5 d7bd
000000a0: f8d8 ba3b ffd1 003d 5463 083d ca59 ecbd
000000b0: 0d30 d23c 5b99 03be 2960 b33c 4f07 173c
000000c0: 4626 6f3c 62fa 123d 3e4c 2b3d dde5 c5bd
000000d0: 4d97 00bd db3e b8bd 3579 5c3c 0aa2 c5bd
000000e0: c3f3 2a3c dce1 c03c cb4a 8abc a648 10bd
000000f0: 4bc0 363b abce 763c cd5d d9bb 5b5f 15bc

distribution.branches.0.weight f4 [3, 64]
-0.010452021 0.10110059 -0.028897963 0.021741405 0.10175169 -0.0051827612 0.16329151 -0.05366316
-0.03483442 0.14448816 -0.058672216 -0.017094156 -0.0371783 0.10623304 0.060235403 -0.026900828
0.14705375 -0.014756058 -0.083800934 0.007986157 -0.0071825245 0.07776704 0.060515042 -0.064540334
-0.06251099 0.031322446 0.0583975 0.099235095 -0.075049445 0.042734064 0.089622475 0.10791868
0.0003305065 0.106118195 -0.02668324 -0.03717602 0.07939215 0.010925285 -0.043982618 -0.03157646
-0.04916981 0.0077515836 -0.043611128 -0.020782882 -0.03672437 -0.054702017 0.009387015 0.10381489
-0.14604469 0.10123783 0.1695403 -0.0034226577 -0.020902254 -0.034265663 0.07924951 -0.070348725
0.07365332 0.10449397 -0.04437632 -0.08504809 0.090633556 -0.034192517 -0.0063397298 -0.056499276
0.009987616 -0.04127249 0.06788895 -0.06199674 0.10151461 0.008080548 0.12522803 0.015691584
-0.012118637 0.06578115 -0.0060110018 -0.054096043 0.09676949 0.11206729 -0.05984328 -0.014223508
-0.032316454 0.047412917 0.049992014 0.03328037 0.026537333 -0.02009725 -0.10255905 0.09956198
0.07508343 0.07286288 0.107841656 -0.044510774 0.07128558 -0.067959785 -0.103964016 -0.1167434
-0.036518145 0.07321449 0.05302438 0.027841195 -0.060728714 0.10191982 0.046789087 0.07634178
-0.022241218 -0.035479963 -0.07466693 0.07129671 -0.039286986 0.019165337 -0.030564731 -0.02599596
-0.0033506502 0.034666438 0.11631405 0.011417211 -0.0010262968 0.0033548095 -0.08075391 0.008476785
0.08190375 0.043219123 0.035266317 0.031179791 0.01553206 -0.020476267 -0.03042286 0.032473657
-0.010201649 0.061092574 -0.01706557 0.11217982 -0.13387828 0.0044155405 -0.22100705 0.04958358
0.11231783 -0.07019086 0.06557948 0.07204162 -0.06821277 -0.115022205 0.07435936 0.027344296
-0.06872219 -0.061819345 0.0922119 -0.055276357 0.046604816 0.025449904 0.07564964 -0.047106616
-0.025751024 -0.026769249 -0.14598219 0.00566731 0.08034269 0.07731083 0.06366114 0.058246344
0.09206772 -0.005782647 -0.021940762 -0.022898648 0.07026972 -0.07096041 -0.06842927 -0.085307986
0.14197667 0.08713891 0.13710056 -0.048895225 0.13627791 -0.048026893 -0.0074415505 0.028594824
0.16804266 -0.14412251 -0.21003275 0.019931048 0.0003492092 -0.019546326 0.066999085 0.09906487
-0.08476946 -0.103413016 0.061330184 0.06733167 0.022519095 0.0707477 0.083979554 0.077513486
00000000: f43e 2bbc d30d cf3d 6cbb ecbc 081b b23c
00000010: 3163 d03d 27d4 a9bb e435 273e e7cd 5bbd
00000020: 89ae 0ebd b4f4 133e 4752 70bd 0b09 8cbc
00000030: 4648 18bd b590 d93d 66b9 763d 205f dcbc
00000040: 4295 163e 65c3 71bc d39f abbd 5fd8 023c
00000050: 625b ebbb 5344 9f3d 9fde 773d b92d 84bd
00000060: c305 80bd f74b 003d 3832 6f3d c53b cb3d
00000070: 86b3 99bd ea09 2f3d fd8b b73d 7804 dd3d
00000080: d547 ad39 7f54 d93d cf96 dabc e245 18bd
00000090: 5a98 a23d f7ff 323c 1e27 34bd 5156 01bd
000000a0: 4866 49bd ff00 fe3b 95a1 32bd dd40 aabc
000000b0: 4b6c 16bd 390f 60bd ffcb 193c e79c d43d
000000c0: bd8c 15be c855 cf3d f99b 2d3e ab4e 60bb
000000d0: 343b abbc 275a 0cbd 914d a23d fe12 90bd
000000e0: 8dd7 963d ef00 d63d f2c3 35bd b12d aebd
000000f0: 169e b93d 740d 0cbd 82bd cfbb c96b 67bd
00000100: 19a3 233c 580d 29bd 5d09 8b3d 4bf0 7dbd
00000110: e4e6 cf3d 4664 043c c73b 003e a38b 803c
00000120: 3f8d 46bc 44b8 863d f0f7 c4bb d093 5dbd
00000130: 152f c63d 8983 e53d 3a1e 75bd b709 69bc
00000140: 425e 04bd 0c34 423d 6dc4 4c3d ff50 083d
00000150: d264 d93c fda2 a4bc 7b0a d2bd 27e7 cb3d
00000160: 57c5 993d 2239 953d 16dc dc3d ee50 36bd
00000170: 2dfe 913d 802e 8bbd 16eb d4bd 2a17 efbd
00000180: 0d94 15bd 7bf1 953d 1830 593d 3813 e43c
00000190: acbe 78bd 57bb d03d eaa5 3f3d 1459 9c3d
000001a0: 3733 b6bc 7053 11bd faea 98bd 0204 923d
000001b0: 64eb 20bd a000 9d3c e362 fabc 7bf5 d4bc
000001c0: 9596 5bbb 65fe 0d3d 1036 ee3d 410f 3b3c
000001d0: ce84 86ba 5ddc 5b3b 4e62 a5bd 37e2 0a3c
000001e0: 27bd a73d 8906 313d 6a73 103d c36c ff3c
000001f0: 2e7a 7e3c d8bd a7bc 5d39 f9bc 1903 053d
00000200: d124 27bc 353c 7a3d 18cd 8bbc 89be e53d
00000210: 6317 09be 3db0 903b ac4f 62be 2718 4b3d
00000220: e406 e63d 3ac0 8fbd 894e 863d 8f8a 933d
00000230: 23b3 8bbd c390 ebbd b849 983d 2501 e03c
00000240: 38be 8cbd 4836 7dbd 98d9 bc3d 7669 62bd
00000250: b1e4 3e3d 517c d03c 33ee 9a3d def2 40bd
00000260: d0f3 d2bc 2f4b dbbc 5b7c 15be d8b4 b93b
00000270: b58a a43d 2455 9e3d c660 823d b893 6e3d
00000280: 008e bc3d 5c7c bdbb 1dbd b3bc f295 bbbc
00000290: 92e9 8f3d b153 91bd a524 8cbd f4b5 aebd
000002a0: 5562 113e e375 b23d 1764 0c3e 5c46 48bd
000002b0: 708c 0b3e d9b7 44bd 40d8 f3bb b13f ea3c
000002c0: 6013 2c3e da94 13be d312 57be 7046 a33c
000002d0: 1116 b739 9e1f a0bc d136 893d 86e2 ca3d
000002e0: 9c9b adbd 34ca d3bd 5c35 7b3d 30e5 893d
000002f0: f779 b83c 2ce4 903d 79fd ab3d 64bf 9e3d

distribution.branches.0.bias f4 [3]
0.027081046 -0.017773042 0.036945675
00000000: 12d9 dd3c c598 91bc 5954 173d

critic.network_body.linear_encoder.seq_layers.0.weight f4 [64, 82]
-0.12789385 -0.0037604994 -0.016692068 0.14879157 0.12831402 0.068394914 -0.034119755 0.0048359553
0.022790253 0.13194358 -0.09781381 0.25452718 -0.1827713 -0.06405455 -0.015113148 0.043335143
0.09230586 -0.033484068 0.059743706 -0.13012859 -0.06815407 0.19389643 -0.22145678 -0.08417897
0.078303516 0.0042066895 -0.12006964 0.06478295 0.05456122 -0.037702274 0.40143967 0.017168447
0.117732726 0.22065406 -0.051774178 -0.005982208 0.19287565 -0.019418182 -0.026660675 -0.15006882
-0.059858408 0.06059574 -0.11124629 0.0054862425 -0.01689582 0.07378361 -0.021722712 -0.0093834
0.07236039 0.031759907 0.04243876 -0.07758667 -0.11845889 -0.03556411 -0.35729057 0.021254739
0.053363737 0.19325116 -0.07500809 -0.0146651985 -0.12561661 0.0070959665 0.11056347 0.04183911
-0.13222915 0.13105725 -0.057761174 0.0048417817 -0.07801856 0.06773328 0.110682145 0.14211214
0.15429215 0.13391656 0.010288631 0.256518 -0.15624163 0.0071621933 0.019527487 -0.024370413
-0.09215811 -0.062131822 -0.3146613 0.05483152 -0.06380768 -0.24757235 -0.08236926 -0.02705784
-0.008793702 -0.25985736 0.13556975 0.25201634 -0.10301272 0.09352219 -0.4744015 0.079389356
-0.082256354 -0.16101344 -0.008095084 -0.16805366 -1.0121523 -0.0902277 -0.078692734 0.10298776
0.101264186 -0.085573964 -0.8588436 0.094842896 0.058142487 -0.13865393 -0.06989376 0.04863497
0.05830769 -0.11676231 -0.05301425 -0.4263699 -0.0024435802 -0.023723315 -0.045966983 -0.12022374
0.019298892 -0.13422816 0.024555298 0.029912638 -0.080582604 -0.080986984 0.15990797 -0.3193431
-0.04069501 -0.080460235 -0.1551311 0.05266135 -0.0880991 0.11608214 -0.20226368 0.105156876
0.20911898 -0.10782331 0.1207759 -0.11675238 -0.25889707 0.007140727 0.17898788 0.03803447
-0.20468183 -0.5040442 -0.024327023 0.0016175342 0.1409074 -0.14180398 0.019102963 0.062827796
-0.041658726 0.06304401 0.036836542 -0.09258465 -0.027875172 0.25693077 0.11466139 -0.034154706
0.022662781 -0.106597945 0.087577194 0.09606509 0.22496015 -0.33620328 0.2899765 0.16838048
-0.19219759 0.123572625 -0.3878521 -0.17894612 0.039645344 -0.229932 0.013417284 -0.019184252
-0.32096085 0.01839294 0.075723425 -0.2736074 0.1540187 0.16627765 -0.4450807 0.091092736
-0.24322695 -0.071829244 0.08333679 -0.16162042 -0.36173883 -0.013808797 -0.08439527 0.1579556
-0.18477252 -0.036500607 -0.2443611 0.0070032305 -0.12168241 -0.11704224 0.3662462 -0.20143843
-0.5795463 0.1231624 -0.079462685 0.115341485 -0.22975695 0.111537404 0.0150903305 -0.14896056
0.10794286 0.22865579 -0.4008777 0.1252544 -0.37661955 0.16760843 0.057972338 -0.5936261
0.05121308 -0.056801613 -0.672971 0.07935248 0.02223092 -0.84253466 -0.07350381 0.08754508
-0.6698354 -0.15661034 0.038475547 -0.51760876 -0.03465204 -0.068378024 -0.09161898 0.038031343
-0.10335181 -0.3635604 -0.015191924 0.07685597 -0.21896265 -0.00039939958 -0.075998485 -0.23116443
0.200971 -0.087997526 -0.03473153 -0.038233154 0.0015759665 -0.13630605 -0.41780418 0.25712755
0.016870202 0.0532237 0.19697224 -0.3996389 0.22647162 -0.06508285 -0.38580468 -0.23201263
00000000: 9bf6 02be b672 76bb cebd 88bc d15c 183e
00000010: c064 033e a212 8c3d 28c1 0bbd ef76 9e3b
00000020: a0b2 ba3c 381c 073e 9b52 c8bd 6351 823e
00000030: 6628 3bbe 082f 83bd 239d 77bc 3180 313d
00000040: db0a bd3d 9726 09bd d1b5 743d 6e40 05be
00000050: 5c94 8bbd c98c 463e 91c5 62be 0666 acbd
00000060: 985d a03d 45d8 893b 12e7 f5bd ecac 843d
00000070: 967b 5f3d b36d 1abd 8089 cd3e d8a4 8c3c
00000080: db1d f13d 23f3 613e 2911 54bd 6606 c4bb
00000090: 3281 453e e112 9fbc 7d67 dabc a4ab 19be
000000a0: 172e 75bd 3d33 783d 18d5 e3bd f0c5 b33b
000000b0: 1a69 8abc dc1b 973d d4f3 b1bc d5bc 19bc
000000c0: af31 943d ad16 023d 44d4 2d3d c3e5 9ebd
000000d0: 939a f2bd acab 11bd caee b6be 6b1e ae3c
000000e0: ef93 5a3d a2e3 453e d79d 99bd 4d46 70bc
000000f0: a4a1 00be 4885 e83b 1a6f e23d 7d5f 2b3d
00000100: 1467 07be df33 063e fb96 6cbd cfa7 9e3b
00000110: 32c8 9fbd bfb7 8a3d 52ad e23d d885 113e
00000120: c3fe 1d3e 6c21 093e a591 283c 5456 833e
00000130: cefd 1fbe d5b0 ea3b 1cf8 9f3c 76a4 c7bc
00000140: 64bd bcbd f07d 7ebd 491b a1be 0497 603d
00000150: 9aad 82bd 9b83 7dbe 37b1 a8bd 67a8 ddbc
00000160: 7613 10bc 060c 85be ccd2 0a3e 4908 813e
00000170: 55f8 d2bd 9088 bf3d c1e4 f2be e396 a23d
00000180: 0576 a8bd b5e0 24be 3ea1 04bc 4216 2cbe
00000190: 358e 81bf 4dc9 b8bd a829 a1bd 3feb d23d
000001a0: 9963 cf3d 6741 afbd 2ddd 5bbf fe3c c23d
000001b0: d126 6e3d 4cfb 0dbe 7624 8fbd 7635 473d
000001c0: 0bd4 6e3d 1421 efbd 7825 59bd 284d dabe
000001d0: 7924 20bb 6657 c2bc e047 3cbd dd37 f6bd
000001e0: b618 9e3c 1b73 09be 3128 c93c 590b f53c
000001f0: 7e08 a5bd 81dc a5bd eabe 233e f080 a3be
00000200: d0af 26bd 56c8 a4bd b0da 1ebe 6eb3 573d
00000210: 4d6d b4bd 79bc ed3d 361e 4fbe 7d5c d73d
00000220: 4923 563e 78d2 dcbd 5b59 f73d df1b efbd
00000230: 288e 84be c2fc e93b 9948 373e 08ca 1b3d
00000240: 1d98 51be 0a09 01bf 7749 c7bc 7103 d43a
00000250: 084a 103e 1035 11be d17d 9c3c dcab 803d
00000260: 57a2 2abd 381d 813d eae1 163d 059d bdbd
00000270: 795a e4bc 6e8c 833e 97d3 ea3d cee5 0bbd
00000280: 4ca7 b93c 0650 dabd ac5b b33d c6bd c43d
00000290: f45b 663e d622 acbe cd77 943e ef6b 2c3e
000002a0: 72cf 44be a513 fd3d 8d94 c6be a73d 37be
000002b0: 2863 223d 4b73 6bbe 2bd4 5b3c 4b28 9dbc
000002c0: fb54 a4be caac 963c e214 9b3d 4516 8cbe
000002d0: 14b7 1d3e b044 2a3e 9ee1 e3be d48e ba3d
000002e0: 7c10 79be 361b 93bd 7bac aa3d d37f 25be
000002f0: d535 b9be 4b3e 62bc 6dd7 acbd 1dbf 213e
00000300: 0235 3dbe a981 15bd cc39 7abe 5b7b e53b
00000310: a134 f9bd d8b3 efbd 9f84 bb3e e045 4ebe
00000320: 255d 14bf 923c fc3d 55bd a2bd 2838 ec3d
00000330: 6845 6bbe b96d e43d 6f3d 773c 1e89 18be
00000340: 2511 dd3d be24 6a3e d83f cdbe b042 003e
00000350: 47d4 c0be 8ba1 2b3e 6774 6d3d e1f7 17bf
00000360: cec4 513d cfa8 68bd d447 2cbf 8e83 a23d
00000370: 9e1d b63c 5ab0 57bf 2a89 96bd d64a b33d
00000380: 557a 2bbf 765e 20be 8998 1d3d 0282 04bf
00000390: 4cef 0dbd c709 8cbd bba2 bbbd c1c6 1b3d
000003a0: 1daa d3bd 9724 babe 8ce7 78bc aa66 9d3d
000003b0: bf37 60be 8166 d1b9 18a5 9bbd 5eb6 6cbe
000003c0: 58cb 4d3e 0c38 b4bd a642 0ebd 5e9a 1cbd
000003d0: a990 ce3a d093 0bbe 6eea d5be 39a6 833e
000003e0: 6133 8a3c 1801 5a3d 17b3 493e 789d ccbe
000003f0: 2de8 673e 284a 85bd 3188 c5be b894 6dbe

critic.network_body.linear_encoder.seq_layers.0.bias f4 [64]
-0.03601783 -0.07597398 -0.06597737 0.02950448 0.0007435333 -0.038467556 -0.038047418 -0.03095806
-0.009271312 -0.033252504 0.017392032 -0.057252474 -0.00080964435 -0.0051218052 0.01062625 -0.052349932
-0.06410327 -0.012326734 -0.039906446 -0.022064166 -0.027076045 -0.020564603 -0.0016176512 -0.040570572
0.0052427943 -0.056743775 -0.038159825 -0.028015712 -0.056099124 -0.05240707 0.009310259 -0.030231444
-0.0063660354 0.03147981 -0.04540911 0.010337683 -0.02432665 -0.051835373 -0.02649295 -0.016371334
0.0037228344 -0.0021034356 -0.008240411 -0.047430534 0.015509217 -0.042978738 -0.021032352 -0.033134714
-0.037448764 -0.007673849 0.05081217 -0.049543668 -0.0011954042 -0.00323276 -0.01455492 -0.036961075
-0.014912093 -0.049721353 -0.012946022 -0.01017147 -0.05864076 -0.007809405 -0.016717982 -0.033051223
00000000: 6f87 13bd 3f98 9bbd 251f 87bd 61b3 f13c
00000010: ade9 423a 2890 1dbd 9cd7 1bbd c29b fdbc
00000020: b3e6 17bc c733 08bd bc79 8e3c 9281 6abd
00000030: 503e 54ba d1d4 a7bb b919 2e3c e26c 56bd
00000040: 9348 83bd 12f6 49bc f174 23bd e9bf b4bc
00000050: 95ce ddbc 1977 a8bc 5e07 d4ba 542d 26bd
00000060: bfcb ab3b 296c 68bd 7a4d 1cbd 3581 e5bc
00000070: 32c8 65bd cca8 56bd 0e8a 183c efa7 f7bc
00000080: 2d9a d0bb f9f0 003d e7fe 39bd 635f 293c
00000090: af48 c7bc 5451 54bd be07 d9bc 2d1d 86bc
000000a0: ccfa 733b cbd9 09bb ca02 07bc 8546 42bd
000000b0: 5f1a 7e3c 790a 30bd 0a4c acbc 44b8 07bd
000000c0: e063 19bd e974 fbbb 6c20 503d 4dee 4abd
000000d0: 1caf 9cba b6dc 53bb c277 6ebc 7f64 17bd
000000e0: da51 74bc 9ea8 4bbd 8d1b 54bc 3da6 26bc
000000f0: 4b31 70bd 0ae6 ffbb 26f4 88bc b860 07bd

critic.value_heads.value_heads.extrinsic.weight f4 [1, 64]
0.0016182099 -0.13492694 -0.11165594 0.28798056 0.063806124 -0.11762064 -0.15207167 -0.28419966
0.037937127 0.17926623 -0.35806033 0.073285334 0.16995446 0.064293034 0.09243736 -0.076435074
-0.023725227 -0.31015825 -0.18469892 0.17586674 0.19761664 0.3517621 -0.064610146 -0.12515913
0.03451921 -0.18168274 -0.10060693 0.11859484 -0.07338452 -0.26904458 0.4084182 -0.24992731
0.10516189 -0.28351647 -0.2846695 0.26912948 0.27262318 -0.13661277 0.19498074 0.25965583
0.09427668 0.14030771 -0.15127122 -0.27074373 -0.12929693 -0.0029203964 0.06896971 -0.2807481
-0.03647529 0.36378756 -0.1921429 -0.24478835 0.14748646 0.21262877 -0.21308334 -0.1016797
-0.16779174 -0.12701122 0.20415185 0.1969248 -0.06695299 0.3251875 0.10518956 -0.4259084
00000000: 1d1a d43a 4a2a 0abe dfab e4bd 3072 933e
00000010: c9ac 823d 17e3 f0bd adb8 1bbe 9e82 91be
00000020: f663 1b3d 9191 373e af53 b7be 9f16 963d
00000030: 8b08 2e3e 11ac 833d cc4f bd3d fe89 9cbd
00000040: 685b c2bc 10cd 9ebe b721 3dbe 6916 343e
00000050: 045c 4a3e 291a b43e 5352 84bd b729 00be
00000060: 0464 0d3d 0a0b 3abe 020b cebd dae1 f23d
00000070: a04a 96bd 36c0 89be 311c d13e f2ec 7fbe
00000080: 1e5f d73d 1229 91be 33c0 91be 57cb 893e
00000090: 4495 8b3e 38e4 0bbe 08a9 473e 9cf1 843e
000000a0: 2214 c13d d3ac 0f3e d8e6 1abe ec9e 8abe
000000b0: 6a66 04be 1f64 3fbb fe3f 8d3d 37be 8fbe
000000c0: 1d67 15bd 5d42 ba3e 1cc1 44be cca9 7abe
000000d0: b106 173e 5bbb 593e 8532 5abe 723d d0bd
000000e0: 99d1 2bbe 3b0f 02be 2f0d 513e a8a6 493e
000000f0: a61e 89bd fa7e a63e a06d d73d aa10 dabe

exp_avg f4 [64, 82]
-3.1102347e-06 6.935116e-08 -8.045023e-09 -2.836672e-06 -2.0421176e-07 -4.672468e-07 -1.6401686e-06 -1.4007148e-06
-1.2474082e-06 -1.7509147e-06 -1.2899688e-06 -1.1004103e-06 -2.761343e-07 -2.7647493e-06 -2.7854728e-06 -1.7850206e-06
-1.2558633e-06 -1.2366243e-06 -2.7606507e-07 -2.7648184e-06 -2.778982e-06 -2.126733e-06 -9.141504e-07 -9.590345e-07
-3.4969625e-07 -2.6911875e-06 -2.6921055e-06 -2.2732222e-06 -7.676611e-07 -8.326043e-07 -3.6038128e-07 -2.6805023e-06
-2.6879488e-06 1.2063963e-09 0.0 -3.597534e-08 -3.796908e-07 6e-45 -1.1739413e-06 -9.1671416e-07
-2.1241692e-06 -2.6483062e-06 -3.2315393e-07 -2.7177296e-06 -2.7016029e-06 -1.17129375e-07 -2.923754e-06 -2.7922547e-06
-3.0579994e-07 -2.7350839e-06 -2.7194692e-06 -8.048411e-07 -2.2360423e-06 -2.3797925e-06 -2.348904e-07 -2.8059928e-06
-2.8048796e-06 -1.9293257e-06 -1.1115578e-06 -1.1904057e-06 -2.5602222e-07 -2.7848614e-06 -2.7904364e-06 -2.1264939e-06
-9.143895e-07 -1.0585206e-06 -2.52431e-07 -2.7884525e-06 -2.792138e-06 -2.3556988e-06 -6.8518483e-07 -8.7020226e-07
-2.501004e-07 0.0 -1.2712751e-06 -6.668187e-08 0.0 -3.584454e-08 1.1056978e-06 0.0
-6e-45 1.404124e-08 -0.0014100524 -0.0005516819 -0.00074333 -0.0011033552 -0.0008583791 -0.0011615686
0.0003109886 -0.0022727228 -0.0020992835 0.00015842573 -0.00212016 -0.0019211436 -5.1633146e-05 -0.001910101
-0.0019512224 4.8300342e-05 -0.0020100346 -0.001934722 -2.611126e-05 -0.0019356229 -0.001963451 -0.00023732879
-0.0017244057 -0.0017253621 3.7992108e-06 -0.0019655337 -0.0019491389 -0.00031487923 -0.0016468553 -0.0016583488
-3.5651385e-05 -0.0019260831 -0.0019240598 1.1075764e-06 0.0 -2.3210805e-05 -6.52758e-05 6e-45
-0.000854695 -0.0019554787 -6.2556323e-06 -0.0013589322 -0.00045903298 -0.0015027013 -0.0016626607 -0.00050956605
-0.0014521682 -0.0015680626 -4.4440794e-06 -0.00195729 -0.0019110034 -0.0004912601 -0.0014704742 -0.0015496054
-5.9542566e-05 -0.0019021918 -0.0018942014 4.552324e-05 -0.0020072574 -0.0018892677 -0.0001103142 -0.0018514199
-0.0018589529 -0.00022627646 -0.0017354576 -0.0017518641 -6.877914e-05 -0.0018929549 -0.0018905578 -0.00022270417
-0.0017390301 -0.001752421 -6.0656002e-05 0.0 -0.0008333049 -1.4224821e-05 0.0 -2.3176688e-05
-0.00034274245 0.0 6e-45 1.6995606e-05 0.0007657879 0.00019192774 0.0002511032 0.00056755205
0.00039016368 0.0003580279 -3.3334823e-06 0.0009610491 0.00092198903 0.00017482882 0.0007828868 0.0007299491
2.060727e-05 0.0009371084 0.0009367738 0.00013286984 0.0008248458 0.0008229185 1.6680435e-05 0.0009410351
0.00094345113 0.0001808928 0.00077682285 0.00078290777 -6.0763045e-06 0.0009637918 0.00096124166 0.0002042504
0.0007534652 0.0007614205 -6.1912823e-07 0.0009583348 0.00095717836 -3.0236748e-07 0.0 1.1329745e-05
1.3524001e-05 -6e-45 0.0004181681 0.0007684509 0.00018926468 0.0006933214 0.00017807035 0.00077964517
0.00084646186 0.00010906982 0.0008486458 0.0008013047 5.7179153e-05 0.0009005364 0.00089968543 0.00036021
0.0005975056 0.0006275872 3.783512e-05 0.0009198804 0.000920149 0.0002788232 0.0006788923 0.0006766228
3.7022433e-05 0.0009206931 0.00092089415 0.000286158 0.0006715576 0.0006994246 3.6252488e-05 0.00092146307
0.00092160975 0.00015998389 0.0007977318 0.00080578367 3.597879e-05 0.0 0.00041394003 1.2777834e-05
0.0 1.1304154e-05 -0.00017112699 0.0 -6e-45 -9.010508e-06 -0.0006748901 0.0004090872
0.0006182429 -0.0004623696 0.00019656656 0.00019364938 0.00031526617 -0.00058106903 -0.00028545092 0.0010839672
00000000: 6db9 50b6 34ee 9433 6336 0ab2 a75d 3eb6
00000010: 4d45 5bb4 e9d9 fab4 c423 dcb5 3200 bcb5
00000020: 9f6c a7b5 f900 ebb5 fe22 adb5 cfb1 93b5
00000030: 9c3f 94b4 088a 39b6 0fee 3ab6 d794 efb5
00000040: 228f a8b5 16fa a5b5 1836 94b4 388b 39b6
00000050: 8c7e 3ab6 ffb8 0eb6 f063 75b5 2db8 80b5
00000060: e3bd bbb4 409a 34b6 05aa 34b6 a98d 18b6
00000070: 4511 4eb5 2280 5fb5 6d7a c1b4 aee2 33b6
00000080: 9c62 34b6 4cce a530 0000 0000 4e83 1ab3
00000090: 4ed8 cbb4 0400 0000 5190 9db5 1e14 76b5
000000a0: f38c 0eb6 8eb9 31b6 f07d adb4 3d62 36b6
000000b0: 2f4d 35b6 8e88 fbb3 b635 44b6 9262 3bb6
000000c0: d32c a4b4 628c 37b6 2080 36b6 420c 58b5
000000d0: ea0e 16b6 86b4 1fb6 2e36 7cb4 974e 3cb6
000000e0: 773b 3cb6 9079 01b6 d630 95b5 07c6 9fb5
000000f0: 6d73 89b4 8ee3 3ab6 5543 3bb6 e3b4 0eb6
00000100: 5e74 75b5 7e12 8eb5 da85 87b4 4021 3bb6
00000110: 9160 3bb6 9916 1eb6 8bed 37b5 d897 69b5
00000120: 8a45 86b4 0000 0000 aea0 aab5 bf32 8fb3
00000130: 0000 0000 7df3 19b3 7d67 9435 0000 0000
00000140: 0400 0080 073a 7132 82d1 b8ba bf9e 10ba
00000150: 08dc 42ba 759e 90ba d904 61ba c63f 98ba
00000160: 2f0c a339 f6f1 14bb 2294 09bb 151f 2639
00000170: 62f2 0abb e2ce fbba ab90 58b8 5b5c faba
00000180: 29c0 ffba 1996 4a38 c9ba 03bb 7f96 fdba
00000190: 8109 dbb7 bab4 fdba 3ead 00bb 76db 78b9
000001a0: 7405 e2ba 8c25 e2ba f2f5 7e36 2fd0 00bb
000001b0: 407a ffba 6016 a5b9 4bdb d7ba f45c d9ba
000001c0: 6288 15b8 a074 fcba bc30 fcba 09a8 9435
000001d0: 0000 0000 d3b4 c2b7 aee4 88b8 0400 0000
000001e0: 9c0d 60ba 7d27 00bb 79e7 d1b6 331e b2ba
000001f0: 5daa f0b9 4af6 c4ba a3ed d9ba 6694 05ba
00000200: ae56 beba 7387 cdba 5a1e 95b6 e145 00bb
00000210: a27a faba e8c7 00ba edbc c0ba 211c cbba
00000220: 58bd 79b8 f752 f9ba da46 f8ba 35f0 3e38
00000230: 318c 03bb 4ea1 f7ba 7c58 e7b8 58ab f2ba
00000240: 1ca8 f3ba a044 6db9 4b78 e3ba ce9e e5ba
00000250: 853d 90b8 071d f8ba 98cc f7ba b285 69b9
00000260: 2bf0 e3ba 7eb1 e5ba e368 7eb8 0000 0000
00000270: 2572 5aba 24a7 6eb7 0000 0000 8f6b c2b7
00000280: 1db2 b3b9 0000 0000 0400 0000 c991 8e37
00000290: 28bf 483a 3640 4939 80a6 8339 c6c7 143a
000002a0: e28e cc39 b1b5 bb39 cab4 5fb6 eaee 7b3a
000002b0: a3b1 713a 4152 3739 a53a 4d3a 0e5a 3f3a
000002c0: c6dd ac37 48a8 753a d391 753a fa52 0b39
000002d0: 773a 583a 20b9 573a f6ec 8b37 ccaf 763a
000002e0: ef51 773a 0bae 3d39 b3a3 4b3a 0d3c 4d3a
000002f0: 0fe3 cbb6 f9a6 7c3a d6fb 7b3a 0d2c 5639
00000300: 3284 453a 119a 473a 2b32 26b5 c238 7b3a
00000310: 27eb 7a3a 1255 a2b4 0000 0000 e214 3e37
00000320: 24e5 6237 0400 0080 933d db39 de71 493a
00000330: 5a75 4639 03c0 353a 65b8 3a39 1a61 4c3a
00000340: 18e5 5d3a 6abc e438 a877 5e3a a60e 523a
00000350: a6d3 6f38 fa11 6c3a ded8 6b3a 91da bc39
00000360: eca1 1c3a aa84 243a 27b1 1e38 2124 713a
00000370: 2736 713a 042f 9239 b1f7 313a 635f 313a
00000380: 8948 1b38 ab5a 713a 2968 713a 7a07 9639
00000390: 780b 303a 9759 373a d00d 1838 578e 713a
000003a0: 2f98 713a 59c1 2739 e01e 513a 3a3b 533a
000003b0: eee7 1638 0000 0000 1706 d939 6160 5637
000003c0: 0000 0000 f9a6 3d37 8d70 33b9 0000 0000
000003d0: 0400 0080 d62b 17b7 1ceb 30ba c17a d639
000003e0: 9411 223a 326a f2b9 6f1d 4e39 5c0e 4b39
000003f0: 4f4a a539 e252 18ba 93a8 95b9 e713 8e3a

exp_avg_sq f4 [64, 82]
2.0167866e-11 2.4398919e-11 2.8123885e-11 1.6378877e-11 2.757615e-11 3.0311118e-11 2.070664e-11 2.4075518e-11
2.8603984e-11 1.4934469e-11 2.9186268e-11 2.9820646e-11 1.00666515e-11 3.4017747e-11 3.586569e-11 1.3699068e-11
3.090538e-11 3.090282e-11 4.4506777e-12 3.9628224e-11 3.9666933e-11 2.0121153e-11 2.4485981e-11 2.4578967e-11
3.3035785e-12 4.1255548e-11 4.1264936e-11 2.0411747e-11 2.4365562e-11 2.443968e-11 3.3392852e-12 4.088383e-11
4.0962483e-11 2.7246872e-12 0.0 5.94432e-15 3.347596e-12 7e-43 9.1431255e-12 1.2296818e-11
3.232511e-11 3.4022275e-11 1.3366011e-11 3.0712273e-11 3.3782067e-11 1.8347096e-11 2.6697424e-11 3.068999e-11
7.592378e-12 3.698857e-11 3.705102e-11 1.6134528e-11 2.8376626e-11 3.0857587e-11 2.0822539e-12 4.2408216e-11
4.2419523e-11 1.4803441e-11 2.988944e-11 3.0064024e-11 1.6521667e-12 4.271176e-11 4.2723016e-11 1.9669535e-11
2.4228846e-11 2.4452123e-11 1.3097788e-12 4.2980133e-11 4.299376e-11 2.1574792e-11 2.299594e-11 2.3122153e-11
1.3164669e-12 0.0 7.866003e-12 2.210523e-12 0.0 6.072472e-15 3.0159567e-10 0.0
7e-43 1.9128544e-11 5.4731013e-06 1.770448e-05 1.9824573e-05 6.30819e-06 1.6456343e-05 1.9262394e-05
2.7432752e-06 2.0118447e-05 2.1334725e-05 1.7628641e-06 2.0921672e-05 2.1320337e-05 9.902444e-07 2.185474e-05
2.2005343e-05 4.442079e-07 2.2182223e-05 2.2184468e-05 1.0904471e-07 2.2444316e-05 2.2458873e-05 3.232173e-07
2.2133123e-05 2.2152504e-05 6.429524e-08 2.238319e-05 2.2408643e-05 4.5734234e-07 2.195622e-05 2.1973678e-05
3.768619e-08 2.2505827e-05 2.249924e-05 1.1702706e-08 0.0 3.1537026e-09 5.154016e-08 7e-43
5.542097e-06 7.5422918e-06 1.5009781e-05 1.8457788e-05 2.9830326e-06 1.980347e-05 2.0836796e-05 5.5695004e-06
1.766661e-05 2.000355e-05 2.0487077e-07 2.2179698e-05 2.2197279e-05 2.2684608e-06 2.0080795e-05 2.1139569e-05
8.272376e-08 2.2414928e-05 2.24176e-05 7.965441e-07 2.1509113e-05 2.1865708e-05 6.3735555e-08 2.2439554e-05
2.244113e-05 3.019659e-07 2.2046821e-05 2.2096496e-05 4.4953964e-08 2.2442367e-05 2.2444956e-05 2.8606166e-07
2.2241058e-05 2.2237786e-05 5.2501523e-08 0.0 3.6088977e-06 4.092482e-08 0.0 3.1481497e-09
0.00026466514 0.0 7e-43 1.8330342e-05 1.1213793e-06 1.5693992e-06 1.9135625e-06 1.2637942e-06
1.3692096e-06 1.9428594e-06 3.2799366e-07 2.3267094e-06 2.4325332e-06 3.443709e-07 2.2657007e-06 2.3877508e-06
1.1516339e-08 2.6077976e-06 2.6087127e-06 9.793031e-08 2.5203205e-06 2.5204124e-06 2.4695912e-09 2.6170044e-06
2.6172352e-06 1.7523247e-07 2.4407962e-06 2.443018e-06 3.4512115e-09 2.617339e-06 2.6176433e-06 2.0790111e-07
2.4037308e-06 2.4054552e-06 1.8525345e-09 2.6166722e-06 2.6166958e-06 5.6468447e-10 0.0 3.6658815e-10
3.0487546e-09 7e-43 4.4605835e-07 9.1159654e-07 1.7159896e-06 2.041521e-06 7.410116e-07 1.974737e-06
2.2034237e-06 1.2476527e-06 1.5011022e-06 1.8602115e-06 1.07149695e-07 2.5024387e-06 2.5047802e-06 5.4563793e-07
2.1172123e-06 2.195982e-06 1.1956943e-08 2.609069e-06 2.609364e-06 2.7423692e-07 2.354109e-06 2.3539496e-06
3.82651e-09 2.6085502e-06 2.6094663e-06 1.9527684e-07 2.4126218e-06 2.416367e-06 3.4705405e-09 2.6103367e-06
2.6106466e-06 2.0063496e-07 2.4457947e-06 2.4442365e-06 4.0246038e-09 0.0 6.1667464e-07 6.093088e-08
0.0 3.6205866e-10 2.8484656e-05 0.0 7e-43 1.7170302e-06 9.874627e-06 3.4426266e-05
3.805234e-05 8.591192e-06 3.4486377e-05 3.876817e-05 9.845505e-06 3.3579465e-05 3.8587794e-05 3.1849577e-06
00000000: ff65 b12d 7b9d d62d 5c61 f72d f411 902d
00000010: f88f f22d 494f 052e 3523 b62d 3fc5 d32d
00000020: 729a fb2d 6f5d 832d d15c 002e 1027 032e
00000030: 2b18 312d 949c 152e 2dbd 1d2e 1eff 702d
00000040: 5dec 072e 7be9 072e 2498 9c2c 6a49 2e2e
00000050: ff74 2e2e cffc b02d 8761 d72d ea32 d82d
00000060: fb77 682c 9e71 352e 307c 352e 2b8b b32d
00000070: 5e52 d62d 44f9 d62d 37fb 6a2c 1acf 332e
00000080: a827 342e 9abb 3f2c 0000 0000 ad2a d627
00000090: ee90 6b2c f401 0000 fad8 202d f253 582d
000000a0: d72a 0e2e ada1 152e 2a23 6b2d f212 072e
000000b0: 3a93 142e fd61 a12d 41d5 ea2d dbf9 062e
000000c0: 0891 052d 6dad 222e bdf3 222e baeb 8d2d
000000d0: 7b9a f92d 8eb6 072e 8d86 122c 6883 3a2e
000000e0: 2390 3a2e 6336 822d 8574 032e 1539 042e
000000f0: 9485 e82b 2bd9 3b2e d7e5 3b2e db03 ad2d
00000100: 831e d52d 4915 d72d c155 b82b 5407 3d2e
00000110: ac16 3d2e 1dc6 bd2d 4146 ca2d 7662 cb2d
00000120: b846 b92b 0000 0000 5461 0a2d 3e8d 1b2c
00000130: 0000 0000 abc8 da27 d1cd a52f 0000 0000
00000140: f401 0000 a741 a82d 95a5 b736 1584 9437
00000150: f24c a637 f1aa d336 ba0b 8a37 ad95 a137
00000160: 1c19 3836 09c4 a837 f9f7 b237 8d9b ec35
00000170: f380 af37 13d9 b237 8ae8 8435 b254 b737
00000180: 1d98 b837 787b ee34 f613 ba37 c818 ba37
00000190: f72b ea33 cd46 bc37 1066 bc37 a686 ad34
000001a0: 85aa b937 24d4 b937 af12 8a33 89c3 bb37
000001b0: 32fa bb37 a788 f534 a02e b837 1d54 b837
000001c0: 67dc 2133 e5ca bc37 c0bc bc37 0c0d 4932
000001d0: 0000 0000 86b8 5831 015d 5d33 f401 0000
000001e0: 40f6 b936 cb13 fd36 85d2 7b37 ccd5 9a37
000001f0: 1c30 4836 a11f a637 aeca ae37 a5e1 ba36
00000200: c232 9437 4ccd a737 73fa 5b34 8a0e ba37
00000210: 4b34 ba37 dc3b 1836 2e73 a837 e154 b137
00000220: dea5 b133 b107 bc37 6e0d bc37 18d2 5535
00000230: 786e b437 406c b737 fede 8833 933c bc37
00000240: f63f bc37 e11d a234 30f1 b837 dd5b b937
00000250: 6813 4133 9e42 bc37 2d48 bc37 0494 9934
00000260: 4f92 ba37 488b ba37 097e 6133 0000 0000
00000270: 6430 7236 51c5 2f33 0000 0000 d656 5831
00000280: c1c2 8a39 0000 0000 f401 0000 1cc4 9937
00000290: 4d82 9635 25a4 d235 c16a 0036 a39f a935
000002a0: afc5 b735 1262 0236 1b17 b034 9024 1c36
000002b0: 9a3e 2336 fae1 b834 710c 1836 3f3d 2036
000002c0: 65d9 4532 9f01 2f36 5811 2f36 c24d d233
000002d0: c722 2936 5b24 2936 82b5 2931 cb9f 2f36
000002e0: c2a3 2f36 8927 3c34 8fcc 2336 bbf2 2336
000002f0: 5b2a 6d31 8ba5 2f36 c5aa 2f36 6c3b 5f34
00000300: c84f 2136 686d 2136 439c fe30 169a 2f36
00000310: 7e9a 2f36 2338 1b30 0000 0000 b288 c92f
00000320: 4282 5131 f401 0000 cb79 ef34 70b4 7435
00000330: f450 e635 1001 0936 eee9 4635 b985 0436
00000340: 88de 1336 0575 a735 7b79 c935 61ac f935
00000350: 2b1a e633 92ef 2736 cc17 2836 f477 1235
00000360: 6e15 0e36 af5e 1336 316b 4d32 7717 2f36
00000370: 881c 2f36 d63a 9334 49fb 1d36 8cf8 1d36
00000380: 577a 8331 8d0e 2f36 4a1e 2f36 4aad 5134
00000390: 87e8 2136 de28 2236 657e 6e31 3e2d 2f36
000003a0: 9132 2f36 1e6e 5734 6f22 2436 aa07 2436
000003b0: ca48 8a31 0000 0000 8f89 2535 1bd9 8233
000003c0: 0000 0000 3a0b c72f 55f2 ee37 0000 0000
000003d0: f401 0000 b574 e635 33ab 2537 ec64 1038
000003e0: 649a 1f38 e422 1037 77a5 1038 019b 2238
000003f0: 1f2e 2537 add7 0c38 54d9 2138 28bd 5536

exp_avg f4 [64]
-3.0408835e-06 -0.0019617344 0.0009577157 -0.00026580304 -0.0009971572 2.4484525e-05 -0.0027922108 -0.00016225102
0.0004643981 -0.0027078835 -0.00014490756 -0.00023840995 -3.5564e-05 -0.0005291903 -0.00039948427 -1.543516e-05
-0.0043270653 -1.4184627e-05 0.0012879545 -1.4016323e-05 3.9100745e-05 -0.0015687741 -0.0013767773 3.207996e-05
-0.00015067212 0.00036519318 -0.00037974588 -0.0028381362 0.0012955032 -0.00042635828 -0.0015264724 -0.0023064183
3.999399e-05 -0.00097162527 -5.05402e-05 -2.6346488e-05 -0.0012641129 -0.000102708786 -2.7397367e-05 -5.2371677e-05
0.00052957813 -0.00021179277 0.0005523546 -3.428625e-05 0.0008086935 -3.8534203e-05 -0.0004371602 -0.0025287715
2.7543725e-05 -0.0022915439 -0.0027457462 -7.1508694e-06 0.00011452617 -4.7558515e-06 -0.0020214932 -6.1007275e-05
-0.00014925098 -0.0024827758 -0.0003321419 -0.00030403922 -0.0016710805 0.00033409498 0.00021437174 -0.00020036714
00000000: fb11 4cb6 7190 00bb 360f 7b3a 7b5b 8bb9
00000010: 0bb3 82ba 1e64 cd37 86fd 36bb ed21 2ab9
00000020: 757a f339 bf76 31bb 54f2 17b9 affd 79b9
00000030: 8e2a 15b8 5cb9 0aba df71 d1b9 c17a 81b7
00000040: 0eca 8dbb 82fa 6db7 95d0 a83a a627 6bb7
00000050: 1b00 2438 539f cdba fb74 b4ba 988d 0638
00000060: bdfd 1db9 6677 bf39 a118 c7b9 0600 3abb
00000070: e0cd a93a d788 dfb9 ea13 c8ba 4727 17bb
00000080: 38bf 2738 abb4 7eba 20fb 53b8 a702 ddb7
00000090: 97b0 a5ba 5c65 d7b8 66d3 e5b7 a9a9 5bb8
000000a0: 63d3 0a3a b014 5eb9 e4cb 103a 95ce 0fb8
000000b0: 81fe 533a c99f 21b8 a632 e5b9 bfb9 25bb
000000c0: b30d e737 ba2d 16bb faf1 33bb 80f1 efb6
000000d0: c52d f038 7494 9fb6 077b 04bb 10e2 7fb8
000000e0: 4180 1cb9 11b6 22bb 5523 aeb9 7467 9fb9
000000f0: 2808 dbba 7829 af39 fac8 6039 a519 52b9

exp_avg_sq f4 [64]
4.4601132e-11 2.25477e-05 2.6208288e-06 4.313854e-05 4.2245094e-05 4.9231943e-07 0.0002010884 9.886509e-07
3.4869834e-05 6.429668e-05 2.939424e-06 1.0367109e-05 1.9725702e-08 3.1924934e-05 9.92011e-06 3.1930107e-08
0.00012050416 1.5489677e-08 5.644275e-05 3.4615372e-08 6.5969154e-08 9.46437e-06 2.884701e-05 1.1079104e-06
1.2711384e-07 2.5301613e-06 0.0001096356 3.51021e-05 1.5387881e-05 9.693694e-06 3.1976193e-05 4.5364795e-05
2.2644832e-05 5.1965353e-06 1.1112638e-07 4.2087986e-09 2.917296e-05 2.5809223e-07 7.434973e-09 1.6692123e-07
5.0435752e-05 1.8783623e-05 8.460018e-05 2.1158105e-08 6.791186e-05 1.3103898e-08 7.481424e-07 2.79105e-05
7.376356e-05 8.882744e-05 0.00019605918 4.0396084e-10 5.2419754e-08 1.2845147e-08 2.201535e-05 1.8776703e-08
2.4611218e-05 5.6072895e-05 1.2091401e-06 5.028728e-06 1.0349395e-05 7.741328e-06 1.0804488e-06 4.983086e-06
00000000: 6928 442e d124 bd37 7fe1 2f36 a8ef 3438
00000010: 5330 3138 ef27 0435 42db 5239 c9b1 8435
00000020: 3341 1238 04d7 8638 eb42 4536 65ee 2d37
00000030: 4771 a932 23e7 0538 8c6e 2637 8623 0933
00000040: 2eb7 fc38 290e 8532 f1bc 6c38 01ac 1433
00000050: edaa 8d33 29c9 1e37 7bfc f137 83b3 9435
00000060: c97c 0834 d7cb 2936 2aec e538 983a 1338
00000070: 3915 8137 19a2 2237 2d1e 0638 1446 3e38
00000080: 68f5 bd37 e65d ae36 60a4 ee33 fc9c 9031
00000090: 74b8 f437 ed8f 8a34 b776 ff31 f53a 3334
000000a0: fa8a 5338 8691 9d37 606b b138 2abf b532
000000b0: e76b 8e38 8e1f 6132 f4d3 4835 5821 ea37
000000c0: 82b1 9a38 de48 ba38 3c95 4d39 6f14 de2f
000000d0: 2124 6133 8ead 5c32 9bad b837 684a a132
000000e0: 3074 ce37 d02f 6b38 bd49 a235 72bc a836
000000f0: 50a2 2d37 c0e0 0137 f003 9135 6234 a736

exp_avg f4 [3, 64]
0.00022053049 -0.010902935 0.0004618141 0.0024407364 -0.033584505 0.0060558394 -0.046260245 0.005870179
0.002449193 -0.049160663 0.0067447037 0.007160998 0.00044844608 -0.018789442 0.0036960552 0.0038738267
-0.044339154 0.0004168289 0.0050644274 0.0021016253 0.0061977804 -0.014296832 -0.0009807985 0.005120999
0.0021373017 -0.004269414 -0.034139335 -0.02536188 0.0007884943 0.0049899425 -0.0023225097 -0.0042197905
-0.0035848701 -0.014154602 0.0036780876 0.00036272494 -0.0057702316 0.003383552 0.00040387092 0.0010580906
0.0035369168 -0.0016082764 -0.0033966615 0.00064634415 -0.006473646 0.00081757683 -0.003331521 -0.025271589
0.010549812 -0.025827492 -0.048829213 0.0007393445 0.0025156008 0.0031430463 -0.0060627838 0.0009948467
-0.019232487 -0.04158878 0.0058413628 0.0068976237 -0.026066331 0.003523168 0.0034362185 0.006210562
-0.00023316081 0.008997739 0.0009352563 -0.0016956251 0.03109556 -0.004752036 0.042826902 -0.0036354987
0.0022608535 0.038029335 -0.0034662914 -0.0020548436 -0.00035963385 0.019153511 -0.004220764 -0.0029474774
0.038299236 -0.0003475019 -0.00055476004 -0.0018699345 -0.004481389 0.011439595 -0.00012553208 -0.0036654824
-0.0017464895 0.004192834 0.025035908 0.016919501 0.0014099999 -0.0036133241 -0.0015634078 0.00084252947
0.0012624745 0.011344082 -0.0036069253 -0.00061264343 0.00042881496 -0.0029223687 -0.00040827628 -0.0009896869
0.0008249884 0.0032459174 0.0009135455 -0.0005360937 0.0031420456 -0.0007241841 0.0025530306 0.020973416
-0.004285318 0.022833172 0.046160605 -0.0006525671 -0.0014514308 -0.0025605303 0.0051482674 -0.00088840997
0.01997521 0.024620319 -0.004036976 -0.004072868 0.017034434 -0.0042234315 -0.0032827621 -0.003931182
1.2630342e-05 0.001905195 -0.0013970702 -0.00074511283 0.0024889507 -0.0013038026 0.003433339 -0.0022346808
-0.004710046 0.011131332 -0.0032784129 -0.005106155 -8.8812136e-05 -0.00036406692 0.0005247089 -0.00092634937
0.0060399226 -6.9327114e-05 -0.00450967 -0.00023169053 -0.0017163899 0.002857239 0.0011063303 -0.0014555168
-0.0003908119 7.658092e-05 0.009103422 0.008442375 -0.0021984938 -0.0013766184 0.0038859178 0.0033772604
0.002322395 0.0028105187 -7.116139e-05 0.00024991846 0.0053414167 -0.00046118267 4.40546e-06 -6.840353e-05
-0.004361904 -0.0016376404 0.002483116 -0.00011025049 0.0033316 -9.339277e-05 0.0007784909 0.0042981724
-0.0062644924 0.0029943166 0.0026686057 -8.677727e-05 -0.0010641702 -0.00058251584 0.0009145157 -0.00010643657
-0.00074271875 0.016968466 -0.0018043863 -0.002824755 0.00903189 0.00070026313 -0.00015345661 -0.0022793813
00000000: 343e 6739 39a2 32bc a41f f239 c3f4 1f3b
00000010: e88f 09bd 1070 c63b 627b 3dbd a15a c03b
00000020: a482 203b b15c 49bd ad02 dd3b cea6 ea3b
00000030: 6a1d eb39 51ec 99bc 8439 723b 07e0 7d3b
00000040: f99c 35bd d489 da39 7ff3 a53b 6cbb 093b
00000050: c016 cb3b 423d 6abc 238e 80ba 0ece a73b
00000060: f911 0c3b 71e6 8bbb b0d5 0bbd b8c3 cfbc
00000070: f5b2 4e3a ac82 a33b 3f35 18bb 2b46 8abb
00000080: 24f0 6abb b4e8 67bc 120c 713b 1e2c be39
00000090: 3614 bdbb 95be 5d3b a3be d339 a1af 8a3a
000000a0: 9ecb 673b cdcc d2ba 869a 5ebb 6c6f 293a
000000b0: e120 d4bb a752 563a a655 5abb 5d06 cfbc
000000c0: 1ed9 2c3c 2d94 d3bc 2401 48bd 92d0 413a
000000d0: c7dc 243b 91fb 4d3b 51aa c6bb 8465 823a
000000e0: 738d 9dbc ff58 2abd e768 bf3b 7605 e23b
000000f0: 0f89 d5bc f3e4 663b 2e32 613b f881 cb3b
00000100: a17c 74b9 416b 133c fd2b 753a bd3f deba
00000110: 1ebc fe3c f8b6 9bbb 436b 2f3d 8c41 6ebb
00000120: d42a 143b a6c4 1b3d b82a 63bb 8eaa 06bb
00000130: 3d8d bcb9 d3e7 9c3c 564e 8abb 772a 41bb
00000140: a9df 1c3d ea30 b6b9 516d 11ba 9718 f5ba
00000150: 9ed8 92bb 246d 3b3c 43a1 03b9 9738 70bb
00000160: 77ea e4ba 0a64 893b 1b18 cd3c c49a 8a3c
00000170: bfcf b83a 85cd 6cbb 43eb ccba 32dd 5c3a
00000180: 9d79 a53a 87dc 393c 2a62 6cbb ce99 20ba
00000190: 92d2 e039 3685 3fbb ea0d d6b9 62b8 81ba
000001a0: 0944 583a 75b9 543b 007b 6f3a a488 0cba
000001b0: c7ea 4d3b 2cd7 3dba bf50 273b 71d0 ab3c
000001c0: da6b 8cbb a20c bb3c e712 3d3d 0911 2bba
000001d0: f03d beba 92ce 27bb ccb2 a83b 2fe4 68ba
000001e0: 0da3 a33c 8db0 c93c 9c48 84bb b175 85bb
000001f0: cc8b 8b3c b664 8abb 9c23 57bb 25d1 80bb
00000200: e8e6 5337 bcb7 f93a e61d b7ba ad53 43ba
00000210: aa1d 233b 5be4 aaba df01 613b b973 12bb
00000220: bb56 9abb 3160 363c a4da 56bb 8851 a7bb
00000230: a740 bab8 3ce0 beb9 9e8c 093a 41d6 72ba
00000240: 8bea c53b b663 91b8 dbc5 93bb f4f1 72b9
00000250: 7df8 e0ba 8440 3b3b 4902 913a 0ac7 beba
00000260: e3e5 ccb9 129a a038 8526 153c e351 0a3c
00000270: 9b14 10bb a66f b4ba e2aa 7e3b 0755 5d3b
00000280: 5333 183b ae30 383b 7b3c 95b8 7d07 8339
00000290: 0d07 af3b e4ca f1b9 9dd2 9336 de73 8fb8
000002a0: 4eee 8ebb 18a6 d6ba c6bb 223b 4836 e7b8
000002b0: f956 5a3b dddb c3b8 a413 4c3a afd7 8c3b
000002c0: 5f46 cdbb 4c3c 443b c6e3 2e3b 31fc b5b8
000002d0: a07b 8bba fab3 18ba 1cbc 6f3a b336 dfb8
000002e0: 03b3 42ba 7401 8b3c 2881 ecba 861f 39bb
000002f0: 7efa 133c dd91 373a 32e9 20b9 ac61 15bb

exp_avg_sq f4 [3, 64]
1.4495983e-07 0.0024947233 0.00020816932 0.0038228137 0.0019881134 0.00027587704 0.0052734003 0.00021026621
0.0025465183 0.010272334 0.00022608497 0.00044796668 2.0725738e-06 0.00078305224 0.00035303744 7.345328e-05
0.011704475 4.1982703e-06 0.0038591272 1.8748167e-05 0.00020169075 0.0011272262 0.0014272959 0.0001801041
2.3324734e-05 0.00024468653 0.007403901 0.004145275 0.00024006602 0.0005135698 0.00076248107 0.0012396589
0.0014902084 0.0006717969 6.0562867e-05 2.5399859e-06 0.0014791854 4.6558896e-05 1.5896248e-06 2.757919e-05
0.001656579 0.0022264218 0.00496803 4.3957875e-06 0.006590752 6.834938e-06 0.00032289195 0.004375369
0.00056388095 0.0044426075 0.007717468 4.4236804e-06 0.00017895494 3.1732536e-05 0.0008613882 2.0741793e-06
0.0021097616 0.007235312 0.0002157811 0.00019108306 0.0025606502 0.00016832883 0.00020840236 0.0002659017
9.15535e-08 0.0026637323 0.00017262777 0.0031143962 0.0018411245 0.00040294864 0.0046907417 0.000314718
0.002771437 0.008729916 0.00025290312 0.00020273506 1.3345605e-06 0.00073415926 0.00022467258 6.588485e-05
0.009180771 2.654675e-06 0.004725357 1.3916984e-05 0.00015704145 0.0008756656 0.00085560215 0.00014775894
1.821732e-05 0.00021359876 0.00746967 0.003118394 0.00027567436 0.00030194613 0.00046522066 0.0008903038
0.00090803107 0.0006258473 4.2901025e-05 1.6309907e-06 0.0007899425 3.322005e-05 1.19511e-06 1.8190685e-05
0.0015891138 0.0018462752 0.0033165154 3.0992412e-06 0.006084248 4.8062197e-06 0.0003754616 0.0033570882
0.0005159115 0.0037545816 0.006770163 3.2686348e-06 0.00014256574 2.3712731e-05 0.00058754167 1.6879682e-06
0.0019671787 0.006021633 0.0003270329 0.00024186508 0.0019651803 0.00011957329 0.00017330571 0.0004486757
1.1741171e-07 0.0034772588 0.00012688247 0.004530547 0.00028475747 0.00041987118 0.0011669986 0.00029134794
0.0039095054 0.0023447154 0.00025191126 0.00035998598 1.7152645e-06 0.00011990097 0.00020389736 4.3986136e-05
0.0048261625 3.3579188e-06 0.0058768783 1.1122271e-05 0.000114251365 0.00034675948 0.0007618061 0.00012560982
2.002152e-05 0.00010141038 0.0045123664 0.0013679407 0.00032318168 0.000297389 0.00039955144 0.00049506227
0.0015366022 8.832461e-05 3.4733566e-05 1.8504769e-06 0.001008687 3.361601e-05 1.5742093e-06 2.3784974e-05
0.0024506212 0.0028786298 0.004870284 3.4175341e-06 0.008509539 5.368029e-06 0.00038911813 0.0013355948
0.0007517724 0.0014719367 0.0015942085 2.6133687e-06 0.0001120065 1.7407454e-05 0.00037976986 1.057523e-06
0.0003473743 0.002007003 0.00031855988 0.00023014525 0.0008276893 0.00011836587 0.000113856164 0.00047692977
00000000: 41a6 1b34 837e 233b 0748 5a39 2c88 7a3b
00000010: 024b 023b 97a3 9039 7dcc ac3b e87a 5c39
00000020: 7de3 263b 4b4d 283c 3911 6d39 12dd ea39
00000030: 8c16 0b36 bf45 4d3a e217 b939 ee0a 9a38
00000040: 20c4 3f3c dede 8c36 69e9 7c3b 6245 9d37
00000050: f37c 5339 6fbf 933a 1a14 bb3a 54da 3c39
00000060: 7ca9 c337 4549 8039 6c9c f23b 16d5 873b
00000070: 3bba 7b39 16a1 063a 3de1 473a 0d7c a23a
00000080: 1953 c33a 871b 303a e204 7e38 a074 2a36
00000090: 3ae1 c13a 3c48 4338 185b d535 dc59 e737
000000a0: 9121 d93a 29e9 113b dbca a23b 877f 9336
000000b0: 3cf7 d73b ac57 e536 d349 a939 415f 8f3b
000000c0: 69d1 133a 4b93 913b d0e2 fc3b 206f 9436
000000d0: daa5 3b39 8d18 0538 c9ce 613a 2132 0b36
000000e0: ed43 0a3b 3216 ed3b 4c43 6239 785d 4839
000000f0: 95d0 273b 6d81 3039 9586 5a39 b968 8b39
00000100: 129c c433 0392 2e3b 6a03 3539 e61a 4c3b
00000110: e351 f13a da42 d339 cbb4 993b bc00 a539
00000120: ffa0 353b ec07 0f3c 1598 8439 4795 5439
00000130: 261f b335 9874 403a 1696 6b39 a92b 8a38
00000140: f26a 163c f826 3236 2bd7 9a3b fe7c 6937
00000150: 7eab 2439 ec8c 653a 7d4a 603a bdef 1a39
00000160: 66d1 9837 7bf9 5f39 22c4 f43b f85d 4c3b
00000170: 6388 9039 864e 9e39 dce8 f339 4763 693a
00000180: ef08 6e3a e70f 243a a0f0 3338 6ae8 da35
00000190: 2514 4f3a c255 0b38 ab67 a035 3398 9837
000001a0: d049 d03a b7fe f13a e559 593b 8ffc 4f36
000001b0: 5f5e c73b 1d45 a136 9ad9 c439 9802 5c3b
000001c0: 3c3e 073a 6d0f 763b 3ed8 dd3b b85a 5b36
000001d0: b37d 1539 b4ea c637 4105 1a3a 258e e235
000001e0: c8eb 003b 1e51 c53b 9d75 ab39 2a9d 7d39
000001f0: 41ca 003b 6cc3 fa38 66b9 3539 3c3c eb39
00000200: c523 fc33 b9e2 633b c10b 0539 fc74 943b
00000210: 804b 9539 2822 dc39 faf5 983a 0fc0 9839
00000220: 4f1b 803b cca9 193b f512 8439 80bc bc39
00000230: 0a38 e635 5873 fb38 48cd 5539 c17d 3838
00000240: c924 9e3b 9b58 6136 d492 c03b ca99 3a37
00000250: 3c9a ef38 45cd b539 f1b3 473a 21b6 0339
00000260: e3f3 a737 48ac d438 79dc 933b 794c b33a
00000270: b670 a939 e0ea 9b39 e37a d139 11c7 013a
00000280: d067 c93a ea3a b938 e2ae 1138 e75d f835
00000290: eb35 843a eafe 0c38 6b49 d335 d885 c737
000002a0: 9a9a 203b 65a7 3c3b e796 9f3b ca58 6536
000002b0: 986b 0b3c 051f b436 8d02 cc39 200f af3a
000002c0: 9712 453a 00ee c03a c3f4 d03a 5561 2f36
000002d0: 08e5 ea38 3906 9237 d91b c739 37f0 8d35
000002e0: ca1f b639 ec87 033b 6204 a739 2553 7139
000002f0: 4af9 583a 313b f838 10c6 ee38 6e0c fa39

exp_avg f4 [3]
-0.022135582 0.016939841 0.005195733
00000000: ae55 b5bc 6cc5 8a3c f840 aa3b

exp_avg_sq f4 [3]
0.003159202 0.0025571443 0.0019606252
00000000: 9d0a 4f3b c395 273b d57d 003b
