Config/results/BallCatcher_01/BoxBehavior/BoxBehavior-2241900.onnx (onnx, 23715 bytes, 4 tensors)

distribution.branches.0.bias f4 [3]
000000 8e 47 8f 3d a7 c7 2e bd cb 2d 6c 3d
       0.0699607 -0.042670872 0.05766086

distribution.branches.0.weight f4 [3, 64]
000000 7b 38 2f be e8 ac 88 bd c0 b9 b1 3d 44 76 9b 3c
       -0.1711139 -0.06673604 0.08678007 0.018977292
000010 36 75 2c 3e 4b 07 66 be 70 15 61 3e 1d 2a 23 bd
       0.16841587 -0.2246372 0.21980834 -0.039835084
000020 80 69 13 be e7 e8 38 3e 28 15 7b be a3 d2 af bc
       -0.14395714 0.18057595 -0.24519789 -0.021462744
000030 4c 9a e8 bd cb 12 04 3e 3f a5 14 3d 56 b6 c7 bd
       -0.11357555 0.12897794 0.036290403 -0.09751575
000040 f9 4d 1d 3e 88 c5 65 bd 7a 32 7e be 9f 4f ca bd
       0.15361775 -0.056096584 -0.24823943 -0.09878468
000050 88 c7 fd bb 2a 77 6a 3d 38 2a f1 3d ed 86 13 be
       -0.0077447332 0.05724255 0.11775631 -0.14406939
000060 61 5d e6 bd 3a e2 0d 3e 5e 16 a3 3d ea a1 05 3e
       -0.11248279 0.1385583 0.079632506 0.13050047
000070 f4 6b af bc d4 c0 2b 3d 36 8d b5 3d c2 fd 1b 3e
       -0.02141378 0.041931942 0.088648245 0.1523352
000080 14 b0 20 bd 2a 10 21 3e b2 56 4f be 5a 3c d7 bd
       -0.03923042 0.15728822 -0.20247915 -0.10509558
000090 f6 e7 05 3d 37 00 0f be 6c f1 e8 bb f6 19 97 bd
       0.03269192 -0.13964926 -0.007108858 -0.073779985
0000a0 34 22 0e be e5 3a 2d bd 52 1c 09 bd 6b 8e 40 bd
       -0.13880235 -0.042292494 -0.033474274 -0.04701082
0000b0 2d 9d db bd e7 90 aa bd e8 a3 8a bc ec 6c 25 3e
       -0.10723338 -0.08328419 -0.01692386 0.16154832
0000c0 c7 90 46 be ef 9a 4d 3d dc e6 52 3e c2 55 0e be
       -0.19391166 0.050196584 0.20595878 -0.13899902
0000d0 b2 36 e1 3d 50 6f 4f bd 34 bc 9c 3c 71 53 ae bd
       0.109967604 -0.050643265 0.019132711 -0.08512009
0000e0 17 58 0c 3e ee 1d 8f 3d 21 b4 35 be 12 54 be bd
       0.13705479 0.069881305 -0.17744495 -0.09293379
0000f0 33 69 0f 3e d7 cb 7c bd 87 c0 ce bd 69 b2 77 be
       0.14004974 -0.061717834 -0.100953154 -0.24189152
000100 19 6a 1e 3e 63 a9 d6 3c 57 2f 05 3d ca 53 26 bd
       0.1547016 0.026203817 0.03251585 -0.04060725
000110 96 30 fd 3d 59 15 ee 3d 59 22 14 3e df f2 82 3d
       0.12362783 0.116251655 0.14466228 0.0639398
000120 6c 39 24 3d 3c 05 9e 3d 4b d2 cb 3d ae 1f 0a bd
       0.040093824 0.07715842 0.099522196 -0.03372162
000130 60 b7 34 3e 57 df 21 3e ed e2 63 bc da 00 8f 3d
       0.17648077 0.15807854 -0.013909084 0.06982584
000140 0e 3b 97 3b 4e 2c 00 3e cc 4d d6 3d d5 90 0c 3e
       0.004615194 0.12516901 0.10464057 0.13727124
000150 df 67 c5 3d 10 a3 11 3d 93 46 0e be 39 e2 05 3e
       0.096389525 0.0355559 -0.1389411 0.13074578
000160 f7 31 1c 3e 3a dd 7a 3d 89 4b 85 3d 28 fe 06 bd
       0.15253435 0.061246134 0.06508548 -0.032957226
000170 d0 10 9d 3d 4a e7 8d bd 5f 04 a0 bd 31 f9 15 be
       0.07669222 -0.069288805 -0.07813334 -0.1464584
000180 13 f0 08 3d 2c eb b0 3d f3 cc 09 3e 11 37 cc 3d
       0.033432078 0.086386055 0.13457088 0.099714406
000190 63 ea 68 3d 33 e1 52 3e ee 60 b8 3d 4d bf 02 3e
       0.056864154 0.20593719 0.09002863 0.12768288
0001a0 2c f0 82 bb 24 4f f0 3c f0 85 59 bd e9 bd 0b 3e
       -0.003995916 0.029334612 -0.05310625 0.13646664
0001b0 45 e0 39 3c 3e 7a a9 3d 79 7f 6d 3c a3 ba 57 bc
       0.011344974 0.08275269 0.014495724 -0.013167056
0001c0 9b cf b0 3c 9c 3e ba 3c ba 4b 04 3e 6e 67 eb 3d
       0.021583369 0.022734933 0.12919512 0.11494337
0001d0 e5 65 49 bc 85 40 d6 3d 02 17 41 bc 20 ae e1 3d
       -0.01229236 0.10461525 -0.011785271 0.1101954
0001e0 c6 14 ec 3d 4a c7 cb 3d e3 61 dd 3d ba 65 b9 3d
       0.115274 0.09950121 0.10809686 0.09052606
0001f0 48 e3 19 3d b2 be 1f bd b6 44 83 3d c8 93 d0 3d
       0.037570268 -0.03900022 0.0640959 0.10184437
000200 cd 1d 62 3c 55 b3 30 3e 7c 95 f1 bd 9e e9 07 3e
       0.01380105 0.1725591 -0.1179609 0.13272712
000210 2c 56 58 be 10 62 eb 3d 72 c0 8c be 25 b0 71 bd
       -0.21126622 0.11493313 -0.27490574 -0.059005875
000220 ba 30 24 3e 6a 2e 23 bd d5 06 f0 3d 9b c5 86 3d
       0.16034213 -0.039839186 0.11720053 0.06580659
000230 56 5e bd bd 25 5a 4a be 75 50 d8 3d 0d 38 21 bc
       -0.09246509 -0.1976095 0.10562221 -0.009840024
000240 ee e5 85 bd 6b 00 09 be 00 a1 4a 3e 95 7d c7 bd
       -0.06537996 -0.13379066 0.19787979 -0.0974075
000250 3b d0 92 bd d0 c0 66 3d f3 53 0b 3e af b1 59 bd
       -0.07168623 0.056336224 0.13606243 -0.053147968
000260 aa 61 cc bd b6 a0 ce bd e4 26 ff bd da 3b 5e 3d
       -0.099795654 -0.10089247 -0.1245859 0.054256298
000270 d9 d5 a8 bc 92 67 0d 3e 23 39 03 3e 6c ef 09 3e
       -0.020609783 0.1380904 0.12814765 0.13470238
000280 c1 e4 e9 3d 68 d1 54 bb b5 aa bc 3d 99 48 81 bd
       0.114205845 -0.0032473449 0.09212247 -0.06312675
000290 fe 1e 1f 3d 71 79 52 bd ca 08 27 be 7c ed 14 be
       0.038847916 -0.051385347 -0.16311947 -0.14543718
0002a0 b8 f6 53 3e 8b 13 8e 3d a8 ba 15 3e 90 d9 03 be
       0.20699584 0.06937321 0.14621985 -0.12875962
0002b0 fa 73 37 3e 51 ef 06 be fe 26 51 bd 65 29 30 3d
       0.17915335 -0.1317723 -0.051062576 0.043008227
0002c0 01 4b 51 3e 4d 2c 12 3d e9 7a 46 be d4 4b 68 3d
       0.20438768 0.03568678 -0.19382824 0.05671294
0002d0 7f cf 84 bd 3d 32 10 be bc 09 dc 3d 63 72 25 bd
       -0.06484889 -0.14081664 0.10744044 -0.04039229
0002e0 32 4f 12 be 3c 1c 34 bd 6a 81 e9 3d 39 f1 3c bd
       -0.14288023 -0.04397224 0.11401637 -0.046128485
0002f0 b8 6e 30 3d 27 4e f4 3d 6a 41 41 3d fc 1f 2e 3e
       0.04307434 0.11928969 0.047181524 0.17004389

network_body.linear_encoder.seq_layers.0.bias f4 [64]
000000 08 9f 56 3b 3a 78 fc 3c 8c 73 c5 3c 96 d2 19 3d
       0.0032748599 0.030819047 0.024102949 0.037554346
000010 b2 61 67 3d 3b d3 72 3c d3 1d 3d 3d 85 39 13 be
       0.056489654 0.014820869 0.04617102 -0.1437741
000020 12 28 94 bc 93 73 87 3d 22 c2 b8 3c b2 c7 b5 3c
       -0.018085513 0.06613841 0.022553507 0.022189949
000030 e1 54 93 bd 4e 51 9e 3c 4a d1 89 3c aa ec 2a 3c
       -0.07193924 0.019325878 0.01682343 0.010432402
000040 fc 64 a5 3d 80 f0 68 bd cf dd 21 3c d6 5f 49 bd
       0.08075902 -0.056869984 0.009879543 -0.049163662
000050 3a 6f 7f 3c 88 05 07 3d be 6e d9 3d 1c 0a 77 bc
       0.015590483 0.03296426 0.106168255 -0.015078094
000060 93 a5 76 bd c8 1b da 3c 4a 07 b1 bd 1d 29 53 3d
       -0.060216498 0.026624575 -0.086439684 0.05155288
000070 98 8f 0d be 4d f7 0b 3d ae 22 fc 3c 4d 02 09 3d
       -0.13824308 0.03417139 0.030778255 0.03344946
000080 ac 6c d2 3b 12 2f 9c 3c ac fd 2e 3c 1d 0f 4d bd
       0.006421646 0.019065414 0.010680597 -0.05006324
000090 8f 3a 81 bd 80 42 b1 bc 21 4f 8e bd 7c c5 97 bd
       -0.06309997 -0.021638155 -0.069486864 -0.07410714
0000a0 42 de 58 3c 1d 8b 85 3c 42 85 0e 3d 93 59 65 bd
       0.013236584 0.016301686 0.034795053 -0.055993628
0000b0 03 e1 44 ba 94 5b af bd 28 a4 b9 bd 0c bd 1c 3d
       -0.0007510336 -0.08562389 -0.090645134 0.038266227
0000c0 58 86 f0 3b a3 7e 71 bc 1f b5 4c 3d 02 b3 61 3d
       0.007340234 -0.014739665 0.049977418 0.055102356
0000d0 6c 33 01 3c 9f c4 77 bd 98 93 32 3d 24 52 a0 bd
       0.007885795 -0.060490247 0.043597788 -0.07828167
0000e0 96 a1 55 3c 3a df 28 ba 78 66 d2 3c 8e 00 e5 bd
       0.013039013 -0.0006441955 0.025683627 -0.111817464
0000f0 7f 13 36 bb 69 2b 66 3d 2e 08 4b bb f6 bf cc 3c
       -0.0027782617 0.056193743 -0.0030980217 0.024993878

network_body.linear_encoder.seq_layers.0.weight f4 [64, 82]
000000 b0 4a 71 3e 1b 61 5f be 68 44 48 be 10 ac 87 bd
       0.23563647 -0.21814387 -0.19557345 -0.06624615
000010 e5 c9 85 be 56 a6 c6 bd 73 ab dd 3e e8 01 7e be
       -0.26130596 -0.09699695 0.43294868 -0.24805415
000020 e0 f4 bc be 76 84 9e bd ac c7 9a be d9 23 88 be
       -0.36905575 -0.07740109 -0.30230463 -0.2658985
000030 f5 c4 29 3e ee cf 9b be 8b cd 84 3d 1e a8 d3 3e
       0.1657904 -0.30432075 0.06484517 0.413392
000040 fe be 68 be 92 36 85 be d3 7b 88 3e b5 c9 c5 bd
       -0.22729108 -0.26018196 0.2665697 -0.09657613
000050 75 aa 20 3c 61 96 bc 3e 16 92 a1 be af 67 ab be
       0.009806265 0.3683348 -0.31556767 -0.33477542
000060 64 68 be 3e 07 23 df bc 35 d1 c0 bd 32 da 7d 3e
       0.3718902 -0.027238382 -0.09414903 0.24790266
000070 8c 83 89 be f7 89 ae be 71 76 36 3e 17 43 95 3e
       -0.26858175 -0.34089634 0.1781862 0.29152748
000080 bb eb aa bd 42 87 ff 3e 2c 18 ac 3c a6 32 bb bd
       -0.08345743 0.4990788 0.02100762 -0.0914052
000090 2f 44 b9 3e f3 28 22 be 6e 1a 0e 3c a2 2b 7c be
       0.36184832 -0.15835933 0.0086732935 -0.2462602
0000a0 0f 64 86 3e 11 cd 5d bc b5 f1 25 be aa 17 a2 bd
       0.26248214 -0.013537661 -0.16205485 -0.0791467
0000b0 11 43 ff 3d 9a a6 82 3d 86 9c 81 3d ea e6 dd be
       0.12463964 0.06379433 0.063286826 -0.43340236
0000c0 e6 44 7c 3e 2d 11 37 3e ac af 1a bd 1b 1f 43 3e
       0.24635658 0.17877646 -0.03776519 0.19054835
0000d0 7c 8e 08 3e 9f de 1b be 53 35 61 be c6 a9 4e 3c
       0.13335603 -0.15221642 -0.21992998 0.012613719
0000e0 7d 96 ee 3d 5b 07 88 3d df d0 07 3e a0 21 78 3e
       0.11649797 0.06642028 0.13263272 0.24231577
0000f0 ae 02 95 3e a4 67 2e 3e 16 f7 05 bd b4 c3 5a 3e
       0.29103607 0.17031723 -0.032706343 0.21363717
000100 89 52 5d be 65 e6 d7 bd fd c1 f4 3d df d2 f8 3d
       -0.21613516 -0.10541991 0.11951063 0.121495955
000110 ee 99 d7 bd 1f cf dd 3e 87 a5 34 be 79 65 5c bd
       -0.10527407 0.43322083 -0.17641269 -0.05380771
000120 fe 53 75 bd 74 84 a9 bd ff f8 19 3e 74 65 15 3e
       -0.059894554 -0.082772166 0.1503639 0.14589483
000130 20 5d 0c 3d ff 01 75 bd 75 84 15 bd e5 f6 c2 3c
       0.0342685 -0.059816357 -0.036503274 0.02379937
000140 be 7b e0 3d d9 1a 66 be 7c bd 09 be 98 9f 48 ba
       0.10961102 -0.22471179 -0.13451189 -0.0007653176
000150 8d 89 d9 bd b7 a0 20 bd e1 d6 dd 3c 83 ea c0 3d
       -0.10621939 -0.03921577 0.027080001 0.094197296
000160 1e a3 97 bd 50 6e 36 3d 95 e0 2d 3c bf 66 cc 3d
       -0.07404159 0.044538796 0.010612627 0.09980535
000170 9e eb 89 be 74 50 88 be 36 ea 4f 3e a8 6c b6 3d
       -0.26937574 -0.2662388 0.20304188 0.08907443
000180 c2 8f f4 bd 3d 33 d2 3e c8 39 c8 3b 25 ee e5 3d
       -0.11941482 0.41054717 0.0061104037 0.11227063
000190 77 47 a5 3e e7 ee 1d be aa 1f 2c bd 27 ea f4 3e
       0.32281086 -0.15423165 -0.042022385 0.47834894
0001a0 ff 02 38 3b a7 e4 a4 bd a2 1b 9f 3e fa 2f bf bd
       0.0028077958 -0.080514245 0.3107577 -0.09335323
0001b0 06 c5 70 3d c8 c1 9a 3e c8 e0 bc bd 22 f1 fd bd
       0.058781646 0.30225968 -0.09222561 -0.12399508
0001c0 0b 2a 15 3f 89 da 21 bd 8a 66 c2 bd 11 90 c6 3e
       0.5826728 -0.039515052 -0.09492214 0.3878179
0001d0 2f 8b 12 be 38 7b f0 3d 54 60 02 3f cb ae 6a bd
       -0.14310907 0.11742252 0.50928235 -0.0572956
0001e0 92 cb d9 bd b4 df 32 3e ab 54 8e be 74 6e cd 3c
       -0.10634531 0.17468148 -0.27798972 0.025077082
0001f0 e9 54 cb 3e d9 6b 3d 3c e2 0f 75 bd df 67 e2 3c
       0.3971322 0.011561357 -0.0598296 0.02763742
000200 c0 76 b6 3d bc c9 03 be d3 74 a9 3e e4 34 8b 3e
       0.089093685 -0.12869924 0.33096942 0.2718879
000210 c4 23 a7 3d e5 24 27 be b0 22 31 3e 09 29 07 3e
       0.081611186 -0.16322668 0.17298388 0.13199247
000220 88 fa 6a 3e 44 f9 04 be 63 b6 d8 bd b9 42 65 be
       0.22947133 -0.12985712 -0.105816625 -0.22388734
000230 b8 0a a6 3d 96 2e 5b 3e 3f 96 e8 bd 8f 93 a8 3d
       0.08107513 0.2140449 -0.11356782 0.082312696
000240 60 5b 7a 3d d1 db be 3d 8a ec e6 3b d6 51 11 be
       0.0611223 0.093192704 0.0070472406 -0.14191374
000250 8e 3a ca 3d 16 10 97 3c ab 5a 83 bb ae f2 bc 3e
       0.0987445 0.018440288 -0.004008611 0.369039
000260 6d 60 a8 3d f9 08 b4 bd 0d 64 91 3d 10 9e dd bd
       0.08221517 -0.08790774 0.07099161 -0.10821164
000270 24 46 db 3d 67 0d fd 3e c8 73 91 3d b5 15 31 3e
       0.10706738 0.49424288 0.07102162 0.17293437
000280 a5 d6 b5 3e e4 05 06 3e c1 c0 97 3d b7 ee 93 3c
       0.35515323 0.13088185 0.07409812 0.018058164
000290 64 b7 cb 3e bb 33 54 be 9e 48 19 be 6f 1c 87 3e
       0.39788353 -0.20722859 -0.14969108 0.2638888
0002a0 0e 9f 0d be 09 6c b5 3d a6 3b 34 bd e8 76 c0 bd
       -0.13830206 0.08858497 -0.044002198 -0.093976796
0002b0 86 19 b3 bd 9a d8 2d be c5 01 53 3d 8e eb 98 3e
       -0.087451026 -0.16977158 0.05151536 0.29867214
0002c0 5f 3e 10 bf f0 d1 a6 3d 3e 7c 4d 3e ed c2 1f be
       -0.5634517 0.08145511 0.20066926 -0.15601702
0002d0 f9 ab b8 3d f4 8d c9 3d 53 0f 03 be dd ae 30 bc
       0.09017176 0.098415285 -0.12798814 -0.010783878
0002e0 94 46 27 3e 98 5e 1c be b4 c9 8b 3c 70 3b 38 3d
       0.16335517 -0.1527046 0.017063953 0.04497856
0002f0 fb 03 8b bd be 76 f1 3d 8e 3e fb bd 64 a4 c1 bd
       -0.067878686 0.117902264 -0.12267791 -0.09455183
000300 1b dc ce 3d 5f 6b f5 bc 32 32 ac be c0 46 ad 3c
       0.101005755 -0.029958425 -0.33632046 0.0211519
000310 62 f9 09 bc 7e c5 8f be 15 04 54 bd 2a a0 d2 bc
       -0.008421274 -0.28080362 -0.051761705 -0.025711138
000320 eb a9 14 be 46 9a cb bd 79 0a 8e bd 6f fe 54 3e
       -0.14517944 -0.09941535 -0.06935591 0.20800184
000330 84 3b 0f be 2f 5c f7 bd a2 f2 28 3d 0b e4 1a bd
       -0.13987547 -0.120781295 0.041247018 -0.037815135
000340 b9 5a 8f bd c1 56 c7 3e 82 cd 87 be fa ff ab bd
       -0.06999726 0.38933375 -0.26523978 -0.08398433
000350 e4 f9 6c be a5 c6 3b 3e b5 ca 82 3d 10 e1 61 ba
       -0.231422 0.18337496 0.063863195 -0.0008616606
000360 3d 2c 9c bc 3d 75 67 3c 1f 13 6f be 35 7a b5 bc
       -0.019064063 0.014127073 -0.23347138 -0.022153
000370 74 c5 1f bd fa 3f 7a bc a3 61 45 3e 5e 30 8b bd
       -0.039006665 -0.015274042 0.19275527 -0.06796335
000380 8c 39 b2 bd 49 f2 d7 3d 9a cf 24 be 57 d5 92 be
       -0.087023824 0.10544259 -0.16094819 -0.2867839
000390 0f 5e 09 be ce e7 42 3e 63 a7 6b 3d c5 1a 33 3c
       -0.13414787 0.19033739 0.05753268 0.010931675
0003a0 da 16 80 3d ca 6e 98 be 66 e9 28 bd d3 b7 a8 bd
       0.062543586 -0.29772025 -0.04123821 -0.08238187
0003b0 c5 3a 76 3e 0e 37 70 bd cf 0b 0f 3e 70 af 58 3d
       0.24045856 -0.058646254 0.13969348 0.052901685
0003c0 7f e1 48 3d d4 cc 36 bd db a2 d2 bd 18 a1 a2 3c
       0.049043175 -0.044628933 -0.102849685 0.019852206
0003d0 65 1f 43 3e bc b8 1c 3e 0b fd c7 bd b0 2a 29 3e
       0.19054945 0.15304846 -0.09765061 0.1652019
0003e0 23 f9 11 3d 57 65 8b be b4 42 33 3e d0 e1 c1 3c
       0.035637986 -0.27225754 0.17505914 0.023667246
0003f0 f4 81 4e 3e 43 c1 39 be b8 70 a2 bd da 9b 95 3e
       0.2016676 -0.1814013 -0.07931656 0.29220468
