Config/results/BallCatcher_04/BoxBehavior/BoxBehavior-205860.onnx (onnx, 36863 bytes, 6 tensors)

distribution.branches.0.bias f4 [3]
00000000: 67ec 5c3c 6626 adbc 5801 113c
0.013484097 -0.021136474 0.008850418

distribution.branches.0.weight f4 [3, 64]
00000000: 21e2 a1bc 098b b7bd 7447 c5ba d78e 833c
00000010: db19 5ebd 53ea 14bd 9338 b5bd f284 5dbd
00000020: 1ad3 203d c42a 413c a18b bcbc 8a43 1b3d
00000030: 232c b5bc 6e18 30bb 48de 62bd 7ad2 283c
00000040: 52cb 50bd c2c5 c23d a616 10bd c6eb 2cbc
00000050: 9ec0 5ebd 9efe e1bb 4634 8c3d 46a4 3abd
00000060: 0771 4cbd b7de fabb 2fd6 b9bc bf78 a33c
00000070: 0053 0abd 7256 053c c613 9c3c 552c d13d
00000080: c266 0abc b11b 11bd 1ccd 72bd 4b08 c83a
00000090: 972c 6cbd 8246 2fbc 33cf f63c ced0 97bd
000000a0: 7e7b 3dbd 5af1 ecbc 74bd 8a3d 0716 6fbd
000000b0: 2628 8bbd 63e1 06bc ec57 933d c9ab 91bb
000000c0: a7c7 6cbc caa2 0ebd 52a8 703d 0fed 3a3c
000000d0: f505 55bd 2cbb 47bc 3efb 783b 97c6 47bc
000000e0: 3bd0 a73c 9a7a 64bd 820a 0cbc 78a6 453d
000000f0: 9bad 243c 50c4 b9bd 9c15 4dbc 0cf8 233d
00000100: 83ea 2e3d 19df 9bbd 9564 2d3d 6ff9 573d
00000110: 5bd0 9a3c 65e4 32bd a10c abbc c8c6 7b3c
00000120: 28d9 0e3c b29d 3fbc dc60 3fbd 8b16 a0bb
00000130: 8515 1e3d d784 5fbc 05b2 59bd 147b 633d
00000140: 386f 96bd 346c f0bc df0d 843c c0a0 ee3c
00000150: d379 b2bb 4f52 3dbd a9c4 d8bb ef67 8dbd
00000160: 8d1e 1dba 5013 6c3d 727d 493d a2e5 0e3d
00000170: e5a4 563d 1c22 8cbd 94e1 63bd 9aa7 50bb
00000180: b3d7 c03c 1fcb a2bd 557c 563d cdbd 30bc
00000190: 9d6c 8ebd 6493 37bd 90e6 cfbc 87d1 1fbc
000001a0: f862 a1bd 6666 433d d95d e33b 5bbe 21bd
000001b0: 4e6a 883d 26df 47bd 256f 33bd 4a3e dabc
000001c0: 4e0a 503d 1530 bdbc 7904 babc 5bd6 b9bc
000001d0: 77dd aabd 27c8 643d 24fc 23bd 884e 2cbd
000001e0: 6de0 ab3c 6299 113c 9b42 613d 9c8e 123c
000001f0: 4df0 c1bd 8a6a 44bd 05f5 be3c d69d 6f3d
00000200: 0cff 43bc 5716 7e3d 7618 87bc db5b 8bbd
00000210: 8488 ba3a 3ba0 5e3d 9613 8c3d b160 103c
00000220: 74df 50bd bb25 943c 618a 443d 63b0 24bd
00000230: 68e2 a23b 9ac7 3c3b 58e1 903d 5b8b 11bd
00000240: 35a2 b13d 2ce0 2ebd b611 f23c ac1c cabc
00000250: b973 443d e9d9 8d3d f6b2 89bd 8290 9b3d
00000260: 27c1 353d 5b17 4fbd 136f 06bc 7813 35bd
00000270: 59ed b63b 5159 e73d 418c f13c a1bb 94bd
00000280: 1762 00bd 28dc bd3d ead2 0a3c d9a0 5dbc
00000290: 0280 8f3d d5f0 fa3c 064f e13c a55e 233d
000002a0: 3fb3 c03d 6f38 e63c 6a54 58bd d60d a73d
000002b0: d524 17ba 0944 213d 97e5 e3bc 3e96 0b3d
000002c0: cc55 82bc a88b 383d 546b 463c 7104 6f3c
000002d0: f639 833d 875e 15bd e62a 3f3d 8ad2 913c
000002e0: 21bc 6a3c 384c 353d c0fe 71bc 5579 1dbc
000002f0: b5ca b83d 64cf ac3d 7755 2cbd b073 c4bd
-0.019761147 -0.08962066 -0.0015051202 0.016059322 -0.054223876 -0.03635628 -0.08848681 -0.054081865
0.039263822 0.011789981 -0.023015799 0.037906207 -0.022115773 -0.002687003 -0.055387765 0.010304088
-0.05097515 0.095103756 -0.03517785 -0.01055426 -0.054382913 -0.006896808 0.06845908 -0.04556682
-0.04991248 -0.007655944 -0.022685139 0.019955037 -0.03377056 0.008138286 0.019052397 0.10213534
-0.008447351 -0.0354268 -0.05927764 0.001526126 -0.05765971 -0.010697963 0.030128097 -0.07412873
-0.04626035 -0.02892368 0.067744166 -0.058370616 -0.06794767 -0.008232447 0.07194504 -0.004445527
-0.014451898 -0.034823216 0.058754273 0.011409058 -0.052007634 -0.012190621 0.003799155 -0.012193344
0.020485034 -0.055780984 -0.008547427 0.04825446 0.010051156 -0.09070647 -0.012517359 0.040031478
0.042704117 -0.07610912 0.04233225 0.052728113 0.01889818 -0.043674845 -0.020880045 0.015367217
0.008718766 -0.011695312 -0.04672323 -0.0048855 0.03859474 -0.013642511 -0.05314829 0.0555373
-0.07345432 -0.02934847 0.016119896 0.029129386 -0.0054466515 -0.046221074 -0.0066152406 -0.069045894
-0.0005993627 0.057635605 0.0491919 0.034886964 0.05240335 -0.06842443 -0.05563505 -0.003183818
0.023540353 -0.079488985 0.052364666 -0.0107874395 -0.0695431 -0.044818297 -0.025378495 -0.009754545
-0.07880205 0.047705077 0.0069386777 -0.039488178 0.06660901 -0.048796795 -0.043807168 -0.02664103
0.050791077 -0.023094216 -0.02270721 -0.02268522 -0.08343022 0.055854943 -0.040035382 -0.04206708
0.020981038 0.008886667 0.05499516 0.008945134 -0.09469662 -0.047953166 0.023310194 0.058500133
-0.011962663 0.062033024 -0.016491156 -0.068046294 0.0014231359 0.054352026 0.06839673 0.0088121155
-0.05099435 0.018084398 0.04798353 -0.040207278 0.0049708374 0.0028805495 0.07074231 -0.03553329
0.08673517 -0.042694256 0.02954946 -0.024671875 0.047961924 0.06926329 -0.06723587 0.07595922
0.044373658 -0.050559383 -0.008205193 -0.04420802 0.0055824933 0.11296333 0.029485824 -0.0726235
-0.031343546 0.09270507 0.008473137 -0.013527119 0.070068374 0.030632416 0.027503502 0.039885182
0.094091885 0.028103082 -0.05281488 0.08156936 -0.0005765681 0.039371524 -0.027819438 0.03407883
-0.015910052 0.04505506 0.01211055 0.014588461 0.064075395 -0.0364671 0.04667177 0.017800588
0.01432708 0.04426214 -0.01477021 -0.009611447 0.09023038 0.08437994 -0.042073693 -0.09592378

network_body.linear_encoder.seq_layers.0.bias f4 [64]
00000000: a435 723d 1be0 b5bc aaa2 a63c 7b20 163c
00000010: 51af 4b3c 35fd 523b ffbe 6f3b f650 2c3b
00000020: 0f22 d53b decf 37bd 07f3 a13c a270 e33c
00000030: 88a2 25bd 599a c4bd a571 9b3c 3df1 913a
00000040: e360 c7bb b62a ccbc 6c13 93bc 78b3 283d
00000050: d446 37bd fb6c cb3c 093a 273c 608e a83c
00000060: fcf8 fb3c bfa7 82bd f4cb 743c 067e 0dbe
00000070: ed15 cebb 24c9 df3b 0daa af3a 91c6 12be
00000080: 0b35 3fbd 6ead f33a beb3 c93c 7ed2 913c
00000090: ae52 ac3b cb80 94bb e554 763b 639e 3cb9
000000a0: c9f7 5b3c 1fb0 3c3c f574 92bd ce0e 03bd
000000b0: f0d8 8f3c 1fdc 05bd dccb c13c 2fad fbbb
000000c0: 3a6a 0f3b 2496 2e3d 7cf5 fbbc 3fbf 533c
000000d0: 2388 673c 9290 ef3a ad28 eb3b 55be 80bb
000000e0: 34cf c1bd 688c 543d 1a9c f5bc cec8 b4bc
000000f0: d130 943c 9165 36bc 36a0 e73c 1a27 1fbd
0.059133187 -0.022201588 0.020341236 0.009163017 0.012431935 0.003219438 0.0036582348 0.0026293374
0.0065043042 -0.044875972 0.019769205 0.027763668 -0.040438205 -0.09599752 0.018975088 0.0011134517
-0.006084548 -0.02492271 -0.017953597 0.04118678 -0.04474528 0.02483224 0.010206708 0.020575702
0.030758373 -0.06379651 0.014941204 -0.13817605 -0.006289235 0.0068293978 0.001340212 -0.1433356
-0.046681445 0.0018591115 0.02462184 0.017800566 0.0052588796 -0.004531955 0.0037587222 -0.00017988081
0.013425776 0.0115166 -0.07151214 -0.03199654 0.017559499 -0.032680627 0.023656778 -0.007680557
0.0021883384 0.042623654 -0.030756705 0.012924015 0.014131579 0.0018277338 0.00717648 -0.0039289393
-0.09463349 0.051891714 -0.029981662 -0.022068407 0.018089684 -0.011132614 0.028274637 -0.03885565

network_body.linear_encoder.seq_layers.0.weight f4 [64, 67]
00000000: 5af9 a7bc 22aa 16be 8b9a 0dbe 721a 883d
00000010: 2680 ecbd 5b19 9dbe ee67 2c3e 087b 68be
00000020: c98a 99bd 7e15 343e a760 233c b15f 54be
00000030: d160 103d 6dda 453e 26b8 20be 03ec 89bd
00000040: fc01 ffbd d48e a3bd 6f64 e63d 7f75 08be
00000050: adb0 63bd 0244 d6bc f58e d7bd dd5c c3bd
00000060: aa1f 503e 1d22 a43d b603 7dbc 91e9 643e
00000070: 4833 f13d 01f4 3e3e af74 413e 31ce 153c
00000080: ac41 a33d c0c8 423d 8842 a9bd 7759 183e
00000090: ebb4 cf3d 900e 393d 4674 ed3c ff9b 8d3e
000000a0: c11b 053e 9e80 9ebd 606a 213e 1cf1 dabc
000000b0: ec08 893e 8938 5a3e 3a88 a53d b871 643e
000000c0: 3464 fbbc 822d 343e fb1a b4bd a904 c9bd
000000d0: 4fe6 0c3e a188 44bd 140b 983c e72e 9a3d
000000e0: 93ff fbbd 122e 5c3c 044e 54be f4e8 82be
000000f0: bc19 223e 3838 e23c b24d 113e b7cd eb3d
00000100: 6da8 efbd 71bb 9a3d 670b f43d 7118 983d
00000110: 64b2 34be 9ebe a63b 497f 7e3e eced 98bd
00000120: 9e12 60bd 110c aa3d 1d67 12be 30d5 9ebd
00000130: 0e9a 013e 063c e33d a679 0b3e 65b9 dc3d
00000140: 0616 b8bd 7e28 d63d 69a8 1c3e 4955 063c
00000150: 4227 fdbd b038 193d 9f84 893d 413b 11be
00000160: 3663 f3bd 5e6f dc3d 5dba f1bc 7e8a e83c
00000170: f392 fabc f969 9abd 7bcf 883e 977b 71bc
00000180: 8f1a 393d d915 29be 5e73 163d d63d 8d3e
00000190: 137a 663c 15bd a53e f1c2 2cbe 3a37 56bd
000001a0: 2c48 bdbd 1c03 20be 2134 6abd cd9f 2a3d
000001b0: be19 f33c 8ae9 5f3e 6744 05be 519a 3bbd
000001c0: 5cf1 863d 2459 eabd 512d 833d e82a 3a3e
000001d0: 5995 5b3d 4b61 bf3d 9d80 413c d0fc ebbd
000001e0: 8a09 b43d 2250 a13e 2311 aebd 5e97 333e
000001f0: 4e60 163e f513 433e 41d9 2f3d 12a0 8abd
00000200: 28db 493e 40da e3bd e87f d9bd c7fa 633d
00000210: 45a6 58bb 5369 abbc a448 593d 40e5 453c
00000220: c35e b5bd dc1c 443e 0bd7 dcbc ab9b 033e
00000230: 0a64 a43d fd27 243d 0d9c 5b3e c101 dd3d
00000240: 028e 0a3e ab7a 5e3d b94a 4b3d 115d ad3d
00000250: 8588 693d ef68 ea3d 9ff4 52bc f9e8 ff3c
00000260: 9968 953d 1a55 413d 7207 8fbd 717c 25bd
00000270: 3eb6 43bc 5ea6 79bd c4f8 7fbd cfed 36be
00000280: 79ee 6d3d 23d2 6fbe 410b da3d 488b 1fbd
00000290: ca6a 9c3d d672 363e 9e6c 063e 6aa3 393e
000002a0: 2456 863d a115 e43c 6256 14be e671 833e
000002b0: db06 4a3e 420b 8f3e c65b 55be ebde b3be
000002c0: 0588 553e 9c7f d93d 2aeb 163d be61 6e3d
000002d0: 39f6 e4bd dba0 1d3d dc38 07be 2909 723e
000002e0: d091 4e3e 31a6 963c dd57 6dbd 3b28 18be
000002f0: 88ec 61be 87ba 683e 5187 923d 587f fb3d
00000300: 8afd 643e ad46 d73d 626c b1bd ebe2 91bd
00000310: 60b9 8f3d 23f6 c73e 6d17 463e 4fd6 debd
00000320: 2039 50bd 465e 8c3e c9d2 87be 274f 503b
00000330: 237e 823e 5a05 e7bd 9c54 2ebe 137e 4b3e
00000340: ea48 a2bc c423 c13b b07f a53c 61ea 633e
00000350: 644b a3bd daeb 503d 45be febd cd75 1c3e
00000360: 437c 76bd 8860 79be c333 e1bd 31ff 983d
00000370: 5b52 b23d 145a 3c3d a1f0 01be b67d f6bd
00000380: c3bf f8bc 4071 0bbd 9996 f5bd afe6 6abc
00000390: f86c 22bc 50c8 02be ad74 e7bc 6608 d03c
000003a0: 589a 7f3c fbe2 ec3d e2ee 91be 1e4d 5d3d
000003b0: b5e8 853c 461c 93bd 7f98 243e aae6 2a3d
000003c0: 8ae4 4dbd 5e90 88bd 2ef3 853e f2f8 7d3d
000003d0: 91c7 3d3e c81c e2bd c947 ccbc 7c89 a33d
000003e0: 2b4f 4b3e 5fdb f33d d53c 9a3d 0a54 34bd
000003f0: b5eb 28bd 9abf 8f3e 5ffd e73d 4310 6dbe
-0.020504642 -0.14713338 -0.13828485 0.06645669 -0.1154788 -0.30683407 0.16836521 -0.22703183
-0.07497174 0.17586324 0.009971774 -0.20739628 0.03524858 0.19321604 -0.15695247 -0.06734469
-0.1245155 -0.07986227 0.11249625 -0.13326071 -0.055588413 -0.026155476 -0.10525314 -0.09539197
0.20324579 0.08014319 -0.015442779 0.22354724 0.11777359 0.18647768 0.18892168 0.009143398
0.0797151 0.04755473 -0.08264643 0.14877878 0.10141929 0.045179904 0.028986108 0.27658078
0.12998869 -0.077393755 0.15763235 -0.026726298 0.2676462 0.21310629 0.08082624 0.22309005
-0.030687429 0.17595485 -0.087942086 -0.09815342 0.13759731 -0.047981862 0.01855997 0.07528477
-0.12304606 0.013438718 -0.20732886 -0.25568354 0.1583013 0.027614698 0.14189795 0.11513846
-0.117020465 0.07555283 0.11916237 0.07426537 -0.17646176 0.0050886413 0.24853243 -0.07467255
-0.054705255 0.08303083 -0.14297147 -0.07755506 0.12656423 0.11095433 0.13620624 0.10777549
-0.08988576 0.10456942 0.15298618 0.0081990445 -0.123610035 0.037407577 0.067147486 -0.1418276
-0.11884157 0.10763429 -0.02950781 0.02838635 -0.030587649 -0.07539744 0.26720795 -0.014738939
0.045191344 -0.1651224 0.036731116 0.2758624 0.014067191 0.3237082 -0.16871239 -0.052298762
-0.09242281 -0.15626186 -0.05717862 0.041656304 0.02967536 0.21866432 -0.13014375 -0.045801464
0.065890044 -0.114427835 0.06405128 0.1818043 0.053609226 0.09344729 0.011810449 -0.115228295
0.08790882 0.3150645 -0.08499362 0.17538211 0.14685175 0.19050582 0.0429318 -0.06768812
0.19712508 -0.11125612 -0.10620099 0.05565908 -0.0033058089 -0.020924246 0.05304779 0.012078583
-0.08855965 0.19151634 -0.02695801 0.12852351 0.080268934 0.0400772 0.21446247 0.1079135
0.13530734 0.054316204 0.049631808 0.08465017 0.05701496 0.11445796 -0.012875705 0.03123902
0.07295341 0.0472003 -0.06983842 -0.04040188 -0.011945305 -0.060949676 -0.0624931 -0.17864154
0.058088753 -0.23420005 0.10646678 -0.03895119 0.07637556 0.17817244 0.13127372 0.18128744
0.06559399 0.027842345 -0.14486077 0.25672835 0.19729178 0.27938277 -0.2083579 -0.3513101
0.20852669 0.10620043 0.036845364 0.058198683 -0.11179776 0.03848348 -0.13205284 0.23636307
0.2017281 0.018389793 -0.05794512 -0.14859097 -0.22062886 0.22727405 0.07154716 0.12280148
0.22362342 0.10511527 -0.086632505 -0.07123359 0.07017779 0.39054975 0.19344874 -0.1088072
-0.05083573 0.27415675 -0.26528004 0.003178546 0.2548686 -0.112803176 -0.17024463 0.19872312
-0.019810159 0.005894156 0.020202488 0.22257377 -0.07973364 0.051006176 -0.12438635 0.15279312
-0.0601771 -0.2435323 -0.10996201 0.07470549 0.08707114 0.045984343 -0.12689449 -0.12035696
-0.030364877 -0.03404355 -0.11991615 -0.014337226 -0.0099136755 -0.12771726 -0.028253878 0.02539463
0.015600763 0.115667306 -0.28502566 0.054028623 0.016346315 -0.07183127 0.16073798 0.041723885
-0.05026678 -0.06668161 0.26162094 0.06200499 0.1853316 -0.11040646 -0.024936574 0.079852074
0.19854419 0.11907076 0.07531134 -0.04402546 -0.041240413 0.28075868 0.113276236 -0.23150735

network_body.linear_encoder.seq_layers.2.bias f4 [64]
00000000: 3da5 053d 9f8a f23b 5a1c e4bd 011f 163d
00000010: d6ec 32bb ee14 813b b824 a13b db82 21bd
00000020: b688 2d3d a2ee e8bb 1d8c 3b3c 281a 46bb
00000030: 4222 c6bc d1c8 9bbc 7013 543c f3a3 533b
00000040: a705 d63c 52ab 133d b97b 19bd 4430 dcbc
00000050: ca67 49bd 44e8 2b3c cfd3 173d 8e89 133b
00000060: 72fd 0abd 1808 323d b91a fc3b a34a cc3c
00000070: beac 1cbc 064b cd3c 11a1 87bc 679a 3b3d
00000080: c427 59bc a886 d63c c276 1ebc b03f 33bd
00000090: 348b 9a3b 868b c4bb ae9b bebb aec1 35bd
000000a0: d3c7 b73c f73f 91bc 9470 043d 7e73 0f3c
000000b0: b112 ebbb a208 0fbc bf37 d83c 5edb 9dbc
000000c0: a6c8 b53c 7c5b c13a 5156 fc3b e4e1 8ebc
000000d0: 0852 413c 92ea 91bc 89fc afbb 6271 813b
000000e0: 04ac a53c f316 6abd 4295 5a3d cbd8 813c
000000f0: 03c6 d33b 2f42 7b3c b278 8e3c a709 5b3d
0.032628287 0.007401779 -0.1113822 0.03665066 -0.002730181 0.0039392626 0.0049177073 -0.039431434
0.042366706 -0.0071085254 0.01144698 -0.0030227993 -0.024186257 -0.019016655 0.012944087 0.0032293766
0.026125742 0.036052056 -0.037471507 -0.026878484 -0.049171247 0.010492388 0.03706723 0.002251241
-0.03393311 0.04346475 0.0076936153 0.024937933 -0.009562669 0.025060188 -0.016556295 0.045801546
-0.01325411 0.026187256 -0.009671869 -0.04376191 0.0047163013 -0.005998078 -0.0058168983 -0.04437416
0.02243415 -0.017730696 0.032333925 0.008755563 -0.007173859 -0.008730086 0.02639377 -0.019269641
0.022190403 0.0014751996 0.0077007194 -0.017441697 0.011799343 -0.017812047 -0.0053706807 0.003950284
0.020223625 -0.057150792 0.053365 0.015850445 0.006462814 0.015335604 0.017391536 0.053476002

network_body.linear_encoder.seq_layers.2.weight f4 [64, 64]
00000000: 03d7 3d3b 1abf 0d3e 4d2d 793d 5385 6ebd
00000010: 61ea 43be 1ff6 29be 8778 453e 10c2 443e
00000020: 9312 a0bd a17a c33c 41e2 783d db13 283e
00000030: e7d1 e3bd 6cd7 bcbe 9fcb 52bb fd18 593e
00000040: c831 263d d01c 483d 99e8 1b3c ba68 4dbd
00000050: 7de3 c9bc ed0e 8e3d 3de4 81bd ef5f 373e
00000060: 7c03 153d c5de 293e 8cb1 b7bd e59c b83c
00000070: 822c e2bc cf57 a83d 3299 003c 4a94 30bd
00000080: eae7 4fbb 1baf b9be 14ad 78be 830e 3d3c
00000090: 7ea6 783d 5318 503d 05bb 0cbe 04ed 02bd
000000a0: b1fe 80bd f0fb 653c 5f1a 393c 4c58 51be
000000b0: bcbe 70bd 4d5f 99bd 0f0c 4abd a573 8cbe
000000c0: b0e7 10be 9544 4d3d 4d2c 923d c36d b7bd
000000d0: 3f14 a9bd 7cde 6a3d cae5 9e3c 653f 783d
000000e0: ee67 1fbd ac93 053e b89b 913d f22e 0d3e
000000f0: 3331 1ebe af46 c13d 73bd ca3c 56c0 853d
00000100: 7711 8b3e 892c 4bbe 57ce 8a3d 8c48 fbbd
00000110: 522d a23d be77 04be f725 babd ce48 f33d
00000120: 3b57 373e f67f b0bd 2eaf 513e 64a9 4cbe
00000130: b6ba 413e f676 063c ffde 36be 99ab d8bd
00000140: a48e 9d3c 9537 c1bd bc99 0fbe 7a30 113e
00000150: 118a ff3d 507a 2dbe 8980 313e a72e 973d
00000160: 7e1a edbd ff9c 15bd 8f4f 623e 7103 51be
00000170: 20fc 01bd 111b b6bc 5a7c 773d 4db5 223e
00000180: 9389 5a3e 2e4b 613e 794c 503e d664 3bbe
00000190: e99b 933d f491 39be f10e 46bd 1601 9ebb
000001a0: f030 493e b521 4e3e 5a80 19be bc73 1b3c
000001b0: c02d 1f3e bfaa 95bd 9463 953d 5f8b 733c
000001c0: 0588 253d 3695 b1bb 7856 183d 59e3 a03b
000001d0: 9ebb 0dbe 7d85 be3d 1655 423d d55d b6be
000001e0: 7bb4 febd 96b0 09bc 4e2d 68be a180 243e
000001f0: f774 393e 42ea 6bbe 2e03 f23c 844b 9a3b
00000200: 2c5c 52bd fece 873c 4330 04bd f461 5cbe
00000210: 59e3 c0bc ca8a b43d 078d 863d b72b 97bb
00000220: 35ef a7bd 2eb8 173e 30e4 673c 70d9 60bc
00000230: 483e 01be 9c2b f23d 0171 723e 5798 7ebd
00000240: 910d 97bc 5220 89be c1c0 86be febb 50be
00000250: ce4c 2bbc 3131 e3be b73e 9d3b d5fe 7bbd
00000260: a056 753d 576a 1f3e b069 85bc 05f9 4f3e
00000270: fedb 2b3e 29f7 e6bd 4cde 0ebd 2bdf 5b3e
00000280: aa59 e8ba 0c29 9fbe 0305 603d a4a7 d8be
00000290: baa0 8cbe 0ec3 18bc b67b d23d 503f 5c3c
000002a0: b731 e83c 69eb d63d 5e45 ca3e 10e1 f03c
000002b0: fda7 b13d 9801 49bd 4174 f0bd aa76 a0bd
000002c0: d73c 9e3e 1045 26be c76c 31be b97c 98bd
000002d0: b700 a3be 4964 32be 0c36 20bd e762 5bbe
000002e0: 4fdb e6bc 92f0 903b e887 c93d 5d5e 18be
000002f0: 42b5 36bc 778b 7fbe 24ee 253c 6c3a 04be
00000300: 0068 c9bc d2c4 5bbd 2c60 0d3e ebf7 423d
00000310: a7a9 053d 23e7 723c 8122 ba3d 8912 973c
00000320: 28d6 86bd 83cd 96bd ac26 3cbe 5973 223e
00000330: 985a 23bd c9f0 39be 54c9 5cbd 1e91 333e
00000340: cb9f 7e3e e2cc 03be 2761 f53d 2a14 97bd
00000350: 02ba 233e 2f17 173e 5aa1 a1bd 6af3 5bbe
00000360: ff1e 143e 4d1e 10be acd1 7ebd 09a8 273d
00000370: ec2d cebd 841f 0ebd 56ff 12be 6cc8 9abd
00000380: 87ee f7bd 07dc 40bc 057a 57be 34c0 2a3e
00000390: bcaa 8f3e 94bf 39bd 8030 b4bb baeb 7b3e
000003a0: 5b1e 6cbe 278a fd3c 6e47 163d 7cff 7abe
000003b0: 1375 babd dd96 233e 9274 83bd 899d 27be
000003c0: d7b2 e1bd f2b3 48bd f68d dabd 46b1 b0bc
000003d0: 10ee 0cbe bdbd bebb 9032 9ebe 99d8 b83d
000003e0: 2f64 79bc fb38 9a3e cee7 123e 7d8b 81bd
000003f0: 3603 3bbe 63e0 54bd 9c96 0b3e 7c0c 0a3e
0.0028967268 0.1384243 0.060834218 -0.058232617 -0.19132377 -0.16597794 0.19284259 0.19214654
-0.07816043 0.023862185 0.060762648 0.16413824 -0.1112402 -0.36883104 -0.0032164825 0.21200939
0.04057482 0.048855603 0.009515905 -0.050148703 -0.024644608 0.069364406 -0.06342361 0.1790769
0.036380276 0.16588886 -0.08969411 0.02253575 -0.027609114 0.08219873 0.007849025 -0.04311017
-0.0031723925 -0.36266407 -0.24284774 0.011539104 0.060705654 0.050804447 -0.13743217 -0.031964317
-0.062985785 0.014037117 0.011297791 -0.20443839 -0.05877565 -0.0748888 -0.049327906 -0.2743198
-0.14150882 0.050114233 0.07137356 -0.08956482 -0.08255815 0.057341084 0.019396681 0.060607333
-0.038917474 0.13044614 0.07109779 0.1378744 -0.15448456 0.0943731 0.02474854 0.06530826
0.27161762 -0.19841208 0.067776375 -0.122696966 0.079188004 -0.12936303 -0.090892725 0.11879121
0.1790437 -0.086181566 0.20476982 -0.19986492 0.18918881 0.008207073 -0.17858504 -0.10579605
0.019233055 -0.094344296 -0.14023489 0.14178649 0.12477506 -0.1694119 0.17334189 0.07381945
-0.115773186 -0.036526676 0.22100662 -0.20411469 -0.031734586 -0.022229703 0.060421325 0.15889473
0.21341543 0.22001335 0.20341672 -0.18300185 0.07207472 -0.18122083 -0.048354093 -0.004821907
0.19647574 0.20130046 -0.14990368 0.009488042 0.15544796 -0.07307958 0.07294384 0.014864772
0.04041292 -0.0054193987 0.037191838 0.0049099145 -0.13841102 0.093028046 0.047444426 -0.35618463
-0.12436768 -0.008403918 -0.22673532 0.16064693 0.18111025 -0.23038581 0.029542532 0.004708709
-0.051357433 0.016578194 -0.03227259 -0.21521741 -0.023545908 0.088155344 0.065698676 -0.0046133655
-0.08199922 0.14816353 0.014153525 -0.013723716 -0.12621415 0.11824724 0.2367592 -0.062157
-0.018439086 -0.2678247 -0.26318935 -0.20384213 -0.010455323 -0.44373468 0.004798736 -0.061522324
0.059897065 0.15567909 -0.016285747 0.20309837 0.16783139 -0.11277611 -0.034879968 0.2147185
-0.0017726917 -0.31086004 0.05469228 -0.423154 -0.27466375 -0.009323848 0.10277502 0.013442829
0.028344018 0.1049412 0.39506048 0.029404193 0.08674619 -0.049073786 -0.11740924 -0.078351334
0.30905792 -0.16237283 -0.17326652 -0.07445664 -0.31836483 -0.17421068 -0.039114043 -0.21424447
-0.028180746 0.0044232095 0.09840375 -0.14879747 -0.011151614 -0.24955545 0.010127578 -0.12912911
-0.024585724 -0.0536545 0.13806218 0.047599714 0.032632496 0.014825615 0.09088612 0.018441455
-0.06583816 -0.07363417 -0.18374127 0.15864314 -0.03988132 -0.18158258 -0.05390294 0.17535827
0.24865644 -0.12871125 0.11981421 -0.07376893 0.15988925 0.14754938 -0.078921035 -0.21479574
0.14464949 -0.14074059 -0.062211677 0.040931735 -0.10067353 -0.034698024 -0.14355215 -0.07557759
-0.12106042 -0.011771209 -0.2104264 0.16674882 0.28059947 -0.04534872 -0.0054989457 0.24601641
-0.23058455 0.030949665 0.036689214 -0.24511522 -0.091043614 0.15975519 -0.064187184 -0.16368689
-0.11020439 -0.048999734 -0.10671608 -0.021568906 -0.13762689 -0.0058209584 -0.3089795 0.09025688
-0.01522164 0.30121598 0.14346239 -0.063254334 -0.18262944 -0.051971804 0.13631672 0.13481325
