Config/results/BallCatcher_04/BoxBehavior/checkpoint.pt (torch, 223175 bytes, 33 tensors)

network_body.linear_encoder.seq_layers.0.weight f4 [64, 67]
-0.18480901 0.107416764 -0.13895528 -0.15826595 0.0029595199 0.14932264 -0.57129663 0.06950643
-0.21345289 -0.1485174 0.32335353 0.013024754 -0.65659875 0.055739593 0.0666151 -0.49060196
0.1806924 0.09723184 -0.25817636 0.06021678 -0.05366509 -0.15393628 0.015421527 -0.03079484
0.012911311 -0.16826202 0.02738164 0.33817527 0.13095468 0.19030981 -0.030485587 0.084404826
0.018879605 0.49744716 -0.13250692 -0.13124399 0.32695174 -0.08172376 0.021648638 0.12801047
0.015119303 -0.16433138 -0.14132196 -0.0435335 -0.14229712 0.20775557 -0.20441891 0.018103631
0.22949786 0.052125685 0.07130193 0.41445714 -0.27403992 0.029213078 0.22232743 -0.12341162
-0.06914392 0.0918947 0.10158987 -0.15818313 0.20167613 0.13430864 -0.114117935 -0.09051133
-0.10814939 -0.16162705 0.1250945 0.049518716 0.3273875 0.077878855 -0.13032733 -0.0035708465
-0.0066902796 -0.12306093 0.26585034 0.12167398 0.2703645 -0.06736546 -0.043348376 0.1651442
-0.2852234 0.18740906 0.45811743 0.029858166 0.10535986 0.25362036 -0.072158925 0.24657305
0.17291787 -0.06810135 -0.1456966 0.10300883 0.105419755 -0.08955746 0.3188962 0.06052113
0.35088077 -0.0094066225 0.23879744 0.20708442 -0.0029752105 0.06652164 0.055727527 -0.107847825
-0.100172915 -0.11737939 0.24622238 0.16430198 -0.074640766 -0.18907379 0.12674183 -0.17518194
0.042669643 0.068314694 0.2036655 0.13553001 0.29337844 0.19101332 -0.15854459 -0.16134189
0.2397649 -0.09733432 0.08919735 0.11503678 0.21057087 -0.07901987 0.10740172 -0.036743574
0.13615054 0.06319595 -0.0818166 -0.01730259 0.2638478 -0.083301924 -0.24155624 0.20277916
-0.10424982 -0.1722817 0.19607607 0.14811687 -0.26826587 0.021856459 0.21904227 -0.21878585
0.09160939 0.037184402 0.035850417 -0.16326137 -0.13364215 -0.23538041 0.1754411 0.2325551
0.42511454 -0.3060019 -0.098444134 -0.31035006 0.14307182 0.29766932 0.5081532 -0.005317805
0.1569508 -0.11538372 0.010829522 0.008697921 0.2810206 -0.05833464 -0.23485333 0.0865437
-0.020267261 0.17571561 0.20782371 0.02306041 -0.046548333 -0.1371715 0.23912878 0.04858657
0.14260052 0.064786196 -0.016052645 -0.025257133 0.3344757 -0.03235359 0.15717229 -0.008653813
-0.21538828 -0.19956021 -0.12242911 -0.20392883 0.16671397 0.17607814 0.019318178 -0.058199838
-0.04154071 0.0108378455 0.14868905 0.0764621 -0.07146709 0.06951681 0.15473288 0.14409553
-0.07881822 -0.113681115 0.012399162 0.007856821 -0.031749047 -0.07610202 0.27506 0.076282024
-0.094821155 -0.17906484 -0.25599974 0.053916425 0.08606582 0.3326129 -0.2595671 -0.05224532
-0.37444648 0.030177327 0.034381196 0.18038884 -0.13607925 -0.1320499 -0.33461273 -0.03226935
-0.13021874 -0.046773303 0.035813592 -0.12364822 -0.4566157 -0.22968076 0.024043392 0.3984042
-0.26181948 0.09474451 -0.24032512 0.18146336 0.08818206 0.29097873 0.09349024 0.09733045
-0.3996533 0.14924371 0.17619082 0.1920635 -0.022796376 -0.10001686 -0.4384743 0.28143948
0.06840245 0.29035124 -0.007859154 -0.09462124 -0.2932746 -0.020383723 0.118331805 0.30320188
00000000: 933e 3dbe 52fd db3d 4b4a 0ebe 7810 22be
00000010: 81f4 413b 09e8 183e 7f40 12bf 6359 8e3d
00000020: 6593 5abe f214 18be 988e a53e c765 553c
00000030: db16 28bf 334f 643d 7f6d 883d 2e30 fbbe
00000040: 6e07 393e 7d21 c73d b12f 84be dfa5 763d
00000050: edcf 5bbd 79a1 1dbe 93aa 7c3c 7645 fcbc
00000060: f789 533c e14c 2cbe 764f e03c 4f25 ad3e
00000070: fc18 063e 93e0 423e e9bc f9bc 70dc ac3d
00000080: 67a9 9a3c 65b1 fe3e e5af 07be d364 06be
00000090: 3866 a73e c95e a7bd 7c58 b13c 2d15 033e
000000a0: f4b6 773c 7c46 28be b4b6 10be 2f50 32bd
000000b0: 56b6 11be e0bd 543e 3153 51be 114e 943c
000000c0: 7d01 6b3e be81 553d bf06 923d ba33 d43e
000000d0: f64e 8cbe 4450 ef3c cda9 633e 3bbf fcbd
000000e0: 549b 8dbd 4a33 bc3d 5a0e d03d c2fa 21be
000000f0: 3084 4e3e 3488 093e aab6 e9bd 015e b9bd
00000100: 6d7d ddbd 9081 25be c618 003e 23d4 4a3d
00000110: 569f a73e f37e 9f3d 8774 05be dd04 6abb
00000120: 223a dbbb 5e07 fcbd 891d 883e 3530 f93d
00000130: 376d 8a3e e7f6 89bd 118e 31bd 901b 293e
00000140: cd08 92be 29e8 3f3e 5e8e ea3e 1d99 f43c
00000150: e9c6 d73d 87da 813e 0fc8 93bd a57d 7c3e
00000160: 6211 313e b878 8bbd 7d31 15be 4bf6 d23d
00000170: 50e6 d73d e769 b7bd 5d46 a33e 01e5 773d
00000180: a5a6 b33e 3c1e 1abc 5187 743e f00d 543e
00000190: c0fb 42bb 7f3c 883d 8c42 643d 52df dcbd
000001a0: 7527 cdbd 9b64 f0bd b821 7c3e c73e 283e
000001b0: 42dd 98bd 8f9c 41be 9cc8 013e e562 33be
000001c0: 5dc6 2e3d 93e8 8b3d b08d 503e 61c8 0a3e
000001d0: b335 963e ff98 433e 8359 22be cf36 25be
000001e0: ee84 753e 3757 c7bd 1aad b63d 6798 eb3d
000001f0: e49f 573e 2bd5 a1bd 6ff5 db3d 6e80 16bd
00000200: 0c6b 0b3e e16c 813d 768f a7bd 29be 8dbc
00000210: 0f17 873e 339a aabd 855a 77be 57a5 4f3e
00000220: ee80 d5bd 9d6a 30be 2ac8 483e f3ab 173e
00000230: 255a 89be 510c b33c 9e4c 603e 6609 60be
00000240: b49d bb3d ac4e 183d e3d7 123d fd2d 27be
00000250: 7dd9 08be 9007 71be d5a6 333e ed22 6e3e
00000260: 9da8 d93e 48ac 9cbe 149d c9bd 34e6 9ebe
00000270: 6b81 123e 1d68 983e 5416 023f fb40 aebb
00000280: b6b7 203e 4d4e ecbd 4f6e 313c ba81 0e3c
00000290: efe1 8f3e 4ef0 6ebd 647d 70be d33d b13d
000002a0: 8707 a6bc cbee 333e bdcf 543e 2fe9 bc3c
000002b0: 77a9 3ebd b076 0cbe 2dde 743e b602 473d
000002c0: df05 123e a0ae 843d d680 83bc 0ce8 cebc
000002d0: 6640 ab3e 3385 04bd c6f1 203e b9c8 0dbc
000002e0: bf8e 5cbe 8359 4cbe 1dbc fabd b8d2 50be
000002f0: 11b7 2a3e d44d 343e 2841 9e3c f462 6ebd
00000300: 9726 2abd 3891 313c f141 183e 2998 9c3d
00000310: 565d 92bd d45e 8e3d 4c72 1e3e c78d 133e
00000320: 726b a1bd a5d1 e8bd db25 4b3c e5b9 003c
00000330: 4a0b 02bd 60db 9bbd aad4 8c3e c039 9c3d
00000340: 9831 c2bd c65c 37be 6612 83be 78d7 5c3d
00000350: 4743 b03d 3d4c aa3e fbe5 84be 30ff 55bd
00000360: 73b7 bfbe 7136 f73c 4cd3 0c3d dab7 383e
00000370: 5c58 0bbe 1738 07be 5c52 abbe de2c 04bd
00000380: 1058 05be 5d95 3fbd 46b1 123d 473b fdbd
00000390: 88c9 e9be 6f31 6bbe a6f6 c43c a3fb cb3e
000003a0: 340d 86be 6909 c23d ca17 76be 88d1 393e
000003b0: cc98 b43d 2afb 943e d077 bf3d 3055 c73d
000003c0: 5b9f ccbe 58d3 183e 5e6b 343e 4bac 443e
000003d0: 77bf babc a4d5 ccbd b47f e0be d618 903e
000003e0: 9516 8c3d eba8 943e aec3 00bc c8c8 c1bd
000003f0: 1728 96be c4fb a6bc f257 f23d 473d 9b3e

network_body.linear_encoder.seq_layers.0.bias f4 [64]
0.0011108556 0.054981288 0.02915635 0.00076088926 -0.032124225 0.035906427 0.010400413 0.030525511
-0.0021157672 0.01852914 -0.08802975 0.018134829 -0.020869603 -0.0042201197 -0.046439327 -0.006409168
-0.0185818 0.016177632 -0.0066670915 0.0028763846 0.024573404 0.027334334 0.015136851 0.037959754
-0.043354273 -0.034946114 -0.05666477 0.002859243 0.03979159 0.011288661 0.049202494 0.014904603
0.036787618 -0.003642767 -0.0084040845 -0.0025548679 0.046873026 -0.025987789 0.06780951 -0.0051081
-0.021580087 -0.03931286 0.03369941 0.043453768 0.022199553 0.033953384 0.029472744 0.001004583
-0.052645504 0.009708369 -0.013636093 -0.01008819 0.009108545 0.00010396462 -0.0003092005 -0.0021727378
0.015053765 -5.220693e-05 0.019811692 -0.026951754 0.03038963 0.051878884 0.07288262 0.02680816
00000000: 219a 913a 0f34 613d 4cd9 ee3c 6a76 473a
00000010: b194 03bd 9e12 133d 7e66 2a3c a310 fa3c
00000020: afa8 0abb 6cca 973c f148 b4bd 7e8f 943c
00000030: bbf6 aabc ee48 8abb 2a37 3ebd ff03 d2bb
00000040: dc38 98bc f486 843c 9e77 dabb ba81 3c3b
00000050: 2a4e c93c 41ec df3c 8e00 783c b07b 1b3d
00000060: 4094 31bd a823 0fbd 5119 68bd 2362 3b3b
00000070: 82fc 223d 13f4 383c 8e88 493d 7032 743c
00000080: 9dae 163d 7dbb 6ebb 49b1 09bc 926f 27bb
00000090: eefd 3f3d 58e4 d4bc b6df 8a3d d961 a7bb
000000a0: b9c8 b0bc 8606 21bd 6408 0a3d 94fc 313d
000000b0: d6db b53c b412 0b3d d370 f13c 36ac 833a
000000c0: d0a2 57bd da0f 1f3c eb69 5fbc f048 25bc
000000d0: 023c 153c 9507 da38 301c a2b9 7e64 0ebb
000000e0: 11a4 763c c4f8 5ab8 214c a23c edc9 dcbc
000000f0: acf3 f83c f47e 543d 7c43 953d c99c db3c

network_body.linear_encoder.seq_layers.2.weight f4 [64, 64]
0.0940089 -0.2308891 0.16095236 0.037049055 0.10061034 0.02554146 0.010427169 -0.02297767
-0.05481996 0.049301703 0.24809067 -0.065985486 -0.14047408 -0.05667784 0.16000147 0.17124067
0.33392584 -0.08531468 -0.10518451 0.03943812 0.047397573 -0.23453969 0.10244892 -0.08526109
0.045689464 -0.18193346 0.31497884 0.15295377 0.054395843 -0.14699718 -0.08774134 0.20141762
-0.07865014 0.09993751 0.010319304 -0.2022333 -0.02446781 0.13619982 -0.056605037 0.18629627
-0.02953842 -0.051760003 0.017305901 -0.05437962 -0.15949254 -0.1461416 0.2475307 -0.16671734
-0.11869362 -0.13751318 0.039811693 -0.03520321 -0.011904578 0.13891774 0.14487605 -0.17785232
-0.00861742 0.2507441 -0.072491825 -0.004771747 0.02344819 -0.014777225 0.15856525 0.09405178
-0.15799457 0.070627615 0.22243902 -0.05924339 -0.1489057 0.0035190189 0.17612389 0.17298245
0.17228821 0.063309506 -0.02779921 0.13154188 0.16321589 0.0049251737 0.08786203 -0.20337214
-0.09342093 -0.108681016 0.15697965 -0.02928183 0.10632411 -0.10884776 -0.067450464 -0.2006201
0.1786946 0.06764946 -0.34142354 0.21604684 -0.034414146 0.04525131 -0.30138037 0.1463351
-0.05584148 0.36212802 0.015255654 -0.26079878 -0.109793 0.017347412 0.263549 0.28673837
-0.08311388 -0.20137033 -0.030703604 0.20503663 -0.011591554 -0.17541197 0.2357143 -0.026678052
0.10569718 0.1621977 0.06013265 -0.04567773 -0.07227338 -0.33524022 -0.110855065 -0.13005644
0.13305914 -0.29796943 0.092005365 -0.08288784 -0.39873907 0.14053445 0.05697976 -0.0369257
-0.16760728 0.020790542 0.16885081 0.17791174 0.14337997 0.33612022 -0.052897733 0.06760828
-0.029447433 -0.055438045 -0.18639381 0.077541575 -0.13380566 0.071026124 -0.19920482 -0.39895347
-0.08113696 0.034384854 0.084000856 -0.1779857 -0.025155641 -0.15499294 -0.3052028 -0.17077067
-0.08972997 -0.09933184 0.29084596 -0.038676552 -0.08988044 0.088231824 0.08777501 0.20372239
-0.2519931 0.05639146 0.036861338 -0.06286453 -0.25151932 0.058322303 0.25260863 -0.032053184
-0.19498344 -0.25632507 -0.01349826 0.051112793 -0.046434805 -0.12938654 -0.05491979 0.104331054
-0.18919452 0.035712797 0.040120177 0.3337394 -0.1927403 0.039503995 0.078739606 0.17621706
0.18380347 0.030792098 -0.102370694 0.05480749 -0.2347197 0.16922744 0.11150226 -0.037510965
-0.075258754 0.09687959 -0.0048910673 0.031253047 -0.16938165 0.0229686 0.14974561 0.36751992
-0.2639659 0.1116232 0.3593657 0.12645282 0.0632875 0.021490812 0.051856283 -0.19502015
0.13401718 0.10059212 -0.034401853 0.13839017 0.15801434 -0.1236669 -0.01673544 -0.25430292
0.07781872 0.096108966 -0.13138863 -0.18780254 -0.17184962 -0.20662439 0.08735184 -0.29376096
0.036192883 0.23041263 0.1639571 -0.16001801 0.15953983 -0.110923246 -0.35979652 0.04282015
-0.0085277315 -0.41440567 -0.0050725937 -0.061402623 0.020797309 -0.03223237 0.30785146 0.0034118828
0.29533145 -0.06048935 0.026686575 -0.06637972 0.12863007 0.12189797 0.0030434867 -0.11844778
0.06205652 0.033179767 0.017516358 0.32851517 -0.12503986 0.03067707 0.06690024 -0.05403614
00000000: bd87 c03d 316e 6cbe b2d0 243e c0c0 173d
00000010: cb0c ce3d 533c d13c b7d6 2a3c ab3b bcbc
00000020: e58a 60bd 95f0 493d 7b0b 7e3e 6623 87bd
00000030: 70d8 0fbe 0627 68bd 6dd7 233e b759 2f3e
00000040: 54f8 aa3e 77b9 aebd fa6a d7bd de89 213d
00000050: f523 423d 2c2b 70be bdd0 d13d 5e9d aebd
00000060: e024 3b3d c44c 3abe e844 a13e ea9f 1c3e
00000070: 2dce 5e3d 6e86 16be bbb1 b3bd 6c40 4e3e
00000080: 5313 a1bd 0aac cc3d 4c12 293c 3f16 4fbe
00000090: b770 c8bc f777 0b3e afda 67bd 73c4 3e3e
000000a0: 8efa f1bc 4c02 54bd 1bc5 8d3c 2abd 5ebd
000000b0: 0352 23be 25a6 15be b078 7d3e f3b7 2abe
000000c0: a415 f3bd 41d0 0cbe 9611 233d 3e31 10bd
000000d0: 6b0b 43bc 7440 0e3e 635a 143e eb1e 36be
000000e0: 1430 0dbc 8861 803e 9876 94bd 515c 9cbb
000000f0: 6b16 c03c 2d1c 72bc ee5e 223e 389e c03d
00000100: 54c9 21be 36a5 903d 0ec7 633e 32a9 72bd
00000110: bc7a 18be 579f 663b d259 343e 5022 313e
00000120: 526c 303e 6aa8 813d 2bbb e3bc eab2 063e
00000130: 1122 273e 5a63 a13b 02f1 b33d c940 50be
00000140: 7953 bfbd 2794 debd 46bf 203e 73e0 efbc
00000150: 74c0 d93d 93eb debd 7823 8abd 5b6f 4dbe
00000160: b8fb 363e cd8b 8a3d 11cf aebe 623b 5d3e
00000170: d9f5 0cbd 7059 393d 874e 9abe ded8 153e
00000180: 09ba 64bd d868 b93e daf2 793c 6b87 85be
00000190: 27db e0bd 291c 8e3c e5ef 863e 5fcf 923e
000001a0: 9c37 aabd 0634 4ebe 2086 fbbc 1ff5 513e
000001b0: 80ea 3dbc 329f 33be 175f 713e ee8b dabc
000001c0: c377 d83d 2717 263e a74d 763d 9218 3bbd
000001d0: 1104 94bd 9ba4 abbe fb07 e3bd 842d 05be
000001e0: a840 083e 738f 98be 4f6d bc3d 1ac1 a9bd
000001f0: 8727 ccbe 43e8 0f3e 9c63 693d 673f 17bd
00000200: 3ea1 2bbe ed50 aa3c 3ae7 2c3e 7f2e 363e
00000210: 33d2 123e f317 ac3e 4bab 58bd 3676 8a3d
00000220: be3b f1bc 0113 63bd 05de 3ebe 1ece 9e3d
00000230: 5a04 09be 2576 913d 59fc 4bbe a143 ccbe
00000240: 222b a6bd 22d7 0c3d a408 ac3d e241 36be
00000250: 3413 cebc 78b6 1ebe 8b43 9cbe 82de 2ebe
00000260: 59c4 b7bd 7e6e cbbd c3e9 943e 4e6b 1ebd
00000270: 3c13 b8bd e3b2 b43d 62c3 b33d 9a9c 503e
00000280: 3d05 81be bbfa 663d eafb 163d 1ebf 80bd
00000290: 24c7 80be 5ee3 6e3d eb55 813e 334a 03bd
000002a0: bda9 47be 0a3d 83be ce27 5dbc a65b 513d
000002b0: 6c32 3ebd e87d 04be 93f3 60bd 85ab d53d
000002c0: 35bc 41be 9547 123d 0e55 243d e4df aa3e
000002d0: b75d 45be f1ce 213d 3b42 a13d 3f72 343e
000002e0: fa36 3c3e b63f fc3c baa7 d1bd d27d 603d
000002f0: 5c5a 70be f549 2d3e 4c5b e43d 19a5 19bd
00000300: 4321 9abd ce68 c63d 3f45 a0bb 3203 003d
00000310: 6272 2dbe a528 bc3c ea56 193e 922b bc3e
00000320: 8a26 87be b49a e43d c8fe b73e d97c 013e
00000330: e09c 813d 800d b03c 4167 543d 5db3 47be
00000340: cd3b 093e 3e03 ce3d f5e8 0cbd 27b6 0d3e
00000350: 83ce 213e 1245 fdbd c318 89bc fe33 82be
00000360: 6c5f 9f3d c7d4 c43d be8a 06be 4f4f 40be
00000370: 59f9 2fbe 5895 53be 86e5 b23d d667 96be
00000380: fd3e 143d 4af1 6b3e 5fe4 273e c3db 23be
00000390: 695e 233e ba2b e3bd 4037 b8be 2e64 2f3d
000003a0: e6b7 0bbc fb2c d4be 0038 a6bb 5181 7bbd
000003b0: 1e5f aa3c 1706 04bd b59e 9d3e e599 5f3b
000003c0: af35 973e aec3 77bd ce9d da3c 17f2 87bd
000003d0: 9ab7 033e a5a5 f93d 3c75 473b c094 f2bd
000003e0: fa2e 7e3d 82e7 073d 777e 8f3c 2433 a83e
000003f0: 730a 00be 7b4e fb3c fe02 893d 0055 5dbd

network_body.linear_encoder.seq_layers.2.bias f4 [64]
-0.054271575 0.0053043757 0.018477598 0.011269804 0.015146896 0.021118993 0.03884299 -0.04425205
0.02862644 0.056777816 -0.021258727 0.052721564 0.013539513 -0.0014071098 0.03196513 0.06353891
0.038897663 -0.018433165 0.016001413 -0.0015970883 0.029788349 0.07040951 0.057321254 0.068214
0.050337896 -0.01799996 0.07193198 0.028883297 0.057267733 0.022629166 0.04259369 0.03163075
0.033926573 0.0032109006 0.066392235 0.03783159 -0.00402201 0.047096387 -0.05248851 0.03575536
0.043409124 -0.021144778 -0.007977689 0.038452204 -0.013468419 0.01923234 0.037694998 0.010358777
-0.019113505 0.07346152 0.0832947 0.06677221 -0.017116053 -0.02093994 0.04487973 -0.009673028
0.010915708 0.048180886 0.026333071 0.0026355905 -0.029631454 0.06504573 0.024278674 0.022939878
00000000: df4b 5ebd 54d0 ad3b 555e 973c fca4 383c
00000010: b02a 783c bd01 ad3c d419 1f3d a341 35bd
00000020: ff81 ea3c db8f 683d c826 aebc 91f2 573d
00000030: d5d4 5d3c c56e b8ba deed 023d b020 823d
00000040: 2853 1f3d 2601 97bc 6515 833c 6455 d1ba
00000050: b206 f43c dc32 903d b1c9 6a3d c8b3 8b3d
00000060: 1c2f 4e3d a774 93bc 1351 933d aa9c ec3c
00000070: 9291 6a3d cd60 b93c b976 2e3d 3f8f 013d
00000080: 97f6 0a3d f96d 523b a7f8 873d 4cf5 1a3d
00000090: 11cb 83bb 24e8 403d 31fe 56bd 3674 123d
000000a0: c4cd 313d d037 adbc dab4 02bc 0f80 1d3d
000000b0: a5aa 5cbc 248d 9d3c 1266 1a3d dcb7 293c
000000c0: ed93 9cbc fe72 963d 6996 aa3d debf 883d
000000d0: f736 8cbc 3d8a abbc cfd3 373d 9f7b 1ebc
000000e0: ccd7 323c 5259 453d 74b8 d73c dfb9 2c3b
000000f0: aabd f2bc b236 853d 12e4 c63c 69ec bb3c

action_model._discrete_distribution.branches.0.weight f4 [3, 64]
0.048990067 -0.03581166 -0.120821126 -0.02798215 -0.019916527 -0.09684912 -0.084758565 0.06688692
-0.08363221 -0.09703135 -0.09383081 -0.12906757 -0.05286074 -0.05502961 -0.06951069 -0.043413546
-0.034426153 -0.10562818 0.0140843075 -0.06258401 -0.06737313 -0.11474338 -0.06466419 0.03578347
-0.011915284 -0.048659313 -0.019243916 -0.07519549 -0.040926512 -0.024779636 -0.05941805 -0.01107955
0.0573351 0.015305008 -0.06692258 -0.04617392 -0.00914559 -0.104298115 0.024914268 -0.0040218574
-0.071573585 -0.1290389 0.056356978 -0.08409363 -0.041866317 -0.048216358 -0.0681135 -0.048191994
-0.08793009 -0.03256255 -0.05216755 -0.068968795 -0.07287763 -0.060133938 -0.06297892 0.11842042
-0.03432262 -0.07077789 -0.037626185 -0.037788168 -0.06824799 -0.075287126 -0.06541299 -0.04766664
-0.025186041 0.12228645 0.14594318 0.12259319 0.12135088 0.016002163 -0.08137717 0.07949353
0.06866069 0.12779696 0.0022664194 -0.0007227153 0.07550979 0.046228975 0.21240526 -0.11889367
-0.033965647 0.02319857 0.07757059 -0.08737942 -0.058530204 0.15900701 -0.047203086 0.25030622
0.16424893 0.0890509 -0.12789689 0.10276807 -0.17204367 0.15892501 0.1524386 0.165767
0.09130209 0.19411336 -0.09201187 -0.05087109 0.16498928 -0.022581335 0.033977684 0.1574398
-0.046734124 0.05878775 -0.14015509 -0.030552654 -0.0019138836 0.17395619 0.07655794 0.116064735
0.021795684 -0.15322438 -0.1190477 -0.06383964 0.014177326 0.06651657 0.12849422 -0.10890864
0.17441362 0.12751451 0.17529571 0.1019353 0.06372148 -0.115201525 0.1564525 0.043928314
0.007496321 -0.12203701 -0.078199096 -0.12449113 -0.12822872 0.045890126 0.10263972 -0.11527397
-0.015033488 -0.12034689 0.073666714 0.08555034 -0.04316192 -0.05334499 -0.16010472 0.12393797
0.09360698 0.049487107 -0.068951875 0.11697007 0.070606925 -0.14761603 0.110632524 -0.22284947
-0.18313909 -0.09467778 0.14747225 -0.07658945 0.19182384 -0.107919596 -0.11920519 -0.16106373
-0.12975751 -0.1867612 0.15402353 0.06641852 -0.18857865 0.1129735 -0.04315279 -0.13898768
0.09716184 -0.019924648 0.09853032 0.059290297 0.017416853 -0.17619225 -0.0068226494 -0.082745515
0.024740705 0.13052492 0.17627124 0.07838844 0.035587627 -0.0099086845 -0.1028948 0.048629284
-0.1696249 -0.07730739 -0.14115709 -0.07462886 -0.049462993 0.1515816 -0.12065221 -0.009176684
00000000: cfa9 483d 3faf 12bd 1171 f7bd d23a e5bc
00000010: fc27 a3bc d558 c6bd e695 adbd 02fc 883d
00000020: 5d47 abbd 5fb8 c6bd 5e2a c0bd 4a2a 04be
00000030: 8184 58bd ba66 61bd 9f5b 8ebd 67d2 31bd
00000040: 7002 0dbd 9653 d8bd dec1 663c 0c2c 80bd
00000050: ecfa 89bd 94fe eabd a96e 84bd b091 123d
00000060: 5338 43bc fd4e 47bd 6ba5 9dbc 1800 9abd
00000070: 8fa2 27bd aafe cabc 5760 73bd 0087 35bc
00000080: 36d8 6a3d dbc1 7a3c b50e 89bd dd20 3dbd
00000090: 62d7 15bc 409a d5bd 0219 cc3c c9c9 83bb
000000a0: 2c95 92bd c622 04be 93d6 663d 4839 acbd
000000b0: 047c 2bbd 847e 45bd 177f 8bbd f864 45bd
000000c0: b114 b4bd 4f60 05bd a4ad 55bd 833f 8dbd
000000d0: de40 95bd 014f 76bd 18fb 80bd 6886 f23d
000000e0: e095 0cbd 00f4 90bd ea1d 1abd c4c7 1abd
000000f0: 9ac5 8bbd 2330 9abd 3ff7 85bd 183e 43bd
00000100: f552 cebc 5171 fa3d 2172 153e 2312 fb3d
00000110: cf86 f83d f816 833c 13a9 a6bd 81cd a23d
00000120: fa9d 8c3d 35dd 023e 3588 143b 9a74 3dba
00000130: e0a4 9a3d 985a 3d3d c480 593e 867e f3bd
00000140: 901f 0bbd ed0a be3c 54dd 9e3d fbf3 b2bd
00000150: 5ebd 6fbd bcd2 223e 0658 41bd 2328 803e
00000160: df30 283e 5160 b63d 67f7 02be 1178 d23d
00000170: 372c 30be 3dbd 223e dd18 1c3e d3be 293e
00000180: 97fc ba3d a7c5 463e b870 bcbd 345e 50bd
00000190: f3f2 283e 7efc b8bc 2f2c 0b3d e637 213e
000001a0: 486c 3fbd 6ccb 703d d184 0fbe 8f49 fabc
000001b0: 47db faba 9221 323e 69ca 9c3d 59b3 ed3d
000001c0: dd8c b23c dae6 1cbe 48cf f3bd 5bbe 82bd
000001d0: 0448 683c d739 883d fd93 033e 7e0b dfbd
000001e0: 7c99 323e 2a93 023e b880 333e 74c3 d03d
000001f0: 6880 823d c7ee ebbd 1635 203e 2dee 333d
00000200: b3a3 f53b 8aee f9bd d926 a0bd 35f5 febd
00000210: 644e 03be 49f7 3b3d c634 d23d c214 ecbd
00000220: 054f 76bc 6e78 f6bd 93de 963d 0435 af3d
00000230: 8eca 30bd 4780 5abd 7ef2 23be 31d3 fd3d
00000240: 04b5 bf3d feb2 4a3d a436 8dbd 018e ef3d
00000250: 5d9a 903d a828 17be 4e93 e23d a732 64be
00000260: d088 3bbe 6de6 c1bd f702 173e eeda 9cbd
00000270: 786d 443e f304 ddbd da21 f4bd e4ed 24be
00000280: 27df 04be 543e 3fbe 58b8 1d3e 6f06 883d
00000290: c31a 41be a65e e73d fbc0 30bd c952 0ebe
000002a0: c9fc c63d 0439 a3bc 44ca c93d 62da 723d
000002b0: caad 8e3c be6b 34be 8890 dfbb 7b76 a9bd
000002c0: 05ad ca3c 53a8 053e 7380 343e 1e8a a03d
000002d0: 55c4 113d 0958 22bc 82ba d2bd 802f 473d
000002e0: 26b2 2dbe 5653 9ebd 7c8b 10be 04d7 98bd
000002f0: b599 4abd 3538 1b3e 8218 f7bd cd59 16bc

action_model._discrete_distribution.branches.0.bias f4 [3]
-0.060447212 0.011874306 0.031725813
00000000: 7f97 77bd 738c 423c edf2 013d

critic.network_body.linear_encoder.seq_layers.0.weight f4 [64, 67]
-0.043466035 -0.33966765 0.25402552 0.01255343 -0.2916613 0.21080378 0.051666394 -0.18009639
0.22012289 0.043097623 -0.016246613 0.12947431 0.34570575 0.08675932 0.16499493 0.3354562
-0.042137094 0.13945399 -0.053410575 0.009463587 0.020867065 0.0427589 -0.026299251 0.2749723
0.2798909 0.016832601 0.06996662 -0.01944297 -0.04070965 0.10850275 -0.015374571 -0.17765665
-0.03049999 0.14804862 0.007028962 -0.08505373 0.11460383 0.037266713 -0.06653974 -0.009201527
-0.2880021 0.055029448 -0.28226906 0.026627446 0.18938415 -0.014200271 0.11406701 -0.0691388
-0.3486037 0.18290615 -0.05743671 0.04435028 -0.122701876 0.02820948 0.11533722 -0.10585731
-0.26805428 0.06759395 0.23893285 0.102814935 -0.04856816 0.21737568 0.050651446 -0.057117127
0.047621284 0.13155983 0.031476054 -0.24733531 -0.099179134 0.09585379 -0.18941082 -0.01280101
0.20222539 -0.030152228 0.1453708 0.21824418 -0.050105114 -0.07342817 0.09104951 -0.2373596
-0.051063437 0.14701916 0.1219726 -0.009384086 -0.47911143 -0.10202868 0.02253505 0.20987754
0.14828452 -0.28075483 -0.48747206 0.024940066 -0.0949994 0.046403974 0.3831782 -0.48718947
-0.40017843 -0.20266424 0.16459103 -0.14304504 0.41248652 0.10163264 -0.24519783 -0.26169914
-0.14524904 -0.09687718 -0.16896647 0.029231763 -0.390723 -0.075761266 0.027544865 0.033443477
-0.17945543 -0.053668298 0.13675988 -0.22806624 -0.21177202 0.046921648 -0.19893198 -0.08473131
-0.12028493 0.089494795 0.17246966 0.012501982 -0.27216494 0.05986413 -0.026718017 -0.14504983
0.034916967 0.19619435 -0.12747203 -0.20580028 0.08078123 0.112504944 -0.15394491 0.08857698
0.13286926 -0.17291637 -0.08084789 0.10593141 -0.1881431 0.09954338 -0.0009546864 -0.08857617
0.051100813 0.43973178 0.19402008 0.21004412 0.058368344 -0.15170278 0.06020151 -0.03607931
0.38596046 0.2539166 -0.26615357 0.34075657 -0.18265222 -0.05315774 0.29295802 0.11902063
-0.15184507 0.06954797 -0.009639136 0.028172385 0.4608664 -0.4101297 -0.38614687 -0.1446884
-0.11354915 0.058586963 0.3453804 0.031831436 -0.2409833 -0.0812391 0.08889042 -0.20320737
0.066460975 -0.09865325 -0.043779127 -0.16059648 0.13726325 -0.058168914 0.04745893 -0.1491755
0.041690532 0.21301834 -0.07783136 0.06154867 0.089597836 -0.024414532 0.15907419 -0.0853905
0.06652669 0.08474612 -0.08156086 -0.16316038 0.0077691833 0.2820966 0.1901252 -0.051015466
-0.081586085 -0.18911116 0.13382572 0.1319126 -0.2801073 -0.054301966 -0.0026964948 -0.060546376
0.068114795 -0.15073635 0.14557585 -0.2606524 0.18134402 -0.06860871 -0.1790721 -0.42270908
0.3287608 -0.058220018 0.22091186 0.23682582 0.015818369 -0.24668615 0.0382367 0.16478865
0.1316274 -0.13816234 0.1857799 -0.06811769 0.19141448 -0.09195908 0.18365602 -0.47884226
0.019265912 0.07144898 -0.014090982 0.105803296 0.043009736 -0.54383934 -0.019366222 0.20654438
-0.008967922 -0.013829726 0.11596415 -0.20066895 -0.1992502 -0.011593366 -0.05108145 0.013543268
-0.09059125 -0.1719361 -0.14132677 -0.17052233 -0.24142894 0.028745554 0.16560224 -0.34278008
00000000: 7109 32bd ebe8 adbe a20f 823e e7ac 4d3c
00000010: a154 95be f2dc 573e 24a0 533d 306b 38be
00000020: e567 613e 2287 303d 9e17 85bc ea94 043e
00000030: 5800 b13e dfae b13d 6ef4 283e eac0 ab3e
00000040: f297 2cbd 07cd 0e3e 0cc5 5abd 290d 1b3c
00000050: 68f1 aa3c f523 2f3d 8771 d7bc 2bc9 8c3e
00000060: dc4d 8f3e 86e4 893c a94a 8f3d dd46 9fbc
00000070: 29bf 26bd b136 de3d a0e5 7bbc a0eb 35be
00000080: 1ddb f9bc 0f9a 173e 3553 e63b a630 aebd
00000090: 6ab5 ea3d fba4 183d fd45 88bd 00c2 16bc
000000a0: 0375 93be 8f66 613d 9285 90be cd21 da3c
000000b0: ebed 413e 41a8 68bc f79b e93d a598 8dbd
000000c0: 2f7c b2be c04b 3b3e c142 6bbd a4a8 353d
000000d0: 1f4b fbbd 9117 e73c ec35 ec3d b8cb d8bd
000000e0: 693e 89be b26e 8a3d d0aa 743e a390 d23d
000000f0: 68ef 46bd bb97 5e3e e477 4f3d a6f3 69bd
00000100: 890e 433d 9fb7 063e 09ed 003d 7845 7dbe
00000110: 6e1e cbbd fe4e c43d e9f4 41be 54bb 51bc
00000120: 2c14 4f3e ce01 f7bc 15dc 143e 677b 5f3e
00000130: 053b 4dbd 8261 96bd 2a78 ba3d 650e 73be
00000140: e527 51bd 318c 163e c5cc f93d b6bf 19bc
00000150: 184e f5be 6af4 d0bd 6d9b b83c 23ea 563e
00000160: e6d7 173e 19bf 8fbe f095 f9be 1c4f cc3c
00000170: 0c8f c2bd 1812 3e3d ef2f c43e e670 f9be
00000180: 30e4 ccbe 3787 4fbe 8d8a 283e 667a 12be
00000190: 6f31 d33e c624 d03d 2415 7bbe 6efd 85be
000001a0: 2abc 14be 8b67 c6bd 8c05 2dbe 7377 ef3c
000001b0: d80c c8be b928 9bbd c5a5 e13c 07fc 083d
000001c0: 2ac3 37be 4ad3 5bbd c80a 0c3e 328a 69be
000001d0: c4da 58be ea30 403d d3b4 4bbe 9c87 adbd
000001e0: f257 f6bd 0c49 b73d e39b 303e 1dd5 4c3c
000001f0: 3459 8bbe 1734 753d bedf dabc f187 14be
00000200: 1805 0f3d 2ce7 483e 0788 02be 4fbd 52be
00000210: a170 a53d fe68 e63d bca3 1dbe d967 b53d
00000220: e10e 083e fd10 31be 9493 a5bd 91f2 d83d
00000230: 96a8 40be 66dd cb3d eb43 7aba 6c67 b5bd
00000240: 164f 513d 8624 e13e 33ad 463e ce15 573e
00000250: a513 6f3d f957 1bbe dc95 763d e6c7 13bd
00000260: 9c9c c53e 5b01 823e 4845 88be a577 ae3e
00000270: 2f09 3bbe eebb 59bd 98fe 953e 17c1 f33d
00000280: 467d 1bbe 2b6f 8e3d 77ed 1dbc c6c9 e63c
00000290: aef6 eb3e 85fc d1be 0bb5 c5be 3229 14be
000002a0: 758c e8bd e2f8 6f3d b3d5 b03e ae61 023d
000002b0: 54c4 76be af60 a6bd 2e0c b63d 9815 50be
000002c0: b11c 883d b70a cabd be51 33bd 6773 24be
000002d0: bd8e 0c3e 8742 6ebd 4c64 423d 76c1 18be
000002e0: b1c3 2a3d 7b21 5a3e 0c66 9fbd 751a 7c3d
000002f0: 127f b73d fc00 c8bc 58e4 223e 37e1 aebd
00000300: 253f 883d 608f ad3d 6109 a7bd 8413 27be
00000310: a294 fe3b f76e 903e 2eb0 423e 98f5 50bd
00000320: 9b16 a7bd 5ba6 41be 9c09 093e 1914 073e
00000330: 396a 8fbe bd6b 5ebd adb7 30bb 7aff 77bd
00000340: c57f 8b3d a15a 1abe d611 153e 3b74 85be
00000350: 3fb2 393e b982 8cbd ad5e 37be 536d d8be
00000360: 5653 a83e 1d78 6ebd b836 623e 7882 723e
00000370: 8695 813c 4b9b 7cbe 169e 1c3d 5bbe 283e
00000380: 55c9 063e 6e7a 0dbe 163d 3e3e 4a81 8bbd
00000390: 2802 443e 0b55 bcbd 5310 3c3e d02a f5be
000003a0: 8cd3 9d3c d853 923d dddd 66bc 66af d83d
000003b0: fa2a 303d 0e39 0bbf e9a5 9ebc 5f80 533e
000003c0: 31ee 12bc 1396 62bc 9d7e ed3d 297c 4dbe
000003d0: 3f08 4cbe 1af2 3dbc c83a 51bd 95e4 5d3c
000003e0: e887 b9bd 0410 30be f7b7 10be 689d 2ebe
000003f0: 2639 77be cc7b eb3c a293 293e df80 afbe

critic.network_body.linear_encoder.seq_layers.0.bias f4 [64]
-0.017302385 -0.012103016 0.021595363 -0.019610815 -0.06862847 -0.020003704 -0.057102498 -0.057567038
-0.08910672 -0.08515183 7.895287e-05 -0.056728292 0.027096352 -0.12721989 0.0077347406 -0.0554782
-0.1271884 0.012089395 -0.06170822 0.0130127845 0.00044316068 -0.034142256 -0.025240688 -0.017962523
0.03323108 -0.09387602 -0.1379787 -0.05441024 -0.07198613 -0.0221273 -0.044890355 0.059042748
-0.12352192 -0.002018566 -0.02015686 -0.06950788 -0.04650982 -0.13276275 -0.035571378 -0.07104583
0.017732028 -0.05192149 0.0026336315 -0.026302027 -0.07193592 -0.075017884 0.014392068 0.03232711
0.006738832 0.017586572 0.06632442 -0.08783671 -0.08132341 -0.018370932 -0.028412305 -0.07507968
-0.09562384 0.025296248 0.039345454 -0.07409805 -0.031707346 -0.06812767 0.05997798 -0.036489233
00000000: bbbd 8dbc ba4b 46bc c2e8 b03c dca6 a0bc
00000010: 158d 8cbd cfde a3bc 4fe4 69bd 6acb 6bbd
00000020: 967d b6bd 1564 aebd 8093 a538 ed5b 68bd
00000030: 2bf9 dd3c ee45 02be b573 fd3b 1c3d 63bd
00000040: ad3d 02be 9912 463c c2c1 7cbd 9333 553c
00000050: 0558 e839 c0d8 0bbd 8fc5 cebc 2426 93bc
00000060: 501d 083d 1242 c0bd 4a4a 0dbe 46dd 5ebd
00000070: 776d 93bd 5044 b5bc f3de 37bd cfd6 713d
00000080: 0ff9 fcbd eb49 04bb 0020 a5bc 265a 8ebd
00000090: 1581 3ebd f5f2 07be 4bb3 11bd 7a80 91bd
000000a0: c242 913c a1ab 54bd 0199 2c3b 5977 d7bc
000000b0: 2453 93bd faa2 99bd b5cc 6b3c 6f69 043d
000000c0: 6cd1 dc3b b711 903c 19d5 873d bce3 b3bd
000000d0: e38c a6bd a37e 96bc ecc0 e8bc 60c3 99bd
000000e0: 6fd6 c3bd 143a cf3c b328 213d b8c0 97bd
000000f0: 90df 01bd 8586 8bbd 78ab 753d bc75 15bd

critic.network_body.linear_encoder.seq_layers.2.weight f4 [64, 64]
0.011785855 -0.3115495 0.089044616 0.09120889 -0.16208258 0.08643021 -0.024036562 -0.12084239
-0.08630858 -0.13306022 0.102938175 0.11147839 -0.18303142 0.23306604 -0.5154934 -0.08135562
-0.13372058 0.11452674 -0.19799304 0.09868845 0.21732473 0.05980398 0.044701707 -0.15167592
-0.14390852 -0.11831892 0.29533017 0.27970356 0.16181603 -0.11743807 -0.16691436 -0.25029165
0.07118028 -0.06904904 -0.025197268 0.0551786 -0.23333059 0.014535732 -0.18892245 0.13920434
-0.19091631 0.07493931 -0.0007514403 -0.14089642 -0.19276285 -0.24061516 0.19518086 -0.22513895
0.15797803 -0.033839792 -0.3024445 -0.27921677 -0.032860726 -0.30832633 -0.121452324 0.015054646
-0.115966484 -0.009130588 -0.031271808 -7.209234e-05 -0.22107048 0.16341585 -0.015152646 -0.04219394
-0.08195185 0.027117833 -0.07730699 0.0073904595 -0.02850654 -0.038443062 0.042540707 0.017122192
-0.11104158 0.034398347 0.009462579 -0.12116098 0.06594377 -0.026612759 0.16038732 -0.1784977
-0.10924497 -0.024705555 0.05375831 -0.24843171 0.13659118 0.008262597 -0.05123 -0.18203765
0.12598526 -0.10710731 -0.13934256 -0.20823447 -0.17212227 0.021401707 0.15289615 -0.19201018
0.07421603 -0.06351034 0.030028613 -0.095729865 0.049208373 0.048648983 0.072710186 -0.02455069
-0.17636243 0.2251127 0.00023601388 -0.12178888 0.078488305 -0.006259389 -0.20188932 0.17317672
-0.14651959 -0.050685395 -0.16598925 0.16824017 0.10977005 -0.16860522 -0.034783166 -0.14594495
0.026673213 -0.0062270164 -0.014149106 0.05510991 -0.17411236 0.012855198 0.0030409903 0.12842625
-0.044367988 0.10489225 -0.46501857 0.11760595 -0.0037800395 -0.12771921 0.33088338 0.19492255
0.026803114 0.08920939 0.004800909 -0.21779872 -0.07584388 0.0721858 -0.23904808 -0.036263943
0.023438152 -0.1420263 -0.15047818 -0.10967248 -0.0059465687 -0.03099476 -0.10680885 -0.012495881
-0.008454682 0.14861396 -0.0022652477 -0.18640798 0.073574066 -0.25258797 0.043165028 -0.018897923
0.05834227 -0.093927875 -0.24806653 0.13808595 0.007104192 0.030648742 0.16421007 -0.0046945466
0.0993579 -0.14354236 -0.1311371 0.13960691 0.070091866 0.09714019 0.20550816 -0.06896015
-0.04248069 -0.07056623 -0.09862999 0.0683564 -0.033447076 0.026056316 -0.04040512 0.09149135
-0.0041364934 0.17254037 0.2253493 -0.23417002 -0.09334292 0.052000705 -0.02226251 -0.07328521
0.049504414 0.049478706 -0.11727793 0.09944295 -0.16819786 -0.009329631 -0.1671725 0.05297048
0.14768991 -0.16088083 0.2507725 -0.06324507 -0.06093459 -0.30046707 0.064241946 0.13283339
-0.31836662 0.09552574 -0.2500957 -0.051066708 -0.31515175 0.10563873 -0.1375088 -0.22969078
-0.06465013 -0.2422193 0.041478433 0.14336619 -0.37544426 0.0023201336 -0.032972187 -0.008305987
-0.13614538 0.026995506 0.15406716 -0.097132415 0.04907277 -0.18854462 -0.16099815 0.21387534
0.21004137 0.16358708 -0.09352714 -0.1210699 -0.09118882 -0.21442206 -0.083628654 0.011367654
-0.062922105 0.109726384 0.14015837 0.0056954697 -0.20538127 -0.15656513 -0.06136623 -0.01919087
-0.21536686 0.31218043 0.21499813 -0.102083236 0.005405338 0.109154224 0.06031547 -0.11502627
00000000: 7519 413c 6b83 9fbe 065d b63d bacb ba3d
00000010: faf8 25be 5202 b13d 53e8 c4bc 377c f7bd
00000020: 8ec2 b0bd f040 08be 40d1 d23d c84e e43d
00000030: 976c 3bbe dda8 6e3e 60f7 03bf c69d a6bd
00000040: 0cee 08be ff8c ea3d b0be 4abe 2c1d ca3d
00000050: 608a 5e3e 05f5 743d 2319 373d ef50 1bbe
00000060: c15c 13be 3151 f2bd 8435 973e 4e35 8f3e
00000070: 1ab3 253e 5f83 f0bd 99eb 2abe 3a26 80be
00000080: f7c6 913d 9569 8dbd 806a cebc f502 623d
00000090: 37ee 6ebe 4727 6e3c e374 41be 958b 0e3e
000000a0: 917f 43be c879 993d 4efc 44ba 2747 10be
000000b0: a063 45be d263 76be 7edd 473e d38a 66be
000000c0: fec4 213e 989b 0abd 01da 9abe 80f5 8ebe
000000d0: f898 06bd f3dc 9dbe ffbb f8bd c3a7 763c
000000e0: d67f edbd 7698 15bc de16 00bd 4830 97b8
000000f0: 4d60 62be 7c56 273e ce42 78bc 8ed3 2cbd
00000100: 5fd6 a7bd 3826 de3c 2153 9ebd ab2b f23b
00000110: 8c86 e9bc 7976 1dbd 2a3f 2e3d d743 8c3c
00000120: c569 e3bd 48e5 0c3d ef08 1b3c 3f23 f8bd
00000130: 870d 873d 0003 dabc 933c 243e 1ac8 36be
00000140: d4bb dfbd 4e63 cabc ac31 5c3d e264 7ebe
00000150: 8fde 0b3e d85f 073c 8cd6 51bd 1468 3abe
00000160: 4802 013e 145b dbbd d1af 0ebe 6b3b 55be
00000170: d240 30be a252 af3c cf90 1c3e 519e 44be
00000180: 93fe 973d b611 82bd 91fe f53c 050e c4bd
00000190: b88e 493d 2844 473d 14e9 943d 871e c9bc
000001a0: 5a98 34be f283 663e 7e7a 7739 736c f9bd
000001b0: 7abe a03d 901b cdbb 13bc 4ebe 3d55 313e
000001c0: 3b09 16be 7d9b 4fbd 16f9 29be 2747 2c3e
000001d0: 1fcf e03d d9a6 2cbe cb78 0ebd 9872 15be
000001e0: c881 da3c 000c ccbb a7d1 67bc eeba 613d
000001f0: 834a 32be 9c9e 523c 5a4b 473b 2c82 033e
00000200: 35bb 35bd bfd1 d63d ea16 eebe 63db f03d
00000210: 8aba 77bb d3c8 02be 8c69 a93e c799 473e
00000220: 3492 db3c 6ab3 b63d f250 9d3b a106 5fbe
00000230: 0954 9bbd 26d6 933d 05c9 74be 8089 14bd
00000240: 5e01 c03c 586f 11be f416 1abe f79b e0bd
00000250: 6fdb c2bb b9e8 fdbc 99be dabd 86bb 4cbc
00000260: 8285 0abc 422e 183e 8d74 14bb bce1 3ebe
00000270: 00ae 963d 3653 81be d0cd 303d d1cf 9abc
00000280: 4ef8 6e3d 425d c0bd 2705 7ebe 6766 0d3e
00000290: 48ca e83b 1213 fb3c af26 283e b6d4 99bb
000002a0: 287c cb3d c5fc 12be ce48 06be 1df5 0e3e
000002b0: 538c 8f3d 70f1 c63d bb70 523e fb3a 8dbd
000002c0: 3b00 2ebd 0785 90bd 85fe c9bd 71fe 8b3d
000002d0: cdff 08bd 0e74 d53c d77f 25bd d15f bb3d
000002e0: 6c8b 87bb 6cae 303e f8c1 663e 44ca 6fbe
000002f0: 932a bfbd b1fe 543d de5f b6bc 8e16 96bd
00000300: 24c5 4a3d 2faa 4a3d 692f f0bd bfa8 cb3d
00000310: 0f3c 2cbe 4fdb 18bc 452f 2bbe 93f7 583d
00000320: 063c 173e f2bd 24be 4165 803e a286 81bd
00000330: 8c96 79bd d2d6 99be 4891 833d 7a05 083e
00000340: f300 a3be 00a3 c33d 8b0c 80be 532b 51bd
00000350: 925b a1be 1e59 d83d 1bcf 0cbe 0f34 6bbe
00000360: 4a67 84bd 5608 78be 4ae5 293d 96ce 123e
00000370: 3b3a c0be 620d 183b d80d 07bd d615 08bc
00000380: b269 0bbe ae25 dd3c c8c3 1d3e 5ced c6bd
00000390: 8700 493d d711 41be b3dc 24be 2302 5b3e
000003a0: 1615 573e 5f83 273e 288b bfbd 7ff3 f7bd
000003b0: 34c1 babd 7591 5bbe 8045 abbd 663f 3a3c
000003c0: 4edd 80bd 3ab8 e03d ad85 0f3e 10a1 ba3b
000003d0: 784f 52be 9c52 20be 285b 7bbd 2c36 9dbc
000003e0: 2189 5cbe 1dd6 9f3e 7828 5c3e 0411 d1bd
000003f0: 431f b13b 408c df3d 5b0d 773d e592 ebbd

critic.network_body.linear_encoder.seq_layers.2.bias f4 [64]
-0.014722622 -0.011770329 -0.02395615 0.0027892 -0.09968352 -0.079741485 -0.030843131 -0.018211085
-0.12157 0.0002802814 0.013596953 -0.10294228 -0.1216243 -0.001289979 -0.10006235 -0.12134962
-0.124547794 -0.0063359155 -0.050690014 -0.092291296 0.016168332 -0.1044811 -0.010102129 0.004999376
-0.118444726 -0.03335745 -0.042085733 0.008243186 0.010505921 -0.14956063 -0.09251546 -0.11373209
-0.041315846 -0.04947645 -0.0344326 0.036345072 -0.07034277 -0.11620129 -0.07121037 -0.0674769
0.005506333 -0.08591784 -0.08877129 -0.06943062 -0.063653566 -0.08033657 -0.002445593 -0.0019424692
0.01636724 -0.12036927 0.008951292 -0.0116018355 -0.07490551 -0.02269833 0.011034534 -0.0036625315
0.014457928 0.0020643955 -0.10533336 -0.08621564 -0.06186351 -0.014055432 -0.10597834 -0.012761148
00000000: 2737 71bc 57d8 40bc b03f c4bc 03cb 363b
00000010: e026 ccbd 814f a3bd bcaa fcbc 6a2f 95bc
00000020: b1f9 f8bd bcf2 9239 c1c5 5e3c 67d3 d2bd
00000030: 2916 f9bd 8314 a9ba 7ded ccbd 2686 f8bd
00000040: ea12 ffbd 839d cfbb 55a0 4fbd 3803 bdbd
00000050: 7373 843c 30fa d5bd 6683 25bc ced1 a33b
00000060: 2693 f2bd d2a1 08bd 1762 2cbd 6e0e 073c
00000070: 0721 2c3c 6c26 19be bf78 bdbd 5fec e8bd
00000080: ce3a 29bd d1a7 4abd 3309 0dbd 92de 143d
00000090: df0f 90bd f1fa edbd bed6 91bd 5431 8abd
000000a0: 786e b43b b1f5 afbd b9cd b5bd a431 8ebd
000000b0: cd5c 82bd 8087 a4bd 3e46 20bb 739a feba
000000c0: 9714 863c 2a84 f6bd 71a8 123c a015 3ebc
000000d0: 0f68 99bd d9f1 b9bc 31ca 343c 1507 70bb
000000e0: f2e0 6c3c cf4a 073b 04b9 d7bd d391 b0bd
000000f0: 9864 7dbd c148 66bc 2c0b d9bd 2214 51bc

critic.value_heads.value_heads.extrinsic.weight f4 [1, 64]
0.019237395 0.0012849632 0.0471262 0.11697732 -0.25847316 -0.020989139 -0.25274664 0.13703714
-0.09798686 0.0054720324 0.23158802 -0.09527109 -0.05902097 0.09021819 -0.042341694 -0.07589417
-0.24211572 0.019328682 0.0054800254 -0.06756147 0.18010464 -0.16168368 0.11418622 0.095283814
-0.13178071 -0.0007050119 0.00040533356 0.067362435 -0.0026716373 -0.14678574 -0.14156741 -0.24253
0.009882851 -0.20871367 0.0063388273 0.034458745 0.003955567 -0.11664308 -0.058218632 -0.13102308
0.007872786 -0.27888745 -0.10019862 -0.003911675 -0.15318923 -0.1820608 -0.015928114 0.006431856
0.12661175 -0.26539654 0.07679047 -0.0032084717 0.0020848615 0.18069024 0.1446286 0.04805737
0.15323058 0.15809555 -0.09085509 -0.3053767 -0.23151842 0.08516341 -0.16278942 0.12549606
00000000: be97 9d3c 366c a83a 6707 413d ce91 ef3d
00000010: 9856 84be 6af1 abbc 0268 81be 7753 0c3e
00000020: 56ad c8bd bc4e b33b 6925 6d3e 7d1d c3bd
00000030: f9bf 71bd 50c4 b83d 7c6e 2dbd 676e 9bbd
00000040: 2fed 77be 2f57 9e3c c991 b33b ab5d 8abd
00000050: 5a6d 383e 6890 25be 77da e93d 2924 c33d
00000060: 86f1 06be 8cd0 38ba f382 d439 51f5 893d
00000070: a316 2fbb 004f 16be 0cf7 10be c959 78be
00000080: aeeb 213c 09b9 55be f0b5 cf3b 9d24 0d3d
00000090: b39d 813b 91e2 eebd a976 6ebd ea2a 06be
000000a0: dcfc 003c 56ca 8ebe ef34 cdbd 822d 80bb
000000b0: a3dd 1cbe 256e 3abe ad7b 82bc 52c2 d23b
000000c0: 83a6 013e 0ee2 87be 5244 9d3d 3945 52bb
000000d0: 2ca2 083b dd06 393e 8519 143e ced7 443d
000000e0: 7ae8 1c3e cde3 213e 3c12 babd 565a 9cbe
000000f0: 2a13 6dbe 276a ae3d 45b2 26be 0a82 003e

exp_avg f4 [64, 67]
-0.00018192355 0.00120443 0.00095735514 -0.0005010514 0.001523558 0.0014733459 -0.00013208484 0.0011545914
0.0010832986 -0.0010015672 0.002024074 0.0018392829 9.4685845e-07 0.0010215598 0.0010481976 0.0005517134
0.00047079325 0.0005533336 -4.9165366e-05 0.0010716723 0.0010541244 0.00061257405 0.0004099326 0.00046374238
0.0014156752 -0.00039316874 0.00078467105 0.0005073245 0.00051518204 0.0005522688 3.9433864e-05 0.0009830729
0.000989978 0.0005872807 0.00043522578 0.00050041196 3.5755642e-05 0.0009867508 0.0009951766 -5.2669322e-05
0.0010751759 0.0010748971 4.399388e-06 0.0010181073 0.0010186336 -5.2698684e-05 0.0010752054 0.0010749567
1.2315486e-06 0.0010212751 0.0010213044 -5.124883e-05 0.0010737558 0.0010735741 -1.1161436e-05 0.001033668
0.0010331058 -5.2865704e-05 0.0 3.665673e-05 1.2066979e-06 0.0 3.5327583e-05 0.017234137
0.0 6e-45 0.036766253 -0.00046531696 0.00053538807 0.00028496562 -6.957806e-05 0.00013964917
0.00015058868 0.00011733232 -4.7261266e-05 3.710466e-05 0.00015436516 -8.4294115e-05 7.8262674e-05 0.00022202241
-0.00015195129 2.7326548e-06 0.00021454466 -0.0001444736 -0.00010835812 7.126829e-05 -1.197279e-06 1.1555787e-05
0.00017744982 -0.00010737876 -8.401873e-05 0.00013419661 -6.4125576e-05 -3.4785895e-05 0.00015806677 -8.799578e-05
-7.1880895e-05 8.3169456e-05 -1.3098474e-05 1.3242037e-05 0.00014955012 -7.947908e-05 -6.4339e-05 -9.658288e-05
0.00016665395 0.00014094776 1.6327979e-06 6.843824e-05 6.846295e-05 -4.1732577e-07 7.0488364e-05 7.049264e-05
1.6543547e-06 6.8416615e-05 6.843596e-05 -9.075972e-07 7.097862e-05 7.091989e-05 1.7407915e-06 6.833018e-05
6.836161e-05 7.2085395e-06 6.286255e-05 6.319861e-05 1.6437175e-06 0.0 2.3964049e-06 -8.414053e-07
0.0 2.383087e-06 -0.0018026317 0.0 6e-45 0.0066332505 0.002032068 0.001307593
0.0024504478 0.00086233544 0.0024773257 0.0026721822 -0.00063442456 0.003974085 0.0035646898 0.0018361683
0.0015034925 0.0027423555 0.0009924454 0.0023472155 0.0029062524 -5.2294374e-05 0.0033919553 0.0033553788
0.00024615045 0.00309351 0.0031340346 9.088733e-05 0.0032487737 0.0033051628 -0.0008293177 0.004168978
0.003421116 1.388783e-05 0.003325773 0.0033257632 0.0002929494 0.0030467114 0.0030970883 2.276136e-05
0.0033168993 0.0033192493 0.00024871426 0.0030909465 0.003150591 -1.596972e-07 0.0033398205 0.0033398094
2.7314893e-05 0.003312346 0.0033158162 -2.4810038e-06 0.0033421419 0.0033421298 6.494244e-06 0.0033331665
0.0033333362 -2.551761e-06 0.0033422124 0.003342195 7.5075455e-05 0.0032645853 0.0032679974 -2.4874969e-06
0.0 0.00011546373 6.278406e-06 0.0 0.00011536867 -0.0037776988 0.0 -6e-45
-0.03028283 0.0007070621 -0.00045295048 -4.3051587e-05 0.00022355885 3.055264e-05 8.57714e-05 -0.00023735943
0.0004914709 0.00034196887 0.00032920306 -7.509158e-05 0.00013073812 8.9780886e-05 0.00016433059 0.00020227242
-5.463054e-05 0.000308742 0.000299627 -8.671948e-06 0.00026278343 0.0002631728 -4.4389537e-05 0.000298501
0.0002949431 -0.00033988623 0.0005939977 0.00034120685 -4.1259053e-05 0.00029537058 0.0002917605 -4.5858797e-05
0.0002999704 0.00028261155 -4.1067786e-05 0.00029517928 0.00029100178 3.8760172e-05 0.00021535138 0.00022740825
-1.6775499e-07 0.0002542792 0.00025427784 5.763209e-07 0.00025353517 0.0002538155 -4.15334e-07 0.00025452685
0.0002545251 -1.1047468e-06 0.00025521623 0.00025520468 -3.857805e-07 0.0002544973 0.0002544985 -7.9821325e-07
00000000: bbc2 3eb9 f7dd 9d3a 04f7 7a3a fe58 03ba
00000010: 20b2 c73a 491d c13a 4180 0ab9 a955 973a
00000020: 78fd 8d3a 0547 83ba 54a6 043b 1814 f13a
00000030: 9e2b 7e35 dce5 853a ad63 893a dca0 103a
00000040: cdd4 f639 970d 113a e936 4eb8 5b77 8c3a
00000050: 8c2a 8a3a 2695 203a 39ec d639 7322 f339
00000060: 2d8e b93a 3722 ceb9 62b2 4d3a f9fd 043a
00000070: 480d 073a 22c6 103a ca65 2538 74da 803a
00000080: 26c2 813a bef3 193a 042f e439 142e 033a
00000090: 54f8 1538 dd55 813a 9670 823a 41e9 5cb8
000000a0: ebec 8c3a 90e3 8c3a 759e 9336 0372 853a
000000b0: ac83 853a c808 5db8 e8ed 8c3a 90e5 8c3a
000000c0: b04b a535 4edc 853a 4add 853a 03f4 56b8
000000d0: 44bd 8c3a 2bb7 8c3a 0142 3bb7 257c 873a
000000e0: 4769 873a 1ebc 5db8 0000 0000 ddbf 1938
000000f0: d3f5 a135 0000 0000 b42c 1438 9b2e 8d3c
00000100: 0000 0000 0400 0000 3698 163d c9f5 f3b9
00000110: 4959 0c3a 7067 9539 70ea 91b8 ca6e 1239
00000120: 57e7 1d39 4f10 f638 663a 46b8 d3a0 1b38
00000130: 15dd 2139 0fc7 b0b8 f420 a438 b0ce 6839
00000140: 1d55 1fb9 a762 3736 65f7 6039 d67d 17b9
00000150: 533e e3b8 df75 9538 31b2 a0b5 badf 4137
00000160: d311 3a39 8830 e1b8 3633 b0b8 21b7 0c39
00000170: 287b 86b8 12e7 11b8 babe 2539 608a b8b8
00000180: c3be 96b8 436b ae38 84c1 5bb7 1e2a 5e37
00000190: 8ed0 1c39 02ae a6b8 bded 86b8 8a8c cab8
000001a0: d4bf 2e39 60cb 1339 8226 db35 8086 8f38
000001b0: c493 8f38 d10c e0b4 27d3 9338 73d5 9338
000001c0: 320b de35 e47a 8f38 4785 8f38 9ba1 73b5
000001d0: 5bda 9438 d3ba 9438 24a5 e935 7c4c 8f38
000001e0: 5c5d 8f38 e2e0 f136 13d5 8338 7f89 8438
000001f0: b49d dc35 0000 0000 ecd1 2036 efdc 61b5
00000200: 0000 0000 1fed 1f36 4846 ecba 0000 0000
00000210: 0400 0000 bd5b d93b 722c 053b 8a63 ab3a
00000220: b197 203b 5a0e 623a a15a 223b c71f 2f3b
00000230: 834f 26ba 0b39 823b 929d 693b 96ab f03a
00000240: d610 c53a 17b9 333b f114 823a bed3 193b
00000250: d376 3e3b a856 5bb8 914b 5e3b eae5 5b3b
00000260: c10d 8139 7cbc 4a3b 6064 4d3b c49a be38
00000270: 61e9 543b 6e9b 583b 9266 59ba ec9b 883b
00000280: cd34 603b c7ff 6837 36f5 593b 0cf5 593b
00000290: 0197 9939 56ab 473b 85f8 4a3b a6ef be37
000002a0: 5660 593b c387 593b dd65 8239 7a91 4a3b
000002b0: 257a 4e3b 3b79 2bb4 e4e0 5a3b b4e0 5a3b
000002c0: 4922 e537 f213 593b 2a4e 593b 527f 26b6
000002d0: d607 5b3b a207 5b3b 22e9 d936 4171 5a3b
000002e0: 1a74 5a3b ec3e 2bb6 0509 5b3b ba08 5b3b
000002f0: d471 9d38 a7f2 553b e62b 563b dfee 26b6
00000300: 0000 0000 1e25 f238 19ab d236 0000 0000
00000310: 15f2 f138 4593 77bb 0000 0000 0400 0080
00000320: b313 f8bc 225a 393a fc79 edb9 4a92 34b8
00000330: 1f6b 6a39 a625 0038 2be0 b338 b0e3 78b9
00000340: 0ed6 003a 494a b339 e398 ac39 7c7a 9db8
00000350: bf16 0939 bf48 bc38 2850 2c39 1719 5439
00000360: 1823 65b8 a6de a139 4117 9d39 bc7d 11b7
00000370: 32c6 8939 75fa 8939 e72e 3ab8 2080 9c39
00000380: 98a2 9a39 c232 b2b9 83b6 1b3a 02e4 b239
00000390: 920d 2db8 f8db 9a39 6ef7 9839 8258 40b8
000003a0: 5845 9d39 7b2b 9439 3340 2cb8 4bc2 9a39
000003b0: 9991 9839 6b92 2238 f2cf 6139 7074 6e39
000003c0: 2420 34b4 c750 8539 9850 8539 78b4 1a35
000003d0: eaec 8439 8a12 8539 12fb deb4 0472 8539
000003e0: c871 8539 d046 94b5 8bce 8539 fecc 8539
000003f0: 451d cfb4 0d6e 8539 366e 8539 cc44 56b5
