Config/results/BallCatcher_00/BoxBehavior.onnx (onnx, 89766 bytes, 4 tensors)

distribution.branches.0.bias f4 [3]
00000000: 0afc 123c 407c 433d e000 283c
0.008971224 0.047725916 0.010254115

distribution.branches.0.weight f4 [3, 256]
00000000: 89df 6bbc f6a4 b33c b7c8 8abc b1d2 52bd
00000010: e112 233e b6f7 55bd e148 053c ca2f 61bc
00000020: d736 6a3d 282a 203e 5da9 8bbd 9c6d 92bd
00000030: 2ad2 b53d 7493 0c3d 3f55 5abd 90c0 673d
00000040: e0c6 ea3d a987 883c 2e1b d83c f13a 9bbc
00000050: 314c a53c 9ddd dc3c 8793 3e3c d6db 713d
00000060: 3e4a e73b 571b fbbc 315b 47bd 1451 de3c
00000070: 99a0 70bd df0a bbbd c055 d33c 26ca 0d3d
00000080: 4cce da3c f50b bf3d 277b 7d3d c6ee 8d3d
00000090: 7c15 213c 1059 f33d 7c66 723e 0f40 3e3d
000000a0: 3837 2ebd e094 b43d 90c7 28bd 6562 03bd
000000b0: 707a 0b3d 8cf2 893d 1aa7 90bd 5b1b 7abb
000000c0: 7e4e e83d 6404 3c3d 0ef6 b2bc a00b 473d
000000d0: faaf 873d 258c bf3d 5099 683d 8da5 b43d
000000e0: 6911 a5bb 232e 663d 1ef2 cdbc 096f 213d
000000f0: 5e18 c13d 7f6a 86bd d2fe 993b a1f0 0d3b
00000100: a63f 2b3d 1b7e 55bd c3c5 2dbb c3b2 e73c
00000110: 58e0 113e 0c63 863d 9a0f 873d 13f1 3fbb
00000120: 61b0 abbd 62fc b7bd f876 923d b4da acbd
00000130: 2dd0 7fbd ce8e 263d dbf6 b03c 9569 6f3d
00000140: 4086 b4bd 62ce 943d 84ce ca3c 980e 503c
00000150: 169f 99bc 5694 c73c 08e7 8f3d 589c 8b3d
00000160: 9114 813d 9ba4 323d 96d4 a03d 7852 e7bd
00000170: 6b2d ab3d f38d 96bc 6b88 9a3b 0996 58bc
00000180: 3b4e 4f3d 60f6 96bd ad41 4f3d 1c7e 0c3d
00000190: 2306 8fbd 91c9 8f3d e313 373d 855d 063c
000001a0: 7bfe b0bd 60df 0f3e e00f 8f3d c27a 083e
000001b0: b7e9 6b3d a46a 863d 019c b5bc a535 9a3c
000001c0: 60d4 bf3d 29ae e13c bcc4 f5bb 6438 ea3c
000001d0: e269 08bd 8c68 b53d c5e5 28bd b82e 7dbd
000001e0: ed7b ae3d 627d 7f3d 2f39 6d3d c124 0abe
000001f0: 9bf0 bb3d 4c7b ddbd 25d0 55bc d424 52bc
00000200: d7d4 0d3e 6d60 883d d3d1 f23d b2c3 823d
00000210: 718c 5b3c f6bf 8ebd d380 8bbd fafb 50bd
00000220: 213f 8e3c d50c b9bd e731 083d 565e 053d
00000230: 16ca 0dbe 7a1e a8bd b28e 943d b92e 6c3d
00000240: 0518 02bd 4228 49bb e99b 0a3d c45b 44bd
00000250: 3c32 213d b42b 1e3d 2d3e 7abd 5145 0b3d
00000260: 7c1d eb3d 090c dfba 32d3 f93c 1a71 993d
00000270: 74fb 023d 85ec 1a3d d54f 5ebc 1c2c c73d
00000280: 588e 15bc a318 90bc fdcc 643d 574e d0bc
00000290: 461f 40bc d82a b23d 18cf 613d 6892 4b3d
000002a0: e866 24bd ade4 fcbd a82c 603d a6c9 ef3c
000002b0: 4c44 41bd 9581 b7bb d745 79bd faa1 d63c
000002c0: 9534 fb3d 3ce1 f93c 8574 ee3c 61ed 6f3d
000002d0: d55e c93b f926 c8bd f172 103d d427 673d
000002e0: c585 e9bc 4aba b13d 0c78 3b3d 3e46 593c
000002f0: aa84 623d f8c0 a73c 0ed0 8e3d d427 f93c
00000300: 34f0 c83b 05b1 743d 7fdd bc3d d30f 633d
00000310: f2a2 3f3d efcc d73d c0fe 85bd f0d2 963c
00000320: 3e87 a6bd 55b5 633c f119 20bc 9db8 1b3d
00000330: 92fb 363c f4b2 373d cff5 883d 60f9 9abd
00000340: 91cd 2d3e 5b5a eabd 756a 49bd b3eb b8bd
00000350: 8fbd 81bb 3b5b 083d 992f b33c db40 22bd
00000360: f7cb b33d 20e8 273b 9d4e 333d 74ab e43b
00000370: 601c a3bd 590c a0bc 8b51 29bc 9abb 7c3d
00000380: 3eee 14bd 77dc 193d fa3d 103c 47ff b03d
00000390: 625d 66bc c415 30bd 0927 a4bd 01af 263d
000003a0: 2f85 5ebd e056 56bb 919e 82bd 8989 5cbd
000003b0: 2aab 9cbb 9a46 933d 394d a83d fd50 f53b
000003c0: f9e3 b53d 8bd6 70bd 63a7 06bd 26c6 9dbd
000003d0: 51bf 613d 05ce 0e3e d469 6fbd 912a 3dbd
000003e0: 1bd9 ba3b f6e3 d8bc 34de fb3b d1b6 2d3e
000003f0: d9d4 9bbd 3be7 a53d ccee 61bd 1de3 dfbd
-0.014396557 0.021929245 -0.016941411 -0.051470462 0.1592517 -0.05223819 0.0081350515 -0.013744304
0.057181206 0.15641081 -0.06819413 -0.071498126 0.08877976 0.03432031 -0.053303953 0.056580126
0.11463714 0.01666625 0.026380148 -0.018949004 0.020177932 0.026961142 0.011631853 0.059047543
0.007058411 -0.030652685 -0.04867095 0.02713827 -0.058746908 -0.09132933 0.025797725 0.034616612
0.026709698 0.093284525 0.061885025 0.06930308 0.009831782 0.11882222 0.23671907 0.04644781
-0.04253313 0.08817458 -0.041205943 -0.03207626 0.034052312 0.06735715 -0.07063122 -0.0038163278
0.11343096 0.045902625 -0.021845844 0.04859507 0.06625362 0.09352902 0.056786835 0.08820639
-0.005037476 0.056196343 -0.025139865 0.039412532 0.09428476 -0.06563281 0.0046995664 0.0021658319
0.041808747 -0.052122217 -0.002651558 0.028283482 0.14245737 0.065618604 0.06594773 -0.0029287979
-0.08383251 -0.08983685 0.07151598 -0.08440152 -0.06245439 0.040663533 0.021602085 0.0584503
-0.08814669 0.07265927 0.024756677 0.012698792 -0.018752616 0.024362724 0.070264876 0.068169296
0.06302751 0.04361401 0.078530475 -0.112950265 0.08358272 -0.018378234 0.0047159693 -0.013219365
0.050611716 -0.07371211 0.050599743 0.034299955 -0.06983592 0.070208676 0.0446967 0.008201008
-0.08642288 0.14050055 0.0698545 0.13328078 0.057595935 0.06563309 -0.022169115 0.018824408
0.09366679 0.027548866 -0.007500259 0.028591342 -0.033304103 0.08857831 -0.04123475 -0.061812133
0.08519731 0.062375434 0.057915863 -0.13490583 0.09176751 -0.10814533 -0.013050114 -0.012826163
0.13850723 0.06659017 0.11856427 0.06384982 0.013400183 -0.069702074 -0.06811681 -0.051021554
0.017364087 -0.09035651 0.033250716 0.03256067 -0.13846621 -0.08208938 0.072537795 0.057661746
-0.031761188 -0.0030694162 0.033840094 -0.047939077 0.039354548 0.038615897 -0.06109445 0.034001652
0.11480233 -0.0017017137 0.030496214 0.074922755 0.031978086 0.03782322 -0.013568838 0.0972521
-0.009128176 -0.017589873 0.055859555 -0.02542798 -0.011726206 0.08699578 0.05512914 0.04970017
-0.0401372 -0.12348304 0.054730088 0.029270958 -0.047184274 -0.005600164 -0.06085762 0.026200283
0.122658886 0.030502908 0.029108295 0.05857599 0.006145338 -0.097730584 0.035265867 0.056434467
-0.02850617 0.0867811 0.045768782 0.013261376 0.0553023 0.020477757 0.06973277 0.0304145
0.00613215 0.05973913 0.092219345 0.055435013 0.046786256 0.10537135 -0.0654273 0.01841113
-0.08131264 0.013898213 -0.00977181 0.038017858 0.0111683775 0.044848397 0.06687509 -0.07567096
0.16972949 -0.11443015 -0.04917379 -0.09029331 -0.0039593647 0.03329013 0.021873282 -0.039612632
0.087791376 0.0025620535 0.043776143 0.0069784466 -0.079643965 -0.019537138 -0.010334383 0.06170235
-0.036360018 0.037563767 0.008803839 0.0864244 -0.01406035 -0.042989507 -0.08015258 0.04069424
-0.054326233 -0.003270559 -0.063779004 -0.0538421 -0.0047811465 0.071912006 0.08217854 0.007486461
0.08881373 -0.058798354 -0.032874476 -0.077038094 0.055114094 0.13945778 -0.058450535 -0.046183173
0.0057021505 -0.026475888 0.007686401 0.1696427 -0.07608957 0.08100744 -0.055159375 -0.1093199

network_body.linear_encoder.seq_layers.0.bias f4 [256]
00000000: 4032 a1bd 52ce dbbd e6c3 2fbe 36bb d1bd
00000010: 26d0 903d 7a48 8ebd f1b0 4bbc 19c0 94bd
00000020: aaa2 59be 3cad a3bd d466 e8bd 59e5 8b3c
00000030: 02be de3c c6bf 39be a980 1ebe 8e62 1dbe
00000040: e5a4 a4bd 7672 31be 14a3 a0bb efee f0bd
00000050: 6174 9ebc 1e97 98bd 9304 303c be12 52bb
00000060: f0c4 36be acf8 fbbd ddee 9cbd c1c0 e73b
00000070: ee9c 0dbe 5889 07be 0223 a7bd ab98 5abe
00000080: 23e6 85bd 7688 e9bd 5e0d b43c cdbd 8cbc
00000090: 6217 63be e043 d83c 1e92 c93c 7679 2bbe
000000a0: 6115 ec3c 9334 353d 4a85 26be c96f 8ebd
000000b0: d29e 303d 3ab1 08be ed47 edbd 48f8 bebc
000000c0: 6cc8 e7ba 848a bbbd 49e7 3cbe b142 a8bd
000000d0: 4636 c4bd 7e31 413d 64a0 6dbe 30ae b7bd
000000e0: cc7e 0c3d 11c5 44bc 866d 1d3d 6274 b23b
000000f0: e88d c8bd 1334 f3bd eda0 30bd ba8e c7bd
00000100: ce5f f6bc 5e8f b2bd c49b 57be 31a2 d6bd
00000110: 3993 6b3d 37d3 563d 980f 5abe d0c6 ebbd
00000120: 3c74 d9ba 8057 52ba 6863 1fbe a945 eb3b
00000130: 751e 11be 8f89 123d db76 14be 0cb8 02be
00000140: 4f6a f1bb 5622 0abe 2971 d43c fc51 183b
00000150: a469 5ebe c69d 33be 6dfb cc3b 9973 cfbd
00000160: 460d 203c 88e8 51bd e3ec 6a3c 3f61 7dbc
00000170: a1bb 833c 6657 e5bd 8e65 a4bc c896 f2bd
00000180: 1080 50be 1ec9 743d 8c21 0abd 5d4b 43be
00000190: 3188 78bd e91a 1c3d 9533 1d3d 7749 7d3c
000001a0: e012 f239 0cc7 ed3c b6e9 083d b612 12be
000001b0: cf46 0cbe 0119 de3c 9397 8d3c fb09 9d3c
000001c0: 5feb 3fbb 8657 e9bd 98f1 0dbc 16e0 3dbc
000001d0: 560c 57bd 9c8a 333c a2ff a7bc d165 ecbd
000001e0: c4d0 463d 6739 e5bd b785 d1bd e8ce 463c
000001f0: ae65 02be 690b aabd 8b63 62bc b9f7 23be
00000200: 44c6 a2bc a88d 9d3d a67e e6bd 6da5 6bbd
00000210: 84e7 fabd 9fda 253c 05ec 843c f4e3 cabd
00000220: 15f3 d4bd 2723 e0bd 6bad 1cbe 56f0 5dbe
00000230: 0512 4cbb ed49 80bd 5780 30be f0c2 03be
00000240: 5477 afba ab2d 823c ec7a 5fbc 8315 883c
00000250: f6c7 36be 2d4b d03c 6fdb bebd 484e 3dbe
00000260: 789b 06be 302a 36be 2ad5 e3bd 401c 11be
00000270: cb85 9239 1559 2bbd 8ba0 4fbe e202 ffbd
00000280: 629d c9bc 562a c3bb 3d73 0fbe cae6 dbbd
00000290: b15b eebd 74bb 4abe 0a56 d3bd 03d0 afbd
000002a0: a314 06be 47b6 25bd 7c79 31be dcf2 6d3d
000002b0: c84f 02bc 016a 94be 29b1 b13c 064c 19be
000002c0: 0c4f cf3c d413 3fbe 158b b2bd ed06 44be
000002d0: 6623 f5bd 14b6 c3bd 73c4 353c a66a 59be
000002e0: 5a43 9e3c 2bc7 813c 511c 06be f5e0 bd3c
000002f0: 956b 633d a9ec 183a 8c9a 7fbd 60a7 22bd
00000300: f2eb 9abd 1d66 13bc b6ad e53c 9038 393d
00000310: 9e31 f0bd 7ab3 8f3c b066 ce3c 283e 20be
00000320: e72a 893c 02dd 15be 9bca d6ba 2b32 813d
00000330: 59d7 9e3c 4d83 80be acad 3cbe 547b 55bd
00000340: ad49 dd3c 32d0 36be 486f eabd cb98 17be
00000350: b210 efbd 13b3 8abb 8ced 42be 08af e0bd
00000360: a4ce 4bbe 8893 12bc 9039 edbd 449c 1c3c
00000370: e324 393c b988 0ebc 754a ddbd 6097 4bbb
00000380: f149 54be c3af 38be f9cc 3f3c 64a2 ff3c
00000390: cd84 75be ed26 07bc 039e 89bd 0a18 48be
000003a0: 67d7 803c f533 35be be6b 33be 1539 5ebd
000003b0: cc17 0e3d b479 073d 9965 6d3d da81 93bd
000003c0: d148 6b3c 437c f13c 142b ffbd 2d45 4dbb
000003d0: b938 40bd 92c1 603d c54c d4bd 540f d93c
000003e0: 252f 123d b8fb ebbd fc09 28be 5449 213d
000003f0: e9fe 33be d7b1 0fbe 6c5f e4bd 4b77 94bc
-0.078709126 -0.10732712 -0.17164573 -0.10240786 0.07070951 -0.069474176 -0.012432323 -0.07263202
-0.21253458 -0.07992026 -0.11347738 0.017077135 0.027190212 -0.18139562 -0.15478767 -0.15369627
-0.08039264 -0.1732882 -0.004902253 -0.11764323 -0.019342603 -0.07450698 0.010743278 -0.0032054628
-0.17848563 -0.1230329 -0.07662747 0.0070725386 -0.13829395 -0.13235986 -0.08160974 -0.213473
-0.06538036 -0.11402981 0.02197903 -0.017180348 -0.22176889 0.026399553 0.024605807 -0.16745552
0.028818788 0.04423959 -0.16261783 -0.06954915 0.043120213 -0.13348857 -0.115859844 -0.02331175
-0.0017683632 -0.09157279 -0.18447603 -0.082158454 -0.09580664 0.04716634 -0.23205715 -0.089687705
0.03430061 -0.012009875 0.038434528 0.005446003 -0.097926915 -0.11875167 -0.04312222 -0.0974402
-0.03007498 -0.08718751 -0.21055514 -0.10480154 0.05751345 0.052447524 -0.21295011 -0.1151253
-0.0016590427 -0.0008023903 -0.15565264 0.007179935 -0.14171775 0.035775717 -0.14498465 -0.12765521
-0.0073674093 -0.1348966 0.025932865 0.0023242226 -0.21719986 -0.17540655 0.006255558 -0.101294704
0.00976879 -0.05124715 0.014338705 -0.01546508 0.01608068 -0.111983106 -0.020067956 -0.118451655
-0.20361352 0.059762113 -0.0337234 -0.19071718 -0.060676757 0.0381116 0.03837927 0.01545941
0.000461719 0.029025577 0.03342601 -0.1426495 -0.13698886 0.027111532 0.01728419 0.019169798
-0.002928458 -0.11393647 -0.0086635575 -0.011589071 -0.052502 0.01095834 -0.020507637 -0.115428574
0.04853894 -0.11192589 -0.10230582 0.012134291 -0.127341 -0.083029576 -0.013817678 -0.16012467
-0.019869931 0.076930344 -0.11254625 -0.05753081 -0.12251189 0.010122924 0.016225824 -0.0990676
-0.10397927 -0.10944205 -0.15300529 -0.21673712 -0.003113867 -0.062641 -0.17236458 -0.12867332
-0.0013387003 0.015890917 -0.013640147 0.01661182 -0.17849717 0.025426472 -0.093191974 -0.18486893
-0.13145244 -0.17789531 -0.11124642 -0.14170933 0.00027946974 -0.041833002 -0.20276086 -0.12451722
-0.024611179 -0.0059559746 -0.14008804 -0.10737379 -0.116385825 -0.1979807 -0.10319145 -0.08584597
-0.1309381 -0.040457036 -0.17331499 0.058092937 -0.007953592 -0.28987125 0.021690922 -0.14970407
0.025306247 -0.18659908 -0.08717934 -0.19143267 -0.11969642 -0.09556213 0.0110942 -0.2123209
0.019319225 0.015842041 -0.1309674 0.023178557 0.05552252 0.0005833605 -0.062403247 -0.039710402
-0.07564534 -0.008996514 0.028036933 0.045219958 -0.11728214 0.017541636 0.02519545 -0.1564871
0.01674409 -0.14635089 -0.0016387285 0.06308397 0.019389795 -0.25100175 -0.18425626 -0.052119568
0.02701267 -0.17852858 -0.114470065 -0.1480438 -0.11673106 -0.004232773 -0.1903593 -0.109708846
-0.19903046 -0.008946307 -0.11583245 0.009558741 0.011300298 -0.008699589 -0.10805217 -0.0031065568
-0.20731331 -0.18035798 0.011706584 0.031205364 -0.2397644 -0.008249027 -0.067195915 -0.1954042
0.015727712 -0.17695601 -0.17521569 -0.054253656 0.034690663 0.03307505 0.05795822 -0.072025016
0.0143606225 0.029478198 -0.124593884 -0.003132175 -0.046929095 0.054872103 -0.10366205 0.026496567
0.03568949 -0.11522621 -0.16410059 0.03937657 -0.1757771 -0.14032684 -0.11151013 -0.01812329

network_body.linear_encoder.seq_layers.0.weight f4 [256, 82]
00000000: 0c4d fc3e ce56 bfbe 9bad 28be 8715 14be
00000010: c47c dcbd a512 2e3d b336 933c 1280 d2bc
00000020: f436 81bd 4ad5 d43d ae17 aebe 773f 88be
00000030: 7568 58be c145 bdbc 08b3 5fbd b795 5a3d
00000040: af89 84bd 958a 5c3e 76ce e2be b179 64bd
00000050: 1542 b2bd 9dd2 0cbd 1f37 df3d e8aa 13bd
00000060: ce5b 8abb f3a9 9ebb 1fe4 293d f89e 173e
00000070: 5cd5 d4bd 0049 73be f31e 063d 059f 99bc
00000080: 4902 de3d fb6b cebd 65ea f03c 181b ea3c
00000090: d70e 78be 6e02 403d 4479 4f3d 530b ef3d
000000a0: 12e1 22be c78a 80be 1222 d93d 3ce7 79be
000000b0: fc47 57bd 91fc 9c3e 902f 9bbe cdc1 41be
000000c0: 9748 76be ca11 11bd 8a48 4f3d b628 2bbe
000000d0: a610 3c3d 5172 b6bd f7f8 ebbe 6485 20be
000000e0: 37be adbd c405 1f3e e7c2 20be d1f2 a7be
000000f0: 9a62 8a3d 082a 0fbe 0297 13be f994 73bd
00000100: b245 6cbd d5f1 79bd b375 84bc 1ccc f2bc
00000110: 1c88 c43d 6941 a23e 4244 c5bd 9a66 93bd
00000120: bef1 4bbe 1ae4 b33c a96e 923d 74e6 cc3d
00000130: da9e 93bd 409e e63d 108c eabc fa5a e7bd
00000140: b124 7c3d 2167 5ebe 9eb5 2dbe adc7 04bd
00000150: 9f54 1cbe 7fe4 d4bd 22a8 323e a6af cc3c
00000160: 38d9 053e 269e 0ebe 1e92 a5be 6409 4e3e
00000170: 2083 02be f7ef 1a3c 8cae a9be 61cc 15be
00000180: 0113 22be 6bb5 c6be 6217 243c dd15 563d
00000190: 6356 64bc b377 03be 5290 88be c4ed afbe
000001a0: 5a0a 143c 20c3 3d3d 29ab 7d3e 90af febd
000001b0: eca1 48be 543f 3abd e43d 4abd 4798 3abe
000001c0: 639b 6c3d ae03 eebd ab5d 73bd c169 413e
000001d0: ba3b f93d ee97 823d 84f3 6d3d f22e 91bd
000001e0: 9d95 03bd e8d0 31be 23d7 53bd 2b6c 7abe
000001f0: ed7e 9b3d c173 6ebd 3a61 41be 75a6 473d
00000200: 1b0e c4be 48d1 d8bd 81b7 e9be 4cd5 cabc
00000210: 1c60 52be 21a3 5c3d d26a 3bbd f31c dcbc
00000220: 4256 59be 30ab 1dbe 15ef 8ebe 9001 b1be
00000230: 3bbc 4ebc 6203 c1bd 238b febd 10f2 05be
00000240: adc9 b3bd 518c 32bd b260 32be bf4d 44be
00000250: cf38 9c3d dac2 90bd 8da0 af3d 7ff0 84bd
00000260: adba 1cbe 0ca5 d5be 2229 82be c729 47bd
00000270: 91b2 aa3d f354 013e baff 7bbd 282d 2fbe
00000280: 4b38 06be b2f0 a43d 05d1 0f3c a427 ae3d
00000290: 03e0 753e b2fd 09bf 1d3f 89be 948a 33be
000002a0: 4d85 953d 23e8 66be 47e3 a7be 78a5 1fbd
000002b0: ef38 6ebe d104 52be b61f f8bd b98d 1cbe
000002c0: 2c46 0cbe fb99 15be ed73 41bd d86a 61be
000002d0: 6fdd 2fbe 3ac0 babd e252 e9bd a85e afbe
000002e0: 5d53 6e3c f3cd 733c 7d67 86be d192 95be
000002f0: 997b 3a3d e445 17be cb1a 92be 2cb1 edbd
00000300: 0f7c 493c 5b60 40be c7b7 27bc b835 6abe
00000310: fc54 3cbe 510a 34bd bb79 883d 96bf 1ebe
00000320: 33aa 1bbd 28f3 073e bdcf 20be 2b2a 6abe
00000330: 8b80 003e 5dff 92bd 1517 c0bd 5b17 013e
00000340: 2eea 3cbb e5de 873e 5d49 9dbe 732a 92be
00000350: fe38 09be 5cae 53be adb3 55be 079f 85be
00000360: bf41 dd3d fde6 9bbd eb47 0bbe f9fc 913d
00000370: fa99 28be ba71 b2be 152c 7cbd 06cf 0ebe
00000380: a4b2 b73d fad8 73be 061a 0ebe 719a 813e
00000390: dd9e c6be 8fad f1bd 772c 91bd 9be7 61be
000003a0: 2761 9abc 0e23 423e 22a6 323d 26fa fb3c
000003b0: 9b9e 69bd f0ae 84bd 680c 17be 38e2 9f3d
000003c0: c76e 00be 8abf 30be 270b 71bc a026 143e
000003d0: e674 a03d 5543 8bbe d415 023f 50db 6abe
000003e0: 9849 b0bd 5a19 04be cf27 afbd cf82 11be
000003f0: 5d0f b53e 74ff 8fbe a97f 93bd ed34 833c
0.49277532 -0.37370914 -0.16472475 -0.14461337 -0.10765985 0.04249825 0.017970419 -0.025695834
-0.063093096 0.10392244 -0.3400244 -0.2661092 -0.21133597 -0.02310455 -0.054614097 0.053365435
-0.064715736 0.2153724 -0.44298142 -0.055780116 -0.087040104 -0.034380544 0.108991854 -0.03605166
-0.0042223698 -0.004842037 0.04147732 0.14806736 -0.103922576 -0.23758316 0.03274436 -0.018752584
0.108402796 -0.100791894 0.029408643 0.028577372 -0.24224411 0.046877317 0.050652757 0.11672082
-0.1590617 -0.2510588 0.106022015 -0.24404615 -0.052558884 0.30661443 -0.30309725 -0.18921585
-0.24051128 -0.035417356 0.050606288 -0.16714749 0.045914315 -0.08908523 -0.46088383 -0.15675884
-0.08483546 0.15529543 -0.1569935 -0.32802442 0.06757088 -0.13980877 -0.14413074 -0.059468243
-0.057683654 -0.061021645 -0.016169405 -0.029638343 0.09596273 0.3169053 -0.0963216 -0.07197304
-0.19916436 0.021959353 0.07150013 0.10004893 -0.07208033 0.112606525 -0.02863124 -0.11296649
0.06155843 -0.21719028 -0.16963813 -0.03241699 -0.15266655 -0.10395145 0.1744695 0.0249861
0.13071144 -0.13927516 -0.3233804 0.2012077 -0.12745333 0.009456626 -0.3314098 -0.14628746
-0.15827562 -0.38810286 0.0100153405 0.052266944 -0.013936612 -0.1283863 -0.26672608 -0.34361088
0.009035671 0.046328664 0.24772324 -0.1243583 -0.19593018 -0.04547055 -0.04937543 -0.18222152
0.057765376 -0.116217956 -0.0594155 0.18887998 0.12169595 0.063766345 0.058093563 -0.07089032
-0.032125104 -0.17364848 -0.051718842 -0.24455325 0.075925685 -0.05821586 -0.18884745 0.04874273
-0.38292012 -0.10586792 -0.45647815 -0.024759911 -0.20544475 0.05386651 -0.04575617 -0.026869273
-0.21224311 -0.15397334 -0.2791678 -0.34571505 -0.01261812 -0.09424473 -0.12428882 -0.13080621
-0.08778701 -0.043590847 -0.17419699 -0.19170283 0.07628023 -0.07068415 0.085755445 -0.064911835
-0.15305586 -0.41727483 -0.25422007 -0.048623826 0.0833484 0.12630062 -0.061523177 -0.1710707
-0.13107412 0.080537215 0.0087778615 0.085036546 0.24011235 -0.53902733 -0.26805964 -0.17533332
0.07300816 -0.2254949 -0.32790586 -0.038976163 -0.23263906 -0.2050965 -0.121154234 -0.15288438
-0.13698643 -0.1460952 -0.047229696 -0.22013414 -0.17174314 -0.091186956 -0.11392762 -0.34251904
0.014546243 0.014880645 -0.2625083 -0.29213575 0.04552803 -0.14772755 -0.28536066 -0.116060585
0.012297644 -0.18786757 -0.010236687 -0.22872055 -0.18391794 -0.04395515 0.06663843 -0.15502772
-0.03800411 0.1327635 -0.15704246 -0.22867648 0.12549035 -0.07177613 -0.093794025 0.12606566
-0.0028826105 0.26537243 -0.30720034 -0.2854801 -0.13400647 -0.20671982 -0.20869322 -0.2609789
0.10803556 -0.07612417 -0.13601653 0.07128329 -0.16464987 -0.3485239 -0.061565477 -0.1394616
0.0896962 -0.23813239 -0.13877115 0.25313142 -0.38793078 -0.11800682 -0.07088559 -0.22061007
-0.018845154 0.18958685 0.043615468 0.030758929 -0.057036024 -0.06478679 -0.14750826 0.0780682
-0.12542258 -0.17260566 -0.014712132 0.1446786 0.078347966 -0.27199808 0.5081456 -0.22935224
-0.08607787 -0.12900296 -0.08552515 -0.14210056 0.35363284 -0.28124583 -0.072020836 0.016016448
