Config/results/BallCatcher_00/BoxBehavior/BoxBehavior-999995.pt (torch, 532751 bytes, 21 tensors)

network_body.linear_encoder.seq_layers.0.weight f4 [256, 82]
00000000: 6065 cc3e bd68 53be 8d6a 6dbd 0d1f 37bd
00000010: 431f 3ebd 69c0 003e 1106 b83c 433c 8a3d
00000020: f401 f73b 2375 863d 3eed 5fbe d5e6 3ebe
00000030: 6853 483d 88e2 673b 94f1 9cbb 3bd1 cdbd
00000040: 3750 4b3d 8e3e a73e d2af 453d fc05 e6bc
00000050: 435f 4fbd 7263 123d edf2 2c3e 67e8 d13c
00000060: 5ba8 933e 845e 3f3d 4c94 c63d 0d80 203d
00000070: 7e0e 7abb d1e3 0ebe 6af9 643e cfac 3a3d
00000080: 37eb 313e 24e2 d0bd 65ea f03c d28d e03d
00000090: 1926 a23d 74d8 1c3d 3c27 013e e30f 943d
000000a0: 4361 e2bc 3519 1abe f2d3 023c 3932 a7bd
000000b0: 4aed 813d 242c d23d 8f7a 85bd 372f 1cbd
000000c0: daf3 17bd 168d 9a3c 2d75 e93d 5f76 13be
000000d0: f674 093e 3034 84bb fd24 dfbe 3d44 95bd
000000e0: 0a66 b4ba 8214 893e 1a98 aabd c01b 78be
000000f0: 7394 43bd 4ada 47bd f9a1 5cbd 83ad 473e
00000100: 90ff 0dbd a0ee f3bc 8e27 4bba ed06 593d
00000110: 4084 373e 47a7 d33e a8c4 46bd ee70 b1bc
00000120: 82a6 37be ad82 4b3c 0622 0f3e fb88 303e
00000130: da9e 93bd 5724 413e 6a00 3b3d fa5a e7bd
00000140: b124 7c3d 1923 6bbd fb72 92be d7de 013e
00000150: 0cf6 10bd 56bf cf3d be47 513e ae38 e13d
00000160: 627a cc3d f0e6 eebc 86af 53be e1b5 5d3e
00000170: ee5a b4bc f38d ed3d 53c8 c3bd 9036 91bd
00000180: 7bee 92bd 4177 1bbe e0b8 ab3d 8438 193e
00000190: 3ed7 5dbd b17f cabc 6055 29be 536a 27be
000001a0: 06c7 d03d 35d4 153e e91d 973e d811 f0bc
000001b0: 0257 cbbd 325e ba3b 370b 8c3d 56e4 80bd
000001c0: a668 1b3e 19ac ecbc 73ca ff3c 651b 333e
000001d0: ba3b f93d 552b 2e3e 1589 e53d 4e6d 7ebd
000001e0: 84af 863d ba45 31bd 1b60 debc 16f0 2ebe
000001f0: bb3e 303d a9be c43d f510 32bd f478 6fbe
00000200: f32c e3bd dfe7 3c3d aa61 55be 3866 283d
00000210: da86 e4bd ff61 fdbd 0039 d13d 5724 c33d
00000220: e50f c1bd 29f3 44bd b881 32be d930 84bd
00000230: 76a1 893d 9394 c2bb 1627 cabd bc56 e5bc
00000240: fe04 8e3c ce76 1fbe 3e41 58bd 862b 94bd
00000250: bcd9 1b3e db46 ff3c f306 423e ff0d cdbc
00000260: 7abb 4abd ad1b 9fbe 5acc 09be 9be7 c4bc
00000270: 6f6e 383e 6e7c 30bc baff 7bbd f5f3 79bd
00000280: 9096 f1bd b2f0 a43d 05d1 0f3c 11a9 7b3e
00000290: c908 c23e 8724 d8be e203 13be 8b17 013d
000002a0: b75d 073e 219f 13be cfe9 56be a80c 7e3d
000002b0: 8447 dbbd dbaa fabd c59e f6bb 9a63 f8bc
000002c0: 97df 46be 0403 a0bb ae59 cf3d 7d76 02be
000002d0: 2e8e 69bd aba1 e93c ceb3 03be 5624 53be
000002e0: 9efe 1f3e 961b 10bc 4a30 01be 8bfb 1ebe
000002f0: 2506 07bd d34c faba ad00 13be 52c2 2dbe
00000300: 0964 333e da9b c7bc acac 0a3d 7ab4 c0bd
00000310: 50f2 49bd babc 44be bb79 883d ce1f 73bc
00000320: 3d83 82bd 967b c83d 34ce f3bb 818a bcbd
00000330: e664 503e d06a 103d 04e5 80bd ee0e 853e
00000340: 9804 0a3e 15df 963e 7d2d 1ebe 08e8 16be
00000350: 74ea f1bd a3ad 8cbd 9979 93bd 8386 fdbd
00000360: 38cc 603e a5ce 253d b0db dabd 3660 503e
00000370: 74fc f7bc 4c3b dfbd d5aa 333d a182 a5bc
00000380: e78d 68bc 125d bfbd bdce b23b 26cf 7f3e
00000390: cb25 7fbe 5bc6 733c 4bad 0fbc bbc7 a2bd
000003a0: 5561 fc3d 0494 2d3e 2701 443e 0c20 353e
000003b0: e966 02bc b527 6dbd 85ff b8bc d38d 1a3e
000003c0: c76e 00be 17db 07bd 5b83 dd3d a026 143e
000003d0: e674 a03d aa9d 2fbd 06e9 a43e 4ee8 223c
000003e0: 2ef5 583d 0b5d 9abc ee3e c3bc ff18 e539
000003f0: d4a3 8a3e f287 bebd 32cb 753d b30e f33c
0.39921093 -0.20645423 -0.057962943 -0.044707347 -0.046416532 0.12573399 0.02246383 0.06749775
0.0075380746 0.06565311 -0.21867844 -0.18642743 0.048907667 0.0035382826 -0.0047895405 -0.10049673
0.049637046 0.32664913 0.04826338 -0.028079025 -0.050627958 0.03573937 0.16889544 0.025623513
0.28839383 0.046720996 0.09696254 0.03918462 -0.003815561 -0.13954093 0.22360769 0.04557496
0.17374884 -0.10199383 0.029408643 0.1096455 0.07917423 0.038292363 0.12612623 0.07229593
-0.027634269 -0.15048678 0.007985102 -0.08163876 0.063440874 0.102623254 -0.06517517 -0.038130965
-0.03709779 0.018866103 0.11399303 -0.14400624 0.13423523 -0.0040345415 -0.43582907 -0.07288406
-0.001376332 0.2677346 -0.08329792 -0.24229336 -0.047748994 -0.04879216 -0.053865407 0.19499783
-0.03466755 -0.029776871 -0.00077497296 0.05298512 0.17921543 0.4133856 -0.04852739 -0.021660294
-0.17934611 0.012421292 0.13977823 0.17239754 -0.07208033 0.18861519 0.04565469 -0.11296649
0.06155843 -0.05740652 -0.28603348 0.12682663 -0.0353909 0.10143916 0.20437524 0.10997139
0.0998428 -0.029162854 -0.20672426 0.21651413 -0.022016015 0.1159934 -0.09559693 -0.07090485
-0.07174393 -0.1518221 0.083848715 0.14962965 -0.05416035 -0.024719091 -0.16536474 -0.16349153
0.10194211 0.14631732 0.29515007 -0.029305384 -0.09928705 0.0056874985 0.068380766 -0.062935516
0.15176639 -0.028890656 0.031224465 0.17490919 0.12169595 0.17008717 0.11207787 -0.06211596
0.06576446 -0.043279387 -0.027145436 -0.17083773 0.043028574 0.09606678 -0.043473203 -0.23385984
-0.11092558 0.046119567 -0.20838037 0.04111311 -0.111585334 -0.12372207 0.1021595 0.09528416
-0.0942686 -0.048083458 -0.17432296 -0.064546295 0.06720249 -0.0059381216 -0.09870736 -0.02799546
0.017336365 -0.15572664 -0.052796595 -0.07234864 0.15219778 0.031161716 0.18947963 -0.025031088
-0.049495198 -0.31075802 -0.1345686 -0.02403622 0.18010877 -0.010771854 -0.061523177 -0.06102367
-0.11796296 0.080537215 0.0087778615 0.24576212 0.37897328 -0.42215368 -0.1435695 0.031516593
0.13219343 -0.14416172 -0.20987628 0.06202379 -0.10707 -0.12239619 -0.007526251 -0.030320931
-0.1942123 -0.004883172 0.10124527 -0.12740512 -0.05702036 0.028519472 -0.12861559 -0.2061933
0.15624472 -0.0087956395 -0.12616077 -0.15525644 -0.032964844 -0.0019096382 -0.14355727 -0.16968659
0.17518629 -0.024366308 0.03385608 -0.09409423 -0.049303353 -0.19212618 0.06663843 -0.014839126
-0.06372688 0.09789197 -0.007440353 -0.09206105 0.2035099 0.035258114 -0.06293681 0.25987953
0.13478315 0.29467073 -0.1544704 -0.1473695 -0.118122965 -0.06869056 -0.07200927 -0.12379172
0.21952903 0.040480275 -0.10686433 0.20349202 -0.030271746 -0.10899982 0.04386409 -0.02020389
-0.014193988 -0.09343924 0.005456774 0.24981365 -0.2491676 0.014878835 -0.008769344 -0.07948252
0.12323252 0.16950995 0.19141065 0.17688006 -0.007959106 -0.057899196 -0.022582779 0.15093164
-0.12542258 -0.033167925 0.1081607 0.1446786 0.078347966 -0.04287497 0.32209033 0.009943081
0.052968197 -0.018843194 -0.023833718 0.00043696907 0.27078116 -0.09303273 0.060008235 0.029670095

network_body.linear_encoder.seq_layers.0.bias f4 [256]
00000000: b5f7 d93b 0a60 7439 78d9 06bd 5f23 edba
00000010: 1e53 033d 1bba 06bd f331 d6bc 66f6 fdbc
00000020: 1013 8cbd 8ab6 d0bd b3b5 0d3c 420a 15bd
00000030: 2fb4 5e3c ebae acbc 7d63 0ebd 6f93 10be
00000040: eeab d4bd c59c 60bc 0c18 a8bc 1c96 e13b
00000050: b184 3bbc c562 543c 8fe5 93bb 1c7e 26bc
00000060: 02f7 0b3d 258f 683c df3e 063d f0e3 0f3c
00000070: 80af b33a 8b3f d4bd 0a71 16bc 9447 2ebc
00000080: 25ae 40bb 2e26 93bd 9e53 993c 4823 d2bc
00000090: e737 f4bd 6705 39bc a649 f53c 464c ccbd
000000a0: aa96 a33c 8352 453b 6715 b4bd 0f27 013b
000000b0: 9ef2 793c 0c35 0ebd 3d9b aebd b99d 75bc
000000c0: df2a 94bc d99f 97bd 783b 3f3b 2dbc b3bd
000000d0: 8c26 bfbd 7b88 c63b 459a 1ebe 66d8 a2bd
000000e0: ebe5 853c 3e6f 1cbd 6434 aebc 57cb b7b8
000000f0: 3566 d1bd 60d5 e83b bba5 ad3b ec48 a6bd
00000100: 8694 55bc 3477 ff3c 1d44 7b3b 5afb b33b
00000110: d5ba 103d 8c59 073d 1abf efbd 69c1 f4bd
00000120: d549 53bc b3f6 373a b968 c3bd 87bf e33a
00000130: e519 97bd 7a3e 65bb dd53 11bd 451f 0cbe
00000140: cf4c 7e3c 9e95 4cbd 68f3 b63c 7680 763c
00000150: 5c33 20be 0991 f9bd a363 c9bc c7d2 b5bd
00000160: 69bc 0abd 7681 20bd 2f7b b93b 3dd1 6b3c
00000170: 029f d8bc b472 3c3c b4a1 69bc bafd a83c
00000180: fd1b 23be cacc ee3c 5fcd 14bc f4b4 9e3c
00000190: b02b c83c 883e a5bc d9d9 d13c a61f d93c
000001a0: 4665 c9bc 6e66 2b3d 7dad 893c eebc 12be
000001b0: f1c1 acbd c395 243c ebd7 2cbb 266e 083c
000001c0: aff5 b5bc f723 d73b 8856 233c 32ae aabc
000001d0: c1ff 2c3c 3efc 1d3a 7857 34bc b15c 923c
000001e0: 50e2 38bc 87e5 d5bd 8177 593c 45cd 873c
000001f0: 5b7d fabd 19fc 6839 e4ee 0cbd 5d08 8fba
00000200: 5623 1ebd fedd 653d 397b 99bd d637 463c
00000210: 182a a13c 8dad 62bc 0795 c4bb ce5c e93b
00000220: adee 843c fd2a b3bd 4771 4e3b 9605 f8bd
00000230: 2f8a 83bd 915e c6bc 0b21 d7bd 34bc 24bc
00000240: 304f 9fbc 622e a83b b84d 43bc ac78 99bc
00000250: cd1f 0ebe 9cf0 5b3c 706d d13c 03cb c8bb
00000260: 16d2 f7bd c960 fb3c 6edd 2cbd f38d 753c
00000270: f769 ceba 4801 b4bd 621c b3bd d477 d8bd
00000280: ac03 dabc f7c4 833c db86 aebd 74cf f0bc
00000290: 374e 02bd 6d1a 11be 76b6 fcbd 6bea 923b
000002a0: 452d 1a3d 48d0 e63c 6de5 40bd 02a7 493c
000002b0: 7e1e 193c bade 1fbe 2d51 943c 90a9 edbd
000002c0: 8087 47bc 4bad abbd 9b55 e53b d780 c1bd
000002d0: 705a 273b 94a5 e4ba 646e acbc 90d9 f9bd
000002e0: 29d3 3dbc dac7 bf3c 2e63 bfbd 2289 83bd
000002f0: 57df e13c 26a3 15bc 55b7 68bc c4a6 4ebc
00000300: c2f6 7dba ba45 82bc f452 57bc 9be3 a63c
00000310: e490 d5bd d712 f6bc 1d99 09ba 5a4e 0abe
00000320: 2fc8 0d3c 5ab3 f9bc aeb4 c3bb 7d17 043d
00000330: 9064 bd3b 7206 15be 6f45 dfbd 35aa ec3c
00000340: 87ad fdba 6262 13be b435 683c be60 f1bd
00000350: bd96 92bd 6983 30bd 8515 e0bd 1d73 db3b
00000360: 65d1 4ebe 1eda b9bc 6dd3 b83b 4473 ae3b
00000370: 020f a5bc c46d 563b 5fc0 d3bb 0f77 a4b9
00000380: 2bf2 aebd ae26 05be 0f06 a63a 2df8 41bc
00000390: cbb2 e63a 3d11 e7bc 0f8c 3f3c 199a 1bbe
000003a0: 5647 ac3c e88a 473c 550c c3bd c6e8 173c
000003b0: 4939 d3bc 36ab 013d 8940 eb3c ad93 21bd
000003c0: 146b 553b 63a2 bc3b 9150 a03b 61a7 0a3c
000003d0: cc86 6ebd 3c70 323d 6b11 093c e694 dd3c
000003e0: d782 6a3c bc36 2f3c a99f a8bd 9064 0b3c
000003f0: d176 b4bd 93ef c6bd 6109 bdbb 068c edbc
0.0066518434 0.0002330543 -0.032922238 -0.0018092206 0.03206169 -0.032892328 -0.026146865 -0.031001281
-0.068395734 -0.101910666 0.0086492775 -0.036386736 0.013592764 -0.021079501 -0.03476285 -0.14118741
-0.103843555 -0.013709252 -0.020519279 0.0068843495 -0.01144521 0.012963002 -0.0045134495 -0.010161903
0.034171112 0.014194285 0.032774802 0.008782372 0.0013708919 -0.10363682 -0.009182224 -0.010637183
-0.0029400673 -0.071850166 0.01871663 -0.025651589 -0.11924725 -0.011292792 0.029942345 -0.099754855
0.019969303 0.0030108995 -0.08793145 0.0019707119 0.015255598 -0.03471856 -0.08525703 -0.014991217
-0.018086849 -0.074035354 0.0029179733 -0.08776126 -0.09333524 0.00605875 -0.15488537 -0.07951431
0.016344985 -0.038192026 -0.021265216 -8.763995e-05 -0.102245726 0.0071055144 0.0052992976 -0.081193775
-0.013035899 0.03118477 0.003834016 0.00549261 0.035334427 0.033044383 -0.117063716 -0.119509526
-0.012896021 0.0007017657 -0.09541459 0.0017375805 -0.07377986 -0.0034979866 -0.03548037 -0.13683803
0.015521242 -0.049947374 0.022332862 0.015045276 -0.15644592 -0.121858664 -0.024583643 -0.08878093
-0.03387109 -0.039185964 0.0056604366 0.014393148 -0.026443008 0.011501957 -0.014259744 0.020628799
-0.15928645 0.029150385 -0.009082167 0.019373395 0.024434894 -0.020171419 0.025616573 0.026504349
-0.024584424 0.04184573 0.016806358 -0.14329883 -0.08435429 0.010045472 -0.0026373814 0.008327043
-0.022211878 0.0065655666 0.009969361 -0.020835016 0.010559023 0.0006026662 -0.011007182 0.017866464
-0.011284426 -0.104441695 0.013273121 0.016577372 -0.12230941 0.00022219158 -0.03440751 -0.0010912527
-0.038607918 0.05611991 -0.07494206 0.012098273 0.019673392 -0.013835323 -0.0059992108 0.007121659
0.01622709 -0.08748434 0.0031500624 -0.121104404 -0.06422841 -0.024215015 -0.10504349 -0.010054637
-0.01944694 0.0051324824 -0.011920385 -0.018734299 -0.13879319 0.013424065 0.02556488 -0.0061277165
-0.121006176 0.0306858 -0.04220336 0.014987457 -0.0015748133 -0.08789307 -0.08745648 -0.105697304
-0.026613079 0.016085131 -0.085218154 -0.029395796 -0.031812873 -0.14170237 -0.12339489 0.004483511
0.03764083 0.028175488 -0.047093797 0.012307884 0.009345649 -0.15612307 0.018105114 -0.11604607
-0.012178302 -0.083826624 0.0069987304 -0.094484024 0.0025536083 -0.0017444366 -0.021048732 -0.121997
-0.011585989 0.023410726 -0.09345089 -0.064226404 0.027572317 -0.009133136 -0.014203866 -0.012613002
-0.0009687954 -0.015902389 -0.013142336 0.020372203 -0.10428026 -0.03003828 -0.0005248951 -0.13506451
0.0086536845 -0.03048103 -0.0059724664 0.032248963 0.0057798102 -0.1455324 -0.10901915 0.028889755
-0.0019354083 -0.14392999 0.01417296 -0.1178603 -0.07157657 -0.043094072 -0.109416045 0.006697072
-0.20197065 -0.022687014 0.0056404383 0.0053237993 -0.020148758 0.0032719234 -0.0064621414 -0.00031369223
-0.085422836 -0.13003036 0.00126666 -0.011838955 0.0017600892 -0.028206462 0.011691107 -0.15195502
0.02103011 0.012179114 -0.095238365 0.009271806 -0.025784152 0.03165742 0.028717296 -0.039447475
0.0032565044 0.0057566627 0.0048924168 0.008462758 -0.05823402 0.043564066 0.008365969 0.02704854
0.014313421 0.010694202 -0.08233578 0.008507863 -0.08811725 -0.09713664 -0.0057689403 -0.028997432

distribution.branches.0.weight f4 [3, 256]
00000000: 600f 7cbd a5a9 043d 4e59 d0bd e193 35bd
00000010: cf6f 9c3d a0af c4bc 9358 9f3c 4095 9bbc
00000020: 5a0f 4e3c c6c7 843b 6168 eebc e0c9 d33b
00000030: 7fd4 a33c 91e0 bdbd 07d2 643d 5e7e 84bc
00000040: 8fc9 6f3d 09c2 abbd 5608 68bc 5232 423d
00000050: eccb dc3d 5a4d 953c acc5 0b3d d4e1 043d
00000060: 0bbb 3d3d 84ad fabd fe21 5ebd 81fb 463d
00000070: 0115 d2bd 6a23 53bc fddb 8bbc 0ebb 7f3d
00000080: 6c82 273d 755f 143d 4ace 8c3c 7da9 71bd
00000090: dafe 35bc f3aa 753d 5aac ee3d d816 5e3d
000000a0: 7f4c a9bc 1db3 d93c 9b23 b3bc 8109 4f3c
000000b0: cc52 adbd e146 1a3d 83d9 483c b27a 7f3b
000000c0: d82d cc3d 952b 653d f038 ad3b cc96 343c
000000d0: 334e 6f3d c6ba 2d3c af4c 85bb d6f9 df3c
000000e0: 9ae2 873d 7604 083d 2fa1 e13c 02d5 9d3d
000000f0: 60d2 c4bb c7be 26be d6b4 b23c 1d8e d6bc
00000100: 84f3 2bbd f0c2 c4bc 35a3 223d 8598 ccbd
00000110: 6003 2dbb 4135 913c e8bb c7bc a073 3ebc
00000120: 5356 bcbc 64e1 90bb 662b d6bc a2b2 d5bc
00000130: cd9d 963c b5f9 433d 5396 22bd 6740 7d3c
00000140: 7deb 8abd bc62 bf3c 486a 86bc 54c1 f8bc
00000150: 9c28 2dbd e2eb 77ba fb07 813c f697 42bd
00000160: 4812 2dbd 31b1 473d 7e9e 863d a250 16bd
00000170: a68d 823b e764 0fbd ac93 453d cfd2 3dbd
00000180: a425 7bbc 1673 1ebd 9e92 aa3d ca4d 88bd
00000190: 8dab 4dbd 6e54 bdbc ba17 6ebb 5e79 10bd
000001a0: 7e56 ce3c ccd7 793d 99e3 a4bc f96a 053d
000001b0: b0d9 123d 1c12 743d 411c 323d 7296 493d
000001c0: a7bf 163d aa1f ccbc de49 03bc f332 5d3c
000001d0: 9a6f d5bc 20a9 913d 3723 6a3c 3d75 8e3b
000001e0: 0db1 8f3d 28f4 443d b656 a8bd 1f02 18be
000001f0: a62a d23c fb35 12be 0ac6 8cbd 0519 953c
00000200: 8a3b 233d b5e5 0aba adc4 bc3b a833 6c3d
00000210: 2c89 acbd 68c8 cbbc 27df c33c 6515 e5bd
00000220: 2828 03be 9ade 31bc 2b5b 5bbd a85a 4bbc
00000230: 24b5 0bbd 4278 5cbd be59 d8bc 620b d8bc
00000240: e77e b9bd f213 ee3c 9d24 573d b641 1e3d
00000250: 6e1a 08bd 74bf ab3c 0eee 15be 0bf7 bdbd
00000260: e738 193d 7d3d 45bb 780e 9e3c ad0c 76bd
00000270: 5ace da3c 8bef e2bb 5bee 45bd d2c7 833c
00000280: f782 cabd 96a8 5dbd 8b67 ddbb e98e aebd
00000290: e85f fc3c b759 653c 3db2 b83b 0709 ffbd
000002a0: a18f b83d eda2 93bd dd47 d3b9 00c0 70bd
000002b0: ccaa 903d 0293 9dbc b9a1 a6bc 514d bf3b
000002c0: da63 593d dcdd 5939 97c6 09bd 2e6e 063c
000002d0: dfd4 623b 6c90 42be 368c fc3d fce9 643c
000002e0: 7893 ee3c 176f 8bbc 27a0 773d b258 003d
000002f0: 0d68 a13d 9c2e 103d 45ef 963d a065 d63c
00000300: 89a0 8d3b 5706 6f3d 4879 e23c b62a 393d
00000310: 329e 043d bf22 293d a388 eabc 86c1 1d3c
00000320: ad85 69bd e771 9f3c 3dc4 1a3c b681 9d3b
00000330: 0b2f ab3c 08ba 9abc 8462 3b3b de41 afbc
00000340: f8e2 933d 7a4d b3bc b0f0 01be 0557 0cbd
00000350: 58ae a7bc 888a 863c 6ab4 58bc ecbe 7d3c
00000360: 155a 9b3b 4d7a 243d 212b 193d 13dd a23c
00000370: dac9 ffbb 4562 11bd 1b4a fbbd b17d 76bc
00000380: d082 fabc 9c7a 213c bf8f 003d cbb0 8b3c
00000390: cf83 b93c 1c1b eebb 2810 00ba b539 313c
000003a0: 0327 37be 4705 6e3d a804 2fbd ddf2 c1bc
000003b0: 36e2 f8bc 2bac a93c 3cfb d63d 97e0 1f3d
000003c0: 4a9b 313d 6949 353c 0876 f73c 54fa 92bc
000003d0: 7198 9fbc d80c 093e 4be6 f0bd 2cfb 2e3d
000003e0: c8e7 d33d 4f7b a63c 9e4c 0239 7275 023e
000003f0: 9838 f9bc d4f0 d73c 6f2c 29bd 879c 85bd
-0.0615381 0.032388348 -0.101732835 -0.04433048 0.07638513 -0.024009526 0.019451415 -0.018992066
0.012576902 0.004052135 -0.029102506 0.0064632744 0.019998787 -0.09271348 0.05586436 -0.016173538
0.05854183 -0.08386619 -0.014162144 0.04741127 0.107810825 0.01822536 0.03412406 0.03244193
0.046320956 -0.12240127 -0.054231636 0.048579697 -0.102579124 -0.012886861 -0.017072672 0.06243425
0.040895864 0.036223847 0.01718821 -0.058999527 -0.011108125 0.059977483 0.11653967 0.054221004
-0.020666359 0.026574666 -0.021867564 0.012636543 -0.08463058 0.03766525 0.01225889 0.0038983044
0.099696815 0.055949766 0.0052863285 0.011022281 0.058424186 0.010603612 -0.0040679793 0.02734081
0.06635018 0.03320738 0.027542679 0.07706644 -0.006006524 -0.16283713 0.021814745 -0.026190812
-0.04198028 -0.024018735 0.039706428 -0.09990028 -0.0026399717 0.017725589 -0.024381593 -0.011624247
-0.022990381 -0.0044214 -0.02614374 -0.026086155 0.018385792 0.04784556 -0.03969414 0.015457249
-0.06783197 0.02336251 -0.0164081 -0.030365624 -0.042275056 -0.00094574515 0.015750876 -0.047508202
-0.042253762 0.048752967 0.06573199 -0.03669799 0.003984171 -0.035008337 0.048236534 -0.04634362
-0.015328798 -0.038683973 0.08328746 -0.06655462 -0.05021243 -0.023111548 -0.003633006 -0.035271995
0.025187727 0.060996816 -0.020128058 0.03257272 0.035852134 0.059587583 0.043483976 0.04921574
0.036803868 -0.024917442 -0.008013217 0.013500917 -0.026054192 0.07112336 0.014290622 0.004347472
0.07016192 0.048084408 -0.08219664 -0.14844559 0.025655102 -0.14278404 -0.068737105 0.018200407
0.039851703 -0.0005298511 0.0057607503 0.05766645 -0.08424601 -0.024875835 0.023910118 -0.11185721
-0.12808287 -0.010856295 -0.05355374 -0.012411751 -0.034108296 -0.053825624 -0.02640998 -0.026372615
-0.09057408 0.029062245 0.05252515 0.038636886 -0.03322833 0.020965315 -0.14641592 -0.09275635
0.037407782 -0.0030096464 0.019294009 -0.060070682 0.026709724 -0.0069255284 -0.048323017 0.016086493
-0.09888261 -0.054115854 -0.006756728 -0.08523352 0.03080745 0.0139984405 0.005636482 -0.12452894
0.0901177 -0.0720881 -0.00040298598 -0.058776855 0.07063827 -0.019235138 -0.020340787 0.0058380743
0.05307374 0.00020777382 -0.033636656 0.00820498 0.0034611744 -0.19000405 0.123314306 0.013971802
0.029123053 -0.017020745 0.060455468 0.031334586 0.07881174 0.0352007 0.07369856 0.026171505
0.004322116 0.058355656 0.027645722 0.045206748 0.03237743 0.041292902 -0.028629607 0.009628659
-0.05701225 0.019463493 0.009446201 0.0048067225 0.020896455 -0.018887535 0.0028592655 -0.021393713
0.07221025 -0.02188753 -0.12689471 -0.034262676 -0.020468876 0.016423479 -0.013226608 0.015487414
0.004740963 0.040155698 0.037394647 0.019880807 -0.007806045 -0.035494108 -0.12269994 -0.015044616
-0.030579954 0.0098558925 0.031387087 0.017052075 0.022645859 -0.0072664153 -0.000488522 0.010816981
-0.17885976 0.0581105 -0.04272905 -0.023675377 -0.030381303 0.020711979 0.10497138 0.039032545
0.043360986 0.011064866 0.030207649 -0.017941631 -0.01948187 0.13383806 -0.11762675 0.042720005
0.10346943 0.02032247 0.00012426308 0.12740114 -0.030422494 0.026359953 -0.04130214 -0.06523996

distribution.branches.0.bias f4 [3]
00000000: 17d1 a5bc 6463 3c3d d3de 08bc
-0.020241303 0.045993224 -0.008353907

critic.network_body.linear_encoder.seq_layers.0.weight f4 [256, 82]
00000000: 32ea 803c 2468 b33d e98f 86be cab3 14be
00000010: ea50 35bd e926 15be 06ac 7bbd 0361 0b3e
00000020: 2353 1f3d 480a 78bd 146b d03d 4222 26be
00000030: 05f1 c73e fbdb f93b 5e9d 683e 95c0 533e
00000040: e47b 863b b204 153d 0912 dcbd b4f4 a4bc
00000050: 04da 43bd fe9e 8bbd aad4 87bd 5258 1ebe
00000060: 0610 f23c 29cb eabc f7c2 93bd adbb 1d3e
00000070: f083 753c 023c f63d e55f febd f41b 023e
00000080: 82c2 573d c85f 833d 2df9 4fbd f82c d2bd
00000090: 992d 213e 58e4 eb3d e525 f83d 6d8a a3be
000000a0: 6da2 70bd 7bd9 62be 5acd f63d 0919 833e
000000b0: 7a4d 913d b39a 4cbc c625 a938 10e1 ea3c
000000c0: ba06 7abd 6a52 15be bcc3 babc da9b 93bd
000000d0: 975a 4c3d e5eb dfbd bca4 a1bd d4d4 34be
000000e0: 98d0 dd3d 5cb0 9abe 8a63 5d3e 9fa8 833d
000000f0: cb15 7cbe c46b d83d 7397 56bc 3d6d 5b3d
00000100: 9791 c6bc 848e b0bd 1cba f7bd 5298 c43d
00000110: 3678 953d 5d81 cf3b b1b7 44be 85b7 03bc
00000120: 1c90 3d3e 4ce7 12be a48e 3b3e f09b 8f3e
00000130: 2aee 543c 4d2e 8fbb 2991 88bb 3ead 48bd
00000140: 83a2 673d 8d06 c23d ee79 16ba db0d 913c
00000150: be6a 84bd 71fb 1a3d 0202 fe3c f2e3 5c3e
00000160: f512 c13d 23b3 8e3d 6017 b83d 93c9 e73d
00000170: 1eb5 1dbe 1a6f 2a3e 4a5c adbe 3a67 37bd
00000180: b802 b8bd 3d36 3abe 6fde 6bbd 5944 80be
00000190: fb9e 5bbe 3aa9 973d f044 003e e7df 7cbd
000001a0: 6613 953d 57ea 6bbc c57d bfbd 2924 8e3d
000001b0: 7792 54be 31a6 93be 10e1 04bd f2e1 2ebe
000001c0: 234e b0bd 6609 80bd 71de 51be 5d57 51bd
000001d0: 5c13 b1bc fd4e 8ebe e90d 97bd c79c 3cbd
000001e0: bf0b e7bd 0da0 3a3e 7657 8d3c 2aa6 883d
000001f0: 8aa5 eb3c 03b4 1d3e f415 d1ba f345 c2bc
00000200: 5dfa 83bd 9fcd 523e 0662 08be 19ec e13c
00000210: 14ca fc3d dbc6 7c3e d2cb 30be ba96 9e3e
00000220: f065 fbbd 70b5 6cbd 57a7 883d b629 e3be
00000230: c78b 01bd 81af a0bd 92da 19be 783b 1fbd
00000240: b0de a53d 0b2e 5dbd 233f 2cbd b579 59bc
00000250: 51d4 9dbe fdaf c83d 12df 8a3d 1a33 8fbc
00000260: eb32 13be 1278 b9bd e381 b3be bdd9 c33d
00000270: 3640 083d 0ddb cabe fe48 bfbd 2fbd cbbc
00000280: 3868 adbd b42c 8c3d 91a9 b73d 541b 96bd
00000290: aeda 303e 956c 683e 087a fabd 88c0 d03c
000002a0: 9295 983d e2c9 953c 1c3a ec3d 6fa6 94bd
000002b0: b562 2ebd d06a 72bc b395 a1bc 56bb c43d
000002c0: ecc7 0dbe e5b6 053d 88e9 3c3e 1399 1bbe
000002d0: 136b f93d c2d7 0bbd 0233 8f3e d3de 1e3d
000002e0: 8875 2bbd 7bcc 1fbe be8c b13d 1262 653e
000002f0: 71af 363e d738 a53d 261a 91bc 4baa 893e
00000300: 52fe 313c f777 c3bd bf2a cc3c 1161 243e
00000310: 1e8e ecbd 6a23 2bbe d90b 343d 6fe0 943b
00000320: f873 7cbd 1e1f 323d 0e76 d23d 7c59 b4bc
00000330: 2cb6 173c 2f11 c7bd 0bc9 bd3c c99a e63d
00000340: 8361 2fbe f613 15bd 8267 84bd 54b9 6fbe
00000350: 173b bebd 3aae 2cbc 0342 5abd 077d 0dbe
00000360: bd7a 823c 45df 94bd 53d2 91be c350 d23d
00000370: 6435 bc3b 8d5b 13be 2406 85bd 4494 0abe
00000380: e3ad 14be 5ef3 413d d97a e1bc bd91 583e
00000390: 03ca 893b 22fb d6bd f3f5 363c bd09 1c3d
000003a0: 1362 a7bd f555 70be 83b9 e0bd 0cbb 05be
000003b0: 0623 6fbd 464e 58be f120 f83d 9ac0 33bf
000003c0: 32c1 16bc 4598 8f3d 1256 88bc 651d 8c3d
000003d0: 0a87 2cbe 9f7b a9bc 4cfd 02bd 5485 b73d
000003e0: 563f 6dbe 45a2 3f3e 703c fabc 33e1 66be
000003f0: 144c 9f3d 092e d2bd ca17 f5bd 955c 853d
0.015736673 0.087600976 -0.2628167 -0.14521709 -0.04426662 -0.14565624 -0.06144335 0.13611226
0.038897645 -0.06055668 0.101766735 -0.16224006 0.3905107 0.0076251007 0.22716281 0.20678933
0.0041041244 0.03638143 -0.107456274 -0.020136215 -0.047815338 -0.06817435 -0.06632359 -0.15463379
0.029548656 -0.028661327 -0.07214921 0.15403624 0.01498507 0.12023164 -0.12420634 0.12705976
0.05267573 0.06414753 -0.050774742 -0.10262483 0.1574005 0.115181625 0.12116603 -0.31941548
-0.05874865 -0.22153275 0.120508865 0.25605038 0.070948556 -0.012488055 8.065584e-05 0.028671771
-0.06104157 -0.1458222 -0.022798412 -0.07207461 0.04989108 -0.10933665 -0.07892749 -0.17659312
0.10830802 -0.30212677 0.21620002 0.06428646 -0.24617688 0.1056743 -0.013097632 0.053570975
-0.024239345 -0.08620933 -0.120960444 0.09599365 0.07298319 0.00633256 -0.19210698 -0.00803936
0.18512005 -0.14346045 0.18316132 0.28048658 0.012996236 -0.004369533 -0.004167695 -0.04899334
0.056551468 0.09473906 -0.0005740215 0.017706802 -0.06465672 0.03783745 0.031006817 0.21571329
0.09427444 0.06967761 0.089888334 0.11317744 -0.15401122 0.16643944 -0.33859473 -0.04477618
-0.089848936 -0.18184753 -0.057585176 -0.25052145 -0.21447365 0.07405324 0.12526298 -0.061736967
0.072790906 -0.014399133 -0.093501605 0.06940491 -0.20758997 -0.2883773 -0.0324412 -0.17078379
-0.086086534 -0.062517926 -0.20495011 -0.051108707 -0.021615677 -0.27794638 -0.073757 -0.046047952
-0.11281537 0.18225117 0.017253619 0.06672318 0.028765459 0.154007 -0.0015951977 -0.023714995
-0.064442374 0.2058625 -0.13318643 0.0275784 0.12343231 0.24685232 -0.17265251 0.3097437
-0.122753024 -0.05779022 0.066725425 -0.4436776 -0.031627443 -0.07845975 -0.15024784 -0.038875073
0.08099115 -0.053998988 -0.0420524 -0.013273646 -0.30826047 0.09799192 0.067808285 -0.017480422
-0.14374892 -0.09056105 -0.35060033 0.09563015 0.03326436 -0.39620247 -0.09340094 -0.024870483
-0.08467144 0.06844464 0.08967889 -0.07329431 0.1727092 0.22697671 -0.12230307 0.025482431
0.07450403 0.018284742 0.11534521 -0.07258307 -0.042574603 -0.014795974 -0.019724702 0.09606044
-0.13845795 0.032645125 0.1844846 -0.15195112 0.12178626 -0.03414131 0.27968603 0.03878672
-0.041860133 -0.15605347 0.086694226 0.22400692 0.17840363 0.08067482 -0.017712664 0.26887736
0.010863857 -0.09544366 0.024922727 0.16052653 -0.11550544 -0.16712728 0.04395661 0.004543356
-0.061634034 0.043486707 0.102764234 -0.022015326 0.009259742 -0.097200744 0.023167154 0.11259992
-0.17127042 -0.03639599 -0.06465055 -0.23410541 -0.09288614 -0.010539586 -0.05328561 -0.13817225
0.015927667 -0.07269148 -0.28480777 0.1026931 0.0057436693 -0.14390393 -0.06495312 -0.13533121
-0.14519458 0.047351234 -0.027524399 0.21149345 0.00420499 -0.104971185 0.011167037 0.038095225
-0.08173003 -0.2347029 -0.109728836 -0.13059634 -0.05838301 -0.21123609 0.12115658 -0.7021576
-0.009201335 0.07011465 -0.016642604 0.06841544 -0.16848388 -0.02068883 -0.031979844 0.08960977
-0.23168692 0.18714245 -0.030546397 -0.22546844 0.077781826 -0.10262687 -0.11967428 0.06511799

critic.network_body.linear_encoder.seq_layers.0.bias f4 [256]
00000000: 1859 943c e010 32bd d9db 01bc 1278 c03a
00000010: 6788 f3bc ad22 b1bb fe62 debc a93e e23b
00000020: ac29 44bd 4f30 8ebb 9b0c 0fbd e669 dcbc
00000030: 9cf1 9fbc 68f9 11b8 7b25 bbbb d078 c4bb
00000040: fa14 c7bc b5a9 d03c 1288 d43b 3c62 0abd
00000050: 47fb 32bc b791 36bc 1244 3bbd 575d f4bb
00000060: a5a4 84bc 9cc0 473c c205 89bc 8bd8 8abc
00000070: f35c 9dbc 06f3 693c 660b e7ba b635 05bd
00000080: 4ce0 76bd fc40 afbc 4799 f7bc 2f36 10bc
00000090: d086 97be cab7 53bd bd2c 19bd aec0 80bc
000000a0: 97cd 1f3c e97c 6c3b f789 d7bc 522b 99be
000000b0: 3069 1abd 398e 86bc da7f 76bd 1270 373c
000000c0: 50b3 07bd 9682 92bc e948 2bbc fa26 08bc
000000d0: 73de 0dbc b732 043c 906c 883c 92ab 0e3b
000000e0: b9a0 edba 919f afbc 0f3c bdbc be64 aebe
000000f0: 5062 30bd 18a9 403b 8abb 87ba f614 fe3b
00000100: 5dcb 22bd 0f87 12bd 3cc4 1dbd 652b 7cbd
00000110: 6ca7 17ba 0fc6 2bbc bb09 7c3c fe17 f53b
00000120: 0588 2bbd 658d a03b 8dce c3bc 59e8 29bc
00000130: 28f4 18bd a2d6 04bc 5350 4ebc 68bd f0bc
00000140: 0ecb 403c 5a0d 35bc 0f2f d8bc a891 24bd
00000150: be93 473b f4fd 35bd a08f 08bd 4d3e 01bd
00000160: a806 84bd a0d5 45bd 4025 3bbc d9a9 6ebc
00000170: 0301 fb3b d566 04bd b179 90bc b952 efbb
00000180: fe03 8abc 8c38 bdbc 7ace 57bc 3af2 25bd
00000190: ba39 49bd 758a fcbc 5802 8d3c 15c0 753a
000001a0: 62fd 07bc 5c3c 56bd d931 4bbd 53ea 17bd
000001b0: 1d85 16bd d21d 0cbd 63e1 6a3c cee6 4f3c
000001c0: 148a d3bc 005b 4c3d 6b06 acbc 1913 f7bc
000001d0: f9ae 80bc 9727 9e3c c517 f8bc 0d1a 36bd
000001e0: f08c bc3c 4357 dabc ec61 a7bb e449 39bd
000001f0: d71d 57bd 1ecc 5a3c f351 fe3b c9ae 3abd
00000200: 383d 84bb c93d d73b c625 53bc 904f 92bc
00000210: 934c 2ebb 5b82 33bc 6dfa a7bc 16d0 b5bc
00000220: a8ca 083d b9d0 863a ba10 c5bb 0aa8 cfbc
00000230: 68b1 97bc 271b fabb 024e f0bc 6a41 0abd
00000240: b98d b8bc ff04 423c 01e0 6d3c aaa8 d7bc
00000250: 02c0 eebc f955 6bbc a1b4 23bd 02df 0bbe
00000260: 0ffe 2e3c 8c8f 6ebd 1cf5 b3be cf5b 17bd
00000270: 4440 74bc 8677 d3bb d73b f73b 1ab8 11bc
00000280: 0a16 0dbd ab42 023b e450 d9bc 4d48 ddbc
00000290: 1d9a 17bc e494 6abc d77f bbbc ddf5 fabc
000002a0: 9752 7f3b cbfb 94bc 1622 0a3c b583 ccbb
000002b0: 1879 c3bc 3a99 29bd 9aee a6bc f1fa 323b
000002c0: fbaf 2d3c 3230 11bd a9fb ffbc be70 b8bc
000002d0: 93c0 bfbc b594 debc 0252 2ebd 7d67 a3bc
000002e0: 19b7 b1bc f529 b1bc b80c 313c 2642 4ebb
000002f0: 6a20 25bd 0566 bb3b 08e8 12bd 5fea 143c
00000300: 0b5d 78bc b86e 29bd 4407 e13a 8e96 f5bc
00000310: c635 81bc d4eb 8bbb c13c aaba fa8e 44bd
00000320: be51 d4bc dc0f 6ebc a8ec d1bb 7e80 f6bc
00000330: 3333 6f3c 73e0 84bd 5c1c 8dbd 52a7 a33c
00000340: fac3 0dbd aac3 2ebd 8908 8c3c 18e1 eebc
00000350: 7331 f8bc 2578 22bd 1686 72bd c6dc ddbc
00000360: 4d4c 28bc 54ea 03bd 4ab3 2dbd 0296 60bc
00000370: 505a a73c 7fe3 74bc 6b3a 14bd 1851 4abd
00000380: 4769 88bb e71c 09bd 049e 53bc d07c 50bd
00000390: 6529 7d3c 3f04 bcbc f4d2 6cbe 9c04 42bd
000003a0: e19c 5ebd 3552 39bc 12ab 35bd c998 f3bc
000003b0: 6b8e 82bb baac 76bc 14a5 12bd 79ac 2fbd
000003c0: 52b8 11bd 8854 4bbb f839 6ebc 942b 11bd
000003d0: cc27 93be 5a3c 84bc 4a3c 9abb 42aa 14be
000003e0: 96c9 3a3c 57d6 2dbc a911 f2bc e065 f1bc
000003f0: f696 debc 1f87 30bc 281a 83bb 847d 71bd
0.01810889 -0.043473125 -0.007925951 0.0014684221 -0.029728128 -0.005405745 -0.027146813 0.0069044423
-0.047891304 -0.004339255 -0.03492413 -0.026905965 -0.019524388 -3.480297e-05 -0.005711255 -0.0059958473
-0.024301995 0.025471548 0.0064859474 -0.03378509 -0.010924167 -0.01114314 -0.045719214 -0.007457416
-0.01619179 0.012191918 -0.016726378 -0.016948959 -0.01920936 0.014279133 -0.0017627298 -0.032521926
-0.0602725 -0.021393292 -0.030224456 -0.008801981 -0.2959504 -0.051688947 -0.03739618 -0.015716877
0.009753606 0.0036085194 -0.026310904 -0.29915863 -0.03769797 -0.016425239 -0.060180523 0.011196153
-0.03312999 -0.017884534 -0.010454395 -0.008310074 -0.008658993 0.008068732 0.01665333 0.0021769744
-0.0018129564 -0.021438392 -0.023099927 -0.34061235 -0.043062508 0.0029397663 -0.0010355574 0.0077539636
-0.039744724 -0.035773333 -0.03851722 -0.06156482 -0.00057851407 -0.010484233 0.015383179 0.0074796667
-0.041877765 0.004899668 -0.023902202 -0.010370337 -0.03734222 -0.008107813 -0.012592393 -0.029387191
0.011767162 -0.011050547 -0.026389627 -0.04017797 0.0030453051 -0.04443164 -0.033340096 -0.031553555
-0.06446582 -0.04829943 -0.011422455 -0.014566862 0.0076600327 -0.03232463 -0.017636152 -0.0073035625
-0.016847607 -0.023098253 -0.013171786 -0.04051421 -0.049127318 -0.03082774 0.017213032 0.0009374631
-0.008300157 -0.052303657 -0.049608085 -0.037088703 -0.03674804 -0.034208126 0.014335963 0.0126893055
-0.025822677 0.049891472 -0.020999154 -0.030160474 -0.015708433 0.019305987 -0.030284772 -0.044458438
0.023016423 -0.026652938 -0.0051081087 -0.045236483 -0.052518692 0.013354329 0.007761234 -0.045576844
-0.004035618 0.0065686447 -0.012887424 -0.017860204 -0.0026595935 -0.010956372 -0.020505155 -0.02219395
0.033396393 0.0010285593 -0.006013957 -0.025348682 -0.018517211 -0.0076326313 -0.029334072 -0.03375379
-0.022528516 0.0118420115 0.014518739 -0.026325542 -0.02914429 -0.014363759 -0.039967183 -0.1365929
0.0106806895 -0.058242366 -0.3514794 -0.03695279 -0.0149079 -0.0064534573 0.0075449753 -0.008893991
-0.034444846 0.0019876163 -0.02652783 -0.027012015 -0.009253052 -0.014317725 -0.022888107 -0.030634815
0.003895914 -0.01818647 0.008430978 -0.0062412866 -0.023861453 -0.041405894 -0.020377446 0.0027310217
0.010601039 -0.035446353 -0.03124793 -0.022514697 -0.023407256 -0.027170518 -0.042558677 -0.019946808
-0.021693753 -0.021626452 0.010806255 -0.0031472533 -0.040314116 0.005718949 -0.035865813 0.009089082
-0.015158902 -0.041365355 0.0017168303 -0.029979017 -0.015772711 -0.0042700563 -0.0012988077 -0.047987916
-0.025917884 -0.014530148 -0.0064063855 -0.030090567 0.014599609 -0.06488123 -0.06890175 0.019977245
-0.034610726 -0.04266707 0.017093914 -0.029160067 -0.030297017 -0.03966536 -0.059209906 -0.027082812
-0.010272098 -0.032205895 -0.04240731 -0.01370764 0.020428807 -0.014946817 -0.036188524 -0.049393743
-0.0041629407 -0.03347483 -0.012916092 -0.05090028 0.015451764 -0.022951243 -0.23127347 -0.047367677
-0.05434883 -0.011311104 -0.0443526 -0.02973594 -0.0039842627 -0.01505583 -0.035801962 -0.042889092
-0.035576172 -0.0031025726 -0.014540188 -0.03544195 -0.287413 -0.01614206 -0.004706894 -0.14518073
0.011400601 -0.010610185 -0.029549437 -0.029467523 -0.027171593 -0.010774403 -0.004000921 -0.05895759

critic.value_heads.value_heads.extrinsic.weight f4 [1, 256]
00000000: 915d 653b 46ae a4bd cfbc 26ba 088c df3c
00000010: ecb2 04b9 b4e5 dcbb 2c6e 573b aff3 f4bc
00000020: 3a19 713d 1a9c 593d 12d0 68bc 9832 7239
00000030: 6376 d4bd 4b32 c6bc 3d0e c13c d11d 023e
00000040: c3a7 893d 0d8a 313e 0883 f33a 5a5a cbbd
00000050: ea34 313b 6d48 95bb bfe7 bf3d f12d 403e
00000060: c411 2e3d 76dc e13b af77 03bb 62d4 453e
00000070: d09f 263d b4bf 243e 1a41 a33a 852d 423d
00000080: 4b6a 19bb 6971 ab3d decd 0d3e 4d74 27be
00000090: ae3e a9bc 8f83 6e3b c87a 72bd 91de 28bb
000000a0: 9717 be3a f2cc 743e c754 60ba 1a11 00bd
000000b0: 64db 24bd 6abf 2fbe 0504 56bd af7d b03d
000000c0: 99c2 15be 0df6 d2bb df60 44bb b40e 533b
000000d0: 3cc3 933b 67ca 1bbe fb63 b2bd 9649 223e
000000e0: 8abb 8bba 11ca 063e 55e1 0abd c963 c8bb
000000f0: 813e 18bd 6060 b13b cea7 b23b b8cc 03ba
00000100: 02ef 563d aa4d 9bbb 06f9 073b ea0d 7dbd
00000110: 55df d83a c5ad 333d da33 6ebe 96fb 3b3a
00000120: 24a6 26be 473e 633e cba7 743d 35f9 8c3a
00000130: 204b 36be bcb2 b5bd 3656 febd 39f1 37bb
00000140: e1f6 f73b 2d37 a1bd c011 54bd 80f0 53bd
00000150: 05ad 08bb 4458 aabd 8394 403d 1a90 2fbe
00000160: 1e82 033e 80e6 ccbd d1a2 003a bfe5 9a3d
00000170: 7eea c53a 659e 273e 3371 6f3d 7d3c 6aba
00000180: 2db8 1fbb 3599 963b 97ec e0bc 623a 6bbb
00000190: c691 9a3c 2d20 0dbe 3a88 583c 1d39 1c3d
000001a0: 248f ddbb 426c 13bd 6d30 ba3d ff67 ffbc
000001b0: 7f46 b2bd b92b 6fbb e3c3 abbd 77b8 8c3e
000001c0: ea7c 84be ad53 59be f85a b73d 828f 56bd
000001d0: 68a0 39ba 6875 b63d b51f daba 83c8 21be
000001e0: 6537 b83d fc0d 803c bc35 2d3e 4f26 b6bb
000001f0: 67f3 5ebd 09ec e1bd a473 253b ff14 5b3d
00000200: b2be 5b39 7e99 c73d 89ff 9cba ad7d 013d
00000210: 7f81 1d3e ffee 36b9 ecc3 36be b3ac 0cbb
00000220: b768 0f3b 6481 013b f623 653a 4094 883d
00000230: a90a df3d ae28 2038 d30b 0dbe 4a98 b7ba
00000240: 9903 adbd 26e6 783b 5775 f63b 7929 1c3e
00000250: 3ffd 10bd cfa3 c0b9 cce9 1f3b f1ec 72bc
00000260: 2057 913e 94a6 c5bc 2381 38bc 1f22 e8bb
00000270: 760d 15bd 5d63 153e 9eca 28be 0d16 b03c
00000280: 6dc0 393d f013 233e a60d 1dbe e06c 6bbb
00000290: c2f9 84bd dd83 bfbb c9a3 24ba 1263 58bb
000002a0: 7635 dd3b 92cd bbbc 9c3a b6bd 72f4 993d
000002b0: ff20 273e 0319 88bd 5cc1 1cbd 4aac bb3d
000002c0: 99dd 3f3a af56 05bd a160 cebc a860 99b9
000002d0: a320 9eba 538b 2cbb 9482 3bbd 13af 0a3d
000002e0: b4d9 1d3e ed7b 70bd 7ce0 0739 7437 54ba
000002f0: c8e9 cfbd df24 89bd 4837 41bd a58b d23d
00000300: 44d0 77bb 25ec 023a 64ef 23be 2f3b d6bd
00000310: af70 0cbe 3cb3 403c fb5a 25be 1dd8 4d3a
00000320: fcdf f5bd 52f8 8f3d e724 633d b6a5 05be
00000330: b056 553b 211a 8bbd cc96 09bd ef41 01bd
00000340: d297 e53c 9e92 87bd f010 063e 5fce a3bd
00000350: 9220 c83d 81f6 8dbd 9a2e 8dbc 8f8c a53b
00000360: b2e6 89bb 5eba 40bd a250 35bc b89a 543d
00000370: f136 72ba b34f 8f3c d890 4fbd d2e2 52bd
00000380: c0cf 75bb af2f 55be 14eb 4c3d a51c c7bb
00000390: b21e 03be 1d48 ea3d 3b8e e5bc 09f0 17be
000003a0: 8c1c 57bb edbb 063e 7177 dabd 1f88 73bd
000003b0: 7a6a 203b 6b00 b7bd 9016 91bd 8168 a8bb
000003c0: 2af9 17be 0bdb 30ba 9df1 24bb f3b3 34bd
000003d0: e745 dbbc d969 103b 1388 ce3d d671 9ebb
000003e0: 16d2 4b3b 1c28 be3d 7441 65bc b524 6fbd
000003f0: d297 13be 5254 1f3e 5ff6 8c3e 259a cb3d
0.0034998397 -0.080410525 -0.0006360532 0.027288452 -0.00012655155 -0.00674125 0.0032872064 -0.029901354
0.05886195 0.053127386 -0.014209764 0.00023097766 -0.10374143 -0.024193903 0.02356636 0.12706687
0.06721451 0.17337818 0.0018578479 -0.099293426 0.0027039596 -0.004555753 0.09370374 0.18767525
0.04249741 0.006892736 -0.002006035 0.19319299 0.040679753 0.16088754 0.0012455315 0.047406692
-0.0023409303 0.08371241 0.13848063 -0.16352959 -0.02065977 0.0036394333 -0.059199125 -0.0025767426
0.001450288 0.23906305 -0.00085575547 -0.03126631 -0.04024829 -0.17162862 -0.052249927 0.08617722
-0.14625014 -0.006438023 -0.0029964966 0.0032204809 0.0045093577 -0.15213929 -0.08710476 0.15848383
-0.0010660749 0.1316302 -0.0339063 -0.006115411 -0.037168983 0.0054131 0.005452133 -0.0005027759
0.05247403 -0.004739483 0.0020747795 -0.061780848 0.001654605 0.04386689 -0.23261967 0.0007170973
-0.16274315 0.22191726 0.059730332 0.0010755422 -0.17802095 -0.088719815 -0.12418787 -0.0028067364
0.007567272 -0.07871852 -0.05177474 -0.05174303 -0.002085508 -0.083176166 0.04701663 -0.17144814
0.12842605 -0.10004902 0.0004907074 0.07563352 0.0015099791 0.16369016 0.058457565 -0.0008935405
-0.0024371252 0.0045959004 -0.027456565 -0.0035892953 0.018868338 -0.13781805 0.013216073 0.038140405
-0.0067614485 -0.035991915 0.09091268 -0.031177519 -0.08704852 -0.0036494567 -0.08386972 0.27484486
-0.25876552 -0.21223326 0.08952898 -0.052382953 -0.00070810923 0.08909112 -0.001664153 -0.15799145
0.08994941 0.015631668 0.1691503 -0.005558766 -0.054431345 -0.11031348 0.002524593 0.05348682
0.00020956507 0.09746073 -0.0011978011 0.031613994 0.1538143 -0.00017445906 -0.17848176 -0.0021465241
0.0021882483 0.001976096 0.00087410153 0.066689014 0.10890705 3.818486e-05 -0.13774042 -0.0014007178
-0.08447952 0.0037978976 0.007521312 0.15250196 -0.035397764 -0.0003674314 0.0024400828 -0.014826999
0.28386784 -0.024127282 -0.011261257 -0.0070841457 -0.03638979 0.14588685 -0.16483542 0.02149489
0.045349527 0.15925574 -0.15337238 -0.003592305 -0.0649295 -0.0058445767 -0.00062805094 -0.0033018035
0.006750758 -0.022925172 -0.088978976 0.07517327 0.16321181 -0.066453956 -0.03827034 0.09163721
0.00073190924 -0.03255337 -0.02519256 -0.0002925445 -0.001206417 -0.002632816 -0.045778826 0.03385837
0.15415078 -0.058711935 0.0001295823 -0.00080954214 -0.10152012 -0.06696486 -0.04717186 0.10280541
-0.0037813345 0.0004994295 -0.16009289 -0.10460507 -0.1371486 0.011761483 -0.16147988 0.0007852333
-0.12005612 0.07029785 0.055455115 -0.13051495 0.003255289 -0.06792093 -0.033591077 -0.03155702
0.028026495 -0.06619762 0.13092399 -0.079983465 0.09771837 -0.069317825 -0.017234135 0.0050521563
-0.004208409 -0.047052734 -0.011066588 0.051905364 -0.0009239754 0.017494058 -0.050675243 -0.051485844
-0.0037507862 -0.20818971 0.050028875 -0.0060764127 -0.12804678 0.11439536 -0.028021922 -0.1483766
-0.0032823412 0.13157625 -0.10667313 -0.059455987 0.0024477527 -0.089356266 -0.070843816 -0.005139411
-0.14841142 -0.0006746507 -0.0025168427 -0.044116925 -0.02676673 0.0022035746 0.10084548 -0.0048353476
0.0031100563 0.09284994 -0.013992656 -0.058384616 -0.14413384 0.1555951 0.27531716 0.0994151

exp_avg f4 [256, 82]
00000000: bb53 2038 95b9 b336 92e8 9a38 976c 50b8
00000010: c49b c338 d239 9238 1ce9 1938 df0e e736
00000020: 82e9 1438 ed93 2339 64c2 ebb8 eb90 7238
00000030: 1bae 3138 099a a335 75ba c837 2181 2ab8
00000040: 0ba6 b038 d2b1 a638 c7e3 5e37 1124 fe37
00000050: 5346 1338 6ef0 13b8 b45d a538 1c30 8c38
00000060: d38f 9cb3 3b19 3738 3fb4 3638 1bb6 8f38
00000070: 9c42 d1b7 9445 6ab6 5755 c1b6 a1f5 4e38
00000080: 4617 4a38 067a 3c37 0000 0000 a239 0035
00000090: 2838 1eb8 0000 0000 a497 8537 558f cc38
000000a0: b553 62b8 db16 8138 f4b2 9e39 97d9 87b9
000000b0: 783e 27b8 bd70 84b9 1c4a 9b39 8495 4739
000000c0: 20fc 4536 306b 2a38 9299 2538 9c1e 5cb9
000000d0: abe8 8439 3176 0e39 c920 d337 2d75 9a37
000000e0: 83b2 c937 fe4c c4b8 38d9 0f39 8cb8 e838
000000f0: efd2 1838 46c0 ef36 fbb8 4937 4c85 d7b7
00000100: cf46 9138 2a31 8d38 cb70 1a38 46d1 e236
00000110: 74b3 8d37 5669 89b8 cace e438 442e da38
00000120: 68de 7836 0000 0000 5b10 0338 3ee2 7c34
00000130: 0000 0000 3ff2 0935 aab2 07ba 0000 0000
00000140: 0400 0000 2a02 6ab9 c6a2 8eb7 e284 ba37
00000150: aaef 96b6 3eea df38 b8f1 d4b8 4de9 6637
00000160: cee5 8b38 49ed 80b8 1b6a 8bb7 d390 98b8
00000170: 5389 a338 fb67 5937 4831 86b7 5c13 b237
00000180: 17f0 6c37 07e3 0237 b47b 2cb6 2b0b a7b5
00000190: 5814 3ab7 39ec 8837 a84f 4c37 0820 c8b7
000001a0: 2502 f437 4503 dc37 28e0 d135 9a20 7636
000001b0: b72c 8e36 3eae 97b7 5b90 c337 d9ec 9c37
000001c0: befc d136 0dd2 89b5 2b1c b834 aa05 8cb7
000001d0: 0000 0000 7b15 0834 8b73 8437 0000 0000
000001e0: 7607 fd35 4e65 0ab9 92e1 0f39 6969 0138
000001f0: 04de 2ab8 09cf 4038 79f6 bc37 b46a 1739
00000200: 72ee 11b9 5b22 8cb8 1054 19b5 c5b2 c236
00000210: 07ee d936 04d5 4739 c558 42b9 ee60 47b8
00000220: bb53 a9b7 c935 d537 a98b af37 d6ab 9037
00000230: 8593 49b7 a3f7 2334 b6ee 59b7 76d9 9837
00000240: 9070 8937 2758 f4b6 30f0 5137 c18b 2237
00000250: 70f1 58b7 c35a 9837 7d01 7d37 b299 c836
00000260: cb8a 48b5 84ec e934 c3b9 abb5 0000 0000
00000270: 39e7 13b5 78f8 4cb4 0000 0000 247e 8733
00000280: 6563 1639 0000 0000 0400 0000 8bba 10b9
00000290: accb 3e38 95ad 6cb9 63d2 4fb9 d0c8 32b9
000002a0: 821d 23b7 b4fc 05b9 74c4 01b8 8a89 1cb9
000002b0: 7e86 28b9 ea53 d638 4e12 94b9 911b 52b9
000002c0: a9b3 a237 1c51 51b9 196c 46b9 01dc edb7
000002d0: 283f 1fb9 1169 26b9 4304 ecb4 a484 3cb9
000002e0: a6b3 3cb9 d002 e4b7 4c7a 20b9 ce10 2ab9
000002f0: 3af7 2335 9d9e 3db9 384f 3db9 ec7f cc37
00000300: a48a 56b9 6987 50b9 a586 81b6 71ee 38b9
00000310: d7a2 39b9 f11e 05b5 0000 0000 0ce2 0eb6
00000320: 3ebf 44b7 0000 0000 f01a a6b8 c515 1f38
00000330: 17c0 64b9 59d0 35b9 c895 d538 c6e2 93b9
00000340: 3929 54b9 6332 ab38 ec49 89b9 6f02 4bb9
00000350: 2e24 4d35 cac7 3db9 a988 40b9 54b2 f5b8
00000360: fc42 84b8 5d95 0eb9 846d 8637 57c8 4db9
00000370: b192 4ab9 df57 dab5 f745 3bb9 7fd6 33b9
00000380: 39d1 6cb7 922d 2eb9 3f82 33b9 6a9a e2b7
00000390: 59a7 20b9 ea42 25b9 dc3a 24b7 f8b6 32b9
000003a0: b9ec 32b9 3bdc cdb7 203f 23b9 2ad5 24b9
000003b0: 91e0 81b7 0000 0000 c104 99b8 bfb1 6f32
000003c0: 0000 0000 5c0e 0fb6 17d3 96b8 0000 0000
000003d0: 0400 0080 fd57 7ab8 07ba cb38 862c b8b9
000003e0: d58c 4eb9 2b2b ceb6 5605 82b9 f8bf 86b9
000003f0: a4c8 d6b7 eba2 6fb9 999b 7db9 3137 2739
3.8224953e-05 5.3562203e-06 7.386612e-05 -4.9692197e-05 9.327338e-05 6.9725924e-05 3.6695143e-05 6.8860677e-06
3.550342e-05 0.00015599998 -0.00011241881 5.783226e-05 4.2362237e-05 1.2189277e-06 2.3928684e-05 -4.065142e-05
8.423262e-05 7.9486184e-05 1.3285265e-05 3.0295954e-05 3.5113026e-05 -3.527145e-05 7.885267e-05 6.684681e-05
-7.2904776e-08 4.3654098e-05 4.356005e-05 6.852691e-05 -2.4945759e-05 -3.4909217e-06 -5.761783e-06 4.9342987e-05
4.8182228e-05 1.1234084e-05 0.0 4.776758e-07 -3.7722435e-05 0.0 1.5925449e-05 9.754176e-05
-5.3960557e-05 6.1554565e-05 0.0003026944 -0.00025911324 -3.987408e-05 -0.00025260999 0.0002961912 0.00019033818
2.9502044e-06 4.0630985e-05 3.948209e-05 -0.00020992238 0.00025350353 0.00013586205 2.5168427e-05 1.8412795e-05
2.4044193e-05 -9.360349e-05 0.00013718463 0.000110969966 3.643607e-05 7.1451386e-06 1.2023603e-05 -2.5692068e-05
6.927328e-05 6.7325615e-05 3.6821508e-05 6.7596875e-06 1.6892074e-05 -6.5522894e-05 0.00010910405 0.00010403668
3.7084337e-06 0.0 3.1248066e-05 2.3551635e-07 0.0 5.138899e-07 -0.00051764643 0.0
6e-45 -0.00022316785 -1.7003516e-05 2.2234806e-05 -4.498249e-06 0.000106770996 -0.000101539714 1.3763388e-05
6.670841e-05 -6.1477134e-05 -1.66195e-05 -7.2749004e-05 7.798024e-05 1.2958418e-05 -1.5996993e-05 2.1228268e-05
1.4122596e-05 7.801463e-06 -2.5702002e-06 -1.244572e-06 -1.1091201e-05 1.6322463e-05 1.2177894e-05 -2.3856774e-05
2.9088065e-05 2.6227566e-05 1.5636952e-06 3.6675833e-06 4.2371353e-06 -1.808174e-05 2.3313032e-05 1.870694e-05
6.2581084e-06 -1.0268428e-06 3.4293166e-07 -1.6691938e-05 0.0 1.2673802e-07 1.578943e-05 0.0
1.885214e-06 -0.00013198445 0.00013721574 3.0854168e-05 -4.0737927e-05 4.5969184e-05 2.252612e-05 0.00014440232
-0.00013917105 -6.6821194e-05 -5.711927e-07 5.802462e-06 6.494814e-06 0.00019057473 -0.00018534351 -4.753557e-05
-2.018536e-05 2.5416624e-05 2.092666e-05 1.7246155e-05 -1.2014881e-05 1.5270648e-07 -1.2989787e-05 1.8221075e-05
1.6384089e-05 -7.282029e-06 1.2513294e-05 9.688491e-06 -1.2930817e-05 1.8162076e-05 1.5080322e-05 5.978357e-06
-7.4707776e-07 4.357172e-07 -1.2794557e-06 0.0 -5.509824e-07 -1.9089373e-07 0.0 6.309372e-08
0.00014342142 0.0 6e-45 -0.00013802403 4.5489214e-05 -0.00022571378 -0.00019819434 -0.00017050211
-9.722427e-06 -0.00012778008 -3.0938958e-05 -0.00014928557 -0.00016071831 0.000102199454 -0.00028242398 -0.0002003743
1.9395566e-05 -0.00019962009 -0.00018923021 -2.8355049e-05 -0.00015186949 -0.00015870134 -4.3961526e-07 -0.0001797849
-0.00017996001 -2.7181028e-05 -0.00015304348 -0.00016218724 6.1081994e-07 -0.00018083533 -0.00018053956 2.4378263e-05
-0.00020460278 -0.0001988687 -3.8601743e-06 -0.00017636434 -0.00017703637 -4.9591387e-07 0.0 -2.1291225e-06
-1.1727037e-05 0.0 -7.920514e-05 3.792883e-05 -0.00021815333 -0.0001733912 0.000101845304 -0.00028206984
-0.00020233252 8.163301e-05 -0.00026185752 -0.00019360495 7.64211e-07 -0.00018098872 -0.00018361457 -0.000117157266
-6.306727e-05 -0.00013597817 1.6025042e-05 -0.00019624956 -0.00019318868 -1.626784e-06 -0.00017859774 -0.00017150676
-1.411541e-05 -0.0001661091 -0.0001711929 -2.7013204e-05 -0.00015321131 -0.00015760554 -9.788866e-06 -0.00017043564
-0.00017063589 -2.4540457e-05 -0.00015568407 -0.00015719669 -1.548257e-05 0.0 -7.296494e-05 1.3952046e-08
0.0 -2.1317019e-06 -7.191876e-05 0.0 -6e-45 -5.968659e-05 9.7144446e-05 -0.00035128387
-0.00019698155 -6.144304e-06 -0.00024799508 -0.000257015 -2.5604219e-05 -0.00022853508 -0.00024185925 0.00015946921
