Config/results/BallCatcher_00/BoxBehavior/BoxBehavior-22400.onnx (onnx, 89766 bytes, 4 tensors)

distribution.branches.0.bias f4 [3]
00000000: b0dc 8dbb 996f 813c 6c39 3bbc
-0.0043292865 0.015800284 -0.011427265

distribution.branches.0.weight f4 [3, 256]
00000000: d36a 7fba 6510 833c 1e61 d33b 4e71 b13b
00000010: aa36 86bb 1ffc 4abc eb6e c9bb 2dfd 88bc
00000020: 0bf2 7f3c eff1 6dbc 5e39 bc3a 53f3 903c
00000030: 1b43 0b3d ac3f 9a3b f6be d23b 3c67 a93c
00000040: 1faa 023b e05c 7ebb 7fb7 1fbc 5c82 e2bb
00000050: 7808 123c ac51 d73b 5858 8bba d698 88bb
00000060: 0144 04bc f006 c73c 423e 6cbb 4a89 ca3b
00000070: d300 763c 6797 8b3c 5b16 363c a534 893c
00000080: 9db2 f03c 2ce1 75bc df62 023a 8eb4 08bc
00000090: 3b69 343c f843 933c 5cb7 8c3c 1166 ae3c
000000a0: fc61 75bb 2115 ef3b 6479 193c 8b50 5cbc
000000b0: 7061 4b3a 3980 243c 5609 1dbb 13bc 953c
000000c0: 5982 453c 73bf 83bb fd68 a0bb d572 9cbc
000000d0: b230 cd3b 9294 363c 87c4 763c d7c5 4ebc
000000e0: 45de 3a3c 5072 643a e2a3 5a3c b87b 95bc
000000f0: ecb6 01bc 62fc 92bc 3b02 ae3c 3d64 b93c
00000100: 1a37 223c 7a71 313c f15e 5dbb bdee cf39
00000110: 441b c83b 544e a23c 0d1b c53c 8ca0 adbb
00000120: f7a9 97bb 3c1c d83b 5c29 c7bc d902 b53b
00000130: 3e2e 6fbb 60c3 583c 7710 8fbb 008e 4bba
00000140: ae04 73bc 6283 1abc 4aa7 b0bc dd80 ae3b
00000150: 2683 d3ba 8cf4 91ba b302 af3c 4c15 8dbc
00000160: bddc 66b6 e167 6abc c882 ff3b c12e 9a3b
00000170: 5916 0cba 38aa c5bc 4db5 b4bb 3ac3 88bb
00000180: abe6 3a3a 4a6a 11bb fbb1 923b cfc8 a03b
00000190: 0a11 123b f880 93bc cb5a 3b3b 6c53 acba
000001a0: a28e 89bc 65b3 04bc a46b e339 6fa0 e0ba
000001b0: 801f b53c 4515 5f3c 75ae 98ba 4954 513c
000001c0: 4ee8 093c 3e40 6b3c 5809 873c b4bb f6ba
000001d0: 9a03 dd3c eeaa 1f3b f3a2 843c 1b67 093c
000001e0: 97ef 9b3b 4cb9 493c 201d a83b 96a2 663b
000001f0: 1b3c 3ebc 3949 133c 5cba 433c 823b 283c
00000200: ae87 ad3c 472c 7cbc 624b 533b ddae 223b
00000210: df1a fdbb 4dd3 b5ba 25da 983b 874a 593b
00000220: e633 2b3b d182 263b 35e7 603c dff5 143c
00000230: d829 1f3c 4702 42bc a9dc 3f3c 7acb 013c
00000240: 886b a93a 5159 503b 5b27 3b3b 98f7 e03b
00000250: af38 e8bb 9814 523a 25f9 9b3b 2b17 9eba
00000260: e682 d43a 8b2b cb3c 9d16 283c a2a5 e8ba
00000270: 2329 643c 8fac 5fbb be26 be3b 6ae2 4e3b
00000280: 3d37 fd3b b68f e8bb 0508 533c 6ebf 4bbc
00000290: 8138 3b3b 1bac 0fbc c625 d5bb 1053 6bbc
000002a0: 74f7 c83a 2966 1f3c 6d5a b23a ab80 edba
000002b0: f156 733b 8106 9b3c 03d0 2d3d 59c8 ab3c
000002c0: 88b8 3cbb 9eaa e93c 52cd 69bc beb4 20bb
000002d0: 0a7d 1f3d cf4b c93c cd76 c0ba ea9e 143b
000002e0: 19ca f83c aca0 613a a93b a33c 3bfb 1ebb
000002f0: 4d4f 8a3c f998 7bba 9a7c 4e3c c4bd af3b
00000300: 498e 6bbb 2bad 493c 3a8e e8ba 21f0 903c
00000310: 0cb9 a5bb 105c d7bb b0dc 313c d217 8f3c
00000320: bf71 133c 4e63 dd3b 45c9 2b3b f565 2f3b
00000330: 189e 40bc d317 dcbb 99b3 5fbc 2e56 123b
00000340: 5181 1c3c ae7e adbc ad31 b23b 8b43 4cbc
00000350: bb63 9c3c 4895 6c3b 12e0 9ebb f6ba 59bc
00000360: e1a5 32bb 2640 4d3c b5d2 3ebb 535e 3bbb
00000370: c8e6 e3b9 95c7 833c 6bfd 7f3c dbc6 70bc
00000380: ce2a 19bc 5d8d 9cba 460c 29bc 257a c83c
00000390: bcdd 713c 1d24 13bc 7653 fa3b 3044 02bb
000003a0: 2e35 ae3c e45a a0bc a3a1 963a ce98 0e3d
000003b0: 6b72 ae3c 1e7c 8a3c 701a dd3c 84f7 a1bc
000003c0: b961 283c e1e7 06bb cbce 713b 2a84 1bbc
000003d0: 217e 533c aca9 48bc 18b6 d13b 204a 55bb
000003e0: f7d5 3b3c 0b7f d6ba a0ce 363c d64a 2fbc
000003f0: 0eb8 083c 1eea b4bb 2ccb e438 340e 083d
-0.0009743396 0.015999028 0.0064507863 0.0054151183 -0.004095872 -0.012389212 -0.0061472557 -0.016722286
0.015621672 -0.0145230135 0.0014360358 0.017694151 0.033999544 0.0047072973 0.0064314557 0.020679109
0.0019937826 -0.0038812682 -0.009748339 -0.0069125127 0.008913152 0.0065710153 -0.0010631187 -0.00416861
-0.008072854 0.0242953 -0.003604785 0.006180917 0.015014845 0.017039968 0.011113728 0.016748736
0.029382044 -0.015007298 0.00049738394 -0.008343829 0.011011417 0.017976746 0.017177276 0.021288903
-0.0037442436 0.00729622 0.009367321 -0.013446937 0.0007758355 0.010040336 -0.0023961863 0.018278157
0.012055003 -0.0040206253 -0.004895328 -0.019097725 0.0062619084 0.01114382 0.015061504 -0.012620411
0.011405532 0.00087145437 0.013344737 -0.01824747 -0.007917147 -0.017942611 0.021241298 0.022630805
0.009900833 0.010830278 -0.0033778513 0.0003965999 0.006106766 0.01981274 0.02406075 -0.0052986797
-0.0046284157 0.0065951627 -0.024311714 0.005524021 -0.0036496068 0.013230175 -0.0043659764 -0.0007764995
-0.014832659 -0.009430738 -0.021564145 0.0053254203 -0.0016137108 -0.0011135503 0.021363592 -0.01722207
-3.4401157e-06 -0.014306993 0.0077975728 0.0047052805 -0.0005343906 -0.024129018 -0.005514777 -0.0041736634
0.0007129709 -0.0022188597 0.0044767833 0.0049067507 0.0022287988 -0.018005833 0.0028588052 -0.001314742
-0.016791645 -0.008099412 0.00043377012 -0.0017137657 0.022109747 0.013615911 -0.0011648672 0.012776443
0.008417202 0.014358578 0.016483948 -0.001882425 0.026979256 0.0024363357 0.016190981 0.008386399
0.004758786 0.012312245 0.005130425 0.0035192124 -0.01161101 0.008989626 0.011946287 0.010268094
0.021182861 -0.015391416 0.0032240977 0.0024823465 -0.0077241505 -0.0013872177 0.0046646767 0.0033155994
0.0026123463 0.0025407562 0.013726999 0.009091823 0.009714566 -0.011841363 0.011710324 0.007922048
0.0012925724 0.0031791518 0.0028557393 0.006865453 -0.0070868353 0.0008013933 0.004759925 -0.0012061348
0.0016213327 0.024801036 0.010259298 -0.0017749558 0.013925823 -0.0034129953 0.0058029583 0.0031568059
0.007727532 -0.00709721 0.01288033 -0.012435777 0.0028567614 -0.0087690605 -0.006504747 -0.014363065
0.0015332536 0.009728947 0.0013607271 -0.0018120011 0.0037130679 0.018924 0.042434704 0.020969557
-0.0028796513 0.02852374 -0.014270144 -0.0024521793 0.038937606 0.024572281 -0.0014683843 0.0022677728
0.030369805 0.0008607011 0.01992591 -0.0024258632 0.016883517 -0.0009597685 0.0126029495 0.005363198
-0.0035942963 0.012309353 -0.0017742582 0.017692627 -0.0050574597 -0.006572254 0.010855839 0.017467413
0.008999287 0.006756223 0.0026212495 0.0026763652 -0.0117564425 -0.0067167073 -0.013653659 0.00223292
0.009552316 -0.02117857 0.0054380507 -0.012467275 0.019090524 0.003609972 -0.0048484886 -0.013289204
-0.0027259516 0.012527501 -0.002911729 -0.0028590157 -0.0004346876 0.016086379 0.015624384 -0.014695848
-0.009348584 -0.0011943985 -0.010317868 0.024472306 0.014762338 -0.008980778 0.007639344 -0.0019877069
0.021265592 -0.01957459 0.0011492263 0.034813695 0.021294793 0.016904887 0.026990145 -0.019771345
0.010277205 -0.0020584988 0.003689694 -0.00949196 0.012908489 -0.012247484 0.006399881 -0.0032545403
0.011464587 -0.0016364766 0.011157662 -0.010698995 0.008344663 -0.005521073 0.00010909731 0.03321667

network_body.linear_encoder.seq_layers.0.bias f4 [256]
00000000: ffc4 3bbc 27e4 edba 70fb 0bbc cd17 c6bc
00000010: 9767 88bc a027 943b 2755 efba 3de2 47bb
00000020: 50a5 adba 7168 693c 5465 6abc 9e84 f9bb
00000030: c30c 11bc 61b1 41bc 638f bebb bd45 143c
00000040: 5fb9 4dbc bb8a c83a c0fd 88ba 2a3f 14bc
00000050: 15fc 163d 0279 423c be08 b03c a49c 80bc
00000060: 7638 5e3c 1d52 663c 36e5 54bb bb7a 41bc
00000070: 9828 d13c 2d84 86bb 6350 de3b 6abe 093c
00000080: 8466 15bb 2b63 673b ad67 abbb 2897 aa3a
00000090: bbca 37bc 9756 6fbc f9a9 3ebc fa89 153b
000000a0: ca7e 9abc 8be3 d9ba 8e00 0fbc 0cea 3ebc
000000b0: be6f 9b3b d087 4fbc b737 72ba b61b c9bb
000000c0: 738c a3bb c81c 3bbc 588c 26bb 5b1c 1a3c
000000d0: 85e6 afbc 9bea 2bbb 2148 bf3b d830 153c
000000e0: fb2c 4dbc 2df7 afbc 574c 943c 04f9 d7ba
000000f0: 2d34 b4bb 0c48 c53c 1e44 04bc a92e 92bc
00000100: 727e 7dbc 5e84 933b 7447 393c 5dd4 ffbb
00000110: ca7d 9a3b 2620 4e3a a964 053c 781c 15bc
00000120: ee53 77bb e621 8cbc c3e8 813b 9be3 f5bc
00000130: b3ab d83b 885d 5f3c ff55 443a e91a 94bc
00000140: db08 783c 5055 a3bc f8ea a63a c574 91bc
00000150: c100 63bc 2fca a1bc ac93 313c 65f2 1fbc
00000160: e23d 4a3c 9c21 5e3c 2203 b83a 3585 9639
00000170: df33 bbbc 2f8e 5b3c 1ee6 1bbc ba0f 0ebc
00000180: bd80 b33b 5a65 003c 67f3 c1bb 243c c3bb
00000190: 6d7d 69bc 90d1 c83b 2e0d b1ba 54db 97bb
000001a0: 849d 593b bc89 b1bb f7aa 9dba d070 023b
000001b0: 6d95 31bc 0b51 dbbb 3ed4 8e3b 7937 ce3b
000001c0: 6488 8bbc 0340 fdbb c6b3 f4bb a6f9 e7bc
000001d0: 2fac c73b 0b38 9fbb 85b9 013c 43dc 463b
000001e0: 5578 27bc 41fb c13c 92ed e63a f2a7 6d3c
000001f0: bde5 96bb 944b b7bc 35fe 553c b06f 953a
00000200: 5227 133c afa9 97bc a154 81bc 1806 edb9
00000210: dbb2 2fbb 0cef d93b 5bd8 c5bb 4fae 87bc
00000220: 4241 b1bb 3138 8dbb 1c92 b83c 40c5 22bb
00000230: 1a71 81bc fec2 bf3c a4a3 47bc 8f81 7fbc
00000240: 04ab 00bc 4f23 fe3b 6d41 6d3a 2cb5 893b
00000250: 0f96 84bc c6ae e53b 9ea5 423d fc4a f5bb
00000260: 50e6 d43b 0d4e 1c3d 67b0 3ebc b983 a33b
00000270: 492d 3d3c 68e4 1dbc 6f3e b9bb d4ff 70bc
00000280: 36ba 78bc d5ff aebb 0415 083c 987d cfbb
00000290: 7d50 7abb 9c18 24bc 1e9e f03b 7f91 013c
000002a0: 4a36 adbb 14f0 afbb 7c88 9abc c094 18bc
000002b0: 9164 9d3b 0648 243c d954 f93c df1c 103c
000002c0: 8b38 82bc 85ef bb39 93d8 40bb 8f09 5cbc
000002d0: 98d0 b23c c82b 143d a7b2 743b edeb 8fbc
000002e0: 0bab c23c 3e46 283a 3602 89bb 1090 6dba
000002f0: acd8 fdba dcd0 54bc 2716 83bb c7f8 edbb
00000300: 6eb4 38ba aa63 3cbc e632 e83b 41c1 9d3c
00000310: bf58 743c 576f 4f3c f134 97bc 0433 a23b
00000320: 4e01 50bc 7f6c 13ba 5908 aabc 7e6f ff3c
00000330: 46b8 d33b e721 7b3c b87f 723c bd17 b2bc
00000340: 227b efbb 9e4b 763b 8241 74bc bdc6 063c
00000350: 9a9a 45bb c00f 043c f247 38bb 2f7e 1cbc
00000360: 4b69 d8bc 5e41 54bc 1407 66bb 5e5c 37bc
00000370: b57e 5cbc 66a4 80bb d0fd abbb d2a5 d93b
00000380: fb62 e3bb 6398 163c 99f0 ad3b fea0 7c3c
00000390: b034 943c 14bb 8d3c e23d 0abb 9f1b fcbc
000003a0: 068e 403c 5dc2 efbb dc85 81bb 9a48 0bbc
000003b0: b4aa b13b bf4d 66bb 1dfe ec3c 3d5b d93c
000003c0: 70dc af3c 2571 263c aea9 5dbc 64dc 9abc
000003d0: ef85 41bc 20da 5dbc f272 ffbb 99ab 3e3c
000003e0: 5e41 3fbc de8c a7bc 0c71 d03c cb84 84bb
000003f0: a927 b7bb f38f 91bc 6702 94bb e86c b33c
-0.011460542 -0.001814966 -0.008543834 -0.024181271 -0.016650958 0.004521325 -0.001825963 -0.0030499839
-0.001324812 0.014246092 -0.014306385 -0.007614686 -0.00885314 -0.011822076 -0.005815433 0.00904983
-0.012556403 0.0015300134 -0.00104516 -0.009048263 0.036861498 0.011869671 0.021488544 -0.015699692
0.013563266 0.014057663 -0.0032485253 -0.011809046 0.025532052 -0.004105112 0.006784485 0.008407215
-0.00227967 0.0035306911 -0.005230865 0.0013015019 -0.011217768 -0.014608047 -0.011637204 0.0022817836
-0.018859286 -0.0016623599 -0.00872816 -0.011652481 0.0047435453 -0.012666658 -0.00092398695 -0.0061373366
-0.004991108 -0.011420436 -0.0025413241 0.0094061745 -0.021472225 -0.0026232365 0.005837456 0.009105884
-0.012522931 -0.021480167 0.018102808 -0.0016477411 -0.005499384 0.024082206 -0.008072881 -0.017844515
-0.015472041 0.0045018634 0.01130854 -0.007807298 0.0047147023 0.0007863067 0.008141675 -0.009101026
-0.0037739235 -0.017106008 0.003964515 -0.030015757 0.006612265 0.013633139 0.0007489621 -0.018079238
0.01513883 -0.019938141 0.0012734821 -0.017755875 -0.01385516 -0.019749729 0.01083843 -0.009762381
0.012343856 0.013557818 0.001403902 0.00028709476 -0.022851883 0.013400598 -0.009515313 -0.008670742
0.0054779933 0.007836664 -0.0059189084 -0.005958097 -0.014251095 0.0061284974 -0.0013507956 -0.0046343002
0.003320546 -0.0054180305 -0.0012029101 0.0019903667 -0.010838849 -0.0066930107 0.0043587973 0.006293234
-0.01703281 -0.007728578 -0.0074677197 -0.028317284 0.006093524 -0.0048589758 0.007917766 0.0030343689
-0.0102215605 0.023679378 0.0017618409 0.014505373 -0.0046050237 -0.022374906 0.013061096 0.0011401083
0.008981543 -0.018513529 -0.015787425 -0.00045208703 -0.0026809487 0.006650811 -0.0060377545 -0.016562609
-0.0054093907 -0.004309677 0.022530608 -0.0024836808 -0.015801001 0.02340841 -0.012185011 -0.015594854
-0.007853273 0.007755674 0.0009050582 0.0042025056 -0.016184835 0.00700936 0.047521226 -0.0074857455
0.006497182 0.038160373 -0.011638737 0.004990068 0.011546441 -0.009636976 -0.0056531946 -0.014709432
-0.015181115 -0.005340556 0.008305792 -0.0063321106 -0.0038194947 -0.010015633 0.007343068 0.007908224
-0.005286013 -0.0053691957 -0.018863909 -0.0093128085 0.004803248 0.010026937 0.030435966 0.008795946
-0.015896102 0.00035845875 -0.0029425963 -0.013430013 0.02182798 0.036174566 0.003733793 -0.017568553
0.0237632 0.00064191583 -0.004181172 -0.00090622995 -0.0019366941 -0.012989249 -0.0040004435 -0.0072623226
-0.0007045929 -0.011498371 0.0070861457 0.01925719 0.014913737 0.012660823 -0.018457862 0.004949929
-0.012695624 -0.0005623772 -0.020755934 0.031181093 0.006461176 0.015327907 0.014800958 -0.021739835
-0.0073083797 0.0037581692 -0.014908196 0.008226094 -0.0030151964 0.008060396 -0.0028119055 -0.009551569
-0.026417395 -0.012955038 -0.0035099434 -0.011191456 -0.013457944 -0.003925848 -0.0052487627 0.006642082
-0.0069392896 0.009191605 0.0053082225 0.015419243 0.01809153 0.01730112 -0.0021094014 -0.03077489
0.011752611 -0.007316871 -0.003952725 -0.008501196 0.0054219607 -0.0035141555 0.028929764 0.026532764
0.021467417 0.010158812 -0.013529224 -0.018903919 -0.011811717 -0.013540775 -0.007795685 0.011637592
-0.0116733 -0.020452913 0.02544453 -0.0040441505 -0.0055894447 -0.017768836 -0.004516888 0.021902516

network_body.linear_encoder.seq_layers.0.weight f4 [256, 82]
00000000: 1895 abbd 0e8c 983b 15eb b53d 25ec 89be
00000010: 2dcf 743d 0179 2bbe dc1b 0b3e 65a7 373e
00000020: b281 953b d83a fa3d 3ace f9bc b6f3 94bc
00000030: 3d05 253e 01d9 8e3c 1f70 23be ed9d 22bd
00000040: 1bce 263e abde a33d a4ff 33be 51f0 9f3d
00000050: 9ad0 c03d a56c af3d d226 2bbd b228 24be
00000060: ed6d 8ebd 3ab1 c23d a573 493c 85bd 443e
00000070: c155 773d ae79 56bc ef7f 2b3e 4dc7 623d
00000080: eabd cc3d 712f 32be 53c8 3a3d 6b0b 2abe
00000090: 86c7 c73c 0cf6 983d e0b9 083e b59a adbc
000000a0: 9a54 77bd a280 193b 9cde 20be ac47 7dbd
000000b0: 1489 e2bd 00a9 413c 8f3d 95bd cd66 853d
000000c0: 92d7 f3bd c35e 013d ef10 b0b9 bcea b1bb
000000d0: 7dfe 133e 7795 d0bc 68e5 6d3e 9405 8cbd
000000e0: c289 413e d82b 513e 63ae 90ba 4a02 6fbe
000000f0: 267b 2dbe 7c9c 663e c1f0 82bc 40cf 343b
00000100: f715 903e fc4b a3bd 1388 033e 92e9 173d
00000110: 6b16 c73d 5474 2fbe 95bd 9a3d 2289 a43c
00000120: 0830 a9bd 10ad 7ebe f77f 183d 0abf 1f3e
00000130: a0d9 0dbd e86a 53bd 9ec4 6a3d c94f 9f3d
00000140: 089d 263e f7de 083d a4e8 c43d 2972 6dbd
00000150: 1263 1fbd f5d1 1d3e f38a 2a3b 7887 e03d
00000160: 2035 9dbd 546b 1ebc 4e82 edbd b7e2 7cbd
00000170: d01d af3c 1dc5 7bbd ff74 003e e10f c3bd
00000180: c3c3 a73d bdcc 1abe 2819 343e d3ac a43d
00000190: 308b 8e3d 8f41 b83d 6718 b93d 8b80 8d3d
000001a0: 5cf7 7d3d 2e00 dfbc da80 9bbc 754b 11be
000001b0: 3e4f 0dbe 1ff2 1bbd d963 fabd e73d b93d
000001c0: 2c95 d33d 5abb b03d 4c02 6fba d5ac 6c3d
000001d0: ea86 04be ed69 3dbe d7bd 973d 767f 26bd
000001e0: 6edf 33be c088 633e 2948 3dbd bbd8 3c3e
000001f0: 4c6e feb9 4a05 643d 04c3 7bbe 2f30 1c3d
00000200: 9908 9abd f9b0 07bc c52f 073e abdc 3e3d
00000210: 9867 6a3c e08c c63d 0585 a03d 5185 aebd
00000220: 07b1 b3bd f8d9 c9bd 6bb8 b2bd d448 9f3d
00000230: ac5b 263d a269 1dbe e526 8cbd 7126 23be
00000240: 6a43 2f3d 562b e43c 8fc6 b43c f92c afbd
00000250: 8cdb a53c 96ef b0bc 69f0 193c c714 cfbd
00000260: 9480 383d fc55 423d 6cb8 2fbd 95cf 8abe
00000270: f8f5 6bbe 5936 923e 94b4 aabd cfaf 12be
00000280: d1f4 cdbd ad2f 7e3d dd86 9abd 440b 88bd
00000290: b8c5 533d 38a6 6dbd 0902 963d cfd9 56bb
000002a0: b0b9 023d 7b17 703e 004f 3f3c b943 21bd
000002b0: 9574 8d3d 6eee 2abe bd36 c2bd 4e82 30be
000002c0: b861 493d 2396 083c 4eeb 72be 8729 3cbd
000002d0: 7f1c 053e 1f4c cb3d dc15 e43c 46ef b03c
000002e0: 783d a7bd 9ebc 95bb a918 ad3d efda ecbb
000002f0: fd4b 77be 12d9 313e 3ccd 12be d60e d8bc
00000300: fda2 853c ba95 3dbe eaf4 9f3d 1575 5ebe
00000310: a2fb 06bd a2b3 233d 4422 e33d 7304 843e
00000320: 0dee b23c 8879 3a3e 4ea6 2bbd ba27 983d
00000330: 9235 3a3d c676 1fbb d295 9e3d 92cd d0bd
00000340: d403 18be 905f 9cbb 3132 7e3c c841 803e
00000350: dfe8 45bc 4085 0e3e 4594 5abe 4c28 7dbc
00000360: c8f0 a1bd 75c7 7abd 3310 98bd ca29 233d
00000370: a8aa 243e 6196 70bd a441 493b 5441 77bd
00000380: 21f0 cfbc 3b94 d8bc 6109 51be dbfc 8b3c
00000390: 6045 01be d869 5ebd 8f64 5cbe b026 9f3c
000003a0: 4d8d 05be 6244 d3bd da4a a93d 5a88 8d3d
000003b0: 241c 283d 0fa7 cc3b b965 703d 7ee8 65bc
000003c0: 2a91 b93d 687a a2bd 3a82 023e 2125 c8bd
000003d0: 86a9 593c 6146 923d d2fd 903d 7673 8e3b
000003e0: 9194 34be b00c 46bd a0c0 3cbc 8387 bebd
000003f0: b5e1 903b 1014 27bd a5ac 54be b051 23be
-0.08378047 0.0046553677 0.08882729 -0.26937976 0.05976789 -0.16745378 0.13584846 0.1793495
0.00456258 0.12218255 -0.030493844 -0.018182617 0.1611528 0.01743746 -0.1596074 -0.03970139
0.1628956 0.08001455 -0.17577988 0.078095086 0.094147876 0.08565644 -0.04178507 -0.16031149
-0.069545604 0.095064595 0.012295638 0.19212921 0.060384516 -0.013090534 0.16748022 0.05536585
0.09997161 -0.1740091 0.0456012 -0.16605918 0.024387132 0.07468805 0.13352156 -0.021191934
-0.060383417 0.0023422618 -0.15709919 -0.06183593 -0.11061302 0.011820078 -0.07287132 0.06513748
-0.11906351 0.031584512 -0.00033581952 -0.005429594 0.14452548 -0.025461895 0.23232043 -0.068370014
0.18900207 0.20426881 -0.0011038299 -0.23340717 -0.16941509 0.22520632 -0.015983941 0.002758935
0.28141758 -0.07973477 0.12844877 0.037087984 0.09721073 -0.1713422 0.07555691 0.020084921
-0.08261114 -0.24870706 0.03723141 0.1560022 -0.03463137 -0.051615626 0.057316415 0.0777889
0.1627084 0.03341576 0.09614685 -0.0579702 -0.03891284 0.15412124 0.0026022762 0.109633386
-0.076761484 -0.009669144 -0.11597119 -0.06173965 0.02137652 -0.06146728 0.1254463 -0.09524513
0.081916355 -0.15117164 0.17587721 0.08040776 0.06960142 0.08996879 0.090378575 0.06909283
0.06200348 -0.027221765 -0.01898234 -0.14188941 -0.1379976 -0.0380727 -0.12226076 0.0904501
0.10331187 0.086294845 -0.0009117469 0.057782013 -0.1294209 -0.18497439 0.07409256 -0.0406489
-0.175657 0.22220135 -0.046211395 0.18442051 -0.00048528833 0.055669107 -0.24586111 0.03813189
-0.07521171 -0.00828194 0.13201816 0.046597164 0.014306925 0.096948385 0.078378715 -0.08521522
-0.08774 -0.09856027 -0.08726581 0.07777563 0.04061477 -0.15372327 -0.06843356 -0.15932633
0.0427889 0.027852695 0.022067336 -0.085535 0.02024629 -0.021598618 0.009395697 -0.10111385
0.045044497 0.047445282 -0.042900488 -0.27111498 -0.23043048 0.2855709 -0.08335224 -0.14324878
-0.10056461 0.062057186 -0.075452544 -0.06642774 0.05170223 -0.058019847 0.07324607 -0.0032783633
0.031915367 0.23446457 0.01167655 -0.039371226 0.06907002 -0.16692516 -0.09483097 -0.17237207
0.049165457 0.008336577 -0.23722574 -0.04593804 0.12999152 0.09926628 0.027842455 0.02159847
-0.08166021 -0.004569604 0.08451969 -0.0072282474 -0.24150081 0.17367962 -0.14336103 -0.026374262
0.01631307 -0.18514147 0.078103855 -0.21724351 -0.03295482 0.039966233 0.1109052 0.25784644
0.021842027 0.18210423 -0.041906647 0.07429452 0.045461245 -0.002433227 0.0774342 -0.101954594
-0.1484521 -0.004772134 0.015514896 0.25050187 -0.012079447 0.13918018 -0.21345623 -0.015451502
-0.079072535 -0.061225373 -0.07424965 0.039834775 0.16080725 -0.058737163 0.003070929 -0.060365036
-0.025383057 -0.02643787 -0.20413734 0.017088344 -0.1262412 -0.05430016 -0.21522735 0.019427627
-0.13042183 -0.10315777 0.0826623 0.069107726 0.041042462 0.006245501 0.05869076 -0.014032481
0.09060891 -0.079335034 0.1274499 -0.09772707 0.013285046 0.0714233 0.070796624 0.00434726
-0.17634799 -0.048351943 -0.011520535 -0.093031906 0.0044214376 -0.040790617 -0.20768984 -0.1594913
