Config/results/BallCatcher_00/BoxBehavior/BoxBehavior-2499995.pt (torch, 532751 bytes, 21 tensors)

network_body.linear_encoder.seq_layers.0.weight f4 [256, 82]
00000000: da75 d93e b5a1 aabe 42cf 18be 6867 02be
00000010: 98fe fcbd 9680 1d3d 0850 093d b602 16bd
00000020: ecc5 8cbd f78f 1d3e 3ce1 bbbe f59c 93be
00000030: 43ac 3ebe 25ac 0cbd 1ee0 87bd 6650 f63d
00000040: d05d a7bd 47ae 4d3e efbf cebe 28f3 84bd
00000050: 2d2d c2bd 964f 3dbd 4b22 ca3d c616 3cbd
00000060: f55e c4bb 4db3 0fbc b450 183d 7f46 6e3d
00000070: 26ec b8bd 5a91 66be 8f7e ae3d 5ae8 d2bc
00000080: 84f0 cf3d 5149 05be 65ea f03c 82b3 cf3c
00000090: b5dc 0ebe 3d67 103d b4af 243d 08b3 103e
000000a0: 664c 36be c74f 8bbe e276 b73d cb5a 74be
000000b0: e152 71bd f964 593e 5f0f 74be c3ed 34be
000000c0: ad6a 5bbe 9bd3 2fbd 5a01 353d 1412 6cbe
000000d0: 0b4f 703d da48 b9bd 8ce6 00bf dfb1 21be
000000e0: aad5 b1bd 1b00 fc3d 5d1c 22be dbcb a9be
000000f0: 0197 ebbc 072b 0fbe 4917 14be dcbd 16bd
00000100: f00a 8bbd 169a 8fbd 2ddd 35bc 8439 09bd
00000110: 3133 bd3d 74d7 a93e b234 d7bd ccae a4bd
00000120: 77c9 2ebe 1ae4 b33c 05d8 8d3d 2420 e93d
00000130: da9e 93bd 9118 db3d 8bab 2fbd fa5a e7bd
00000140: b124 7c3d c120 42be a760 89be 9444 eb3c
00000150: 8d92 f8bd bc71 b1bd 96fa 363e e610 183d
00000160: 0d2a 353e 2664 16be 0464 a2be 0598 863e
00000170: 8c88 12be 4f50 0c3c cab0 83be 136a 11be
00000180: 366f 1dbe 6984 a4be ec9b 733c db7f 703d
00000190: b017 993b a407 f6bd 68af 83be 7087 96be
000001a0: 33b0 643c 84d2 553d c0e7 703e b8d5 e2bd
000001b0: 4c4e 3bbe 367e 33bd cf0f fcbc 1b59 27be
000001c0: 3f0b b43d 1863 dbbd 5f80 4dbd 6ad7 4c3e
000001d0: ba3b f93d a328 9e3d f8b9 2a3e 15bd 9abd
000001e0: 199f 04bd 9059 debd b1ae 90bd dcd6 7bbe
000001f0: 51fe 403d f7ef d1bc 465b 33be 5c6b bcbd
00000200: 4b9f 89be 28d9 84bd 7987 eabe e81c 43bc
00000210: 25e2 44be 2d39 44bd 548e f8bb 5721 debb
00000220: 0cd7 85be d2c8 0cbe e5eb 86be 8527 b4be
00000230: 30eb 11bb eefd abbd a421 41be f5d9 ebbd
00000240: c868 93bd 17a6 46bd 08d5 27be c32c 39be
00000250: e4f0 483d 60a0 6bbd 4904 cb3d 828e 7ebd
00000260: 67b7 0fbe c155 cfbe fa3e 8abe c729 47bd
00000270: 5a17 d03d d99a b63d baff 7bbd 0c08 23be
00000280: 5740 28be b2f0 a43d 05d1 0f3c ff23 e13d
00000290: 3cd7 533e a573 febe f662 6dbe fc85 3fbe
000002a0: 2251 b43d cc82 59be 30d9 b8be 609c e5bc
000002b0: deae 5cbe 4824 48be 89c2 f1bd 7692 0fbe
000002c0: e00c 38be 0e00 09be 02eb 11bd ede0 85be
000002d0: 3d5d 21be d9bb 9cbd 824f c3bd 23b5 adbe
000002e0: 2366 a43c b509 e2bc 1756 7fbe 02ea 8ebe
000002f0: e748 91bb 18ae 0bbe 09ae 8cbe ae0b 62be
00000300: c1ed 393d eabb 1fbe 7634 5fbc 2aea 63be
00000310: 3b43 36be 3632 d6bd bb79 883d 5b6e 17be
00000320: ce26 49bb 7b4e ef3d 1d2b 23be b69b 7ebe
00000330: 74ff 073e 8d22 91bd 6501 b8bd bf35 023e
00000340: 1d44 fbb9 d09e 5e3e a5a1 86be a15c 88be
00000350: 4ace f5bd 8465 52be bd8b 55be f63c 9dbe
00000360: f19e fb3d 17b2 7cbd d7ab e8bd 6672 923d
00000370: 3587 28be 560d b4be 3b1c 71bd c261 0abe
00000380: ff2b 2c3c 37ff 6abe 6c15 06be 15c4 813e
00000390: 5bc0 c2be cdce dfbd a2ad ecbd 0bfe 5dbe
000003a0: ff78 71bc 5340 103e cbcf 863d 9cfd 533d
000003b0: 0653 a4bd f0ae 84bd d7b7 10be 9eb2 7a3d
000003c0: c76e 00be 8507 2bbe 95c6 c6bc a026 143e
000003d0: e674 a03d f93c 8abe b952 de3e 25b7 43be
000003e0: 2f66 86bd 5f22 1abe 6998 b0bd 1a72 08be
000003f0: c4b9 b43e 8d97 91be a42e 92bd bfd8 753d
0.42472726 -0.33326498 -0.14922813 -0.12734759 -0.123532474 0.038452707 0.03352359 -0.03662368
-0.06873688 0.1538695 -0.36695278 -0.28830686 -0.186204 -0.034343857 -0.06634544 0.120270535
-0.0817219 0.20086013 -0.4038081 -0.06491691 -0.09481273 -0.046218477 0.09869822 -0.045920156
-0.005992765 -0.008770776 0.03718634 0.0581727 -0.09029417 -0.22516385 0.08520233 -0.02574556
0.101532966 -0.13016249 0.029408643 0.02535415 -0.1395138 0.035254706 0.040206626 0.14130795
-0.17802581 -0.27209303 0.08958222 -0.2386276 -0.05891693 0.21229924 -0.23833989 -0.17668824
-0.21427412 -0.042926412 0.044190742 -0.23053771 0.05866913 -0.090470985 -0.50351787 -0.15790509
-0.08683331 0.123047076 -0.15831132 -0.33163342 -0.028758528 -0.13981257 -0.14462008 -0.036802158
-0.067891955 -0.070118114 -0.011100096 -0.033502117 0.092382796 0.3317219 -0.10508098 -0.08041152
-0.1706904 0.021959353 0.06925968 0.113830835 -0.07208033 0.10698045 -0.042888205 -0.11296649
0.06155843 -0.18957807 -0.26831552 0.028719224 -0.12137327 -0.08664271 0.17869028 0.03712549
0.17691822 -0.14686641 -0.3171693 0.26287857 -0.14309901 0.008564069 -0.25720817 -0.1420062
-0.15374455 -0.3213227 0.014868718 0.058715682 0.004672013 -0.12013176 -0.25719762 -0.29400206
0.013958025 0.052202716 0.23525906 -0.1107592 -0.18291587 -0.043821536 -0.030769257 -0.16342585
0.087912075 -0.1071226 -0.050171252 0.20004049 0.12169595 0.077225946 0.16672504 -0.07555596
-0.03237829 -0.108569264 -0.0706457 -0.24593681 0.047117535 -0.02562712 -0.17515287 -0.09200165
-0.26879343 -0.06486732 -0.45806482 -0.011908747 -0.19226892 -0.04790609 -0.007585326 -0.0067788768
-0.2614063 -0.13748482 -0.26351848 -0.351864 -0.0022265427 -0.083980426 -0.18860489 -0.115161814
-0.0719772 -0.04849824 -0.16389859 -0.18083481 0.049057856 -0.057525992 0.09912927 -0.062147625
-0.14034806 -0.40495113 -0.27001172 -0.048623826 0.10160704 0.089162536 -0.061523177 -0.15921038
-0.16430794 0.080537215 0.0087778615 0.10993194 0.20687574 -0.49697605 -0.23182282 -0.18703455
0.08804537 -0.21241301 -0.361032 -0.028028667 -0.21551082 -0.1954509 -0.11804683 -0.14020714
-0.17973661 -0.13378927 -0.03562451 -0.26148167 -0.15758224 -0.076530166 -0.09536649 -0.3392726
0.020068234 -0.02759252 -0.24935184 -0.2791291 -0.0044337395 -0.1364063 -0.27476528 -0.22074768
0.045392755 -0.15599027 -0.0136233475 -0.22257295 -0.17799084 -0.10458796 0.06663843 -0.14788191
-0.0030693295 0.11684891 -0.15934415 -0.24864087 0.13281041 -0.07086668 -0.08984641 0.12715815
-0.000479252 0.2174027 -0.262952 -0.2663317 -0.12002237 -0.20546538 -0.20854087 -0.30710572
0.12286175 -0.061693277 -0.11360901 0.07150726 -0.16457827 -0.35166425 -0.058864813 -0.13513854
0.010508536 -0.22948919 -0.1309411 0.2534491 -0.3803738 -0.10928116 -0.11556555 -0.21678941
-0.01473832 0.14087038 0.06582602 0.051755533 -0.08023648 -0.06478679 -0.1413263 0.0612055
-0.12542258 -0.16702087 -0.024264613 0.1446786 0.078347966 -0.26999643 0.43422487 -0.19112833
-0.06562459 -0.15052174 -0.0862282 -0.13324776 0.35297978 -0.28435937 -0.07137802 0.06002116

network_body.linear_encoder.seq_layers.0.bias f4 [256]
00000000: 5a17 aabd 5af7 c2bd ff5d 2cbe 6f74 e3bd
00000010: ac31 723d 7397 fbbd 5f17 1e3a cc78 febd
00000020: f47f 58be 8c26 72bd 2dc6 cdbd 6dfb ca3c
00000030: 6bf5 893c c3f6 39be 18d8 28be e668 46be
00000040: 9f05 b7bd 7c0a 2fbe b06e 2f3c c74d c8bd
00000050: 9f7c dc3a 78d1 c3bd ec54 3f3c 415b e8ba
00000060: ee11 16be c128 f2bd d5c9 86bd 04a4 8e3c
00000070: 40bc 2dbe 05e2 f0bd 0bb3 fabd c8c6 52be
00000080: 36d3 c7bd 77ac 22bd 611c 853c e241 9dbc
00000090: 0b6c 1fbe adfc 09bb a292 e63c 36e0 23be
000000a0: 6b0c 4f3d fe8e 293d 817d 10be 59cd 74bd
000000b0: b826 f03c 0259 08be 3af0 edbd 0cff f0bb
000000c0: 7908 7cbc 62e0 a0bd 0300 47be e9ae 1fbe
000000d0: e747 d6bd 5bf8 473d 181d 67be 4568 b7bd
000000e0: 1b36 623d 0bf9 b7bc dafb 303d b2f1 e1bb
000000f0: 5e6e adbd 6627 14be 18fa e3bb 7a81 e0bd
00000100: bea3 dabc cb3f 31bd 9c57 2dbe 12c6 04be
00000110: 3c5a 503d aa0b 6d3d c06d 1fbe f05e e4bd
00000120: 2d27 e63c d8fc 7c3c 3287 f8bd f147 ab3c
00000130: bba8 02be b3ee 2c3d f994 55be 4a66 07be
00000140: 7ac5 bd3c d353 e7bd 8851 b23c 2b43 ca3c
00000150: 0611 7cbe d966 26be 0a23 66bc 8180 d1bd
00000160: 6440 973c 42d6 c2bc 0219 c43c bddc 10bd
00000170: 4d74 8e3b 1a5e bdbd 7981 d6bc 900d 11bd
00000180: 5378 41be 064b 9d3d c482 9cbc 0a25 3abe
00000190: e608 83bd 96e1 bd3c e2e9 9c3c 1cc9 d3bb
000001a0: 8d18 dc3c a805 bf3c 88e7 f83c 3c9a 0fbe
000001b0: b30b efbd d706 f53c 5cdf 1c3d e567 bb3c
000001c0: c4c2 94bc 7b6f 5dbd b9fc 903c 5b1e 4b3c
000001d0: 0151 d9bd cf0d babb 2cf5 aa3b a341 f0bd
000001e0: 12ae 2b3d 3b05 edbd 6914 9abd 17b9 073d
000001f0: 04be c1bd 52eb bdbd c6ce 40bc ae2a 3abe
00000200: 5e7d 2dbd af85 543d 8c03 55bd c781 783c
00000210: 6727 2cbe 2bb3 1f3c 4b92 043d 90ae cebd
00000220: ba8d 9cbd 6fcb f0bd 0237 26be 07b1 34be
00000230: 015b 83bb 51fd a1bd a6c0 f9bd b915 cebd
00000240: 3b9d 7e3c bc51 163d 7738 8cbb 8e57 92bc
00000250: 9173 20be 8dc2 e63c e039 c6bd 5e52 32be
00000260: eb89 dabd 3244 0cbe 295d b6bd b24d 26be
00000270: c700 4cb8 0204 b93c 42cf 2cbe 85bc c0bd
00000280: 4266 cabc ae01 0a3d dcc0 d0bd 2444 93bd
00000290: 008f c4bd 6c4b 49be a7fd a7bd f2e9 8dbd
000002a0: 03f1 0dbe 9848 66bd 0593 17be 0e43 4f3d
000002b0: 2071 2b3c 6e73 9abe 87cc fb3c 8ac3 2fbe
000002c0: f718 803b 46e5 34be 6c3e 9ebd 8f5a 15be
000002d0: 110d c6bd b4cb d1bd b4a3 2c3c 4439 3cbe
000002e0: cb54 993c f44a 5a3c 4863 efbd 9c79 363d
000002f0: 1d30 9e3d e37e a6bb 3855 62bb 47eb 86bc
00000300: 38c8 9abd 1609 11bc 50f6 483a 4d87 b43b
00000310: 22cd dcbd de0d 05bc 3e77 2e3d 5ac2 34be
00000320: df4d 6d3b c8cd 0ebe 3251 e03c f496 453d
00000330: 02d4 1a3d d1c5 77be c83d 58be fde4 c6bc
00000340: b372 8e3c 6e0b 5bbe 7fb9 21be 06f6 1ebe
00000350: f8eb b9bd 6267 9e3b ff1a 18be ea6a a1bd
00000360: 249b 73be 0e3d b03c d5d2 dbbd 022f 2c3d
00000370: cd5b 203d 9155 8dbb c3e1 dbbd 8837 6cbc
00000380: 14b2 3fbe 6be5 0dbe 4f1d 193d ad06 053c
00000390: e1c8 70be 692c e43b 8b01 7cbd ee7c 4cbe
000003a0: c51d 953c 2dce 30be 8299 11be a7f5 8ebd
000003b0: a01d 2d3d 5a9b f83c bdf0 913d c592 24bd
000003c0: d766 693c 3fa6 633d 7807 fbbd 4b41 6f3c
000003d0: 72f7 89bd 10a6 0f3d 0178 20be 46d6 333d
000003e0: ce48 4a3d bd4e ddbd ca49 11be fe58 023d
000003f0: 6183 20be a23c cebd 3e04 d7bd 8637 1637
-0.08305235 -0.09519835 -0.16832732 -0.11106192 0.059129402 -0.12284746 0.0006030704 -0.12425384
-0.2114256 -0.059118792 -0.10047565 0.024778092 0.016840657 -0.18160538 -0.16488683 -0.19375953
-0.08936619 -0.17093843 0.010707542 -0.0978046 0.0016821808 -0.09561437 0.011677962 -0.0017727391
-0.14655277 -0.118241794 -0.06581465 0.017412193 -0.16966343 -0.1176186 -0.12241181 -0.20583642
-0.09757082 -0.039715257 0.016248884 -0.019196454 -0.15568559 -0.0021055148 0.028146092 -0.16003498
0.050548952 0.041396134 -0.14110376 -0.059766147 0.029315338 -0.13315204 -0.11618085 -0.0073546227
-0.015382879 -0.078552976 -0.19433598 -0.15594067 -0.10462933 0.048820835 -0.22569692 -0.08955435
0.05522738 -0.02245762 0.043208934 -0.0068952674 -0.084683165 -0.14468154 -0.0069573037 -0.10962196
-0.026689406 -0.04327373 -0.16927952 -0.12966183 0.050867304 0.05787245 -0.1556921 -0.111509204
0.028094852 0.015441142 -0.121351615 0.020908328 -0.12759678 0.04221983 -0.2085761 -0.13222614
0.023165453 -0.11295285 0.021767393 0.024690231 -0.24615869 -0.16250171 -0.01404644 -0.10229588
0.018463321 -0.023783807 0.023937706 -0.035366762 0.00434736 -0.09246464 -0.026184784 -0.035413325
-0.18893556 0.07680325 -0.019105323 -0.18178192 -0.063981816 0.023178857 0.019154493 -0.006463183
0.026867175 0.023318127 0.03038384 -0.1402368 -0.11672153 0.029910488 0.03829895 0.02287669
-0.018159278 -0.054061394 0.017698633 0.012397374 -0.106111534 -0.0056779156 0.005217215 -0.11731269
0.041914053 -0.11573263 -0.07523424 0.0331355 -0.09460071 -0.092733994 -0.011768049 -0.18180344
-0.042355888 0.051885303 -0.052005336 0.01516766 -0.16811906 0.009747307 0.03236608 -0.10091889
-0.0764422 -0.11757552 -0.16231921 -0.17645656 -0.0040086512 -0.079096444 -0.12194948 -0.10062737
0.015540416 0.03669904 -0.004279192 -0.017864015 -0.15669085 0.02816894 -0.096790075 -0.17414233
-0.10670837 -0.1369789 -0.08904488 -0.16240576 -4.8638114e-05 0.022584919 -0.16875938 -0.09410957
-0.024706963 0.033693008 -0.10193035 -0.07190731 -0.095975876 -0.19657677 -0.08202677 -0.06929387
-0.1386147 -0.056221575 -0.14802177 0.050601058 0.010463983 -0.3016619 0.030737175 -0.17164436
0.003909226 -0.17665586 -0.0772675 -0.14585327 -0.09670461 -0.102439314 0.010537077 -0.1838122
0.01871719 0.013323534 -0.11688858 0.04454957 0.07724021 -0.005081044 -0.0034535658 -0.01646961
-0.0755772 -0.008852264 0.0007666098 0.005509293 -0.107813135 -0.008120982 0.042594187 -0.17652264
0.0036209745 -0.13945687 0.027382467 0.048239663 0.037799843 -0.24196555 -0.21117318 -0.024279112
0.017388677 -0.21391079 -0.15793417 -0.15523538 -0.090782106 0.0048341015 -0.14854048 -0.0788172
-0.2378965 0.021513488 -0.107335724 0.042037018 0.039150048 -0.004313179 -0.1073642 -0.014417537
-0.18720275 -0.13857047 0.037381466 0.008119267 -0.23514129 0.006963302 -0.06152491 -0.19969532
0.018202672 -0.1726615 -0.14218715 -0.06980448 0.04226458 0.030347515 0.07125995 -0.040179033
0.01424571 0.055578467 -0.12257284 0.014602969 -0.067366496 0.03507048 -0.15670778 0.04390552
0.04938584 -0.10806034 -0.14188305 0.03182315 -0.15675117 -0.100701585 -0.10498856 8.953624e-06

distribution.branches.0.weight f4 [3, 256]
00000000: 7241 7cbc 6a9a 993c 718f 48bd f816 f5bc
00000010: 3af9 2b3e 52c1 afbc e79c b5ba 48e2 063d
00000020: bd83 e03c 53cf 263e ab43 8bbd f2ad b6bd
00000030: 5890 fa3d e81f ea3c b909 6ebc 53e1 5d3d
00000040: 685f ec3d 38b3 d33c 9c53 58bc f2ad a5bc
00000050: 6e5c 293d af71 8e3d 9148 1bbd 367e a33d
00000060: 9861 123d 196e 0ebd 3506 3fbd 4bce 5c3d
00000070: c1fb 52bd c649 ccbd a717 a63c b7ad dd3c
00000080: 978e 853c a337 173e 0a07 683c f166 08bd
00000090: 6fdd 253d eebf c43d 41db 413e a8f7 593d
000000a0: 88c4 72bd 2bd0 603d 7efc dc3a 973a 5dbc
000000b0: ac50 cbbc ed62 bd3d 74e4 34bd 2fbf 963c
000000c0: d714 aa3d 1fc0 193d bb0e a3bc df88 5e3d
000000d0: 16d6 833d fa75 bf3d c93b 743d 3314 e83c
000000e0: 8bd8 2cbd eecf 673d 9add 31bd 0877 8b3d
000000f0: 813c f03d 180b acbd 6fb1 2e3d df21 3c3d
00000100: 56fd 653d 635e 40bd 2627 4fbc f7ac 163c
00000110: 9b2e b43d 39ca 963d e714 b03d 2262 1f3d
00000120: d3dd d7bd 553e 8ebd 1a42 bf3d d84c fbbc
00000130: 229b 68bb eaf0 9c3c 5eaf 4d3c b87b 993d
00000140: 77bc 9dbd d98f bd3d dfc3 15bc 66be b4bc
00000150: b004 0fbc 85a1 ab3c a740 aa3d def0 963d
00000160: d9a3 7ebc 8d6a 3c3d 2bb7 8b3d 745f e8bd
00000170: a50b 633d 5a62 16bc 8088 8f3d 6710 8f3c
00000180: 2eb2 743d 3adc afbd 0595 d53d 81b6 e33c
00000190: 73dc 99bd 29ad c63b 541d 1c3b 9481 b53c
000001a0: 6610 16be 7391 e53d 00b8 9fbb 8f99 133e
000001b0: 4462 8e3d 08be 9c3c 3946 81bd 4b71 2a3d
000001c0: 50e7 9c3d 25f2 dd3b 6def adbc acfa 64bc
000001d0: bf15 0d3d e383 d03d c384 d6bc c036 2fbd
000001e0: cb59 703d bc1e be3d a9d7 9e3d f12d 05be
000001f0: dcf6 dd3d 92df bcbd 610a a1bd 1054 fa3a
00000200: cc8f 813d 7259 483d af0a 193e 2b8e ca3d
00000210: 9af9 69bc 4ac6 c5bc 368e 83bd ccca 06bd
00000220: 09be f43c 476c 82bd 901b a73c a861 333d
00000230: feb1 d7bd be68 58bd 193b e23d f897 a93d
00000240: e255 dcbd 435e 583c a544 c23d d1d0 c73c
00000250: 2231 373d 720f aa3d f5b9 34bd a04a 2a3d
00000260: ec1f ed3d 4fcf e43c 2271 dd3c 4a97 b73d
00000270: 5674 313d 9d3a 15bc 3a48 c53c 6c48 eb3d
00000280: 5bcc b4bc 96b3 debd c8ae a93d 45e1 b9bc
00000290: 4a0c c6ba d7a6 943d c6f3 ea3d 5b33 793d
000002a0: e955 403c f3fa dfbd 078c 543d 0723 2ebd
000002b0: 8b41 73bd 01db 353c 4df8 2f3b 59a7 d83c
000002c0: 47c8 003e da57 523d afc2 ca3c dec7 693d
000002d0: 69fe f1bb 667c 99bd e15f df3b 7251 8c3d
000002e0: f549 29bd cc82 1c3d 83d5 8e3d a111 4d3c
000002f0: f4af cc3d ce53 103d d046 fe3d a790 b73d
00000300: f9c4 073b b352 c33d 4bd6 9d3d 21aa ee3c
00000310: 070c 853d d4da 3b3d 6e3d 6abd 6e65 6b3c
00000320: 2c59 1fbd 8cce b93c 2aaf 62bd ecae 67bb
00000330: fc58 183c 762d 1d3d 28bc 0a3d da4b 72bd
00000340: 4f55 283e b9ec 59bd d5ba 61bd 90b9 9abd
00000350: 2773 f93c 8b5c 383d 4d0e fe3c 015b 75bd
00000360: ddf8 313d c496 82bc e606 0d3d 3da2 2bbd
00000370: f1fb a0bd ea55 573d 7116 1cbc 3221 483d
00000380: 94e6 edbc 681f 693d 676c a4bc df80 ba3d
00000390: 5f56 41bc cf64 08bd e762 93bd 7aaf 3b3d
000003a0: 129b 80bd 912a cc3b 74b8 fa3b eeae 36bd
000003b0: 7c15 94bd 9711 d73c b45d e03d 7280 863d
000003c0: 89f9 213d 4886 cbbd ba4b 833c 021d 5dbd
000003d0: 8937 0d3d fd05 023e 263f 89bd 67e9 a0bc
000003e0: 2d98 49bc 6faf 923c d533 b73c 8d4d 3a3e
000003f0: 95d7 94bc 2d6d db3d 3fb7 56bd 1b80 e2bd
-0.015396463 0.018750388 -0.04896492 -0.029918179 0.16794291 -0.021454487 -0.0013855965 0.032930642
0.027406568 0.16290025 -0.06800016 -0.08919896 0.12234563 0.028579667 -0.014528685 0.054169964
0.11541635 0.025842294 -0.013203528 -0.020224545 0.041347913 0.06955277 -0.037911 0.07983057
0.035737604 -0.034772966 -0.04663678 0.053907674 -0.051509622 -0.09975009 0.02027495 0.027060373
0.016303344 0.14767317 0.0141618345 -0.033301298 0.04049438 0.0960692 0.18931295 0.0532147
-0.059269458 0.054886024 0.0016859917 -0.013502738 -0.02481874 0.09247384 -0.044163182 0.01840171
0.08304756 0.037536737 -0.019904485 0.05432975 0.06437318 0.09348674 0.059627328 0.028329944
-0.0421987 0.05659478 -0.043424226 0.06809813 0.1173029 -0.084005535 0.042649683 0.04593074
0.056149803 -0.046965014 -0.012643611 0.0091965115 0.08797952 0.0736279 0.08597737 0.038911946
-0.105403565 -0.06945483 0.0933878 -0.03067629 -0.0035492857 0.019157846 0.012554018 0.074943006
-0.077019624 0.092559524 -0.009140938 -0.022063445 -0.008729145 0.020951042 0.08313113 0.073701605
-0.015541994 0.046000052 0.06822046 -0.11346331 0.055431027 -0.009178722 0.07008457 0.017463876
0.059740238 -0.08586927 0.10428814 0.027796986 -0.075127505 0.006063123 0.0023821192 0.022156514
-0.14654693 0.11209383 -0.0048742294 0.14414047 0.069523364 0.019133583 -0.06312222 0.04161195
0.07661307 0.0067732506 -0.021232331 -0.01397578 0.034444567 0.101814054 -0.026186353 -0.042776823
0.058679383 0.09283206 0.07755978 -0.13005807 0.108381 -0.0922233 -0.07863308 0.0019098539
0.06326255 0.048913427 0.14945482 0.09890398 -0.014280701 -0.024142403 -0.06423609 -0.032908246
0.029875772 -0.063683085 0.020398885 0.043794304 -0.10531996 -0.052834265 0.11046428 0.08280939
-0.10758568 0.0132060675 0.09485749 0.024391564 0.04472459 0.08303727 -0.044122655 0.041575074
0.11578354 0.027930884 0.027031485 0.08964403 0.043323837 -0.009108213 0.024082292 0.11488423
-0.0220701 -0.10874097 0.0828529 -0.022690425 -0.0015109864 0.07258385 0.11472277 0.060839992
0.011739233 -0.10936537 0.051891353 -0.042513873 -0.05938868 0.011099578 0.002685088 0.026446985
0.125764 0.051353313 0.024751035 0.057075374 -0.0073850644 -0.0749443 0.0068168496 0.06851472
-0.041330297 0.038210675 0.06974318 0.01251641 0.09994498 0.035236172 0.1241585 0.08963137
0.002071677 0.09537258 0.07706889 0.029133858 0.06496435 0.045862988 -0.05718749 0.014367444
-0.0389034 0.022681497 -0.05534283 -0.0035352064 0.009298559 0.038373433 0.033870846 -0.05915437
0.16438793 -0.053204272 -0.055109818 -0.075549245 0.030450417 0.04501013 0.031012679 -0.05990124
0.043450225 -0.015941031 0.034430407 -0.04190277 -0.07860554 0.05257217 -0.009526835 0.048859783
-0.029040612 0.056914717 -0.020071222 0.091066115 -0.011800378 -0.033299264 -0.071965985 0.045821644
-0.06279577 0.0062306602 0.007651383 -0.04460042 -0.0723066 0.026253505 0.109553725 0.06567468
0.039544616 -0.099377215 0.01602732 -0.053982742 0.03447679 0.12697597 -0.06701498 -0.019642545
-0.012304348 0.017905919 0.022363583 0.18193646 -0.018169204 0.10714183 -0.05242085 -0.110595904

distribution.branches.0.bias f4 [3]
00000000: cbae c1bb a378 173d 8686 b13c
-0.0059107295 0.036980283 0.021670591

critic.network_body.linear_encoder.seq_layers.0.weight f4 [256, 82]
00000000: 65e8 07bd 5a6a c63d e101 83be c63a 0ebe
00000010: 525e 5dbd 3fe4 03be ff23 0ebd aac6 f43d
00000020: 294e 2b3c 6cfc 85bb e36b a43d 306d 41be
00000030: a1e4 4c3e 66e2 303d eb04 783e a48b 1bbd
00000040: ca4f 183d c2f8 833d a77f e2bd f58a cbbc
00000050: cfe0 4bbd 7bb1 42be b742 6fbd 6826 17be
00000060: 3ce8 16be 16b1 bdbc 30cf 8fbd 2ba8 793c
00000070: 2026 023d 8dfc 0b3e ef22 08be 899e f93d
00000080: 4749 3f3d be79 46be 2df9 4fbd bf30 d9bd
00000090: 3782 1e3e 4234 023e e3d9 f23d 0df3 6ebe
000000a0: 296a c8bd 3571 70be a62c f83d fa45 813e
000000b0: 91a6 a13d 1d34 6c3d b4dd 10bd 17a8 163b
000000c0: c2d8 26be 87a7 07be c4c4 f5bb 2aef 1d3d
000000d0: d9af a33b fb63 edbd 6d7c 56be 6253 33be
000000e0: 47af dc3d 142c 9abe 29a8 553e 6eb2 583d
000000f0: a327 8cbe cec6 cf3d bf96 91bc 13bc fabc
00000100: 5317 56bc 89d2 a2bd af4f 013d 5fb9 ae3d
00000110: d6e7 803d 94fd 473d ba52 42be 766b 22bc
00000120: 5214 903e 8ee8 0bbe e9d6 333e e289 863e
00000130: 2aee 543c 232f 42bc c82b 063b 3ead 48bd
00000140: 83a2 673d 1743 343d 60b9 833d 0488 30bc
00000150: a7b1 e2bc 5c70 9a3d b1be 073c 68db 693e
00000160: 421f bf3d 9814 8e3d cb3b db3d 6bb6 9c3d
00000170: 62d9 10be ed3e 843e 94b3 67bf 3b4a c7bc
00000180: a9ba a4bd 4bfe 83be 9562 4ebd 210a 82be
00000190: 4bdd babe 2156 993d 1694 f03d 7618 72bd
000001a0: 83d0 913d af53 13bd cbbe 0dbd f952 7c3d
000001b0: 6e6c 60be 7b6c 82be 75da 20bd 2123 35be
000001c0: 4535 8cbd 0668 8cbd 70ae 60be 1424 6fbc
000001d0: 5c13 b1bc 4791 8fbe 8978 eebc 4aa0 64bd
000001e0: 5f36 07be 8b29 513e 4bef 533b ec19 c23d
000001f0: 47b1 0fbc 0769 293e 57bd 133d f55f c7bc
00000200: 4a43 8fbd bfd2 593e 7904 afbe aeb5 493d
00000210: f851 1b3e a2c4 693e 77f4 29be 6a19 e63e
00000220: 4e92 0cbf dd1f 39bd bb43 933d 4ec7 ffbe
00000230: ba3f f1bc da52 b7bd 4c73 1fbf 4b91 ecbc
00000240: 8835 b33d 4cdd a3bd f0b8 2cbd a33b a4bc
00000250: 62ca 51bf 9503 d23d 193c 8c3d 5835 71bd
00000260: d1e2 13be 90b2 91bd a83d 2bbf b278 0b3e
00000270: 9fa3 a63c 60fd 22bf fe48 bfbd 3fd4 cbbc
00000280: c498 4bbc b42c 8c3d 91a9 b73d 4c80 6abd
00000290: 2ac5 353e 8826 703e fd03 0fbe 1969 893d
000002a0: 4180 703d afe6 0eba 0d48 8ab8 e23c 2fbc
000002b0: 6c39 c63b eb1c 163c 5674 b9bc 8da1 bc3d
000002c0: af77 c6bc 7129 b73c 2624 3b3e ebaf bfbd
000002d0: 7272 013e 0577 03bd 32d0 983e bbe3 2c3d
000002e0: 70f0 20bd c9c6 99bd 5837 b73d 5161 693e
000002f0: 694a 2c3e d250 b83d 10d5 24bc c5f2 9c3e
00000300: 5001 703c 9fdb d8bd f293 993d 4317 2a3e
00000310: cd0c e3bd 4ea8 babe d90b 343d a7f9 183c
00000320: b7b1 be3d 867a 5c3d b323 cf3d 62b3 083d
00000330: 5443 4abc 11cb 09be 1078 32bd 3eef 113e
00000340: 3442 22be d3fe f8bd c384 2fbc efc9 69be
00000350: f2f4 08be a92a a4bb 7ace 79bd 6653 a1bd
00000360: 0355 263b da7b dbbd 3438 b1be bac8 ea3d
00000370: f81a 253c 613c 33bb 1f17 a0bd a4fb 19be
00000380: 5a73 8bbe 3f8e 7d3d 732a 89bc fae9 9e3e
00000390: 53c8 dbbb 2a47 e9bd dd61 34be 8b9f 633d
000003a0: 90ad 91bd a6ad bbbe 2d23 acbd 4bbf d3bd
000003b0: 1c42 c0bc 60a3 61be 64bf ee3d 25c9 9fbf
000003c0: 32c1 16bc da1a a93d e04b 92bb 651d 8c3d
000003d0: 0a87 2cbe ca2a 94bd c0a0 9abd 9593 c53d
000003e0: 3323 65be 3359 c23d bba5 aa3c c0fa 60be
000003f0: 347f c43c 3fc1 b2bd f18e 80bd 1cb8 cb3c
-0.033180613 0.09688254 -0.2558737 -0.13889608 -0.05404503 -0.12880038 -0.034702297 0.11951955
0.010455647 -0.004088929 0.0802839 -0.18889308 0.2000909 0.04318466 0.24220626 -0.03797497
0.037185468 0.06443931 -0.11059504 -0.024846533 -0.04977494 -0.19013016 -0.058413234 -0.14760745
-0.14737028 -0.02315573 -0.0702194 0.015237848 0.03177464 0.13670559 -0.13294576 0.12188441
0.046700742 -0.19382378 -0.050774742 -0.10605001 0.1547936 0.12715247 0.11857965 -0.23334904
-0.097858734 -0.23480685 0.12117891 0.252487 0.07893098 0.057666887 -0.035367683 0.0022988373
-0.16293624 -0.132475 -0.007500263 0.038558163 0.004995328 -0.115913354 -0.20945902 -0.17512277
0.10775619 -0.30111754 0.2086493 0.05290454 -0.2737399 0.10145341 -0.017772077 -0.030607259
-0.013067084 -0.07950313 0.031570133 0.085314505 0.06294219 0.048825815 -0.1897687 -0.009913316
0.28140503 -0.13662931 0.1756245 0.2627707 0.012996236 -0.011852059 0.0020472873 -0.04899334
0.056551468 0.044009294 0.06431842 -0.010774616 -0.027672602 0.07540962 0.0082852105 0.22837603
0.09332134 0.06937522 0.10704764 0.07651981 -0.14145425 0.2582926 -0.9050839 -0.024327388
-0.08043415 -0.25779948 -0.050386984 -0.25398353 -0.36496958 0.07487131 0.11746995 -0.05910536
0.071198486 -0.03596848 -0.034605782 0.061602566 -0.21916363 -0.2547339 -0.039270837 -0.17689182
-0.06846098 -0.068557784 -0.21941543 -0.014596004 -0.021615677 -0.28040525 -0.02911021 -0.055816926
-0.13204335 0.20426004 0.0032338675 0.094776005 -0.008770294 0.16543971 0.03606924 -0.024337748
-0.06995256 0.212718 -0.341831 0.04924553 0.15167987 0.22828916 -0.16597162 0.44941264
-0.54910743 -0.045196403 0.07190653 -0.49956745 -0.029449333 -0.089513496 -0.62285304 -0.028877875
0.08750445 -0.080011934 -0.042168558 -0.020047968 -0.81949437 0.102545895 0.068474 -0.058888763
-0.14441992 -0.07114136 -0.66890955 0.1362026 0.020341692 -0.6366787 -0.09340094 -0.02488148
-0.012426559 0.06844464 0.08967889 -0.05725126 0.17750993 0.23452199 -0.13966365 0.06709499
0.058716062 -0.00054512447 -6.593773e-05 -0.010695668 0.0060493257 0.009162168 -0.022638481 0.09210501
-0.024226991 0.022358628 0.18275508 -0.093597256 0.12641314 -0.032095928 0.2984634 0.04220937
-0.0392918 -0.075086184 0.08946103 0.2279103 0.1682526 0.0899979 -0.010060564 0.30653968
0.01464875 -0.105887644 0.074989215 0.16610436 -0.11086426 -0.3645653 0.04395661 0.0093368655
0.0931124 0.053827785 0.10114231 0.033374198 -0.012345154 -0.1345637 -0.04357153 0.1425142
-0.15845567 -0.12157979 -0.010712805 -0.22830938 -0.13374689 -0.0050099683 -0.060987927 -0.07877235
0.002538026 -0.10716982 -0.34613192 0.11464067 0.010077231 -0.002734922 -0.0781691 -0.150374
-0.27236444 0.061903235 -0.016743874 0.31037885 -0.00670723 -0.113905266 -0.17615457 0.055572074
-0.071131825 -0.3665592 -0.08405147 -0.103392206 -0.023469023 -0.22034979 0.116575986 -1.248326
-0.009201335 0.08257075 -0.0044646114 0.06841544 -0.16848388 -0.07234724 -0.07550192 0.0964729
-0.22376709 0.0948967 0.02083098 -0.21970654 0.023986436 -0.08728265 -0.06277264 0.024868064

critic.network_body.linear_encoder.seq_layers.0.bias f4 [256]
00000000: 66f8 333c ae1f 3fbd 7c2e feba 1ea2 a7bb
00000010: 28cc f3bc f19c acba 5a92 14bd 9163 17bc
00000020: 47ce 47bd e557 8abc d839 edbc db93 02bd
00000030: 8446 dbbc 4b92 b0bb f976 b2bd fa2f 6bbb
00000040: 0539 bdbc 45f3 a43c bb12 f9b9 f326 1dbd
00000050: bfba fabb d76a 32bc 3afa 4cbd 691a 86bc
00000060: 7808 7abd 6c8f 223c e297 8dbc cd94 92bc
00000070: 70ec 75bc 5c2f 9f3b 7193 b73a 70e1 33bd
00000080: 46a7 37bd 54e0 93bc c55e 33bd 6efe ffbb
00000090: 33e1 32be fbcc 74be 8aaf 25bd 917a 50bc
000000a0: a761 1d3c ea18 47bc 3e02 f2bc 057c 27be
000000b0: c7bd 2dbd 5918 d0bc 8752 96bd 2fc2 8c3c
000000c0: 964f 34bd be7d e7bc e2f8 43bc ec36 25bc
000000d0: 0e1b 64bc 9bc3 7c3c c206 8cbc 66df 8ab7
000000e0: 024d 0d3a ca4a f4bc f247 07bd e0e5 87be
000000f0: 7b6b 36bd 4a5d 9739 055e 90bb f9a6 353b
00000100: b77f 1cbd ecc8 19bd 1e2d 1dbd ea54 6ebd
00000110: e19b f03a e357 11bc e0dd 1d3d 2306 a23b
00000120: 0ba4 5abd fa21 3a37 e774 89bc 3a3d 52bc
00000130: 4d56 37bd dfc6 10bd 9c4a 33bd a56d 76bc
00000140: cd41 063c c021 24bd 3791 d7bc 31b6 4ebd
00000150: 2ad0 063b 1efb 52bd d02c 96bd 262f 4ebd
00000160: bad6 65bd 4a7a 8fbd aa68 2bbc 7b96 febc
00000170: 2c49 d23b 916d 3bbd 841a 2abd 21ea b6bb
00000180: e6fe 60bc 18ab c5bc a6a6 a0bd 6f3a 1cbd
00000190: 7046 8abe c6cf 44bd 4702 4d3c 128d ca3b
000001a0: aa35 eebb b88a b2bd f15a 4ebd 9f01 dbbc
000001b0: d6d5 3dbd 9e65 0bbd b670 c83b e6f4 903c
000001c0: 80e9 4abd be72 8c3d 15d2 0bbd 0a0c 30bd
000001d0: 8859 7cbc 5da6 473c a5ca f2bc f141 83bd
000001e0: d0bf af3c ee27 d7bc 6bf8 63bc 1b4b 3cbd
000001f0: 94b3 4bbd e57d 203c 905c 893b 4087 28bd
00000200: 6acd 19bc d768 db3b 8f91 b3bc dc2b 49bc
00000210: 53b0 97bb 8f2f a5bc 3ed4 0fbd 30ac b3bc
00000220: 1847 e13c 78c9 413a 502b d6bb a943 23bd
00000230: 3305 83bb cd49 1bbc 7850 5ebd baf6 1abd
00000240: 1422 dabc aef1 333c e8d6 5c3c 3cea 49bd
00000250: 4d25 8dbd 7eb3 78bc 837d 15bd 7022 fdbd
00000260: af5c 683c 93fb 1dbe b624 bebe 6bff 00bd
00000270: 289f b6bc e75f 8e3b b3e5 8ebb b3d8 11bb
00000280: 4b31 a9bc 079d 95bb 6f0a e3bc 4a1b 96bc
00000290: cde3 e1bc f260 2bbc ce92 d6bc bbe0 e9bc
000002a0: af83 0ebb 91af 57bc c141 30bc 2c04 36bd
000002b0: ae08 d5bc a4cc 41bd 208b debc 712b d7bb
000002c0: 62b0 1c3c f066 8ebe b091 e8bc 7a68 b1bc
000002d0: d8b2 bfbc 6e23 e5bc 2113 3cbd 7770 4bbd
000002e0: 0c63 f0bc a7ed 34bd 76ac 183c 53cb 4fba
000002f0: 9065 60bd fc75 4e3c 0292 12bd b4e4 afbc
00000300: 052e 7dbc 3342 13bd 1afa f3bb 256c 03bd
00000310: 6fba 0ebd d06d 5fbb 4d05 b2bc dab7 48bd
00000320: ff82 b5bc 7a82 fa3b 819a 64bb 6c9f 16bd
00000330: ca8d 053c 3d26 a0bd 0973 77be e13f 213d
00000340: ef01 60bd a65c 67bd 8458 9f3c 5827 45bd
00000350: 167f 52bc ba66 03bd 1641 debe 0657 02bd
00000360: cd22 40bc a6bf 14bd 7b7b 33bd b53a 9c3b
00000370: 8c69 b43c ac62 2fbe 6647 07bd 5a9c 31bd
00000380: b2c8 0fbc b479 2bbd 21b1 96bc ec4d 1cbd
00000390: 772c b8bc 3c78 a0bc 1405 a0be cf22 8bbd
000003a0: dac6 3abd d201 1cbd 7d56 60bd cec7 03bd
000003b0: 7bd7 d3bb f02c 33bc 9861 03be 2c99 17bd
000003c0: e6c5 3fbd 1507 14bc 1296 debb 7421 4ebd
000003d0: 5738 81be ce3f acbc 83a3 67bb e6e5 1cbe
000003e0: b5c0 cb3b f40a 0abd 9044 57be 61fb 1abd
000003f0: 413e edbc 7677 f9bb 5a5d 53ba bb4c 5cbd
0.010984516 -0.04666107 -0.0019392516 -0.0051157614 -0.029760435 -0.0013169331 -0.036272384 -0.009240047
-0.048780706 -0.016887615 -0.028958246 -0.031879287 -0.026767023 -0.005388533 -0.087140985 -0.003588675
-0.023098478 0.020135531 -0.00047506936 -0.038367223 -0.0076516564 -0.01088973 -0.050043322 -0.016370015
-0.061043233 0.00992189 -0.017284337 -0.01789322 -0.015009984 0.0048579406 0.0014005733 -0.043916166
-0.04483726 -0.018051304 -0.04379155 -0.007812313 -0.17468719 -0.23906319 -0.04045061 -0.012724535
0.009605802 -0.012151936 -0.029542085 -0.16355903 -0.042417314 -0.025402235 -0.073399596 0.017182438
-0.04402121 -0.0282582 -0.011961194 -0.010083895 -0.013922466 0.015427495 -0.017093066 -1.655491e-05
0.0005390198 -0.029820818 -0.033027597 -0.26542568 -0.044536095 0.0002887047 -0.0044057393 0.0027717932
-0.038207736 -0.03754513 -0.038373105 -0.05818645 0.0018357002 -0.0088710515 0.038541675 0.004944579
-0.0533791 1.1094375e-05 -0.016779376 -0.01283198 -0.044760037 -0.03534591 -0.043772325 -0.01504079
0.008194399 -0.04007125 -0.026314361 -0.05046672 0.0020570853 -0.051509015 -0.07332766 -0.050337933
-0.056112982 -0.07005747 -0.010461966 -0.031077614 0.006417414 -0.045758788 -0.041529194 -0.0055821096
-0.0137326475 -0.024129435 -0.07844286 -0.038141664 -0.27006865 -0.04804971 0.01251275 0.0061813677
-0.007269581 -0.08717865 -0.050379697 -0.026734171 -0.046346508 -0.034032457 0.006116952 0.017694902
-0.04953909 0.06857823 -0.034135897 -0.04298023 -0.015402205 0.01218566 -0.029637644 -0.06409062
0.021453768 -0.026264157 -0.013914208 -0.045970064 -0.049731806 0.009795641 0.0041919425 -0.04114461
-0.009387353 0.0066958475 -0.021919994 -0.012278523 -0.004629174 -0.02016428 -0.03511452 -0.021932691
0.02749972 0.0007392387 -0.006535925 -0.039859448 -0.0039984225 -0.009478045 -0.05427596 -0.037832953
-0.026627578 0.010982914 0.013478972 -0.04929565 -0.0689188 -0.015179513 -0.03649665 -0.12360084
0.014182254 -0.15427999 -0.37137383 -0.031493586 -0.022292688 0.0043449285 -0.0043608784 -0.0022254407
-0.020653388 -0.0045658383 -0.027714936 -0.01832356 -0.027574444 -0.010460125 -0.026193049 -0.028549543
-0.002174597 -0.013164417 -0.010757864 -0.044437572 -0.026005115 -0.0473143 -0.02716595 -0.006566458
0.009563537 -0.2781291 -0.028389782 -0.021656264 -0.023400709 -0.027970996 -0.04591668 -0.0496678
-0.029344104 -0.044171955 0.009318462 -0.0007926721 -0.054784358 0.012601372 -0.035783775 -0.021471359
-0.015452866 -0.035951804 -0.007445586 -0.032085557 -0.034845766 -0.0034092553 -0.021731043 -0.04900346
-0.02215719 0.0076449485 -0.003488213 -0.03677313 0.008151481 -0.078197934 -0.24164976 0.03936756
-0.054689344 -0.05648484 0.019451387 -0.048133224 -0.012847682 -0.03208039 -0.43409032 -0.031821273
-0.011727047 -0.036315583 -0.043818932 0.0047677406 0.022022985 -0.17127484 -0.033027075 -0.043362
-0.008775877 -0.041864112 -0.018395009 -0.03816025 -0.02248214 -0.019588582 -0.31253874 -0.067937486
-0.045599796 -0.038087673 -0.05476998 -0.03217297 -0.0064648963 -0.010936007 -0.12830198 -0.03701131
-0.04681959 -0.009034892 -0.006792792 -0.050324872 -0.25238296 -0.021026518 -0.0035345263 -0.15322074
0.006218041 -0.033701852 -0.21022248 -0.03783739 -0.028960349 -0.007613118 -0.00080629217 -0.053784113

critic.value_heads.value_heads.extrinsic.weight f4 [1, 256]
00000000: da18 96ba 4dec 18bc 4091 b8ba 5d22 54ba
00000010: 850c a0ba 4c9f 97bb 5ac4 e4b9 006c 15bd
00000020: f90a 963d b0d7 ad3c f590 70bb e00f 1a38
00000030: 80d7 b0bd fa1f efbc d054 1f3b 6b9e da3d
00000040: 002c 233d cb6f 473e ace9 9bba 74a2 b9bd
00000050: f7b9 81bb ce56 0abb 1ab8 cb3d e295 543e
00000060: 2c32 fd3c fa12 353b c3ef 85bb 293d 573e
00000070: c50f 04bb abd0 f43d 99ed a83a c9ce 4f3d
00000080: 5c4d f5bb 3b4f 973d 3c99 163e b987 6ebe
00000090: 7cd3 3fbe 09ff 063e 6010 bebc dde2 fab9
000000a0: 41c2 5b3b 2c87 903e bd68 edb8 7ed0 95be
000000b0: 6fb1 fcbc 0d20 0cbe 6de8 51bd d828 aa3d
000000c0: 385a 01be 864a 603a 9dfe b2bb 20ed 1d3b
000000d0: 6150 723b 54e0 febd 8f94 b7bd a791 6d3e
000000e0: ad21 e4ba 3623 323e 467c f2bc 2596 14be
000000f0: 644c bebb 0f57 273a 61a4 0cbb 70a5 ffba
00000100: b78a 653d 21b6 33bb d84a fcba 6826 65bd
00000110: 84e5 0f3a 591c 903d 09d0 7dbe ccc1 f03a
00000120: 8efb 56be e147 803e a69f 223d c471 45bb
00000130: 5d6b 0cbe 8157 20bd 0905 e9bd 2b13 98ba
00000140: 7b73 313b a98a 4bbd e025 f1bc 6c1b 8cbc
00000150: 496b 1dbb 611d 9dbb 98eb a23b 6827 30be
00000160: da75 0e3e 3a4d c8bd 2d3e 8b3a c79b 073e
00000170: 9f27 173b 2ff9 453e f3db b43c 41e1 6dbb
00000180: ed66 20bb a0e9 5cba 14d3 71bd 8682 2e3a
00000190: a8bd 4dbc 2b5e 56bc 4ca8 3bbb e6c6 213a
000001a0: c17b f939 8215 cbbd b16b 863d b2cb 24bd
000001b0: 4248 a6bd 2848 4e3b 5e32 86bd 63c9 be3e
000001c0: ec13 97be a894 3cbe 2e15 bd3d ab9f 28bd
000001d0: 1229 1fbb 1674 573d 062c 8fba 9f75 57be
000001e0: efb6 8b3d d2e8 d73a ceea 273e c7ef 513a
000001f0: da8f 8fbd e63d b9bd d282 843a d3f2 993d
00000200: f02a 2cba c164 c33d a798 66ba 612b ed3c
00000210: 1e57 513e 79d3 33bb 1b5f 38be 551e 13bc
00000220: e0cb 2ebb 1660 56bb 0fa9 2aba 9323 623d
00000230: fce2 eb3d bcee 8abb 19ea 01be 9db2 d1ba
00000240: ac66 4dbd 4c19 05bb efac 9fbb 9f5d fd3d
00000250: 9258 72bd 3949 8cbb a650 22bb 4ae5 f5bd
00000260: 95ea 913e 3e09 b2bd 1e3d 1fbd bda1 2cbc
00000270: 3962 9fbb 036a 233e 8774 39be acf2 a53a
00000280: f853 5d3d a37a 833e 33b2 c6bd e248 75ba
00000290: 73e0 a3bd 75c8 af38 5929 d8ba 329f f43a
000002a0: f936 b3bb aa45 5bbb bb6b 83bd 4d41 ad3d
000002b0: 9cf8 283e cd5c a8bd 15b9 86bc 9390 b93d
000002c0: a941 36bb f3a7 e8bc 6d01 09bd 6e8c ea3a
000002d0: ba55 fb3a c7e0 dc39 40a1 b5bb 05ff 233c
000002e0: c2be 6c3e 234d b6bd 7c22 e7bb f93e c2ba
000002f0: f8a8 91bb 0756 2abd 5ce2 afbd 7bfb ed3d
00000300: 99d1 323b 75b2 a1ba a6b7 24be 75c3 b0bd
00000310: 9eb8 69be 3a8c e6bb 923c 0bbe 58ad 4f3b
00000320: fbf5 d9bd a09a 67bb 325a 5b3d 565f 7abd
00000330: 16a4 96b9 bf9d 54bd 6486 dabb c1b6 09bb
00000340: e9f3 493d 5f3b 9bbc 4926 213e c80f c1bd
00000350: ddc5 923d c5d6 93bd d098 f3bb 1041 223a
00000360: 974d 8cba ad4c 3bbd 7f17 ca35 bc69 8c3b
00000370: d848 c8bb 52cc cdbd 156c 58bb 9356 7fbb
00000380: b776 72bb 8a91 2cbe 6945 5cbb 182f 50bb
00000390: 2ecf d1bd be6b 463e 6576 74bd 54bf 36be
000003a0: 305d 70b9 c341 e73d 5102 b8bd 40f0 0bbc
000003b0: 1ccd 0dbc 4b87 c4bd 2e79 5cbc 8f0c 7ebb
000003c0: 26e1 31be bc16 9c39 9f7f e4bb 5c5d 03bc
000003d0: a4c6 debd b3e2 6abb 53a1 c73d 2647 1bbe
000003e0: 0a9b 07bb 9f1b 093d b0d9 3fbd d1e6 43bd
000003f0: e3f5 16be b419 263e 1c49 9c3e 2703 ea3d
-0.0011451498 -0.009333682 -0.0014081374 -0.0008092279 -0.0012210762 -0.004627144 -0.00043633842 -0.03647995
0.073263116 0.021221012 -0.0036707495 3.6731246e-05 -0.08634853 -0.029190052 0.0024312027 0.10674747
0.039836884 0.1947624 -0.0011895201 -0.090641886 -0.0039589363 -0.0021108869 0.09947224 0.20760301
0.030907713 0.002762972 -0.0040874197 0.21019424 -0.0020151 0.11953863 0.0012888192 0.050734315
-0.0074860286 0.07388159 0.14706892 -0.23293962 -0.18733019 0.13183226 -0.023201168 -0.00047852742
0.0033532532 0.28228128 -0.0001132055 -0.2926063 -0.030846326 -0.13684101 -0.05124705 0.083085716
-0.12632072 0.0008556027 -0.005462481 0.0024097636 0.003697418 -0.12445131 -0.08963882 0.23200093
-0.0017405056 0.17396244 -0.029600274 -0.145104 -0.0058074463 0.0006383517 -0.0021460282 -0.001950426
0.056040492 -0.002742179 -0.0019248379 -0.05594483 0.00054892176 0.07036657 -0.2478639 0.0018368303
-0.20994398 0.2505484 0.039703034 -0.0030127624 -0.13712831 -0.03914595 -0.113779135 -0.0011602392
0.0027076888 -0.049692784 -0.029437006 -0.01710292 -0.0024020246 -0.004794762 0.0049719326 -0.17202532
0.13912144 -0.09780355 0.0010623388 0.13243018 0.0023064387 0.19333337 0.022077536 -0.0036297592
-0.002447541 -0.0008427147 -0.05903919 0.0006657023 -0.012557425 -0.013083975 -0.0028634248 0.0006171301
0.00047585185 -0.09916212 0.06563509 -0.04023332 -0.08119251 0.0031476114 -0.065525755 0.3726302
-0.29507387 -0.18416083 0.09232555 -0.041167896 -0.0024285954 0.052600943 -0.0010923154 -0.21040963
0.06822001 0.0016472584 0.16398165 0.0008008447 -0.070098594 -0.09045009 0.0010109788 0.07517018
-0.00065676775 0.09540702 -0.00087965507 0.028951349 0.20443389 -0.002743928 -0.1800503 -0.0089794
-0.0026671812 -0.003271108 -0.0006510177 0.055209707 0.11517903 -0.004239885 -0.12686957 -0.0015998665
-0.050146744 -0.0020309268 -0.00487291 0.123713724 -0.0591665 -0.0042811898 -0.0024767308 -0.12006624
0.28499284 -0.08693169 -0.038876645 -0.010536608 -0.004864004 0.15958409 -0.18110858 0.0012660823
0.054035157 0.25679502 -0.097019576 -0.00093568687 -0.08001795 8.381988e-05 -0.0016491815 0.0018663167
-0.0054691997 -0.003345827 -0.06417032 0.08459721 0.16501087 -0.08220825 -0.016445676 0.090607785
-0.0027810133 -0.028400397 -0.033448625 0.0017894635 0.0019175329 0.00042129142 -0.005542904 0.010009532
0.23119643 -0.089014314 -0.0070536714 -0.0014819793 -0.0044451915 -0.04158595 -0.085880965 0.11620232
0.0027285574 -0.001233651 -0.16085681 -0.086310305 -0.22824332 -0.0070357593 -0.13597324 0.0031689014
-0.1064262 -0.0035339966 0.053552814 -0.061126076 -0.00028732483 -0.05190825 -0.0066688526 -0.002101347
0.049304876 -0.018949209 0.15737261 -0.09426838 0.07166646 -0.072186984 -0.007433988 0.00061895046
-0.0010704276 -0.04572742 1.5057011e-06 0.0042850655 -0.0061121993 -0.10048737 -0.0033023406 -0.0038961514
-0.003699703 -0.16852394 -0.0033610708 -0.0031766351 -0.102445945 0.19377038 -0.059683222 -0.17846423
-0.00022922899 0.1129184 -0.08984817 -0.008541167 -0.008654859 -0.095961176 -0.013456626 -0.003876481
-0.17371044 0.00029771577 -0.0069732214 -0.008017864 -0.108777314 -0.003584069 0.09747567 -0.1516386
-0.0020691776 0.033473607 -0.046838462 -0.047827546 -0.14742236 0.16220742 0.30524528 0.114263825

exp_avg f4 [256, 82]
00000000: cb36 7137 7298 a9b5 71cc 3e36 847e d0b8
00000010: fdfe eb38 62f8 8d38 0108 37b7 eb85 c937
00000020: 8fd1 c837 c190 bbb7 52c9 1438 f393 fe37
00000030: 3c13 7eb7 870b ed37 41c6 e837 a4df d9b6
00000040: d079 a437 c371 9937 3ce9 9fb7 8ef5 0638
00000050: 481b 0338 ed44 33b6 7f6a 8437 67b7 8137
00000060: 86ef 8db7 71f1 fb37 73d0 f437 6f07 5735
00000070: 5193 4e37 4b13 5137 67a1 08b7 9752 b237
00000080: a549 b237 6ccb 7433 0000 0000 3e31 2634
00000090: 2148 09b7 8421 4e17 2811 c436 f0b3 a1b8
000000a0: 6934 bd38 a229 6638 defc 8738 ccf8 58b8
000000b0: 5a70 2d35 3441 9f37 45fd c4b6 cad9 abb7
000000c0: 0ba9 8eb6 21ac 9137 8741 9637 a041 d236
000000d0: fdc5 e536 0d88 1837 9e66 05b4 5e19 5e37
000000e0: ce82 5f37 ead1 9bb6 59f6 9437 ab71 9037
000000f0: 692c 9a35 3dbe 4837 78bb 4c37 2e3d 98b7
00000100: 881f 0338 3806 ee37 ee69 a835 89f6 4637
00000110: aecb 4937 ad61 8cb7 9563 fa37 c3f2 e237
00000120: fb19 4f36 0400 0080 cac3 0237 e45c d230
00000130: 0000 0000 3a89 2634 75da 0cb9 0000 0000
00000140: 0400 0000 7b05 2038 9a9c 0b37 9d00 8c37
00000150: 65e4 9637 213b 3fb8 4c11 9438 6785 4038
00000160: 8401 0335 e0b6 cd37 1eac cd37 15f1 90b6
00000170: 330b f637 ff0b e537 3faf 1cb6 d664 e537
00000180: 3bd1 e237 c167 00b6 e4db e137 b771 de37
00000190: dbb1 97b6 64bb f737 ac39 f337 a537 b2b4
000001a0: cd97 d437 3a91 d437 dcc0 4eb6 08a7 eb37
000001b0: 7992 e737 d6c0 d7b2 dc04 d237 d0b8 d137
000001c0: 0dcc 8636 e91b b037 7389 b137 5449 0033
000001d0: 0000 0000 e2ba 9e34 87fb 8536 cb80 a116
000001e0: bf7b d336 daf9 f1b7 62e4 6138 fb04 2a38
000001f0: 9c51 2638 99a8 75b7 7909 7a37 de44 9a37
00000200: 3328 de36 da27 1437 b084 66b5 1203 d937
00000210: 654d dc37 ec54 d235 9ea9 c437 bd81 c937
00000220: 96c5 0bb2 65e0 d137 9c5b d237 200f beb5
00000230: e1af dd37 a979 dc37 bc2c 0234 95ca d037
00000240: e235 d137 7174 88b6 08ec f337 3353 ed37
00000250: d8b7 8e34 0e94 cf37 f0ef cf37 045d 42b6
00000260: 8c1a ea37 6543 e337 1717 a135 0400 0000
00000270: 57f4 6d37 a6c1 2830 0000 0000 17d1 9e34
00000280: 6ae6 21b9 0000 0000 0400 0000 c424 7e37
00000290: 57d3 ccb6 c6d5 3836 e981 2e36 3ac1 a1b7
000002a0: 1ca7 8537 75a0 0e37 9d51 e2b6 58d2 6336
000002b0: bf1e 5f36 f5fe f8b6 8096 8836 2158 6f36
000002c0: 6a3f 0db7 5d16 aa36 c337 a236 e8a8 7fb5
000002d0: a7e6 20b6 f91f 2ab6 8e8d 20b7 aab2 d036
000002e0: 8176 c536 8796 f4b4 133e 42b6 7de1 44b6
000002f0: 584b 12b7 3e2e b436 2491 a936 30cf d4b3
00000300: 722a 5ab6 1657 5ab6 e5a0 c8b6 e470 3036
00000310: 0dc5 2d36 9c13 d3b3 0000 0000 d6df 27b3
00000320: e4cd c8b6 3e8a a896 0072 3c35 878f 02b7
00000330: 9ab6 9436 3422 b435 7002 2237 a836 5ab7
00000340: 6925 a5b6 bf9b 3eb6 bdd4 08b5 e93a 8bb6
00000350: 90ed cbb4 3353 47b6 0a5a 3eb6 9e41 18b5
00000360: 80c0 3ab6 b417 44b6 61ef eeb2 0bf3 5eb6
00000370: d969 5db6 622a 8132 41d3 61b6 f338 61b6
00000380: 4d5f c4b3 e6ad 5ab6 8c40 5bb6 903c 09b7
00000390: af10 a236 c5d6 6c36 2593 b133 805d 66b6
000003a0: c673 65b6 361f 13b7 f7d5 b536 6b5d 8936
000003b0: 5512 bd34 0400 0000 fb2e d0b5 d620 06ae
000003c0: 0000 0000 bb2d 2ab3 8681 20b6 0000 0000
000003d0: 0400 0080 9c8c a536 b0b8 8935 3770 29b7
000003e0: 1374 13b7 0df0 abb8 e9e8 9838 a8d1 1c38
000003f0: 346c 55b7 5ccc 7436 bf18 7236 2540 b7b7
1.4377477e-05 -1.2635849e-06 2.8431207e-06 -9.941778e-05 0.000112531685 6.769669e-05 -1.0909514e-05 2.4023428e-05
2.3939441e-05 -2.2359543e-05 3.5473444e-05 3.0348054e-05 -1.5144058e-05 2.825797e-05 2.7748874e-05 -6.493139e-06
1.9607047e-05 1.8291996e-05 -1.9062885e-05 3.217678e-05 3.125824e-05 -2.6713199e-06 1.5785217e-05 1.5463402e-05
-1.6920047e-05 3.0033962e-05 2.9184133e-05 8.010456e-07 1.2312857e-05 1.2461863e-05 -8.143811e-06 2.1257712e-05
2.1253547e-05 5.6995688e-08 0.0 1.5477869e-07 -8.18263e-06 6.6604493e-25 5.8432524e-06 -7.710594e-05
9.0219844e-05 5.4875047e-05 6.484402e-05 -5.1730123e-05 6.4611015e-07 1.898464e-05 -5.8707396e-06 -2.0486204e-05
-4.251609e-06 1.73655e-05 1.7911907e-05 6.2661275e-06 6.8477807e-06 9.091583e-06 -1.2423922e-07 1.3238137e-05
1.3322291e-05 -4.643797e-06 1.775769e-05 1.7219068e-05 1.1486819e-06 1.1965222e-05 1.2202996e-05 -1.8148301e-05
3.12622e-05 2.8374707e-05 1.2547805e-06 1.1859121e-05 1.20279565e-05 -1.6734784e-05 2.9848694e-05 2.7054344e-05
3.0860526e-06 -6e-45 7.7941895e-06 1.5305912e-09 0.0 1.5509877e-07 -0.00013432822 0.0
6e-45 3.8152077e-05 8.321507e-06 1.6689586e-05 1.7987748e-05 -4.5593017e-05 7.060412e-05 4.5900608e-05
4.880351e-07 2.4523062e-05 2.4518053e-05 -4.3196e-06 2.93307e-05 2.7304513e-05 -2.3347818e-06 2.7345883e-05
2.703873e-05 -1.913388e-06 2.6924485e-05 2.6517415e-05 -4.520856e-06 2.9531955e-05 2.8994713e-05 -3.319557e-07
2.5343057e-05 2.5339996e-05 -3.080865e-06 2.8091963e-05 2.7605553e-05 -2.5116986e-08 2.5036214e-05 2.5000802e-05
4.017266e-06 2.0993832e-05 2.1164049e-05 2.9869014e-08 0.0 2.9565769e-07 3.9929905e-06 2.6092233e-25
6.302696e-06 -2.8845785e-05 5.385688e-05 4.0535797e-05 3.965349e-05 -1.4642393e-05 1.4903367e-05 1.83903e-05
6.6207954e-06 8.830766e-06 -8.587476e-07 2.5869846e-05 2.6262083e-05 1.5670935e-06 2.3444005e-05 2.4021481e-05
-8.135791e-09 2.5019233e-05 2.507661e-05 -1.4160505e-06 2.6427153e-05 2.6282696e-05 1.2123468e-07 2.4889867e-05
2.4939833e-05 -4.0666714e-06 2.9077768e-05 2.8291344e-05 2.6583325e-07 2.4745266e-05 2.4788053e-05 -2.8962395e-06
2.7907336e-05 2.7091892e-05 1.2002155e-06 6e-45 1.4183191e-05 6.1393235e-10 0.0 2.9581926e-07
-0.00015439992 0.0 6e-45 1.514814e-05 -6.104277e-06 2.754257e-06 2.6003638e-06 -1.9282674e-05
1.5932652e-05 8.501219e-06 -6.744826e-06 3.3948072e-06 3.3247486e-06 -7.420657e-06 4.0706364e-06 3.5665073e-06
-8.41902e-06 5.0689982e-06 4.8344677e-06 -9.5240694e-07 -2.3976115e-06 -2.5350585e-06 -9.569701e-06 6.2196823e-06
5.884853e-06 -4.5558065e-07 -2.8944385e-06 -2.9337527e-06 -8.7198205e-06 5.3698013e-06 5.053489e-06 -9.9097065e-08
-3.2509238e-06 -3.2535222e-06 -5.979195e-06 2.6291755e-06 2.5893708e-06 -9.82902e-08 0.0 -3.9086295e-08
-5.9844333e-06 -2.7229107e-25 7.020135e-07 -7.782021e-06 4.4320013e-06 1.3421e-06 9.65652e-06 -1.3006538e-05
-4.9217383e-06 -2.8402862e-06 -5.0973523e-07 -4.149381e-06 -3.7984546e-07 -2.970174e-06 -2.8364616e-06 -5.67199e-07
-2.782821e-06 -2.9220073e-06 -2.7815704e-08 -3.3222047e-06 -3.2993178e-06 1.503685e-08 -3.3650579e-06 -3.3560761e-06
-9.144296e-08 -3.2585754e-06 -3.2671114e-06 -8.179937e-06 4.8299185e-06 3.5291753e-06 8.26897e-08 -3.4327095e-06
-3.4191048e-06 -8.76915e-06 5.419129e-06 4.0937935e-06 3.5217332e-07 6e-45 -1.5510881e-06 -3.0497237e-11
0.0 -3.96228e-08 -2.391725e-06 0.0 -6e-45 4.9337523e-06 1.0261047e-06 -1.0099312e-05
-8.788908e-06 -8.198628e-05 7.291308e-05 3.7388556e-05 -1.2720982e-05 3.6477786e-06 3.6075214e-06 -2.184517e-05
