Config/results/BallCatcher_00/BoxBehavior/BoxBehavior-214400.pt (torch, 532751 bytes, 21 tensors)

network_body.linear_encoder.seq_layers.0.weight f4 [256, 82]
-0.06781937 -0.008700147 0.13604428 0.13720398 0.20123722 0.030496387 -0.037247997 0.13324434
0.09090362 0.26181912 0.010792741 0.011274219 0.00041361665 0.05973157 -0.041236255 0.017775971
0.020981222 0.031142773 0.12381835 -0.13167673 -0.09163215 0.042327113 -0.049912512 -0.037861202
-0.07576068 0.13280486 -0.1051815 -0.1919434 -0.0048015607 -0.08277666 0.026510008 0.0075005093
-0.03160493 -0.006906714 0.08699963 0.22889255 0.0065982924 -0.13690583 -0.061631363 0.028724978
0.090970464 0.16146652 -0.038670443 0.008555247 0.09293123 0.069699734 0.08853557 -0.08877051
-0.17070958 -0.012435955 -0.013707888 -0.028774604 0.18052085 0.04995659 -0.07625228 0.12317871
-0.073069625 0.005960525 -0.029819308 -0.13835816 -0.13603213 -0.0035715206 -0.1307959 0.15377285
-0.21354564 -0.22627097 -0.2833127 -0.22651732 0.14128196 -0.052159376 0.09530311 0.015805114
0.03616429 0.04952821 0.055913992 0.13917021 -0.1457676 -0.08436754 -0.007617865 0.05764099
0.10120589 -0.2006176 0.03865154 0.0058886767 -0.08578476 0.080095634 0.15162167 -0.07557545
0.057656117 0.12171766 0.068751745 0.31537402 -0.1984229 -0.18426335 0.10285987 -0.09301202
0.27718845 -0.10629956 0.022800026 -0.019462615 -0.012118183 0.27378705 0.03530946 -0.20421536
0.033868782 0.01767523 -0.061551504 -0.09432961 -0.10613841 0.06529268 0.048586074 -0.17268944
0.005509349 0.068096586 0.0545073 -0.09588614 0.14938888 0.0866763 -0.14984192 0.02001371
-0.15758029 -0.11948225 0.085411035 0.12684284 0.26911655 0.051478393 0.0012548894 -0.09332465
0.10382169 0.18839175 -0.23139387 0.08927049 0.027785657 -0.030581687 0.15521151 0.2698932
-0.15505382 -0.26061404 0.017181294 0.10209979 -0.040339444 0.010058341 -0.16278863 -0.06556979
0.0660473 0.062196612 -0.08227267 -0.16445078 -0.019650128 0.011749254 -0.09473128 0.16657913
-0.07782645 0.04172773 0.030863868 -0.32893255 -0.2652386 0.14144047 -0.18304741 0.019370515
-0.106114686 -0.06615699 -0.15561862 0.0046876892 0.050236903 0.023381423 -0.13642551 0.17382294
-0.21858194 0.09642015 0.108529575 -0.06719784 -0.051574428 0.010001643 0.1430058 0.1088478
-0.058892842 0.038794354 0.023280567 -0.053339347 0.14644164 -0.097587295 0.03603704 -0.08929593
0.07646124 -0.08374176 -0.09854565 0.01855039 0.14968911 -0.049678415 -0.18031135 -0.08729471
0.14271428 0.034512307 0.055432145 -0.06927714 -0.23918033 -0.008601879 0.0668341 0.098028384
0.085545614 -0.025634475 -0.106309205 0.13831185 0.15310128 -0.17064819 -0.19228664 -0.034609146
-0.013411006 0.028575812 0.19275023 -0.22412348 -0.24802716 -0.20539919 -0.06744544 0.32289058
-0.07369136 0.098732464 0.094203815 -0.115001634 0.15360038 -0.13335402 0.026314275 -0.080962
-0.011347993 0.090842985 0.29985997 -0.086230434 0.1296062 0.12732226 -0.10328313 -0.010739288
-0.3376849 -0.037274346 0.031451657 0.09886528 -0.046386026 0.089790784 0.19606347 -0.13475007
-0.004661869 0.0027505725 0.110496245 0.110204466 0.036368735 0.05992385 0.16254379 -0.24424775
-0.05517751 0.20759185 -0.07188788 -0.07907835 -0.08973824 0.08218247 0.27307263 -0.0783314
00000000: e2e4 8abd 108b 0ebc 314f 0b3e 337f 0c3e
00000010: 2111 4e3e 8fd3 f93c 5b91 18bd 3471 083e
00000020: ad2b ba3d 280d 863e 09d4 303c 80b7 383c
00000030: b0da d839 17a9 743d 59e7 28bd ea9e 913c
00000040: d0e0 ab3c 211f ff3c 7a94 fd3d 44d6 06be
00000050: a3a9 bbbd 325f 2d3d 1071 4cbd 5914 1bbd
00000060: 6a28 9bbd fffd 073e 6669 d7bd d08c 44be
00000070: 6956 9dbb cf86 a9bd 842b d93c d5c6 f53b
00000080: 2c74 01bd b751 e2bb dd2c b23d cf62 6a3e
00000090: 7d36 d83b 0b31 0cbe 2b71 7cbd a550 eb3c
000000a0: b94e ba3d 7b57 253e e664 1ebd 4f2b 0c3c
000000b0: bb52 be3d bcbe 8e3d 2352 b53d 50cd b5bd
000000c0: 7ece 2ebe 2dc0 4bbc 0d97 60bc b8b8 ebbc
000000d0: 75da 383e 489f 4c3d 282a 9cbd 1f45 fc3d
000000e0: 87a5 95bd 8250 c33b 9f47 f4bc c3ad 0dbe
000000f0: 024c 0bbe 2c10 6abb 5cef 05be a176 1d3e
00000100: b5ab 5abe 94b3 67be 5d0e 91be 28f4 67be
00000110: 38ac 103e 12a5 55bd 472e c33d ba79 813c
00000120: 0221 143d 18de 4a3d 1206 653d a382 0e3e
00000130: 1a44 15be e4c8 acbd 499f f9bb f518 6c3d
00000140: 0945 cf3d b36e 4dbe 1451 1e3d cdf5 c03b
00000150: ecaf afbd 2e09 a43d b642 1b3e 4dc7 9abd
00000160: d228 6c3d 1c47 f93d b7cd 8c3d b478 a13e
00000170: 5f2f 4bbe 88af 3cbe 32a8 d23d 167d bebd
00000180: a5eb 8d3e 95b3 d9bd 1fc7 ba3c 1070 9fbc
00000190: 588b 46bc d12d 8c3e a7a0 103d d51d 51be
000001a0: feb9 0a3d a5cb 903c 6e1d 7cbd e22f c1bd
000001b0: 185f d9bd 2bb8 853d 3102 473d 80d5 30be
000001c0: c587 b43b 3976 8b3d 0c43 5f3d f45f c4bd
000001d0: 66f9 183e 5883 b13d 2970 19be cbf3 a33c
000001e0: ba5c 21be 1cb3 f4bd fbeb ae3d 17e3 013e
000001f0: a5c9 893e 02db 523d 1a7b a43a fe20 bfbd
00000200: 77a0 d43d c4e9 403e 84f2 6cbe 72d3 b63d
00000210: bf9e e33c 7286 fabc c4ef 1e3e 712f 8a3e
00000220: 6ec6 1ebe 346f 85be c9bf 8c3c b219 d13d
00000230: f93a 25bd bdcb 243c 10b2 26be 7449 86bd
00000240: cf43 873d e0c1 7e3d 937e a8bd c965 28be
00000250: 4ef9 a0bc f17f 403c 7902 c2bd b893 2a3e
00000260: 7963 9fbd b2ea 2a3d 39d6 fc3c d969 a8be
00000270: 5bcd 87be c5d5 103e c870 3bbe eaae 9e3c
00000280: a852 d9bd 517d 87bd 7d5a 1fbe 309b 993b
00000290: 36c5 4d3d 668a bf3c 21b3 0bbe a4fe 313e
000002a0: f2d3 5fbe ed77 c53d c144 de3d 059f 89bd
000002b0: b53f 53bd eedd 233c 1d70 123e 98eb de3d
000002c0: 9f39 71bd d4e6 1e3d e3b6 be3c 5c7a 5abd
000002d0: ccf4 153e d9db c7bd 939b 133d c9e0 b6bd
000002e0: b697 9c3d cd80 abbd 4dd2 c9bd fdf6 973c
000002f0: 1a48 193e 987b 4bbd 8aa3 38be 92c7 b2bd
00000300: b123 123e c75c 0d3d d10c 633d 2ce1 8dbd
00000310: b0eb 74be e5ee 0cbc 51e0 883d 1bc3 c83d
00000320: 8a32 af3d 64ff d1bc a4b8 d9bd 9fa1 0d3e
00000330: 95c6 1c3e 66be 2ebe cae6 44be 52c2 0dbd
00000340: d6b9 5bbc d217 ea3c 5160 453e a080 65be
00000350: d5fa 7dbe 2a54 52be d620 8abd ea51 a53e
00000360: 7feb 96bd 3f34 ca3d eeed c03d fa85 ebbd
00000370: 6b49 1d3e f58d 08be 0991 d73c 68cf a5bd
00000380: efec 39bc e30b ba3d 3f87 993e 9599 b0bd
00000390: 7db7 043e c460 023e 1b86 d3bd d7f3 2fbc
000003a0: 09e5 acbe fcac 18bd 74d3 003d e179 ca3d
000003b0: 46ff 3dbd 3be4 b73d ddc4 483e ecfb 09be
000003c0: 97c2 98bb f342 343b db4b e23d e1b2 e13d
000003d0: 62f7 143d b672 753d e171 263e 151c 7abe
000003e0: d001 62bd f592 543e f439 93bd d4f3 a1bd
000003f0: afc8 b7bd 484f a83d 2dd0 8b3e 376c a0bd

network_body.linear_encoder.seq_layers.0.bias f4 [256]
0.0030871448 0.01535568 -0.0092448825 -0.008555281 -0.020688767 0.017051129 -0.094070844 -0.0057335254
0.029579181 0.008946175 0.023705972 0.00088826317 -0.019066442 0.01727786 0.009278306 0.028107338
-0.090340756 -0.04789488 -0.0054232758 0.01013914 -0.0059769033 0.0061570085 -0.04906667 -0.0065094815
-0.019620698 0.0140316365 0.01644915 -0.060825177 0.048494104 0.018793458 -0.004947064 -0.023959901
0.0054302453 0.03423021 0.025598427 -0.007694224 -0.064130895 -0.012499947 -0.06036501 -0.0011946369
-0.04143074 0.03860135 0.024641339 -0.0061729597 -0.01620303 0.01690507 0.019279057 -0.015440172
-0.048975892 -0.0044839885 0.02333504 0.026194878 0.007820457 -0.026998173 0.009070088 -0.011844922
0.01802879 0.009221392 -0.009601302 -0.045581244 -0.0053431597 -0.0063195964 -0.005009351 -0.02288068
0.011659624 -0.022892205 0.013671691 -0.030842436 -0.011695128 -0.013096893 0.009041479 0.016587265
-0.002720075 0.00848585 -0.027762795 0.02008177 -0.01134021 0.005796863 0.0020607517 -0.020226367
-0.055826157 0.0062360284 -0.002111794 -0.007844636 -0.004966263 0.0072615375 0.006284243 -0.051631097
-0.055936977 -0.010370655 -0.053812377 0.009833788 -0.016623823 -0.0422317 -0.039799754 -0.01955038
0.022419794 -0.021942515 -0.0016522735 -0.00810857 0.0024400172 -0.016341131 -0.016930364 0.004933411
-0.013177598 -0.062027257 -0.017660143 -0.060070526 -0.0011239559 0.014267344 -0.018773029 0.03153797
-0.019795636 -0.01424873 -0.003011412 0.037645575 -0.02030434 -0.02373209 0.006508187 -0.006639922
-0.0042477655 0.016913082 -0.018642679 -0.0039107576 0.009382744 -0.004058991 -0.02504651 -0.023906402
0.003334054 0.01192236 0.017712012 0.00908257 -0.061534774 0.0023814978 0.034339655 -0.03413732
-0.0047541126 -0.0031845793 0.016361848 -0.041279826 -0.0015224316 -0.015707469 0.012318718 -0.010827981
-0.021337679 -0.0016665966 0.0012665886 0.029827338 0.00979956 0.02947477 -0.006331372 -0.009010833
0.01082145 0.03237397 0.026912734 0.0068661156 0.012735763 -0.016077952 0.029043134 -0.020199385
0.009861738 0.0069975373 0.033828847 0.016628118 0.005996739 0.031516146 0.003647684 -0.0047354572
0.0085755335 0.0042383843 -0.02983998 0.003005283 -0.013588207 -0.054469172 0.016727753 -0.004151471
0.021810794 0.0056158127 0.0060564624 0.024969785 0.010568869 0.0065740044 -0.00015481227 -0.019842245
0.004116671 -0.0062567233 -0.01906593 0.015525215 -0.02202295 -0.0078023067 0.025408689 0.011099392
0.0012930359 -0.0007942252 -0.01613173 0.01664095 0.005017802 -0.02432171 -0.009512068 -0.0056456467
0.016607106 0.007949506 -0.018387599 0.008433513 -0.007971526 0.028594797 -0.053688325 0.00025100735
0.0002739168 -0.010314321 -0.04269371 -0.0008201371 -0.008746298 -0.019482384 0.021073695 0.006148399
-0.004758074 0.008214656 0.024402373 -0.038034823 0.0030260975 -0.044649076 -0.0035862473 0.005351401
-0.009124461 0.0007306836 -0.026933333 -0.045177024 0.010602092 0.014568993 -0.036021795 0.03014594
-0.013197028 0.002791848 -0.027170865 0.011044538 0.03669966 -0.009520394 -0.015584586 0.011305234
0.017679997 -0.030234115 -0.005948831 -0.007691361 -0.043118212 -0.0049928604 -0.019137455 -0.0140606165
-0.0035846857 -0.010614705 0.0011990599 0.0037455873 -0.020838225 0.017445894 -0.012114438 0.0003853551
00000000: b251 4a3b 6496 7b3c d977 17bc 732b 0cbc
00000010: 7d7b a9bc cfae 8b3c 37a8 c0bd 4ce0 bbbb
00000020: 0a50 f23c fa92 123c 0733 c23c 55da 683a
00000030: 3a31 9cbc 4c8a 8d3c 0904 183c 5c41 e63c
00000040: 9304 b9bd 6c2d 44bd bcb5 b1bb a31e 263c
00000050: e6d9 c3bb bbc0 c93b 22fa 48bd 7d4d d5bb
00000060: 96bb a0bc f3e4 653c 5ec0 863c d223 79bd
00000070: c1a1 463d bdf4 993c fb1a a2bb 8e47 c4bc
00000080: 33f0 b13b fa34 0c3d cbb3 d13c d41f fcbb
00000090: 0f57 83bd 94cc 4cbc 4d41 77bd 5d95 9cba
000000a0: 48b3 29bd 731c 1e3d a2dc c93c 8a46 cabb
000000b0: 37bc 84bc 807c 8a3c 1def 9d3c c6f8 7cbc
000000c0: f29a 48bd 6cee 92bb 2029 bf3c a496 d63c
000000d0: 6021 003c 462b ddbc b59a 143c 3411 42bc
000000e0: 1db1 933c 5215 173c c84e 1dbc 66b3 3abd
000000f0: ac15 afbb 9e14 cfbb 7b25 a4bb 4470 bbbc
00000100: 0208 3f3c 6f88 bbbc 3aff 5f3c 47a9 fcbc
00000110: ec9c 3fbc 5a94 56bc b622 143c 04e2 873c
00000120: 4943 32bb 3c08 0b3c cd6e e3bc 8682 a43c
00000130: 4acc 39bc 9df3 bd3b ad0d 073b c4b1 a5bc
00000140: f8a9 64bd 9957 cc3b 0666 0abb ca86 00bc
00000150: 09bc a2bb 31f2 ed3b 0dec cd3b 217b 53bd
00000160: 2c1e 65bd aee9 29bc 5e6a 5cbd e51d 213c
00000170: af2e 88bc 26fb 2cbd 1105 23bd 1e28 a0bc
00000180: b7a9 b73c cac0 b3bc 1991 d8ba cfd9 04bc
00000190: b2e8 1f3b d6dd 85bc 8cb1 8abc 73a8 a13b
000001a0: dae6 57bc 4b10 7ebd 01ac 90bc 830c 76bd
000001b0: b451 93ba 94c1 693c e5c9 99bc f52d 013d
000001c0: 752a a2bc 8173 69bc 1c5b 45bb 3f32 1a3d
000001d0: 4a55 a6bc cd69 c2bc a142 d53b b493 d9bb
000001e0: d730 8bbb 4e8d 8a3c 88b8 98bc d025 80bb
000001f0: 15ba 193c 4901 85bb 572e cdbc 5cd7 c3bc
00000200: 2580 5a3b 0156 433c c818 913c 0fcf 143c
00000210: e30b 7cbd e712 1c3b bda7 0c3d 93d3 0bbd
00000220: 63c8 9bbb 60b4 50bb 4809 863c 0915 29bd
00000230: 548c c7ba f3ac 80bc 73d4 493c d867 31bc
00000240: 5bcc aebc b471 daba a903 a63a 7658 f43c
00000250: 558e 203c 1375 f13c 6677 cfbb 2ca2 13bc
00000260: 734c 313c 919a 043d 1878 dc3c 27fd e03b
00000270: a9a9 503c e9b5 83bc deeb ed3c 2e79 a5bc
00000280: 2193 213c 994b e53b 1e90 0a3d b137 883c
00000290: 4b80 c43b 1317 013d fb0d 6f3b e52b 9bbb
000002a0: 6580 0c3c 25e2 8a3b f972 f4bc 48f4 443b
000002b0: 12a1 5ebc 111b 5fbd a408 893c 1009 88bb
000002c0: 8dac b23c da04 b83b 4a75 c63b 6f8d cc3c
000002d0: 0d29 2d3c bf6a d73b 1a55 22b9 348c a2bc
000002e0: 24e5 863b 3305 cdbb 2730 9cbc 795d 7e3c
000002f0: 7969 b4bc 7eaa ffbb e225 d03c 39da 353c
00000300: 167b a93a 8d33 50ba b126 84bc 9a52 883c
00000310: 606c a43b 533e c7bc 81d8 1bbc 1eff b8bb
00000320: a00b 883c a53e 023c 97a1 96bc b82c 0a3c
00000330: 019b 02bc a33f ea3c 4ae8 5bbd a399 8339
00000340: 7e9c 8f39 66fd 28bc 9adf 2ebd 78fe 56ba
00000350: a24c 0fbc 8599 9fbc bea2 ac3c 8278 c93b
00000360: 9ee9 9bbb c496 063c 7ce7 c73c 67ca 1bbd
00000370: 7e51 463b f3e1 36bd 3f07 6bbb ce5a af3b
00000380: c37e 15bc 598b 3f3a 4ba3 dcbc 8b0b 39bd
00000390: 66b4 2d3c c9b2 6e3c 978b 13bd 9ef4 f63c
000003a0: 5938 58bc 70f7 363b 6f95 debc 26f4 343c
000003b0: 6252 163d 6dfb 1bbc 7e56 7fbc 9739 393c
000003c0: a4d5 903c 89ad f7bc 69ee c2bb d007 fcbb
000003d0: b99c 30bd 269b a3bb 27c6 9cbc 805e 66bc
000003e0: 0ced 6abb 4de9 2dbc c629 9d3a 8778 753b
000003f0: edb4 aabc b1ea 8e3c a37b 46bc 7c09 ca39

distribution.branches.0.weight f4 [3, 256]
0.038987834 0.057508636 -0.024255285 0.0038356208 0.0036173563 -0.026886547 0.0009805287 -0.059486233
-0.0046444433 -0.057675432 0.0020533972 0.009912722 -0.028607 0.036421157 -0.07224029 -0.052358948
0.01631504 0.015081151 0.03248218 0.0010505196 -0.028633665 -0.023433674 0.01828193 -0.009472602
-0.024683464 0.0090829795 0.0021768657 0.020901717 0.040800415 0.014991786 0.01618869 -0.0042523122
0.0018517982 0.08827309 -0.041378304 -0.03314559 -0.0108791385 0.02159159 0.013071803 0.017899241
0.010388827 0.041771494 0.061306864 -0.030677477 0.026824204 -0.054080855 -0.03903386 0.015173606
-0.0090257 0.029806735 0.030123556 0.03197449 -0.0039364407 -0.022641651 0.042651445 -0.03436826
-0.006931744 -0.049411066 -0.022992471 0.012198276 -0.013232989 0.032220576 -0.05338532 0.022395045
0.008946877 -0.0074443873 -0.014376453 0.0022764665 -0.005186444 -0.0066336445 -0.007600925 0.02631768
-0.04573493 0.014230974 -0.039091673 0.049600046 -0.0027032404 -0.011253505 -0.0058545354 -0.019414093
0.010413956 0.019614678 0.021319486 -0.019273663 -0.010857346 -0.018765496 -0.016385444 0.025317239
-0.0068625957 0.02138822 0.0145604955 0.06550801 0.01035929 0.0059211687 -0.009116667 0.0154284425
-0.0058744512 -0.021798136 -0.02847977 0.0035000192 -0.0104625365 -0.01581102 -0.018215504 0.018891685
0.014297491 0.033810005 -0.061546512 -0.006074041 0.012495058 0.027655344 -0.0003483583 0.04278182
0.04207281 -0.013073497 -0.024555134 0.02248127 0.0437376 -0.0136579145 -0.018157497 -0.057223544
-0.027029669 0.022690607 0.016866226 -0.0047315722 -0.009089901 0.0036039045 -0.0055884016 0.024427682
-0.006043043 0.0075486554 0.0068821893 0.023573544 0.013351415 0.0036351695 -0.018103153 0.017996788
-0.026169214 0.0014583293 -0.0059865336 -0.0004463416 -0.011384158 0.004583585 0.0054388684 0.01674026
0.023166507 -0.024449266 0.037537802 0.063808694 0.009663709 0.043868113 -0.023932397 -0.015321837
-0.00473137 -0.03527538 0.06519148 0.054465204 0.0102640325 -0.035078965 0.059769884 -0.012416064
0.063713394 -0.008678313 0.09387431 0.0016469533 -0.0036858756 0.032613877 -0.039266147 -0.010247127
-0.0124689 -0.018757636 -0.0051256944 -0.009542348 0.028283948 -0.0057216883 0.039477695 0.0017271192
0.006560426 -0.033639543 0.042226907 0.04889745 0.019200811 0.014042522 -0.021494206 -0.005811129
-0.010569512 -0.029746527 0.0042591877 0.055689488 -0.0034344895 0.04064877 0.010217628 -0.005839268
0.018377999 0.0015006757 -0.0048315795 -0.028206533 -0.011419928 -0.015442827 0.00019514628 -0.005779724
0.011326212 -0.025722813 0.013219391 0.0053340457 -0.004771478 -0.0353044 0.0010577042 0.0069086393
-0.010929404 0.007800977 -0.00568703 -0.03264493 0.015189987 -0.012991293 0.037953366 -0.005871564
-0.050808128 -0.0076550483 0.000351232 -0.011321898 -0.017098676 0.0071535693 0.008897568 0.01655483
-0.032313623 0.02679647 -0.015526577 0.0036839976 0.0030522337 -0.027353028 -0.003197382 -0.082993984
-0.0029782378 -0.024944099 0.019412778 0.031684536 0.053190537 0.006206194 -0.03763408 0.014928043
0.048297953 0.0090173 0.011593023 -0.013781003 -0.004827751 -0.030052474 0.0146545665 -0.014348135
-0.011706305 0.014120195 -0.016349275 -0.0055434187 -0.006620049 -0.038687456 -0.024096921 -0.024012543
00000000: b5b1 1f3d 2d8e 6b3d 05b3 c6bc 0a5f 7b3b
00000010: 2b11 6d3b 2d41 dcbc 1585 803a d6a7 73bd
00000020: 6a30 98bb 133d 6cbd 4a92 063b f868 223c
00000030: 3a59 eabc 5a2e 153d b8f2 93bd 5676 56bd
00000040: 1ea7 853c ef16 773c 090c 053d 97b1 893a
00000050: 2691 eabc faf7 bfbc fcc3 953c f932 1bbc
00000060: fa34 cabc c7d0 143c bfa9 0e3b 143a ab3c
00000070: 561e 273d 1ca0 753c 259e 843c fb56 8bbb
00000080: 09b8 f23a 86c8 b43d 4c7c 29bd acc3 07bd
00000090: 6a3e 32bc d9e0 b03c 1e2b 563c 6ea1 923c
000000a0: e635 2a3c 9618 2b3d e81c 7b3d 554f fbbc
000000b0: 6fbe db3c e383 5dbd f8e1 1fbd b79a 783c
000000c0: 88e0 13bc 412d f43c adc5 f63c aff7 023d
000000d0: 42fd 80bb fc7a b9bc 48b3 2e3d bcc5 0cbd
000000e0: af23 e3bb 4263 4abd b55a bcbc 47db 473c
000000f0: 2ecf 58bc b9f9 033d 91aa 5abd d075 b73c
00000100: ec95 123c 0cf0 f3bb 378b 6bbc c530 153b
00000110: 0cf3 a9bb 0b5f d9bb 2e11 f9bb 2d98 d73c
00000120: 8d54 3bbd 0829 693c 971e 20bd 6b29 4b3d
00000130: d928 31bb 9f60 38bc 67d7 bfbb 4e0a 9fbc
00000140: 4c9f 2a3c f6ae a03c 34a6 ae3c cde3 9dbc
00000150: 02e3 31bc 19ba 99bc c43a 86bc 1966 cf3c
00000160: a0df e0bb 5936 af3c 258f 6e3c 1029 863d
00000170: 03ba 293c 5d06 c23b 135e 15bc 94c7 7c3c
00000180: 787e c0bb 0192 b2bc 684e e9bc 9460 653b
00000190: 0f6b 2bbc 1d86 81bc ae38 95bc bcc2 9a3c
000001a0: 0640 6a3c 5c7c 0a3d 3218 7cbd c008 c7bb
000001b0: 12b8 4c3c 768d e23c dca3 b6b9 fd3b 2f3d
000001c0: 8a54 2c3d 3932 56bc d927 c9bc a42a b83c
000001d0: 3326 333d 72c5 5fbc 08bf 94bc 3c63 6abd
000001e0: 536d ddbc a7e1 b93c 0a2b 8a3c 4e0b 9bbb
000001f0: cfed 14bc 7c2f 6c3b e91e b7bb 901c c83c
00000200: b804 c6bb b65a f73b fd83 e13b 4e1d c13c
00000210: e5bf 5a3c 063c 6e3b 104d 94bc 006e 933c
00000220: d260 d6bc 6925 bf3a af2a c4bb f502 eab9
00000230: 9f84 3abc e631 963b 8938 b23b df22 893c
00000240: b0c7 bd3c d449 c8bc 3dc1 193d 22ae 823d
00000250: 8954 1e3c 0daf 333d e00d c4bc 7108 7bbc
00000260: 9c09 9bbb eb7c 10bd 1c83 853d e816 5f3d
00000270: 792a 283c f6ae 0fbd 44d1 743d bf6c 4bbc
00000280: 2b7c 823d 7c2f 0ebc 2d41 c03d 95de d73a
00000290: bb8e 71bb 2196 053d 8ad5 20bd 91e3 27bc
000002a0: 5b4a 4cbc 9da9 99bc 71f5 a7bb 8257 1cbc
000002b0: bdb3 e73c 007d bbbb 5db3 213d 8160 e23a
000002c0: d8f8 d63b 9ec9 09bd 1ff6 2c3d b148 483d
000002d0: 054b 9d3c 9b12 663c 9e14 b0bc 496b bebb
000002e0: bf2b 2dbc fdae f3bc a890 8b3b a91a 643d
000002f0: 2c15 61bb 537f 263d d767 273c 5557 bfbb
00000300: 758d 963c 52b2 c43a 3a52 9ebb 6311 e7bc
00000310: a61a 3bbc e903 7dbc 2ea0 4c39 d763 bdbb
00000320: 9491 393c a6b8 d2bc 2596 583c 38c9 ae3b
00000330: 0f5a 9cbb 599b 10bd aaa2 8a3a de61 e23b
00000340: 3e11 33bc 579f ff3b 445a babb b1b6 05bd
00000350: 6cdf 783c 6fd9 54bc fd74 1b3d 4066 c0bb
00000360: 2f1c 50bd 33d7 fabb 9025 b839 7b7f 39bc
00000370: 8612 8cbc 7d68 ea3b 1bc7 113c ff9d 873c
00000380: 4a5b 04bd 4584 db3c 2f63 7ebc 396f 713b
00000390: fc07 483b 7513 e0bc 2b8b 51bb c0f8 a9bd
000003a0: 8a2e 43bb 9157 ccbc 8c07 9f3c a5c7 013d
000003b0: 52de 593d 545d cb3b 3126 1abd c094 743c
000003c0: 13d4 453d 4cbd 133c aaf0 3d3c b7c9 61bc
000003d0: 1c32 9ebb 9b30 f6bc b519 703c 7114 6bbc
000003e0: cdcb 3fbc 6458 673c eaee 85bc 91a5 b5bb
000003f0: ffec d8bb bd76 1ebd e866 c5bc f4b5 c4bc

distribution.branches.0.bias f4 [3]
-0.011157819 -0.003881634 0.01831389
00000000: 49cf 36bc 0363 7ebb 0307 963c

critic.network_body.linear_encoder.seq_layers.0.weight f4 [256, 82]
0.024968423 -0.07563974 -0.007647149 0.13926694 -0.023126245 -0.17186001 0.0504415 0.020012463
-0.03795704 0.12233453 -0.13247201 0.061550062 -0.082290865 0.037536647 -0.30608973 -0.060390055
0.062219493 -0.056017883 2.1417136e-06 0.21271984 0.03266454 -0.061553307 -0.046757158 -0.03621334
0.026580691 0.07190018 0.038474057 0.15724678 -0.12815583 -0.090397395 0.040563744 -0.02744304
-0.11599862 0.12594855 -0.11978614 0.005312707 0.10896213 -0.10649334 -0.119031794 0.111309126
0.048967887 -0.11746596 0.022437735 -0.09626862 0.07105733 -0.013860676 -0.114004396 -0.0846645
-0.010390164 0.081315115 0.063827604 0.12466478 0.14639911 0.2051698 0.071477205 -0.28026578
-0.14621039 0.09525227 0.006821299 -0.069613606 -0.09848838 -0.03942694 0.08846826 0.13358827
0.15084606 -0.074512005 -0.002988159 -0.0101208 -0.09152194 0.05327039 0.022381594 0.10250539
0.24911587 -0.114678875 -0.035768956 -0.062454436 -0.015078197 -0.10315131 0.28835577 -0.15274613
0.12329896 0.098623715 -0.19320737 -0.031251002 0.06366522 -0.016921127 0.055061333 0.07947483
0.04410194 -0.094285674 0.03298788 -0.14515288 0.15925488 0.09449825 -0.23100278 0.047015343
0.05681127 -0.106783696 0.037768405 -0.0133354915 -0.11641819 -0.00013043974 0.1701227 -0.01644145
0.12846184 0.09630368 -0.049953457 -0.30918324 0.015302673 0.041693404 -0.071826875 -0.022629939
0.09347397 0.07529889 0.100244045 -0.12913464 -0.2267819 -0.055329278 0.27695504 0.02621188
-0.14320715 0.008640383 -0.09289445 0.081471175 -0.1316811 -0.13207924 -0.0005485397 -0.08791089
-0.015454681 -0.07309021 0.10253987 0.07657654 -0.15097483 0.018812014 -0.060367394 0.016714634
-0.028591286 -0.07494727 0.04742066 -0.06225575 0.18278989 -0.061066058 -0.07179171 0.04765624
-0.14499392 -0.25164273 0.002569569 -0.09397027 0.0511274 0.047694232 -0.13948801 0.07469873
-0.022292487 0.03518015 -0.08896148 -0.029372398 -0.04904304 -0.022664703 0.06021848 0.037561584
0.004761272 -0.06644427 -0.09726473 0.21862763 -0.018961187 0.036800534 -0.049023427 0.15271738
0.061949097 0.046281766 -0.008800724 -0.13087204 0.18229079 -0.1594389 -0.12716693 -0.06389735
0.031225115 0.11876088 -0.034754816 -0.008216905 0.097493805 -0.048612755 0.09829274 -0.18964265
-0.107054815 0.0320884 -0.14667694 0.029744942 0.20948206 0.06369857 -0.027580855 0.19753185
0.13292754 -0.04970785 0.04208593 -0.07531285 0.108336896 0.19575733 0.005824391 -0.039736804
0.08414399 0.024967039 -0.0058392407 -0.039856404 -0.06766334 -0.02592161 -0.025131913 -0.013486854
-0.02037361 -0.008149133 -0.037555065 0.0073096124 -0.1816052 0.04425205 -0.19005051 0.08568104
0.005579553 0.069404125 0.0307643 0.09985468 0.020600218 -0.08092649 -0.045492187 0.019743806
-0.17183079 -0.03034685 0.06967278 -0.16136314 0.076393835 -0.08240669 -0.06724929 0.019337824
0.075023115 0.07844289 0.09249004 0.003578516 -0.065892994 -0.01943873 -0.06849077 -0.12609492
-0.23277201 0.09323431 -0.010637563 -0.14952765 -0.057369158 -0.0031144568 -0.12871404 0.06741878
0.18441395 -0.034000497 -0.037578624 -0.054226983 0.21383165 -0.16819847 0.10327227 0.030778652
00000000: 948a cc3c 02e9 9abd ef94 fabb fe9b 0e3e
00000010: 4073 bdbc 12fc 2fbe bf9b 4e3d 2df1 a33c
00000020: d778 1bbd 878a fa3d bea6 07be eb1b 7c3d
00000030: 1d88 a8bd 07c0 193d cbb7 9cbe 905b 77bd
00000040: ded9 7e3d 0273 65bd 5cba 0f36 3bd3 593e
00000050: 41cb 053d 521f 7cbd 6f84 3fbd 7054 14bd
00000060: c0bf d93c 6740 933d f996 1d3d 4d05 213e
00000070: 483b 03be 4522 b9bd 2b26 263d 3ad0 e0bc
00000080: af90 edbd a8f8 003e 7052 f5bd 3716 ae3b
00000090: 8a27 df3d 2e19 dabd f1c6 f3bd 0af6 e33d
000000a0: 8d92 483d fe91 f0bd 57cf b73c 7b28 c5bd
000000b0: 8186 913d e417 63bc 237b e9bd 9564 adbd
000000c0: 823b 2abc 8a88 a63d 0cb8 823d 4050 ff3d
000000d0: a6e9 153e 0818 523e a462 923d ff7e 8fbe
000000e0: 2db8 15be 9f13 c33d 3485 df3b 9491 8ebd
000000f0: 47b4 c9bd 257e 21bd d92e b53d 5dcb 083e
00000100: 6477 1a3e c099 98bd fdd4 43bb b6d1 25bc
00000110: db6f bbbd 0d32 5a3d 9b59 b73c 59ee d13d
00000120: 3b18 7f3e c2dc eabd 7882 12bd 39d0 7fbd
00000130: 8b0a 77bc fe40 d3bd 5ea3 933e 7b69 1cbe
00000140: 2a84 fc3d 3bfb c93d 27d8 45be 0d01 00bd
00000150: e962 823d 2d9e 8abc fe87 613d b3c3 a23d
00000160: 3ca4 343d d918 c1bd 4d1e 073d f5a2 14be
00000170: b613 233e 4c88 c13d fe8b 6cbe 2993 403d
00000180: efb2 683d 69b1 dabd 0bb3 1a3d 1b7d 5abc
00000190: a96c eebd a7c6 08b9 a534 2e3e 38b0 86bc
000001a0: 808b 033e dd3a c53d ff9b 4cbd 444d 9ebe
000001b0: 10b8 7a3c b4c6 2a3d f819 93bd 6c62 b9bc
000001c0: 486f bf3d 4e36 9a3d c04c cd3d df3b 04be
000001d0: 8439 68be f4a0 62bd 0dcd 8d3e 4cba d63c
000001e0: e5a4 12be 6590 0d3c 723f bebd 5cda a63d
000001f0: 69d7 06be c83f 07be e0cb 0fba a00a b4bd
00000200: a135 7dbc 52b0 95bd 6c00 d23d 29d4 9c3d
00000210: 2599 1abe a71b 9a3c cd43 77bd 21ed 883c
00000220: 4638 eabc f47d 99bd 2a3c 423d e3ff 7ebd
00000230: 462d 3b3e 6720 7abd 8807 93bd 3133 433d
00000240: 4979 14be 51d7 80be 3766 283b 7c73 c0bd
00000250: f76a 513d 075b 433d f2d5 0ebe a6fb 983d
00000260: bc9e b6bc 1019 103d 7031 b6bd 629e f0bc
00000270: 5be1 48bd 54ab b9bc a7a7 763d 2dda 193d
00000280: 7204 9c3b ef13 88bd bb32 c7bd ecdf 5f3e
00000290: 7e54 9bbc 28bc 163d cacc 48bd f261 1c3e
000002a0: 56be 7d3d f391 3d3d e930 10bc 5203 06be
000002b0: 70aa 3a3e f343 23be 0c38 02be 9ddc 82bd
000002c0: d0cb ff3c e738 f33d 115b 0ebd 33a0 06bc
000002d0: d5aa c73d 2b1e 47bd b44d c93d af31 42be
000002e0: 8e3f dbbd 206f 033d 7b32 16be aaab f33c
000002f0: 7782 563e 6574 823d 3ff1 e1bc ca45 4a3e
00000300: 281e 083e 759a 4bbd 4c62 2c3d a03d 9abd
00000310: bcdf dd3d 9c74 483e 88da be3b 0fc3 22bd
00000320: af53 ac3d ad87 cc3c 1a57 bfbb 7840 23bd
00000330: 1493 8abd 8e59 d4bc 71e1 cdbc f7f7 5cbc
00000340: 8fe6 a6bc f183 05bc 57d3 19bd 7985 ef3b
00000350: b7f6 39be a341 353d 9a9c 42be 8b79 af3d
00000360: afd4 b63b c023 8e3d 6a05 fc3c 9c80 cc3d
00000370: cac1 a83c cabc a5bd 0456 3abd c3bd a13c
00000380: 69f4 2fbe f599 f8bc 9ab0 8e3d 613c 25be
00000390: 5f74 9c3d d7c4 a8bd ffb9 89bd 5b6a 9e3c
000003a0: b8a5 993d aaa6 a03d 6b6b bd3d 8985 6a3b
000003b0: e8f2 86bd f93d 9fbc e444 8cbd 071f 01be
000003c0: c95b 6ebe a1f1 be3d 2c49 2ebc c71d 19be
000003d0: ecfb 6abd ea1b 4cbb 9dcd 03be db12 8a3d
000003e0: 03d7 3c3e 1b44 0bbd 0bec 19bd 1d1d 5ebd
000003f0: aff6 5a3e 383c 2cbe 6980 d33d 8323 fc3c

critic.network_body.linear_encoder.seq_layers.0.bias f4 [256]
-0.010912531 -0.024719201 0.0038559553 -0.009759644 -0.014015964 -0.012283192 -0.0034027689 -0.015101182
-0.0051941955 -0.016851956 0.0059496537 -0.023322007 0.0049329987 -0.006379419 -0.007467656 -0.014811064
-0.014310937 -0.0056523997 0.014560562 -0.004284437 -0.022282293 0.010132886 0.0015886076 -0.04998761
-0.016419614 0.013280581 -0.004889867 -0.011849637 -0.0066681807 -0.015509696 0.0053016185 -0.0020990127
-0.019415021 -0.02300577 -0.016539644 0.0079166675 0.0030878114 0.014479837 0.050035067 -0.009972423
-0.02162618 -0.008084106 -0.021175358 -0.0029189202 -0.0048273937 -0.028097732 -0.01818657 -0.036031023
-0.012278252 -0.010416984 -0.010799708 -0.0026967905 -0.008681805 -0.001647062 -0.028677551 0.0137199415
-0.01447146 -0.008280643 -0.0026761473 -0.022417739 -0.01063217 -0.0059865294 -0.023579666 0.036537386
-0.024761487 -0.0010820588 -0.011060976 -0.009605011 0.008468692 -0.0073546562 -0.0027445739 -0.0067047705
-0.017585177 -0.026320804 -0.02938828 -0.00045223656 -0.002397974 -0.0013246159 -0.020976605 0.0034437657
0.0049294527 -0.001940677 -0.014772947 -0.012351667 -0.023099978 0.019452948 -0.012014948 -0.006054669
-0.001914575 -0.025235387 -0.005051678 0.008559511 0.0039717313 -0.007901095 -0.023309577 0.01811712
-0.007699355 -0.005556569 -0.022760201 -0.01938499 -0.019703511 -0.0007142603 0.00307118 -0.009620318
-0.01697243 -0.008920812 -0.015885232 -0.0036428066 0.0015352961 -0.02303824 0.005014688 -0.026951585
-0.00043919592 -0.014059064 -0.022072911 -0.018014148 -0.026210852 -0.012094624 -0.015291905 0.017986722
-0.011240429 -0.020698756 0.01289444 -0.0077849054 -0.015788274 -0.00750433 0.026270952 -0.006113192
0.006966741 -0.00941885 0.006983436 0.0063379034 -0.025378732 -0.015770072 -0.0129659055 -0.025603196
-0.005876425 -0.0041124956 -0.021186592 0.0068943505 -0.0010591582 -0.006031734 0.010610883 -0.016301839
-0.00065570703 0.010823786 -0.01583527 0.051258396 0.00023736108 -0.0009122242 -0.01395433 0.004748071
0.0008924369 0.013066201 0.0065231062 0.000883571 0.007266244 -0.018650709 0.009887232 -0.0077462276
-0.006920447 0.025125563 -0.00038158035 -0.020967444 -0.0022512623 -0.004666376 -0.009353293 0.007883743
0.004697582 -0.01862351 -0.010992333 0.043943428 -0.023286171 0.004989152 0.012453006 -0.014721235
0.010122117 -0.006583292 0.11539811 0.0023174218 -0.035399605 -0.026329948 -0.020468926 -0.02375058
0.0005225766 -0.001974018 -0.030515857 -0.015817588 -0.012561721 -0.007967687 -0.0047541982 -0.0018637138
-0.024414947 -0.013188579 -0.012139909 -0.021177897 0.00055005134 -0.0107729975 0.0073180594 0.0010353844
-0.031671006 -0.010708941 0.018978827 -0.012122567 -0.017688144 -0.017268196 -0.010585251 -0.02419572
-0.01052022 -0.033585712 -0.008138082 -0.0313503 -0.002952952 -0.012225295 -0.0006581382 -0.007930231
0.004051664 -0.0033216835 0.0037415822 -0.023714187 -0.02395281 -0.006656267 0.0022209615 0.017049903
-0.02743971 -0.011837941 -0.012145095 -0.01141727 -0.015966035 -0.014489558 -0.016266279 -0.0035448405
-0.011165778 -0.01330297 -0.016083874 -0.031873524 -0.013425328 -0.023149187 -0.023040323 -0.01331123
-0.01866781 -0.024821665 -0.00827416 0.004354761 0.022536894 -0.020677589 -0.006324498 0.009893955
-0.027288267 -0.004021454 -0.013807894 -0.014317617 -0.0012245136 -0.01786592 -0.021461278 0.0031687028
00000000: 79ca 32bc ec7f cabc 32b4 7c3b eae6 1fbc
00000010: 37a3 65bc 713f 49bc fd00 5fbb f36a 77bc
00000020: 1234 aabb 1d0d 8abc 50f5 c23b cb0d bfbc
00000030: fea4 a13b 720a d1bb 3db3 f4bb 1baa 72bc
00000040: 6c78 6abc c437 b9bb 6c8f 6e3c 7664 8cbb
00000050: 5b89 b6bc 6704 263c d338 d03a cfbf 4cbd
00000060: 6d82 86bc cb96 593c 2d3b a0bb fb24 42bc
00000070: c180 dabb 611c 7ebc 33b9 ad3b 978f 09bb
00000080: 400c 9fbc 9976 bcbc 267e 87bc e9b4 013c
00000090: e15c 4a3b d73c 6d3c 92f1 4c3d 6063 23bc
000000a0: 6329 b1bc 3373 04bc f277 adbc 5b4b 3fbb
000000b0: 1d2f 9ebb 372d e6bc 00fc 94bc 4495 13bd
000000c0: b92a 49bc ffab 2abc 42f1 30bc a3bc 30bb
000000d0: 213e 0ebc 3be2 d7ba 2fed eabc 9bc9 603c
000000e0: b419 6dbc 89ab 07bc 4d62 2fbb 68a5 b7bc
000000f0: 8e32 2ebc a62a c4bb 252a c1bc 3aa8 153d
00000100: 9ad8 cabc ded3 8dba 1939 35bc 565e 1dbc
00000110: 45c0 0a3c 54ff f0bb 4fde 33bb b1b3 dbbb
00000120: ca0e 90bc ba9e d7bc b1bf f0bc 2a1a edb9
00000130: 5427 1dbb bc9e adba 21d7 abbc cdb0 613b
00000140: 3f87 a13b 505e feba 3b0a 72bc a55e 4abc
00000150: 2a3c bdbc ca5b 9f3c 58da 44bc 3f66 c6bb
00000160: 7af2 faba 71ba cebc 8c88 a5bb 313d 0c3c
00000170: 4c25 823b 9873 01bc baf3 bebc 5b6a 943c
00000180: df4a fcbb e113 b6bb 9a73 babc 45cd 9ebc
00000190: 4269 a1bc 333d 3bba da45 493b 8a9e 1dbc
000001a0: c409 8bbc 9928 12bc bf21 82bc 27bc 6ebb
000001b0: fd3b c93a b1ba bcbc 4052 a43b 92c9 dcbc
000001c0: e143 e6b9 fd57 66bc 40d2 b4bc 6892 93bc
000001d0: 24b8 d6bc 8828 46bc e68a 7abc e458 933c
000001e0: c729 38bc 7090 a9bc 3443 533c 8518 ffbb
000001f0: 6956 81bc e2e6 f5bb 2e36 d73c 2c51 c8bb
00000200: 4249 e43b 8551 1abc 4fd5 e43b 30ae cf3b
00000210: 0fe7 cfbc 3d30 81bc f36e 54bc cbbd d1bc
00000220: 078f c0bb 1dc2 86bb 818f adbc 01ea e13b
00000230: 74d3 8aba daa5 c5bb 45d9 2d3c 6f8b 85bc
00000240: c1e3 2bba 4056 313c f8b8 81bc 53f4 513d
00000250: 21e4 7839 5422 6fba b4a0 64bc b595 9b3b
00000260: 6df2 693a 9e13 563c c8bf d53b 729f 673a
00000270: ac19 ee3b 5fc9 98bc 0ffe 213c 11d4 fdbb
00000280: ebc4 e2bb 20d4 cd3c d90e c8b9 ebc3 abbc
00000290: ea89 13bb 66e8 98bb 8e3e 19bc d12a 013c
000002a0: 2dee 993b 5590 98bc 3019 34bc 06fe 333d
000002b0: a4c2 bebc 0a7c a33b b107 4c3c 5631 71bc
000002c0: 3cd7 253c a8b8 d7bb d855 ec3d e3df 173b
000002d0: 2dff 10bd e7b1 d7bc 73ae a7bc 9490 c2bc
000002e0: 86fd 083a 875e 01bb 64fc f9bc e393 81bc
000002f0: adcf 4dbc e78a 02bc 1bc9 9bbb dc47 f4ba
00000300: db01 c8bc e914 58bc 78e6 46bc 457d adbc
00000310: 5231 103a 3a81 30bc 55cc ef3b bcb5 873a
00000320: 75b9 01bd 8e74 2fbc 7c79 9b3c bb9d 46bc
00000330: bae6 90bc 0876 8dbc c36d 2dbc 1a36 c6bc
00000340: 005d 2cbc 2c91 09bd 9755 05bc 2c69 00bd
00000350: 5086 41bb 9b4c 48bc e886 2cba cded 01bc
00000360: d2c3 843b 9ab0 59bb 5535 753b 4144 c2bc
00000370: af38 c4bc d11c dabb 8d8d 113b 3dac 8b3c
00000380: 3ec9 e0bc ecf3 41bc 38fc 46bc 800f 3bbc
00000390: 34cb 82bc 9c65 6dbc dc40 85bc 8e50 68bb
000003a0: abf0 36bc b3f4 59bc 54c2 83bc d08d 02bd
000003b0: e8f5 5bbc 5da3 bdbc 0fbf bcbc 5817 5abc
000003c0: 3ced 98bc ce56 cbbc 5890 07bc 62b2 8e3b
000003d0: 4b9f b83c 0c64 a9bc bc3d cfbb 411a 223c
000003e0: a58b dfbc 67c6 83bb 813a 62bc 7094 6abc
000003f0: dc7f a0ba 8d5b 92bc 90cf afbc 03aa 4f3b

critic.value_heads.value_heads.extrinsic.weight f4 [1, 256]
0.019433644 -0.009767572 -0.0014340731 -0.07049856 -0.03775753 -0.17827937 0.047859963 -0.1188246
0.03656738 0.00573665 0.11101678 -0.06922441 0.01807225 0.10205748 0.025377085 -0.002514677
0.04247076 -0.03969196 0.10770311 0.10314276 0.0042105457 0.09014349 0.018497678 -0.031697415
0.0066056736 0.017099816 0.038161173 -0.06829429 0.014703402 -0.07072428 0.11724963 0.0002541751
-0.03780768 -0.00538408 -0.060859878 0.08504046 0.07365286 -0.018865718 -0.042237364 0.08745624
-0.056163352 0.06840234 0.0025168564 0.040484652 -3.7138892e-05 -0.020528581 0.0016173209 -0.0520791
0.0030198921 0.0781195 0.090494856 0.16101845 0.01697985 -0.055204082 -0.096401796 0.10107841
0.07712944 0.065503545 0.03743242 -0.1054392 0.08912223 0.03466638 -0.11699955 -0.021960903
-0.03256083 -0.022703392 0.052201457 -0.07488635 0.15840358 0.03674082 -0.0042008082 0.048674937
-0.113775015 0.0035779756 -0.045769513 -0.15527092 -0.01382894 0.014734118 -0.015376665 0.16608253
0.15694012 0.14121337 0.0008795742 -0.13016942 -0.033372715 -0.08027824 -0.08452938 -0.010598018
0.045570187 -0.070857815 0.09210218 0.053387962 0.019652443 0.13677672 -0.06836672 0.05819033
-0.003988695 -0.051713835 -0.025035847 -0.07540595 -0.02949453 -0.008295889 0.051500138 0.0014359833
-0.13761789 0.10290095 -0.15371768 -0.046802863 0.11473513 0.061036278 -0.16156802 0.034195844
-0.09640429 0.024911348 0.008182662 -0.11057295 0.004331395 0.1074818 -0.03411736 -0.16080678
-0.008361891 -0.005271706 0.011966494 -0.10525326 -0.111020274 0.0028118372 0.011955594 0.06420623
0.15162903 -0.13123982 0.13653554 0.1202514 0.0074116536 -0.09728129 -0.14444923 -0.023481637
-0.0012706158 0.10133032 -0.00069908344 0.010370915 0.14587736 -0.0034697116 0.049748667 -0.05137689
0.109545186 0.0020540622 0.02368195 -0.15785837 -0.08382617 0.09629589 -0.14790149 0.060978644
0.12461665 0.13235822 0.07533888 0.039763242 0.06790175 -0.0010519697 0.06487087 -0.12771256
0.11952581 0.11378522 0.16908877 -0.084434256 0.09001689 0.0001610814 0.09465328 -0.10595879
0.062677786 -0.030086363 0.021180183 -0.12600681 -0.106883176 0.17483445 0.0068406127 -0.12318064
-0.108950354 0.011632819 -0.115195364 0.12195321 -0.104249895 -0.03194434 -0.03255446 -0.05970759
0.002395508 0.0039132745 -0.03962016 -0.0008441261 -0.11584466 0.08628622 -0.014342084 -0.07869307
-0.015098295 0.06184007 -0.08440659 -0.017072648 0.0014707611 -0.13087875 0.12712534 0.13197447
-0.06835113 -0.11622438 0.21332301 0.06161704 -0.14977518 -0.067146905 0.14822009 -0.12830915
-0.1403226 -0.08666642 0.0794523 -0.06620003 -0.080247045 0.10964861 0.11164243 0.10537037
0.004866626 -0.0026470516 0.01937259 -0.0045460016 0.0014690111 0.048130903 0.15045975 0.0109806
-0.030988986 0.00016689213 -0.05666814 -0.10761052 -0.100191005 -0.09153017 0.0070718885 0.016993713
-0.00201923 -0.0150387585 -0.0760875 -0.008431607 0.12175716 -0.024167035 -0.031426832 -0.08878814
-0.08471937 0.09682737 0.0398286 0.11464301 -0.00042480286 -0.040773552 -0.072608866 0.0019309121
-0.07433771 -0.07749158 -0.07307162 -0.08256928 0.05789573 -0.08421368 -0.0010087336 0.04578118
00000000: 4e33 9f3c 2b08 20bc 82f7 bbba 8d61 90bd
00000010: a4a7 1abd de8e 36be cf08 443d 505a f3bd
00000020: adc7 153d 82fa bb3b c45c e33d 87c5 8dbd
00000030: 410c 943c 8303 d13d 9be3 cf3c 47cd 24bb
00000040: d2f5 2d3d 0994 22bd 7393 dc3d 833c d33d
00000050: 9ef8 893b 269d b83d 7188 973c 26d5 01bd
00000060: 6874 d83b ea14 8c3c e44e 1c3d e0dd 8bbd
00000070: 8ae6 703c e4d7 90bd 9320 f03d ce42 8539
00000080: 3adc 1abd f06c b0bb 3548 79bd b129 ae3d
00000090: 50d7 963d 478c 9abc 1601 2dbd 421c b33d
000000a0: 8b0b 66bd 8716 8c3d d8f1 243b 3cd3 253d
000000b0: 95c5 1bb8 8e2b a8bc 49fc d33a e550 55bd
000000c0: 62e9 453b 1efd 9f3d 5e55 b93d 05e2 243e
000000d0: 5419 8b3c ad1d 62bd 4e6e c5bd 3302 cf3d
000000e0: 0af6 9d3d b926 863d bd52 193d 82f0 d7bd
000000f0: b785 b63d 56fe 0d3d 769d efbd 5ae7 b3bc
00000100: 815e 05bd 77fc b9bc 32d1 553d 045e 99bd
00000110: 8c34 223e 8b7d 163d efa6 89bb 5f5f 473d
00000120: e002 e9bd 787c 6a3b d078 3bbd 57ff 1ebe
00000130: c792 62bc 5f67 713c 68ee 7bbc 8a11 2a3e
00000140: e9b4 203e 3d9a 103e 3a93 663a 224b 05be
00000150: d4b1 08bd eb68 a4bd bd1d adbd 4fa3 2dbc
00000160: cea7 3a3d e71d 91bd 11a0 bc3d 56ad 5a3d
00000170: 29fe a03c 320f 0c3e da03 8cbd fc58 6e3d
00000180: 99b3 82bb e3d1 53bd fa17 cdbc 6f6e 9abd
00000190: 839e f1bc 7beb 07bc cff1 523d 9b37 bc3a
000001a0: b4eb 0cbe bcbd d23d 2b68 1dbe 5cb4 3fbd
000001b0: 40fa ea3d 2d01 7a3d 1672 25be f110 0c3d
000001c0: 9d6f c5bd e212 cc3c 9210 063c 1274 e2bd
000001d0: 60ee 8d3b 6b1f dc3d a5be 0bbd 88aa 24be
000001e0: 5000 09bc 46be acbb 1d0f 443c 058f d7bd
000001f0: 995e e3bd cd46 383b 65e1 433c 8e7e 833d
00000200: a444 1b3e bb63 06be f9cf 0b3e 5e46 f63d
00000210: 75dd f23b 6a3b c7bd 80ea 13be 905c c0bc
00000220: cb8a a6ba 4586 cf3d b242 37ba c5ea 293c
00000230: e060 153e 1a64 63bb 42c5 4b3d 9370 52bd
00000240: 3a59 e03d 729d 063b a600 c23c a0a5 21be
00000250: 0ead abbd c836 c53d 7d73 17be bec4 793d
00000260: 0437 ff3d ea88 073e 454b 9a3d c8de 223d
00000270: 1310 8b3d 3fe2 89ba 05db 843d 15c7 02be
00000280: f3c9 f43d 3a08 e93d 9b25 2d3e deeb acbd
00000290: c65a b83d f6e7 2839 94d9 c13d ec00 d9bd
000002a0: 365d 803d ad77 f6bc 1082 ad3c ee07 01be
000002b0: 91e5 dabd cd07 333e 3827 e03b 2246 fcbd
000002c0: 5d21 dfbd 9497 3e3c 8ceb ebbd 9bc2 f93d
000002d0: f880 d5bd 11d8 02bd d357 05bd f28f 74bd
000002e0: f5fd 1c3b ed3a 803b c048 22bd 5848 5dba
000002f0: f73f edbd d4b6 b03d 0ffb 6abc d529 a1bd
00000300: d75e 77bc 034c 7d3d 5ddd acbd f0db 8bbc
00000310: 8ec6 c03a 1405 06be 252d 023e 5124 073e
00000320: adfb 8bbd 0c07 eebd 5971 5a3e 2662 7c3d
00000330: aa5e 19be 5184 89bd 02c7 173e 7963 03be
00000340: bab0 0fbe 2a7e b1bd e3b7 a23d e293 87bd
00000350: 9058 a4bd 738f e03d c9a4 e43d 6ccc d73d
00000360: 3878 9f3b 287a 2dbb 44b3 9e3c a0f6 94bb
00000370: d58b c03a e924 453d 1f12 1a3e f9e7 333c
00000380: 9ddc fdbc c4ff 2e39 da1c 68bd e862 dcbd
00000390: f130 cdbd 2b74 bbbd 4dbb e73b 6636 8b3c
000003a0: 0f55 04bb 2065 76bc c3d3 9bbd b924 0abc
000003b0: d15b f93d f2f9 c5bc 6cb9 00bd 8ed6 b5bd
000003c0: 5981 adbd 6e4d c63d 5023 233d f4c9 ea3d
000003d0: 13b8 deb9 2b02 27bd f5b3 94bd a916 fd3a
000003e0: 5f3e 98bd e8b3 9ebd 93a6 95bd 151a a9bd
000003f0: 1324 6d3d 3978 acbd 7c37 84ba 0c85 3b3d

exp_avg f4 [256, 82]
-0.00014577508 0.00019269843 8.127692e-05 -0.00041891352 0.0004658368 0.00016018051 -8.9796595e-05 0.00013671993
0.00012593156 -1.8940082e-05 6.58634e-05 8.887328e-05 -0.00014745725 0.00019438055 0.00017995937 7.94429e-06
3.8979022e-05 3.8062797e-05 -8.728038e-05 0.00013420373 0.00012964396 -8.139433e-06 5.5062756e-05 6.9671194e-05
-4.5172033e-05 9.2095346e-05 9.342164e-05 0.0001233267 -7.640343e-05 -6.215699e-05 -6.32043e-05 0.000110127614
0.000109283894 6.891801e-05 0.0 -5.7752834e-05 -6.537423e-05 0.0 7.765902e-05 -0.0006273068
0.00067423016 0.00046141396 -4.7970283e-05 9.4893614e-05 8.495247e-05 0.00045636174 -0.00040943836 -4.5611694e-05
2.8037062e-05 1.8886198e-05 2.7718006e-05 -0.00013881159 0.0001857349 0.00011453466 -9.72796e-06 5.665124e-05
5.7815396e-05 0.00013863228 -9.1709e-05 -3.9009028e-05 7.586281e-06 3.9337032e-05 6.0478007e-05 -9.198109e-05
0.00013890438 0.00012691438 -9.593894e-05 0.00014286228 0.00013363718 -6.0032933e-05 0.000106956264 0.000105419625
-8.0451464e-05 0.0 1.30917115e-05 -5.2786665e-05 0.0 7.615684e-05 0.0016552957 0.0
6e-45 0.0003833289 -0.00023162075 0.00049361365 0.0002516341 -0.0008361578 0.0010981507 0.0004874618
-0.00029753207 0.000559525 0.00044658483 4.942639e-05 0.00021256636 0.00026567173 -0.00018279621 0.000444789
0.00044575828 0.0001626255 9.93673e-05 0.000111331174 -0.00015954547 0.00042153825 0.00041456486 0.00011955383
0.00014243896 0.00018175268 -9.8329656e-05 0.0003603224 0.00035981272 0.000214405 4.75879e-05 6.875521e-05
-0.00011952563 0.00038151842 0.0003799296 0.00016722549 0.0 -2.6527292e-05 -0.000121832905 0.0
0.00022333981 -0.0011636708 0.0014256638 0.0010509131 -0.00015352906 0.00041552185 0.00042665418 0.0008577785
-0.0005957857 -2.8463855e-05 -2.8466988e-05 0.0002904598 0.0003067708 -9.7417535e-05 0.00035941045 0.00029006056
-8.902165e-05 0.00035101443 0.00035298322 0.0004084523 -0.00014645937 -1.3916551e-05 -0.00014549792 0.0004074908
0.00044592307 -8.20854e-05 0.0003440782 0.00032769152 -0.0003688214 0.00063081423 0.00060602976 -6.6105e-05
0.00032809775 0.00032767406 -0.0003344945 0.0 0.00017642068 -5.3792086e-05 0.0 0.00021793733
0.003152456 0.0 6e-45 0.0008721625 0.00021783682 -9.134114e-05 4.0767318e-05 0.00048016006
-0.0003536643 -7.381188e-05 8.269492e-05 4.3800774e-05 7.675421e-05 -6.5207794e-05 0.00019170348 0.00018663015
4.383238e-05 8.266331e-05 0.00010142723 -0.00010840475 0.0002349004 0.00021939729 1.5177449e-05 0.000111318244
0.000111314104 -6.9553185e-05 0.00019604886 0.00018176061 2.5284931e-05 0.00010121076 0.000105280844 -7.1257746e-05
0.00019775344 0.00019487536 3.3294153e-05 9.3201554e-05 9.545502e-05 -1.6091328e-05 0.0 8.7760716e-05
3.5959456e-05 0.0 4.704417e-05 0.00029602903 -0.00016953332 -8.19861e-05 -6.3944564e-05 0.00019044025
0.00015627487 -0.00019080538 0.00031730105 0.0002238115 -4.286996e-05 0.00016936561 0.00016220522 4.4093424e-05
8.240226e-05 0.00013432844 -1.8168392e-05 0.00014466407 0.00014075665 -9.442515e-05 0.00022092082 0.0001942498
5.7593847e-05 6.890185e-05 6.943354e-05 1.1692334e-05 0.00011480336 0.000118169824 8.66281e-05 3.986758e-05
4.547778e-05 3.8645017e-06 0.00012263119 0.000119269156 8.408673e-05 0.0 2.2309878e-05 2.6384463e-05
0.0 6.963641e-05 0.00010330461 0.0 -6e-45 -0.00027348704 -8.948562e-05 -1.0969972e-05
-8.599001e-05 3.3600287e-07 -0.00010079158 -0.00012545478 1.3740253e-05 -0.000114195864 -0.00010025017 -5.8550908e-05
00000000: 33db 18b9 170f 4a39 3773 aa38 9fa1 dbb9
00000010: 8f3b f439 21f6 2739 2e51 bcb8 7a5c 0f39
00000020: 7f0c 0439 84e1 9eb7 2520 8a38 7b61 ba38
00000030: c19e 1ab9 a2d2 4b39 7ab3 3c39 7748 0537
00000040: 687d 2338 9ea5 1f38 4c0a b7b8 0ab9 0c39
00000050: 09f1 0739 998e 08b7 2ff3 6638 701c 9238
00000060: 1a77 3db8 5023 c138 5ceb c338 4251 0139
00000070: c73a a0b8 485a 82b8 8d8c 84b8 50f4 e638
00000080: 582f e538 1388 9038 0000 0000 a23b 72b8
00000090: 8619 89b8 0000 0000 dedc a238 d971 24ba
000000a0: d2be 303a efe9 f139 b333 49b8 9f01 c738
000000b0: 8328 b238 d643 ef39 e3a9 d6b9 2f4f 3fb8
000000c0: 2231 eb37 cd6d 9e37 f783 e837 f48d 11b9
000000d0: d5c1 4239 5432 f038 4535 23b7 ce9c 6d38
000000e0: cf7e 7238 d25d 1139 e553 c0b8 a09d 23b8
000000f0: a88d fe36 d1fd 2438 c4a9 7d38 f9e5 c0b8
00000100: dca6 1139 5214 0539 d432 c9b8 4dcd 1539
00000110: f520 0c39 dfcb 7bb8 b54d e038 bb14 dd38
00000120: 0db8 a8b8 0000 0000 79a4 5b37 4067 5db8
00000130: 0000 0000 64b6 9f38 82f6 d83a 0000 0000
00000140: 0400 0000 89f9 c839 39df 72b9 da65 013a
00000150: c2ed 8339 9a31 5bba d3ef 8f3a 0492 ff39
00000160: 14fe 9bb9 16ad 123a 9a23 ea39 2f4f 4f38
00000170: 59e4 5e39 db49 8b39 fcac 3fb9 9232 e939
00000180: aab4 e939 7386 2a39 6a63 d038 787a e938
00000190: a94b 27b9 e801 dd39 f459 d939 f9b8 fa38
000001a0: ab5b 1539 dd94 3e39 5536 ceb8 a7e9 bc39
000001b0: 3fa5 bc39 e7d1 6039 1e99 4738 ac30 9038
000001c0: d6a9 fab8 8906 c839 4a31 c739 4059 2f39
000001d0: 0000 0000 ed86 deb7 8b80 ffb8 0000 0000
000001e0: 5330 6a39 5086 98ba 57dd ba3a cbbe 893a
000001f0: a5fc 20b9 66da d939 8eb0 df39 8adc 603a
00000200: 802e 1cba aac5 eeb7 64cc eeb7 db48 9839
00000210: 14d6 a039 a44c ccb8 416f bc39 4513 9839
00000220: 22b1 bab8 5c08 b839 9b10 b939 8a25 d639
00000230: e392 19b9 227b 69b7 cd90 18b9 7da4 d539
00000240: c8ca e939 4325 acb8 6565 b439 03ce ab39
00000250: 5f5e c1b9 3a5d 253a f8dd 1e3a daa1 8ab8
00000260: 8904 ac39 abcb ab39 185f afb9 0000 0000
00000270: 91fd 3839 d09e 61b8 0000 0000 1b86 6439
00000280: 6f99 4e3b 0000 0000 0400 0000 d6a1 643a
00000290: 206b 6439 678e bfb8 93fd 2a38 febd fb39
000002a0: 056c b9b9 74cb 9ab8 7f6c ad38 b9b6 3738
000002b0: 1af7 a038 2bc0 88b8 0304 4939 26b2 4339
000002c0: a9d8 3738 875b ad38 54b5 d438 5b57 e3b8
000002d0: 994f 7639 030e 6639 a6a2 7e37 8773 e938
000002e0: 4e71 e938 15dd 91b8 7792 4d39 fe96 3e39
000002f0: fa1a d437 1d41 d438 39ca dc38 3670 95b8
00000300: 095c 4f39 7557 4c39 53a5 0b38 3475 c338
00000310: 062f c838 ddfb 86b7 0000 0000 2d0c b838
00000320: 2cd3 1638 0000 0000 4b51 4538 5834 9b39
00000330: c1c4 31b9 f4ef abb8 fa19 86b8 eab0 4739
00000340: b7dd 2339 ee12 48b9 6d5b a639 f1ae 6a39
00000350: 45cf 33b8 bc97 3139 a215 2a39 f4f0 3838
00000360: 60cf ac38 84da 0c39 5368 98b7 f7b0 1739
00000370: 1398 1339 1e06 c6b8 fba6 6739 89af 4b39
00000380: ec90 7138 667f 9038 d99c 9138 312a 4437
00000390: 96c2 f038 f1d1 f738 1bac b538 7d37 2738
000003a0: 65bf 3e38 d1ab 8136 8f96 0039 2420 fa38
000003b0: b857 b038 0000 0000 1926 bb37 3454 dd37
000003c0: 0000 0000 c309 9238 3da5 d838 0000 0000
000003d0: 0400 0080 cf62 8fb9 3aaa bbb8 ac0b 38b7
000003e0: 8955 b4b8 e263 b434 1160 d3b8 838c 03b9
000003f0: f085 6637 707c efb8 663d d2b8 8f94 75b8
