Config/results/BallCatcher_00/BoxBehavior/BoxBehavior-22400.pt (torch, 532751 bytes, 21 tensors)

network_body.linear_encoder.seq_layers.0.weight f4 [256, 82]
0	0xbdab9518	-0.08378047
1	0x3b988c0e	0.0046553677
2	0x3db5eb15	0.08882729
3	0xbe89ec25	-0.26937976
4	0x3d74cf2d	0.05976789
5	0xbe2b7901	-0.16745378
6	0x3e0b1bdc	0.13584846
7	0x3e37a765	0.1793495
8	0x3b9581b2	0.00456258
9	0x3dfa3ad8	0.12218255
10	0xbcf9ce3a	-0.030493844
11	0xbc94f3b6	-0.018182617
12	0x3e25053d	0.1611528
13	0x3c8ed901	0.01743746
14	0xbe23701f	-0.1596074
15	0xbd229ded	-0.03970139
16	0x3e26ce1b	0.1628956
17	0x3da3deab	0.08001455
18	0xbe33ffa4	-0.17577988
19	0x3d9ff051	0.078095086
20	0x3dc0d09a	0.094147876
21	0x3daf6ca5	0.08565644
22	0xbd2b26d2	-0.04178507
23	0xbe2428b2	-0.16031149
24	0xbd8e6ded	-0.069545604
25	0x3dc2b13a	0.095064595
26	0x3c4973a5	0.012295638
27	0x3e44bd85	0.19212921
28	0x3d7755c1	0.060384516
29	0xbc5679ae	-0.013090534
30	0x3e2b7fef	0.16748022
31	0x3d62c74d	0.05536585
32	0x3dccbdea	0.09997161
33	0xbe322f71	-0.1740091
34	0x3d3ac853	0.0456012
35	0xbe2a0b6b	-0.16605918
36	0x3cc7c786	0.024387132
37	0x3d98f60c	0.07468805
38	0x3e08b9e0	0.13352156
39	0xbcad9ab5	-0.021191934
40	0xbd77549a	-0.060383417
41	0x3b1980a2	0.0023422618
42	0xbe20de9c	-0.15709919
43	0xbd7d47ac	-0.06183593
44	0xbde28914	-0.11061302
45	0x3c41a900	0.011820078
46	0xbd953d8f	-0.07287132
47	0x3d8566cd	0.06513748
48	0xbdf3d792	-0.11906351
49	0x3d015ec3	0.031584512
50	0xb9b010ef	-0.00033581952
51	0xbbb1eabc	-0.005429594
52	0x3e13fe7d	0.14452548
53	0xbcd09577	-0.025461895
54	0x3e6de568	0.23232043
55	0xbd8c0594	-0.068370014
56	0x3e4189c2	0.18900207
57	0x3e512bd8	0.20426881
58	0xba90ae63	-0.0011038299
59	0xbe6f024a	-0.23340717
60	0xbe2d7b26	-0.16941509
61	0x3e669c7c	0.22520632
62	0xbc82f0c1	-0.015983941
63	0x3b34cf40	0.002758935
64	0x3e9015f7	0.28141758
65	0xbda34bfc	-0.07973477
66	0x3e038813	0.12844877
67	0x3d17e992	0.037087984
68	0x3dc7166b	0.09721073
69	0xbe2f7454	-0.1713422
70	0x3d9abd95	0.07555691
71	0x3ca48922	0.020084921
72	0xbda93008	-0.08261114
73	0xbe7ead10	-0.24870706
74	0x3d187ff7	0.03723141
75	0x3e1fbf0a	0.1560022
76	0xbd0dd9a0	-0.03463137
77	0xbd536ae8	-0.051615626
78	0x3d6ac49e	0.057316415
79	0x3d9f4fc9	0.0777889
80	0x3e269d08	0.1627084
81	0x3d08def7	0.03341576
82	0x3dc4e8a4	0.09614685
83	0xbd6d7229	-0.0579702
84	0xbd1f6312	-0.03891284
85	0x3e1dd1f5	0.15412124
86	0x3b2a8af3	0.0026022762
87	0x3de08778	0.109633386
88	0xbd9d3520	-0.076761484
89	0xbc1e6b54	-0.009669144
90	0xbded824e	-0.11597119
91	0xbd7ce2b7	-0.06173965
92	0x3caf1dd0	0.02137652
93	0xbd7bc51d	-0.06146728
94	0x3e0074ff	0.1254463
95	0xbdc30fe1	-0.09524513
96	0x3da7c3c3	0.081916355
97	0xbe1accbd	-0.15117164
98	0x3e341928	0.17587721
99	0x3da4acd3	0.08040776
100	0x3d8e8b30	0.06960142
101	0x3db8418f	0.08996879
102	0x3db91867	0.090378575
103	0x3d8d808b	0.06909283
104	0x3d7df75c	0.06200348
105	0xbcdf002e	-0.027221765
106	0xbc9b80da	-0.01898234
107	0xbe114b75	-0.14188941
108	0xbe0d4f3e	-0.1379976
109	0xbd1bf21f	-0.0380727
110	0xbdfa63d9	-0.12226076
111	0x3db93de7	0.0904501
112	0x3dd3952c	0.10331187
113	0x3db0bb5a	0.086294845
114	0xba6f024c	-0.0009117469
115	0x3d6cacd5	0.057782013
116	0xbe0486ea	-0.1294209
117	0xbe3d69ed	-0.18497439
118	0x3d97bdd7	0.07409256
119	0xbd267f76	-0.0406489
120	0xbe33df6e	-0.175657
121	0x3e6388c0	0.22220135
122	0xbd3d4829	-0.046211395
123	0x3e3cd8bb	0.18442051
124	0xb9fe6e4c	-0.00048528833
125	0x3d64054a	0.055669107
126	0xbe7bc304	-0.24586111
127	0x3d1c302f	0.03813189
128	0xbd9a0899	-0.07521171
129	0xbc07b0f9	-0.00828194
130	0x3e072fc5	0.13201816
131	0x3d3edcab	0.046597164
132	0x3c6a6798	0.014306925
133	0x3dc68ce0	0.096948385
134	0x3da08505	0.078378715
135	0xbdae8551	-0.08521522
136	0xbdb3b107	-0.08774
137	0xbdc9d9f8	-0.09856027
138	0xbdb2b86b	-0.08726581
139	0x3d9f48d4	0.07777563
140	0x3d265bac	0.04061477
141	0xbe1d69a2	-0.15372327
142	0xbd8c26e5	-0.06843356
143	0xbe232671	-0.15932633
144	0x3d2f436a	0.0427889
145	0x3ce42b56	0.027852695
146	0x3cb4c68f	0.022067336
147	0xbdaf2cf9	-0.085535
148	0x3ca5db8c	0.02024629
149	0xbcb0ef96	-0.021598618
150	0x3c19f069	0.009395697
151	0xbdcf14c7	-0.10111385
152	0x3d388094	0.045044497
153	0x3d4255fc	0.047445282
154	0xbd2fb86c	-0.042900488
155	0xbe8acf95	-0.27111498
156	0xbe6bf5f8	-0.23043048
157	0x3e923659	0.2855709
158	0xbdaab494	-0.08335224
159	0xbe12afcf	-0.14324878
160	0xbdcdf4d1	-0.10056461
161	0x3d7e2fad	0.062057186
162	0xbd9a86dd	-0.075452544
163	0xbd880b44	-0.06642774
164	0x3d53c5b8	0.05170223
165	0xbd6da638	-0.058019847
166	0x3d960209	0.07324607
167	0xbb56d9cf	-0.0032783633
168	0x3d02b9b0	0.031915367
169	0x3e70177b	0.23446457
170	0x3c3f4f00	0.01167655
171	0xbd2143b9	-0.039371226
172	0x3d8d7495	0.06907002
173	0xbe2aee6e	-0.16692516
174	0xbdc236bd	-0.09483097
175	0xbe30824e	-0.17237207
176	0x3d4961b8	0.049165457
177	0x3c089623	0.008336577
178	0xbe72eb4e	-0.23722574
179	0xbd3c2987	-0.04593804
180	0x3e051c7f	0.12999152
181	0x3dcb4c1f	0.09926628
182	0x3ce415dc	0.027842455
183	0x3cb0ef46	0.02159847
184	0xbda73d78	-0.08166021
185	0xbb95bc9e	-0.004569604
186	0x3dad18a9	0.08451969
187	0xbbecdaef	-0.0072282474
188	0xbe774bfd	-0.24150081
189	0x3e31d912	0.17367962
190	0xbe12cd3c	-0.14336103
191	0xbcd80ed6	-0.026374262
192	0x3c85a2fd	0.01631307
193	0xbe3d95ba	-0.18514147
194	0x3d9ff4ea	0.078103855
195	0xbe5e7515	-0.21724351
196	0xbd06fba2	-0.03295482
197	0x3d23b3a2	0.039966233
198	0x3de32244	0.1109052
199	0x3e840473	0.25784644
200	0x3cb2ee0d	0.021842027
201	0x3e3a7988	0.18210423
202	0xbd2ba64e	-0.041906647
203	0x3d9827ba	0.07429452
204	0x3d3a3592	0.045461245
205	0xbb1f76c6	-0.002433227
206	0x3d9e95d2	0.0774342
207	0xbdd0cd92	-0.101954594
208	0xbe1803d4	-0.1484521
209	0xbb9c5f90	-0.004772134
210	0x3c7e3231	0.015514896
211	0x3e8041c8	0.25050187
212	0xbc45e8df	-0.012079447
213	0x3e0e8540	0.13918018
214	0xbe5a9445	-0.21345623
215	0xbc7d284c	-0.015451502
216	0xbda1f0c8	-0.079072535
217	0xbd7ac775	-0.061225373
218	0xbd981033	-0.07424965
219	0x3d2329ca	0.039834775
220	0x3e24aaa8	0.16080725
221	0xbd709661	-0.058737163
222	0x3b4941a4	0.003070929
223	0xbd774154	-0.060365036
224	0xbccff021	-0.025383057
225	0xbcd8943b	-0.02643787
226	0xbe510961	-0.20413734
227	0x3c8bfcdb	0.017088344
228	0xbe014560	-0.1262412
229	0xbd5e69d8	-0.05430016
230	0xbe5c648f	-0.21522735
231	0x3c9f26b0	0.019427627
232	0xbe058d4d	-0.13042183
233	0xbdd34462	-0.10315777
234	0x3da94ada	0.0826623
235	0x3d8d885a	0.069107726
236	0x3d281c24	0.041042462
237	0x3bcca70f	0.006245501
238	0x3d7065b9	0.05869076
239	0xbc65e87e	-0.014032481
240	0x3db9912a	0.09060891
241	0xbda27a68	-0.079335034
242	0x3e02823a	0.1274499
243	0xbdc82521	-0.09772707
244	0x3c59a986	0.013285046
245	0x3d924661	0.0714233
246	0x3d90fdd2	0.070796624
247	0x3b8e7376	0.00434726
248	0xbe349491	-0.17634799
249	0xbd460cb0	-0.048351943
250	0xbc3cc0a0	-0.011520535
251	0xbdbe8783	-0.093031906
252	0x3b90e1b5	0.0044214376
253	0xbd271410	-0.040790617
254	0xbe54aca5	-0.20768984
255	0xbe2351b0	-0.1594913

network_body.linear_encoder.seq_layers.0.bias f4 [256]
0	0xbc3bc4ff	-0.011460542
1	0xbaede427	-0.001814966
2	0xbc0bfb70	-0.008543834
3	0xbcc617cd	-0.024181271
4	0xbc886797	-0.016650958
5	0x3b9427a0	0.004521325
6	0xbaef5527	-0.001825963
7	0xbb47e23d	-0.0030499839
8	0xbaada550	-0.001324812
9	0x3c696871	0.014246092
10	0xbc6a6554	-0.014306385
11	0xbbf9849e	-0.007614686
12	0xbc110cc3	-0.00885314
13	0xbc41b161	-0.011822076
14	0xbbbe8f63	-0.005815433
15	0x3c1445bd	0.00904983
16	0xbc4db95f	-0.012556403
17	0x3ac88abb	0.0015300134
18	0xba88fdc0	-0.00104516
19	0xbc143f2a	-0.009048263
20	0x3d16fc15	0.036861498
21	0x3c427902	0.011869671
22	0x3cb008be	0.021488544
23	0xbc809ca4	-0.015699692
24	0x3c5e3876	0.013563266
25	0x3c66521d	0.014057663
26	0xbb54e536	-0.0032485253
27	0xbc417abb	-0.011809046
28	0x3cd12898	0.025532052
29	0xbb86842d	-0.004105112
30	0x3bde5063	0.006784485
31	0x3c09be6a	0.008407215
32	0xbb156684	-0.00227967
33	0x3b67632b	0.0035306911
34	0xbbab67ad	-0.005230865
35	0x3aaa9728	0.0013015019
36	0xbc37cabb	-0.011217768
37	0xbc6f5697	-0.014608047
38	0xbc3ea9f9	-0.011637204
39	0x3b1589fa	0.0022817836
40	0xbc9a7eca	-0.018859286
41	0xbad9e38b	-0.0016623599
42	0xbc0f008e	-0.00872816
43	0xbc3eea0c	-0.011652481
44	0x3b9b6fbe	0.0047435453
45	0xbc4f87d0	-0.012666658
46	0xba7237b7	-0.00092398695
47	0xbbc91bb6	-0.0061373366
48	0xbba38c73	-0.004991108
49	0xbc3b1cc8	-0.011420436
50	0xbb268c58	-0.0025413241
51	0x3c1a1c5b	0.0094061745
52	0xbcafe685	-0.021472225
53	0xbb2bea9b	-0.0026232365
54	0x3bbf4821	0.005837456
55	0x3c1530d8	0.009105884
56	0xbc4d2cfb	-0.012522931
57	0xbcaff72d	-0.021480167
58	0x3c944c57	0.018102808
59	0xbad7f904	-0.0016477411
60	0xbbb4342d	-0.005499384
61	0x3cc5480c	0.024082206
62	0xbc04441e	-0.008072881
63	0xbc922ea9	-0.017844515
64	0xbc7d7e72	-0.015472041
65	0x3b93845e	0.0045018634
66	0x3c394774	0.01130854
67	0xbbffd45d	-0.007807298
68	0x3b9a7dca	0.0047147023
69	0x3a4e2026	0.0007863067
70	0x3c0564a9	0.008141675
71	0xbc151c78	-0.009101026
72	0xbb7753ee	-0.0037739235
73	0xbc8c21e6	-0.017106008
74	0x3b81e8c3	0.003964515
75	0xbcf5e39b	-0.030015757
76	0x3bd8abb3	0.006612265
77	0x3c5f5d88	0.013633139
78	0x3a4455ff	0.0007489621
79	0xbc941ae9	-0.018079238
80	0x3c7808db	0.01513883
81	0xbca35550	-0.019938141
82	0x3aa6eaf8	0.0012734821
83	0xbc9174c5	-0.017755875
84	0xbc6300c1	-0.01385516
85	0xbca1ca2f	-0.019749729
86	0x3c3193ac	0.01083843
87	0xbc1ff265	-0.009762381
88	0x3c4a3de2	0.012343856
89	0x3c5e219c	0.013557818
90	0x3ab80322	0.001403902
91	0x39968535	0.00028709476
92	0xbcbb33df	-0.022851883
93	0x3c5b8e2f	0.013400598
94	0xbc1be61e	-0.009515313
95	0xbc0e0fba	-0.008670742
96	0x3bb380bd	0.0054779933
97	0x3c00655a	0.007836664
98	0xbbc1f367	-0.0059189084
99	0xbbc33c24	-0.005958097
100	0xbc697d6d	-0.014251095
101	0x3bc8d190	0.0061284974
102	0xbab10d2e	-0.0013507956
103	0xbb97db54	-0.0046343002
104	0x3b599d84	0.003320546
105	0xbbb189bc	-0.0054180305
106	0xba9daaf7	-0.0012029101
107	0x3b0270d0	0.0019903667
108	0xbc31956d	-0.010838849
109	0xbbdb510b	-0.0066930107
110	0x3b8ed43e	0.0043587973
111	0x3bce3779	0.006293234
112	0xbc8b8864	-0.01703281
113	0xbbfd4003	-0.007728578
114	0xbbf4b3c6	-0.0074677197
115	0xbce7f9a6	-0.028317284
116	0x3bc7ac2f	0.006093524
117	0xbb9f380b	-0.0048589758
118	0x3c01b985	0.007917766
119	0x3b46dc43	0.0030343689
120	0xbc277855	-0.0102215605
121	0x3cc1fb41	0.023679378
122	0x3ae6ed92	0.0017618409
123	0x3c6da7f2	0.014505373
124	0xbb96e5bd	-0.0046050237
125	0xbcb74b94	-0.022374906
126	0x3c55fe35	0.013061096
127	0x3a956fb0	0.0011401083
128	0x3c132752	0.008981543
129	0xbc97a9af	-0.018513529
130	0xbc8154a1	-0.015787425
131	0xb9ed0618	-0.00045208703
132	0xbb2fb2db	-0.0026809487
133	0x3bd9ef0c	0.006650811
134	0xbbc5d85b	-0.0060377545
135	0xbc87ae4f	-0.016562609
136	0xbbb14142	-0.0054093907
137	0xbb8d3831	-0.004309677
138	0x3cb8921c	0.022530608
139	0xbb22c540	-0.0024836808
140	0xbc81711a	-0.015801001
141	0x3cbfc2fe	0.02340841
142	0xbc47a3a4	-0.012185011
143	0xbc7f818f	-0.015594854
144	0xbc00ab04	-0.007853273
145	0x3bfe234f	0.007755674
146	0x3a6d416d	0.0009050582
147	0x3b89b52c	0.0042025056
148	0xbc84960f	-0.016184835
149	0x3be5aec6	0.00700936
150	0x3d42a59e	0.047521226
151	0xbbf54afc	-0.0074857455
152	0x3bd4e650	0.006497182
153	0x3d1c4e0d	0.038160373
154	0xbc3eb067	-0.011638737
155	0x3ba383b9	0.004990068
156	0x3c3d2d49	0.011546441
157	0xbc1de468	-0.009636976
158	0xbbb93e6f	-0.0056531946
159	0xbc70ffd4	-0.014709432
160	0xbc78ba36	-0.015181115
161	0xbbaeffd5	-0.005340556
162	0x3c081504	0.008305792
163	0xbbcf7d98	-0.0063321106
164	0xbb7a507d	-0.0038194947
165	0xbc24189c	-0.010015633
166	0x3bf09e1e	0.007343068
167	0x3c01917f	0.007908224
168	0xbbad364a	-0.005286013
169	0xbbaff014	-0.0053691957
170	0xbc9a887c	-0.018863909
171	0xbc1894c0	-0.0093128085
172	0x3b9d6491	0.004803248
173	0x3c244806	0.010026937
174	0x3cf954d9	0.030435966
175	0x3c101cdf	0.008795946
176	0xbc82388b	-0.015896102
177	0x39bbef85	0.00035845875
178	0xbb40d893	-0.0029425963
179	0xbc5c098f	-0.013430013
180	0x3cb2d098	0.02182798
181	0x3d142bc8	0.036174566
182	0x3b74b2a7	0.003733793
183	0xbc8febed	-0.017568553
184	0x3cc2ab0b	0.0237632
185	0x3a28463e	0.00064191583
186	0xbb890236	-0.004181172
187	0xba6d9010	-0.00090622995
188	0xbafdd8ac	-0.0019366941
189	0xbc54d0dc	-0.012989249
190	0xbb831627	-0.0040004435
191	0xbbedf8c7	-0.0072623226
192	0xba38b46e	-0.0007045929
193	0xbc3c63aa	-0.011498371
194	0x3be832e6	0.0070861457
195	0x3c9dc141	0.01925719
196	0x3c7458bf	0.014913737
197	0x3c4f6f57	0.012660823
198	0xbc9734f1	-0.018457862
199	0x3ba23304	0.004949929
200	0xbc50014e	-0.012695624
201	0xba136c7f	-0.0005623772
202	0xbcaa0859	-0.020755934
203	0x3cff6f7e	0.031181093
204	0x3bd3b846	0.006461176
205	0x3c7b21e7	0.015327907
206	0x3c727fb8	0.014800958
207	0xbcb217bd	-0.021739835
208	0xbbef7b22	-0.0073083797
209	0x3b764b9e	0.0037581692
210	0xbc744182	-0.014908196
211	0x3c06c6bd	0.008226094
212	0xbb459a9a	-0.0030151964
213	0x3c040fc0	0.008060396
214	0xbb3847f2	-0.0028119055
215	0xbc1c7e2f	-0.009551569
216	0xbcd8694b	-0.026417395
217	0xbc54415e	-0.012955038
218	0xbb660714	-0.0035099434
219	0xbc375c5e	-0.011191456
220	0xbc5c7eb5	-0.013457944
221	0xbb80a466	-0.003925848
222	0xbbabfdd0	-0.0052487627
223	0x3bd9a5d2	0.006642082
224	0xbbe362fb	-0.0069392896
225	0x3c169863	0.009191605
226	0x3badf099	0.0053082225
227	0x3c7ca0fe	0.015419243
228	0x3c9434b0	0.01809153
229	0x3c8dbb14	0.01730112
230	0xbb0a3de2	-0.0021094014
231	0xbcfc1b9f	-0.03077489
232	0x3c408e06	0.011752611
233	0xbbefc25d	-0.007316871
234	0xbb8185dc	-0.003952725
235	0xbc0b489a	-0.008501196
236	0x3bb1aab4	0.0054219607
237	0xbb664dbf	-0.0035141555
238	0x3cecfe1d	0.028929764
239	0x3cd95b3d	0.026532764
240	0x3cafdc70	0.021467417
241	0x3c267125	0.010158812
242	0xbc5da9ae	-0.013529224
243	0xbc9adc64	-0.018903919
244	0xbc4185ef	-0.011811717
245	0xbc5dda20	-0.013540775
246	0xbbff72f2	-0.007795685
247	0x3c3eab99	0.011637592
248	0xbc3f415e	-0.0116733
249	0xbca78cde	-0.020452913
250	0x3cd0710c	0.02544453
251	0xbb8484cb	-0.0040441505
252	0xbbb727a9	-0.0055894447
253	0xbc918ff3	-0.017768836
254	0xbb940267	-0.004516888
255	0x3cb36ce8	0.021902516

distribution.branches.0.weight f4 [3, 256]
0	0xba7f6ad3	-0.0009743396
1	0x3c831065	0.015999028
2	0x3bd3611e	0.0064507863
3	0x3bb1714e	0.0054151183
4	0xbb8636aa	-0.004095872
5	0xbc4afc1f	-0.012389212
6	0xbbc96eeb	-0.0061472557
7	0xbc88fd2d	-0.016722286
8	0x3c7ff20b	0.015621672
9	0xbc6df1ef	-0.0145230135
10	0x3abc395e	0.0014360358
11	0x3c90f353	0.017694151
12	0x3d0b431b	0.033999544
13	0x3b9a3fac	0.0047072973
14	0x3bd2bef6	0.0064314557
15	0x3ca9673c	0.020679109
16	0x3b02aa1f	0.0019937826
17	0xbb7e5ce0	-0.0038812682
18	0xbc1fb77f	-0.009748339
19	0xbbe2825c	-0.0069125127
20	0x3c120878	0.008913152
21	0x3bd751ac	0.0065710153
22	0xba8b5858	-0.0010631187
23	0xbb8898d6	-0.00416861
24	0xbc044401	-0.008072854
25	0x3cc706f0	0.0242953
26	0xbb6c3e42	-0.003604785
27	0x3bca894a	0.006180917
28	0x3c7600d3	0.015014845
29	0x3c8b9767	0.017039968
30	0x3c36165b	0.011113728
31	0x3c8934a5	0.016748736
32	0x3cf0b29d	0.029382044
33	0xbc75e12c	-0.015007298
34	0x3a0262df	0.00049738394
35	0xbc08b48e	-0.008343829
36	0x3c34693b	0.011011417
37	0x3c9343f8	0.017976746
38	0x3c8cb75c	0.017177276
39	0x3cae6611	0.021288903
40	0xbb7561fc	-0.0037442436
41	0x3bef1521	0.00729622
42	0x3c197964	0.009367321
43	0xbc5c508b	-0.013446937
44	0x3a4b6170	0.0007758355
45	0x3c248039	0.010040336
46	0xbb1d0956	-0.0023961863
47	0x3c95bc13	0.018278157
48	0x3c458259	0.012055003
49	0xbb83bf73	-0.0040206253
50	0xbba068fd	-0.004895328
51	0xbc9c72d5	-0.019097725
52	0x3bcd30b2	0.0062619084
53	0x3c369492	0.01114382
54	0x3c76c487	0.015061504
55	0xbc4ec5d7	-0.012620411
56	0x3c3ade45	0.011405532
57	0x3a647250	0.00087145437
58	0x3c5aa3e2	0.013344737
59	0xbc957bb8	-0.01824747
60	0xbc01b6ec	-0.007917147
61	0xbc92fc62	-0.017942611
62	0x3cae023b	0.021241298
63	0x3cb9643d	0.022630805
64	0x3c22371a	0.009900833
65	0x3c31717a	0.010830278
66	0xbb5d5ef1	-0.0033778513
67	0x39cfeebd	0.0003965999
68	0x3bc81b44	0.006106766
69	0x3ca24e54	0.01981274
70	0x3cc51b0d	0.02406075
71	0xbbada08c	-0.0052986797
72	0xbb97a9f7	-0.0046284157
73	0x3bd81c3c	0.0065951627
74	0xbcc7295c	-0.024311714
75	0x3bb502d9	0.005524021
76	0xbb6f2e3e	-0.0036496068
77	0x3c58c360	0.013230175
78	0xbb8f1077	-0.0043659764
79	0xba4b8e00	-0.0007764995
80	0xbc7304ae	-0.014832659
81	0xbc1a8362	-0.009430738
82	0xbcb0a74a	-0.021564145
83	0x3bae80dd	0.0053254203
84	0xbad38326	-0.0016137108
85	0xba91f48c	-0.0011135503
86	0x3caf02b3	0.021363592
87	0xbc8d154c	-0.01722207
88	0xb666dcbd	-3.4401157e-06
89	0xbc6a67e1	-0.014306993
90	0x3bff82c8	0.0077975728
91	0x3b9a2ec1	0.0047052805
92	0xba0c1659	-0.0005343906
93	0xbcc5aa38	-0.024129018
94	0xbbb4b54d	-0.005514777
95	0xbb88c33a	-0.0041736634
96	0x3a3ae6ab	0.0007129709
97	0xbb116a4a	-0.0022188597
98	0x3b92b1fb	0.0044767833
99	0x3ba0c8cf	0.0049067507
100	0x3b12110a	0.0022287988
101	0xbc9380f8	-0.018005833
102	0x3b3b5acb	0.0028588052
103	0xbaac536c	-0.001314742
104	0xbc898ea2	-0.016791645
105	0xbc04b365	-0.008099412
106	0x39e36ba4	0.00043377012
107	0xbae0a06f	-0.0017137657
108	0x3cb51f80	0.022109747
109	0x3c5f1545	0.013615911
110	0xba98ae75	-0.0011648672
111	0x3c515449	0.012776443
112	0x3c09e84e	0.008417202
113	0x3c6b403e	0.014358578
114	0x3c870958	0.016483948
115	0xbaf6bbb4	-0.001882425
116	0x3cdd039a	0.026979256
117	0x3b1faaee	0.0024363357
118	0x3c84a2f3	0.016190981
119	0x3c09671b	0.008386399
120	0x3b9bef97	0.004758786
121	0x3c49b94c	0.012312245
122	0x3ba81d20	0.005130425
123	0x3b66a296	0.0035192124
124	0xbc3e3c1b	-0.01161101
125	0x3c134939	0.008989626
126	0x3c43ba5c	0.011946287
127	0x3c283b82	0.010268094
128	0x3cad87ae	0.021182861
129	0xbc7c2c47	-0.015391416
130	0x3b534b62	0.0032240977
131	0x3b22aedd	0.0024823465
132	0xbbfd1adf	-0.0077241505
133	0xbab5d34d	-0.0013872177
134	0x3b98da25	0.0046646767
135	0x3b594a87	0.0033155994
136	0x3b2b33e6	0.0026123463
137	0x3b2682d1	0.0025407562
138	0x3c60e735	0.013726999
139	0x3c14f5df	0.009091823
140	0x3c1f29d8	0.009714566
141	0xbc420247	-0.011841363
142	0x3c3fdca9	0.011710324
143	0x3c01cb7a	0.007922048
144	0x3aa96b88	0.0012925724
145	0x3b505951	0.0031791518
146	0x3b3b275b	0.0028557393
147	0x3be0f798	0.006865453
148	0xbbe838af	-0.0070868353
149	0x3a521498	0.0008013933
150	0x3b9bf925	0.004759925
151	0xba9e172b	-0.0012061348
152	0x3ad482e6	0.0016213327
153	0x3ccb2b8b	0.024801036
154	0x3c28169d	0.010259298
155	0xbae8a5a2	-0.0017749558
156	0x3c642923	0.013925823
157	0xbb5fac8f	-0.0034129953
158	0x3bbe26be	0.0058029583
159	0x3b4ee26a	0.0031568059
160	0x3bfd373d	0.007727532
161	0xbbe88fb6	-0.00709721
162	0x3c530805	0.01288033
163	0xbc4bbf6e	-0.012435777
164	0x3b3b3881	0.0028567614
165	0xbc0fac1b	-0.0087690605
166	0xbbd525c6	-0.006504747
167	0xbc6b5310	-0.014363065
168	0x3ac8f774	0.0015332536
169	0x3c1f6629	0.009728947
170	0x3ab25a6d	0.0013607271
171	0xbaed80ab	-0.0018120011
172	0x3b7356f1	0.0037130679
173	0x3c9b0681	0.018924
174	0x3d2dd003	0.042434704
175	0x3cabc859	0.020969557
176	0xbb3cb888	-0.0028796513
177	0x3ce9aa9e	0.02852374
178	0xbc69cd52	-0.014270144
179	0xbb20b4be	-0.0024521793
180	0x3d1f7d0a	0.038937606
181	0x3cc94bcf	0.024572281
182	0xbac076cd	-0.0014683843
183	0x3b149eea	0.0022677728
184	0x3cf8ca19	0.030369805
185	0x3a61a0ac	0.0008607011
186	0x3ca33ba9	0.01992591
187	0xbb1efb3b	-0.0024258632
188	0x3c8a4f4d	0.016883517
189	0xba7b98f9	-0.0009597685
190	0x3c4e7c9a	0.0126029495
191	0x3bafbdc4	0.005363198
192	0xbb6b8e49	-0.0035942963
193	0x3c49ad2b	0.012309353
194	0xbae88e3a	-0.0017742582
195	0x3c90f021	0.017692627
196	0xbba5b90c	-0.0050574597
197	0xbbd75c10	-0.006572254
198	0x3c31dcb0	0.010855839
199	0x3c8f17d2	0.017467413
200	0x3c1371bf	0.008999287
201	0x3bdd634e	0.006756223
202	0x3b2bc945	0.0026212495
203	0x3b2f65f5	0.0026763652
204	0xbc409e18	-0.0117564425
205	0xbbdc17d3	-0.0067167073
206	0xbc5fb399	-0.013653659
207	0x3b12562e	0.00223292
208	0x3c1c8151	0.009552316
209	0xbcad7eae	-0.02117857
210	0x3bb231ad	0.0054380507
211	0xbc4c438b	-0.012467275
212	0x3c9c63bb	0.019090524
213	0x3b6c9548	0.003609972
214	0xbb9ee012	-0.0048484886
215	0xbc59baf6	-0.013289204
216	0xbb32a5e1	-0.0027259516
217	0x3c4d4026	0.012527501
218	0xbb3ed2b5	-0.002911729
219	0xbb3b5e53	-0.0028590157
220	0xb9e3e6c8	-0.0004346876
221	0x3c83c795	0.016086379
222	0x3c7ffd6b	0.015624384
223	0xbc70c6db	-0.014695848
224	0xbc192ace	-0.009348584
225	0xba9c8d5d	-0.0011943985
226	0xbc290c46	-0.010317868
227	0x3cc87a25	0.024472306
228	0x3c71ddbc	0.014762338
229	0xbc13241d	-0.008980778
230	0x3bfa5376	0.007639344
231	0xbb024430	-0.0019877069
232	0x3cae352e	0.021265592
233	0xbca05ae4	-0.01957459
234	0x3a96a1a3	0.0011492263
235	0x3d0e98ce	0.034813695
236	0x3cae726b	0.021294793
237	0x3c8a7c1e	0.016904887
238	0x3cdd1a70	0.026990145
239	0xbca1f784	-0.019771345
240	0x3c2861b9	0.010277205
241	0xbb06e7e1	-0.0020584988
242	0x3b71cecb	0.003689694
243	0xbc1b842a	-0.00949196
244	0x3c537e21	0.012908489
245	0xbc48a9ac	-0.012247484
246	0x3bd1b618	0.006399881
247	0xbb554a20	-0.0032545403
248	0x3c3bd5f7	0.011464587
249	0xbad67f0b	-0.0016364766
250	0x3c36cea0	0.011157662
251	0xbc2f4ad6	-0.010698995
252	0x3c08b80e	0.008344663
253	0xbbb4ea1e	-0.005521073
254	0x38e4cb2c	0.00010909731
255	0x3d080e34	0.03321667

distribution.branches.0.bias f4 [3]
0	0xbb8ddcb0	-0.0043292865
1	0x3c816f99	0.015800284
2	0xbc3b396c	-0.011427265

critic.network_body.linear_encoder.seq_layers.0.weight f4 [256, 82]
0	0x3e200559	0.1562704
1	0x3d361002	0.04444886
2	0xbd910b51	-0.070822366
3	0x3d225b60	0.039637923
4	0xbde2a69c	-0.110669345
5	0xbddef0f5	-0.10885803
6	0xbd248075	-0.04016157
7	0x3d81a1b6	0.06329672
8	0x3de487dd	0.11158726
9	0x3c9e1997	0.019299312
10	0xbad74a98	-0.0016425429
11	0xbd165cda	-0.036709644
12	0xbde93fe7	-0.113891415
13	0xbdde48ae	-0.10853706
14	0xbdd111f8	-0.102085054
15	0x3e05aa15	0.13053162
16	0xbe0fa3ce	-0.1402733
17	0x3c472f75	0.012157311
18	0x3ed6be47	0.41942045
19	0xbd4bc93f	-0.04975247
20	0x3dd1be28	0.102413476
21	0xbc4bda57	-0.012442193
22	0x3daadbd7	0.083427124
23	0x3de3afb1	0.11117495
24	0x3d5b5133	0.053544234
25	0x3e4cfb5c	0.20017761
26	0x3aa3f44f	0.0012508723
27	0xbda9df41	-0.082945354
28	0xbd5b62ac	-0.053560898
29	0xbe4d2e75	-0.20037253
30	0x3e818b2e	0.25301498
31	0x3d823595	0.06357876
32	0xbceac314	-0.028657474
33	0xbc936658	-0.017993137
34	0xbde86d9b	-0.113490306
35	0xbaa0575b	-0.0012233065
36	0xbe0036e0	-0.12520933
37	0xbe063ee2	-0.13109925
38	0x3dc6f31a	0.09714337
39	0x3e347533	0.17622833
40	0xbd68b6ab	-0.05681483
41	0xbe29185e	-0.16513202
42	0xbdcb0f4d	-0.09915028
43	0x3dc7ae6a	0.09750064
44	0xbd5fe58a	-0.054662265
45	0x3e075623	0.13216452
46	0xbd93a2c8	-0.072087824
47	0xbdb80a2e	-0.089863166
48	0x3e09bfb1	0.1345203
49	0x3da28125	0.079347886
50	0x3da2787e	0.07933138
51	0xbe922198	-0.28541255
52	0xbdbf8fb2	-0.093535796
53	0x3d594c70	0.053051412
54	0xbd045879	-0.032310937
55	0x3e435e39	0.19078912
56	0x3e2ec764	0.17068249
57	0x3e1916a9	0.1495005
58	0xbd4f59cd	-0.05062275
59	0x3d17c955	0.03705724
60	0x3ddc9ba1	0.10771871
61	0x3e2212a6	0.15827426
62	0x3e03cfd9	0.12872256
63	0xbd0a46f9	-0.03375909
64	0x3da1bc75	0.078972735
65	0xbd785002	-0.060623176
66	0xbce6b5c1	-0.028162839
67	0xbd64b571	-0.0558371
68	0x3c5749c5	0.013140147
69	0xbe7305db	-0.23732702
70	0x3e6ae108	0.22937405
71	0x3c414b5e	0.011797754
72	0x3e49a74d	0.19692726
73	0xbca80997	-0.020512385
74	0x3d80d28c	0.06290159
75	0x3d9e8277	0.07739728
76	0x3d0c6c00	0.034282684
77	0xbd3ff767	-0.0468668
78	0xbdaa91eb	-0.08328613
79	0xbc38b0b2	-0.011272596
80	0x3e136b11	0.14396311
81	0x3d7600c3	0.06005932
82	0xb88ec3db	-6.8075686e-05
83	0xbd972855	-0.073807396
84	0xbd81c556	-0.06336467
85	0x3e2a0276	0.16602501
86	0xbe1a35d0	-0.1505959
87	0xbd8a854c	-0.067637056
88	0xbe19e20a	-0.15027633
89	0xbda2d376	-0.07950489
90	0x3deaae3a	0.11459012
91	0xbcb5627a	-0.022141684
92	0x3c28fbb8	0.010313921
93	0x3c65e53a	0.014031703
94	0xbc611a97	-0.01373925
95	0x3de3c73e	0.11121987
96	0x3e0b303e	0.13592622
97	0xbe148ef1	-0.14507653
98	0xbd25e754	-0.040503815
99	0xbcc1c460	-0.02365321
100	0xbe0ff4ca	-0.14058223
101	0xbdae1817	-0.085006885
102	0xbe5290e7	-0.20563088
103	0x3cd3aac4	0.025838263
104	0x3db023de	0.08600591
105	0xbd88bd4c	-0.066767305
106	0x3c44862b	0.011994879
107	0xbb8c395c	-0.0042792987
108	0x3e1cd4fa	0.15315619
109	0x3d49804b	0.049194615
110	0x3caf2787	0.021381153
111	0x3d88d693	0.06681552
112	0xbe289faa	-0.16467157
113	0x3d86d8e2	0.06584336
114	0xbe6da982	-0.23209193
115	0x3dce2934	0.100664526
116	0x3c0b22bf	0.008492171
117	0x3ddc3a3a	0.10753293
118	0x3d8406b4	0.06446591
119	0x3d2f2f2e	0.042769603
120	0x3c501a27	0.012701548
121	0x3d6945f9	0.056951497
122	0xbc2f19d1	-0.010687307
123	0xbe21155a	-0.15730801
124	0x3d9cab12	0.076498166
125	0x3d6d4e55	0.05793603
126	0xbe289e32	-0.16466597
127	0xbe517f33	-0.20458679
128	0x3db951a8	0.09048778
129	0x3e70c19e	0.23511359
130	0xbe08db88	-0.13364995
131	0xbca0b469	-0.019617276
132	0x3defe37e	0.117133126
133	0x3ca10710	0.019656688
134	0xbd6a9889	-0.057274375
135	0xbd0b3e01	-0.03399468
136	0xbc858ae7	-0.016301585
137	0x3d5179c8	0.05114153
138	0x3e149d9c	0.14513248
139	0xbe0e3567	-0.13887559
140	0x3c943c32	0.01809511
141	0x3e0047a3	0.12527327
142	0x3e4b67f0	0.19863868
143	0xbd8a180a	-0.06742866
144	0x3d298875	0.0413899
145	0x3d58fb0f	0.052973803
146	0xbe242582	-0.16029933
147	0xbccbfa7b	-0.024899712
148	0xbe29d5ad	-0.16585417
149	0xbd04031b	-0.032229524
150	0x3dcd4852	0.1002356
151	0x3cfa0336	0.03051911
152	0x3e7d190d	0.24716587
153	0x3c7db89b	0.015485908
154	0xbd179743	-0.03700949
155	0x3e263155	0.16229756
156	0xbd036ff2	-0.03208918
157	0xbc324ad9	-0.010882103
158	0xbd5691b9	-0.052385066
159	0xbc5c04d4	-0.0134288855
160	0x3daf3685	0.08555321
161	0x3e3921ed	0.18079348
162	0xbdfceb70	-0.12349594
163	0x3c695a58	0.014242731
164	0x3dc39a89	0.095509596
165	0xbae27b7f	-0.0017279236
166	0x3e154960	0.14578772
167	0xbe879665	-0.2648193
168	0xbc20617d	-0.009788868
169	0x3df0b385	0.11752991
170	0xbe405937	-0.18784033
171	0xbcd37391	-0.025811942
172	0xbd6b22bf	-0.057406183
173	0xbd1d0b94	-0.03834112
174	0x3c75b008	0.014995582
175	0x3d12ae9d	0.035811055
176	0xbd03fa8f	-0.032221373
177	0xbd0f7a68	-0.035028845
178	0x3db93bd7	0.09044617
179	0xbe198ab9	-0.14994325
180	0xbc8d4299	-0.01724367
181	0xbdab3c48	-0.08361107
182	0xbd21f3ad	-0.039539028
183	0x3e2cb037	0.16864096
184	0xbd576fbe	-0.0525968
185	0x3d68e2ba	0.05685685
186	0x3dd0abe4	0.101890355
187	0xbe5ac720	-0.21365023
188	0xbe63c4d3	-0.22243051
189	0x3b550fc8	0.0032510627
190	0x3ccfd5e1	0.02537054
191	0x3cd7cb33	0.02634201
192	0xbd70907e	-0.05873155
193	0x3db8b0ee	0.09018122
194	0xbdd67f41	-0.104734905
195	0x3de3c142	0.111208454
196	0x3e0395ef	0.12850164
197	0x3d2bf714	0.04198368
198	0xbaae78ea	-0.0013311182
199	0xbd222c46	-0.039593004
200	0xbcba16ac	-0.022715889
201	0xbd7ccbbc	-0.061717734
202	0xbc3140f2	-0.010818707
203	0x3d3eaefb	0.046553593
204	0x3ddeb1d8	0.10873765
205	0x3db8d196	0.0902435
206	0x3ce570e0	0.028007925
207	0xbd7a09b8	-0.061044425
208	0x3e39878e	0.18118116
209	0x3da3d46f	0.07999503
210	0x3cde498c	0.02713468
211	0xbde3973c	-0.1111283
212	0xbe5a4f8f	-0.21319412
213	0xbe8ddb23	-0.2770625
214	0x3b1dfcbb	0.0024106938
215	0x3dc21450	0.094765306
216	0x3da3c2a2	0.07996108
217	0xbdff1eaf	-0.12457024
218	0x3dfdd7fc	0.123947114
219	0xbd94f746	-0.07273726
220	0xbd89ebc3	-0.06734421
221	0x3e0302db	0.12794058
222	0x3d5da8c2	0.054116018
223	0xbe418b65	-0.18900831
224	0xbd8fdaa3	-0.070241235
225	0xbd23bf2b	-0.039977234
226	0xbdcf85cc	-0.101329416
227	0x3cd2625a	0.025681663
228	0x3e5189a4	0.20462662
229	0x38e946dd	0.00011123505
230	0x3dffcb37	0.12489932
231	0x3df6fa53	0.12059464
232	0x3c8032fa	0.015649308
233	0x3d880a29	0.06642563
234	0x3e2d83a1	0.16944744
235	0x3d5e0067	0.054199602
236	0xba9be3cf	-0.0011893454
237	0x3bf67738	0.007521536
238	0x3e06993d	0.13144393
239	0xbd6f61ce	-0.058442883
240	0xbe2969b1	-0.16544224
241	0xbda2f2b1	-0.07956446
242	0x3c85064a	0.01623835
243	0x3d15cd0e	0.03657251
244	0xbdc7a8b9	-0.09748978
245	0xbc8f7035	-0.01750956
246	0xbc90cde3	-0.0176763
247	0xbe60e30a	-0.21961609
248	0xbcf5cad7	-0.030003948
249	0xbda81ad7	-0.08208244
250	0xbe939d2c	-0.2883085
251	0x3900ce08	0.00012283784
252	0x3e2361c1	0.15955259
253	0x3d1e0013	0.03857429
254	0x3dc7f382	0.09763242
255	0x3e03fe13	0.1288989

critic.network_body.linear_encoder.seq_layers.0.bias f4 [256]
0	0x3b375295	0.0027972807
1	0xbb0c670f	-0.0021423732
2	0xbb63dc5b	-0.0034768793
3	0xbb658399	-0.0035021065
4	0xbc3580fa	-0.011078114
5	0xbba42894	-0.00500972
6	0xbba541cd	-0.0050432445
7	0x3a779dd1	0.0009445819
8	0xbac5f512	-0.0015102944
9	0x3c4b9410	0.012425438
10	0xbba3b1fb	-0.004995582
11	0xbbf509dc	-0.007477982
12	0xbb608062	-0.003425621
13	0xbb17e396	-0.0023176423
14	0xb9f50438	-0.00046733185
15	0x3b54ffa6	0.003250101
16	0xbc14f6b4	-0.009092022
17	0x3d0d42c6	0.03448751
18	0xb7cb613c	-2.4244764e-05
19	0x3a4e3e14	0.0007867527
20	0xbb35fdff	-0.0027769802
21	0xbb2f5363	-0.0026752583
22	0x3bdae8f8	0.006680604
23	0x3b8237aa	0.003973921
24	0xba4d7ca1	-0.00078387005
25	0xbb1a029b	-0.0023500088
26	0xbb39ffb2	-0.0028381166
27	0xbc129993	-0.008947748
28	0xbd28b64a	-0.04118947
29	0xba4daf21	-0.00078462256
30	0x3c9041fa	0.017609585
31	0xb9a2fa70	-0.00031085638
32	0xbae21c43	-0.0017250854
33	0xbb62ff19	-0.0034636913
34	0x390b9c1c	0.00013314228
35	0x3c346261	0.0110097835
36	0xbb10b408	-0.0022079963
37	0x3aa09e28	0.0012254165
38	0x3a05594a	0.00050868525
39	0x3c330ade	0.010927884
40	0xbb52ffb4	-0.0032195868
41	0x3b326ebf	0.0027226654
42	0xbc1f2ae4	-0.009714816
43	0xbc048e69	-0.008090594
44	0xbb47639c	-0.0030424362
45	0xbb9bc14c	-0.0047532674
46	0x3a3667d1	0.0006958219
47	0xbb891351	-0.004183211
48	0xbbabfab1	-0.0052483906
49	0xbb51e4b8	-0.0032027196
50	0xb9a7e049	-0.00032019828
51	0xbb33d123	-0.0027437888
52	0x39c87ac4	0.0003823844
53	0x3d148c15	0.036266405
54	0xb9ceb472	-0.00039425824
55	0x39bd10fa	0.00036061538
56	0x391eb244	0.00015134463
57	0x3abf18ad	0.0014579498
58	0xbb9f5d1e	-0.0048633954
59	0xbc11e8a8	-0.008905567
60	0xbb508d44	-0.0031822482
61	0xbae3faf0	-0.0017393511
62	0xbad7aee2	-0.0016455317
63	0xbb21ea89	-0.0024706444
64	0xbb48b473	-0.0030625134
65	0x3a9a7c7e	0.0011786369
66	0xbb740e51	-0.0037239979
67	0xbbe2f6c0	-0.0069263875
68	0x3979d636	0.0002382629
69	0xbc4c7da0	-0.012481123
70	0xbb1cf3d0	-0.0023949035
71	0xbbe95557	-0.007120769
72	0xbbba2cab	-0.0056815944
73	0x3a7a3c8d	0.0009545766
74	0x3c3f5ffb	0.011680598
75	0xbb16e335	-0.002302361
76	0xbb0b5f1b	-0.0021266404
77	0xbae7e635	-0.0017692508
78	0xbb47e8c0	-0.003050372
79	0xbb9f499b	-0.0048610694
80	0xbba6a98f	-0.005086131
81	0xbc1c49fa	-0.009539122
82	0xbb982f5b	-0.004644317
83	0xbb3c193d	-0.0028701567
84	0x3bbb0c5e	0.0057082614
85	0xba972caa	-0.0011533697
86	0x3c69407b	0.014236565
87	0xbbd6d365	-0.006555962
88	0x3aab655c	0.0013076472
89	0xbaa2f8a8	-0.0012433724
90	0xba30b5a2	-0.00067409326
91	0x3ac2adb0	0.0014852788
92	0x3c876582	0.016527895
93	0x3b53e749	0.0032333902
94	0xbbfa168a	-0.0076320814
95	0x3cb09116	0.021553557
96	0xba3e459c	-0.00072582974
97	0xbb05d775	-0.0020422612
98	0xbb0b2fa8	-0.0021238122
99	0xb7f30088	-2.8968105e-05
100	0xbbb17a95	-0.0054162242
101	0xbb979312	-0.0046256864
102	0xbb984460	-0.004646823
103	0xbb21f443	-0.0024712242
104	0xbbad61f0	-0.005291216
105	0xba369736	-0.0006965281
106	0xbace7134	-0.001575029
107	0xbb3e3969	-0.0029025918
108	0x3b07ca84	0.0020720074
109	0xba5dd5f8	-0.0008462365
110	0xbba4d474	-0.005030209
111	0xbac06b56	-0.0014680426
112	0xbabdb3a9	-0.0014473099
113	0xba69e7eb	-0.0008922803
114	0xbafaa123	-0.0019121509
115	0xbb2d8a26	-0.0026480048
116	0xbbda1d2c	-0.0066563096
117	0xbb2cdfd1	-0.0026378522
118	0x39c2777e	0.00037091592
119	0xbaa04a29	-0.0012229133
120	0xbb2cdf22	-0.0026378115
121	0x3b48f335	0.003066254
122	0xbb8a505c	-0.0042210054
123	0xbb93d7f0	-0.0045118257
124	0x3c24493e	0.010027228
125	0x3a21df6a	0.0006174954
126	0xbc017e49	-0.007903644
127	0xbc845881	-0.016155483
128	0x3b026dc0	0.0019901842
129	0xba395534	-0.0007069886
130	0xbbcae4a0	-0.006191805
131	0xbc2d6ace	-0.010584546
132	0xbc074f35	-0.0082586305
133	0xbb567b3d	-0.0032727264
134	0x3bd9a562	0.0066420296
135	0xbb9f4ca9	-0.0048614335
136	0xbbf0f204	-0.0073530693
137	0x3baa609b	0.0051995046
138	0x3bb5bfaf	0.005546532
139	0xba392a44	-0.0007063488
140	0xbc29ae56	-0.010356506
141	0xbbe8ffa9	-0.007110555
142	0x3a8a1d7a	0.0010537349
143	0xbb5c011f	-0.0033570004
144	0xbc24f037	-0.010067037
145	0x3a9da299	0.0012026607
146	0xbbcccb77	-0.006249841
147	0x3b7e8498	0.0038836356
148	0xbafee085	-0.0019445574
149	0xbb69746d	-0.0035622374
150	0x3d3cb302	0.046069153
151	0xbb4e9763	-0.003152334
152	0x3b62f694	0.0034631835
153	0xbaaa3794	-0.0012986534
154	0x39ea6f18	0.0004471473
155	0x3b771691	0.003770266
156	0xbb51aae8	-0.0031992737
157	0x3810604c	3.442196e-05
158	0xbb3c74b3	-0.0028756082
159	0x3cf2f1ac	0.029656254
160	0x3acaaf01	0.0015463532
161	0xbbc941eb	-0.0061418912
162	0xbb77264e	-0.003771204
163	0xb80caf6d	-3.354198e-05
164	0x3aa45bc6	0.0012539558
165	0xbbe9b2cd	-0.0071319104
166	0x3a292293	0.00064519903
167	0xba7c142d	-0.00096160435
168	0xbab1282c	-0.0013516
169	0xbb00762d	-0.0019601688
170	0xbc774c9c	-0.015093949
171	0x39dd14f0	0.00042168004
172	0xbb0c9183	-0.0021449036
173	0x3a5a3f87	0.00083255064
174	0xbb5b42a3	-0.0033456467
175	0x3a2919f3	0.0006450705
176	0xbb9bcbd1	-0.0047545214
177	0xba9879f2	-0.0011633022
178	0x3aff3a0b	0.0019472254
179	0x35949eb6	1.107305e-06
180	0x382a7d32	4.0647756e-05
181	0x3a9e0e4c	0.0012058704
182	0xbbc3ce8c	-0.00597555
183	0xbc652998	-0.0139869675
184	0xbb3604c2	-0.0027773832
185	0x3bfe0bdf	0.00775288
186	0x38c6fb96	9.488237e-05
187	0xba18ce8e	-0.0005829119
188	0x3c514063	0.012771699
189	0x38f2d5e3	0.00011579299
190	0xbb9d0b60	-0.004792616
191	0x3c04a30e	0.008095516
192	0xbaa7083e	-0.0012743545
193	0x3a43bbc4	0.0007466639
194	0xbbd3c1b5	-0.0064623007
195	0xba773da2	-0.0009431486
196	0xba2e9f31	-0.00066612946
197	0xba928f4e	-0.0011181624
198	0xbb6bb348	-0.0035965014
199	0xbc717561	-0.014737458
200	0x39a4cb55	0.00031432012
201	0xba044381	-0.0005045459
202	0x3aa49e32	0.0012559353
203	0xbbf0d26e	-0.007349304
204	0xbb1080bd	-0.002204939
205	0x3c3b900b	0.011447917
206	0x3ce47682	0.02788854
207	0x3bb85165	0.0056249374
208	0xb8816c88	-6.171415e-05
209	0xbadb46fc	-0.0016729529
210	0xbb021b86	-0.001985283
211	0xbb4d9c65	-0.0031373736
212	0xbb53184b	-0.0032210525
213	0x3b130fa6	0.0022439747
214	0xbbe513ff	-0.006990909
215	0x3b3b551c	0.0028584665
216	0x3c77734b	0.015103172
217	0xbb394476	-0.0028269566
218	0xbc11f47a	-0.008908385
219	0xbae945f7	-0.001779734
220	0xbbd46d7c	-0.006482778
221	0xbb8eef24	-0.004362004
222	0x3b034b2a	0.0020033815
223	0x3af1db2d	0.001845216
224	0x3b56c037	0.0032768378
225	0xb904c2ec	-0.00012661115
226	0xb975286f	-0.00023380083
227	0xbbf58c58	-0.007493537
228	0xbb9b0f94	-0.0047320817
229	0x3bc60567	0.0060431245
230	0x3bd1ddcd	0.0064046145
231	0x3acf1136	0.0015797976
232	0xb948ba2e	-0.00019142844
233	0x3c7688fc	0.015047308
234	0xb9f9fe4e	-0.00047682453
235	0xbab48297	-0.0013771829
236	0xbac9eb6a	-0.0015405242
237	0xbc2689cb	-0.010164688
238	0xbab394e5	-0.001370099
239	0xbae103f3	-0.0017167315
240	0xbbe8c638	-0.0071037076
241	0xbabd20cf	-0.0014429333
242	0xbb8b14c2	-0.004244418
243	0x397248bd	0.00023106016
244	0x3c290709	0.010316619
245	0xbb38b92a	-0.0028186538
246	0xbb4a11d2	-0.0030833376
247	0xbc340830	-0.01098828
248	0xbc05080b	-0.008119593
249	0x3c7a5979	0.015280121
250	0x3b01447f	0.0019724665
251	0x3ac7c4fe	0.0015241203
252	0xba1a7d5a	-0.00058933126
253	0xba4607a4	-0.0007554239
254	0x3baf238b	0.005344813
255	0xbbb76519	-0.0055967686

critic.value_heads.value_heads.extrinsic.weight f4 [1, 256]
0	0x3d911068	0.07083207
1	0x3dfec03a	0.12439008
2	0xbd9220e8	-0.071351826
3	0x3d33c170	0.04388565
4	0x3b9f0ae6	0.004853594
5	0xbe0e5fe9	-0.13903774
6	0xbd97d774	-0.07414141
7	0x3e006771	0.1253946
8	0x3db98e5c	0.09060356
9	0x3e051b4a	0.12998691
10	0xbdb046c3	-0.08607247
11	0xbd352da4	-0.04423298
12	0xbd636b26	-0.055522107
13	0x3e1261be	0.14295098
14	0xbd8a6439	-0.06757397
15	0xbd8b33dd	-0.067970015
16	0xbdcaa98b	-0.09895619
17	0xbd7f005e	-0.06225621
18	0xbdabef03	-0.08395197
19	0x3daca9eb	0.08430847
20	0x3dd36d43	0.103235744
21	0xbe1a5541	-0.15071584
22	0x3e1719a4	0.14755875
23	0x3e11955c	0.14217132
24	0xbd30495b	-0.043038707
25	0x3c5262c4	0.01284093
26	0xbd92c5b4	-0.07166615
27	0xbae9d6da	-0.001784052
28	0x3a3d4dc4	0.0007221366
29	0x3dba4ff9	0.09097285
30	0x3dbe915a	0.09305067
31	0x3c92b24a	0.01790728
32	0x3d8e186a	0.0693825
33	0xbda6a57b	-0.08137032
34	0x3e13e0f6	0.14441285
35	0xbdd06a44	-0.101765186
36	0x3dff1572	0.12455262
37	0x3d12a9cb	0.03580646
38	0xbda21c93	-0.07915606
39	0x3e1f7252	0.15570953
40	0xbccb2f0b	-0.024802705
41	0x3d2eaaeb	0.04264347
42	0x3bc695cc	0.0060603376
43	0x3e0a194a	0.1348621
44	0xbd6acb94	-0.057323053
45	0xbdfd42c8	-0.12366253
46	0xbe18294c	-0.14859504
47	0x3dd89a5d	0.105763175
48	0xbd189fbb	-0.037261706
49	0xbd9309a4	-0.07179573
50	0x3cb0eb50	0.02159658
51	0xbd12f464	-0.0358776
52	0x3c826dca	0.015921492
53	0x3dbe1146	0.092806384
54	0xbd97ef03	-0.07418635
55	0x3e12727b	0.14301483
56	0xbd60ef4f	-0.054915722
57	0x3db207b2	0.08692874
58	0x3bb02302	0.005375267
59	0xbe0e3e26	-0.13890895
60	0x3c16828b	0.009186397
61	0x3da5bcbf	0.08092641
62	0x3dcd4653	0.10023179
63	0xbdcac232	-0.09900321
64	0x3df13dd6	0.117793724
65	0x3db20f46	0.086943194
66	0x3ba02b3a	0.0048879655
67	0xbde705f0	-0.11280429
68	0xbdb39711	-0.08769048
69	0xbd6f9245	-0.058489103
70	0x3e15b651	0.1462033
71	0x3bcef833	0.0063162087
72	0xbe19297a	-0.14957228
73	0x3d9e727e	0.077366814
74	0xbe05dcb3	-0.13072471
75	0x3cb00936	0.021488767
76	0x3c51d282	0.012806537
77	0xbde60d02	-0.1123295
78	0xbde77956	-0.1130244
79	0x3dd3b877	0.10337918
80	0xbc96a127	-0.01838739
81	0x3b3e01b5	0.0028992717
82	0xbda6cda1	-0.08144689
83	0xbd5d31d6	-0.054002605
84	0x3e03f63c	0.128869
85	0xbdfa7821	-0.12229944
86	0x3dd262c1	0.10272742
87	0xbccd5682	-0.025065664
88	0x3dfe7730	0.12425077
89	0x3e1ae4d8	0.1512636
90	0xbd41ec8a	-0.04734472
91	0x3e0a48a0	0.13504267
92	0x3e0c096f	0.13675474
93	0x3df71886	0.12065224
94	0xbd0e822f	-0.03479212
95	0xbd0791eb	-0.033098143
96	0x3d937088	0.07199198
97	0x3dc12c85	0.094323196
98	0x3c81fce7	0.015867664
99	0x3dbad641	0.09122897
100	0xbe034632	-0.12819746
101	0x3bc17888	0.005904261
102	0xbcf5b376	-0.0299928
103	0xbdd3f9aa	-0.10350354
104	0xbd43ae2d	-0.04777353
105	0xbd10e3fb	-0.03537367
106	0xbcb2918b	-0.021797916
107	0xbd1e60f2	-0.038666673
108	0x3dc1736f	0.09445845
109	0xbd99d695	-0.075116314
110	0x3dcc3944	0.0997186
111	0xbd2c568d	-0.04207473
112	0xbd8213ca	-0.06351431
113	0xbdf26d14	-0.11837211
114	0xbcdf05c8	-0.027224436
115	0x3e0721bf	0.13196467
116	0xbde5b271	-0.112156756
117	0xbe0ff646	-0.1405879
118	0x3c02f408	0.007992752
119	0x3dc8d3b7	0.098060064
120	0xbd2754e9	-0.04085246
121	0x3dbd90a4	0.09256104
122	0x3d75cc69	0.060009394
123	0xbc9ca4cc	-0.01912155
124	0xbdf433bf	-0.11923932
125	0xbd34c403	-0.044132244
126	0x3d86e7e4	0.065871984
127	0xbcddcf25	-0.027076313
128	0x3cca7da7	0.024718119
129	0xbe01ff76	-0.12695107
130	0x3da44a52	0.08021988
131	0xbb704ab4	-0.003666562
132	0xbdaa3f8f	-0.08312904
133	0xbd5fe951	-0.054665867
134	0x3d73590f	0.059411105
135	0xbdad84ac	-0.08472571
136	0xbd238c99	-0.039929006
137	0x3cecd775	0.028911332
138	0xbd5b32be	-0.05351519
139	0x3d94acba	0.072595075
140	0x3b36c4b8	0.002788825
141	0xbd98bd47	-0.07457977
142	0x3d98586e	0.074387416
143	0x3dca5ebe	0.09881352
144	0xbc61a960	-0.013773292
145	0x3d9b45c1	0.07581664
146	0xbdd2594c	-0.10270938
147	0x3d87060b	0.065929495
148	0x3d3ff989	0.046868835
149	0xbdf2d596	-0.118571445
150	0xbd8145d0	-0.06312144
151	0x3c571c51	0.01312931
152	0x3df05e54	0.11736742
153	0xbd491017	-0.04908761
154	0xbd62f021	-0.055404786
155	0xbdc6ccb8	-0.09707016
156	0xbe0134d0	-0.12617803
157	0xbdf63599	-0.12021942
158	0xbcfe56db	-0.031047275
159	0xbe23683b	-0.1595773
160	0x3d0e74e0	0.03477943
161	0xbd26496f	-0.040597375
162	0xbc2b9635	-0.010472824
163	0x3e110663	0.14162593
164	0x3d31481b	0.043281656
165	0x3d0f1a77	0.03493735
166	0x3e0f2fcf	0.13983081
167	0xbd71df69	-0.05905095
168	0xbe1415f7	-0.14461504
169	0x3db353fa	0.08756252
170	0xbb26dcc5	-0.0025461179
171	0x3e0a5f5c	0.13512939
172	0x3d60914a	0.05482606
173	0xbe14f836	-0.1454781
174	0xbd9065a8	-0.070506394
175	0x3dadde09	0.084896155
176	0xbd04c32a	-0.032412685
177	0xbdd4852c	-0.10376963
178	0x3e0a9836	0.13534626
179	0x3d49451d	0.049138177
180	0x3db18507	0.08667951
181	0x3d7a5df1	0.061124746
182	0xbdfea68a	-0.124341086
183	0xbb97c8b7	-0.0046320814
184	0xbcaf80fe	-0.021423813
185	0x3e25af38	0.16180122
186	0x3ddabd30	0.10680616
187	0xbde7e10b	-0.113222204
188	0xbcb9cf92	-0.022681985
189	0xbe200848	-0.15628159
190	0x3d8955bd	0.067058064
191	0x3d210b02	0.03931714
192	0xbd74d61e	-0.05977451
193	0x3dd3399b	0.10313722
194	0xbd013990	-0.031549037
195	0xbdcea2d9	-0.100896545
196	0x3d13bc34	0.036068156
197	0x3c9f4b57	0.019445105
198	0x3da34fdc	0.07974216
199	0x3b088588	0.0020831544
200	0x3d8d4065	0.06897048
201	0xbdfb1ca0	-0.12261319
202	0x3d28288d	0.041054297
203	0x3d2a2e78	0.041548222
204	0xbe030d2d	-0.12797995
205	0x3d29365c	0.041311607
206	0xbd7d0326	-0.06177058
207	0x3ddfe1b3	0.109317206
208	0x3d5bfbe8	0.053707033
209	0x3bd4e8f2	0.006497496
210	0x3df8880a	0.121353224
211	0x3dccf2dc	0.10007259
212	0xbd98a98b	-0.07454213
213	0x3e1f03d7	0.15528809
214	0xbd781ea0	-0.06057608
215	0x3dabd6dc	0.083905905
216	0x3e14e3cd	0.14540024
217	0x3c047fbc	0.008087095
218	0xbd7fa7d9	-0.06241593
219	0xbe086232	-0.13318709
220	0xbd1eb01d	-0.038742173
221	0xbcaf936e	-0.021432605
222	0x3dad7327	0.08469229
223	0x3db87e89	0.0900851
224	0x3db7dc2e	0.08977543
225	0x3e051f10	0.1300013
226	0xbdca0bac	-0.098655075
227	0xbc5245cd	-0.012834025
228	0x3dde9dd4	0.10869947
229	0x3ca8acbf	0.020590184
230	0x3e121866	0.1426712
231	0x3df42a85	0.119221725
232	0x3dbbec62	0.09175946
233	0xbcab69f7	-0.020924551
234	0xbe0f8597	-0.14015804
235	0x3d2680a8	0.04065004
236	0xbbfc01ca	-0.007690643
237	0xbd7931e5	-0.0608386
238	0xbe002772	-0.12515047
239	0xbd5e9d06	-0.054348968
240	0xbd674e87	-0.056471374
241	0xbd531e65	-0.05154266
242	0xbc8bc022	-0.01705939
243	0xbe1db4d2	-0.15401009
244	0x3d4bc962	0.0497526
245	0xbdf765e9	-0.12079985
246	0xbdfe0ee2	-0.124051824
247	0xbcc65e9f	-0.02421504
248	0xbdfc9c9b	-0.123345576
249	0xbc727381	-0.014798046
250	0x3df2ce15	0.11855713
251	0x3dff9bbd	0.124808766
252	0x3cc4f1a3	0.024041003
253	0xbd9ec6c6	-0.07752757
254	0xbd3f1c9c	-0.046658143
255	0xbcccf6eb	-0.025020083

exp_avg f4 [256, 82]
0	0xb821d108	-3.8580067e-05
1	0xb86a1e09	-5.581792e-05
2	0xb88dceee	-6.7619476e-05
3	0xb83841cf	-4.3930308e-05
4	0xb853ad45	-5.046769e-05
5	0xb7fc6fbc	-3.0092771e-05
6	0x390590b3	0.00012737773
7	0xb9688c76	-0.0002217757
8	0xb9171901	-0.00014409797
9	0x390629c3	0.00012794793
10	0xb9692588	-0.00022234593
11	0xb8f6792b	-0.000117527634
12	0x373ee62c	1.1378474e-05
13	0xb8ddd453	-0.0001057765
14	0xb8d5f799	-0.0001020275
15	0xb800daa1	-3.0721192e-05
16	0xb8858a3b	-6.3676816e-05
17	0xb894d936	-7.0976486e-05
18	0xb7689151	-1.3862112e-05
19	0xb8a8e563	-8.053591e-05
20	0xb8b9029a	-8.821972e-05
21	0xb8a5a875	-7.899191e-05
22	0xb7813c53	-1.5406089e-05
23	0xb8073588	-3.2236363e-05
24	0xb7763c5b	-1.4676795e-05
25	0xb8a72ffd	-7.972119e-05
26	0xb8b41005	-8.586053e-05
27	0xb8ad72da	-8.2706756e-05
28	0xb744256c	-1.1691223e-05
29	0xb7a91378	-2.0155436e-05
30	0x37b01d1e	2.0994394e-05
31	0xb8f1fed3	-0.0001153924
32	0xb8efc4f7	-0.00011433096
33	0xb3ad9a1d	-8.083973e-08
34	0x00000000	0.0
35	0xb59eba0c	-1.1826064e-06
36	0x37e69ba4	2.7490612e-05
37	0x00000000	0.0
38	0xb8936af8	-7.029431e-05
39	0xb92494df	-0.00015695718
40	0x38833231	6.255916e-05
41	0xb700a149	-7.666947e-06
42	0x3795e1e5	1.7867374e-05
43	0xb8eb7005	-0.000112265385
44	0xb8cd3385	-9.784758e-05
45	0x378a4fe4	1.6488084e-05
46	0xb8e88b84	-0.00011088609
47	0xb88a0f73	-6.5832304e-05
48	0xb842311b	-4.6298937e-05
49	0xb849bdf9	-4.809906e-05
50	0xb8632a57	-5.416045e-05
51	0x369cbcdd	4.671149e-06
52	0xb8cfc35a	-9.906916e-05
53	0xb88946bc	-6.5458444e-05
54	0xb8377310	-4.373776e-05
55	0xb8547c01	-5.0660226e-05
56	0xb87b9e22	-5.9990336e-05
57	0xb8dec105	-0.000106217376
58	0x37464bc2	1.1819358e-05
59	0x3533189b	6.67185e-07
60	0xb8106514	-3.442641e-05
61	0xb87b89fc	-5.997157e-05
62	0xb88d9714	-6.7515444e-05
63	0xb8bee71d	-9.102954e-05
64	0xb6620daa	-3.3684578e-06
65	0xb7ae14e7	-2.075215e-05
66	0x3647071e	2.9657454e-06
67	0xb8cc2fc1	-9.736373e-05
68	0xb8cd64e4	-9.793954e-05
69	0xb803326d	-3.1279797e-05
70	0xb8845e52	-6.311819e-05
71	0xb8851738	-6.346259e-05
72	0x3508ff1d	5.1035187e-07
73	0x00000000	0.0
74	0xb7d598f4	-2.5462803e-05
75	0xb32ac21f	-3.975776e-08
76	0x00000000	0.0
77	0xb595d028	-1.1161947e-06
78	0xba3f6ac0	-0.0007301979
79	0x00000000	0.0
80	0x80000004	-6e-45
81	0x38619a66	5.3787975e-05
82	0xb793afc8	-1.760562e-05
83	0x383b6c99	4.4685414e-05
84	0x36fa80d1	7.465577e-06
85	0x38b0af6c	8.425009e-05
86	0xb86fca25	-5.7170302e-05
87	0xb81be1ad	-3.7165057e-05
88	0xb862104e	-5.3897784e-05
89	0x38a9d282	8.097758e-05
90	0x386dee7d	5.6727313e-05
91	0xb84e7060	-4.9218885e-05
92	0x38a0028b	7.629868e-05
93	0x38045987	3.155463e-05
94	0xb6b1d3d5	-5.2996716e-06
95	0x3807cf2a	3.2379445e-05
96	0x381463e3	3.5378976e-05
97	0x360edc3c	2.1287842e-06
98	0x37d14dd8	2.495099e-05
99	0x37cda645	2.451533e-05
100	0x37ba1be5	2.2185917e-05
101	0x36a43607	4.8938705e-06
102	0x37613bd9	1.3424979e-05
103	0x3829bbed	4.046776e-05
104	0xb7609ceb	-1.3387976e-05
105	0xb4bbb1eb	-3.4960917e-07
106	0x379408b2	1.7647024e-05
107	0x371e4171	9.432771e-06
108	0x378382b4	1.567728e-05
109	0x371fbba1	9.520824e-06
110	0x37934b94	1.755896e-05
111	0x3794f26b	1.775586e-05
112	0xb55d28db	-8.238837e-07
113	0x37ea12af	2.7903674e-05
114	0x37f97c4c	2.9740993e-05
115	0x34d2e3e9	3.9281375e-07
116	0x00000000	0.0
117	0x34bc85a7	3.5114974e-07
118	0xb610b3cb	-2.1562325e-06
119	0x00000000	0.0
120	0x37d8e9bb	2.5858046e-05
121	0x37037bb2	7.8370085e-06
122	0x37a16b8a	1.9242772e-05
123	0x3720e91a	9.591016e-06
124	0xb758c992	-1.2921535e-05
125	0x3827c718	4.0001323e-05
126	0x3857a18f	5.1410458e-05
127	0xb8d2c28f	-0.0001004982
128	0x3905c674	0.00012757798
129	0x3836afd2	4.3555927e-05
130	0x3746a7ff	1.1840834e-05
131	0x377faad5	1.5238959e-05
132	0x37a09241	1.9141591e-05
133	0x3800c7c1	3.0703613e-05
134	0xb67330c3	-3.6238205e-06
135	0xb796920a	-1.7949398e-05
136	0x37dfd84e	2.6684396e-05
137	0x34d446fd	3.9539728e-07
138	0x36e62cc6	6.8597465e-06
139	0x38a25848	7.7412056e-05
140	0xb8531bdf	-5.0332277e-05
141	0xb81a3f82	-3.6775607e-05
142	0x379b579b	1.8518234e-05
143	0x370fa3a6	8.561567e-06
144	0x37646034	1.3612258e-05
145	0x3840eefe	4.5998946e-05
146	0xb79eb495	-1.8919158e-05
147	0xb6034bc4	-1.9564623e-06
148	0xb5683248	-8.6499904e-07
149	0x37ea6af3	2.7944776e-05
150	0x37edd44c	2.835146e-05
151	0xb685e2b0	-3.990099e-06
152	0x3802510c	3.1069896e-05
153	0x3804573d	3.15525e-05
154	0x3525a18b	6.1702366e-07
155	0x00000000	0.0
156	0xb3e4496c	-1.0630433e-07
157	0x331227fe	3.4029647e-08
158	0x00000000	0.0
159	0x34abcd1c	3.200047e-07
160	0x3a08a67f	0.0005212798
161	0x00000000	0.0
162	0x00000004	6e-45
163	0xb90858b6	-0.00013003018
164	0x35fbb182	1.8752619e-06
165	0x37a25b38	1.9354382e-05
166	0x37a8d036	2.0124116e-05
167	0x3715f981	8.939184e-06
168	0x374e3311	1.2290447e-05
169	0x370fff35	8.582884e-06
170	0xb8d6b079	-0.00010237186
171	0x39019b06	0.0001236015
172	0x3884aff2	6.327023e-05
173	0xb8d38285	-0.00010085575
174	0x3900040d	0.0001220854
175	0x3884fa7e	6.340908e-05
176	0x36180d93	2.2657666e-06
177	0x379f149c	1.8963874e-05
178	0x37915c61	1.7328364e-05
179	0x3772d737	1.4474433e-05
180	0x36e2aacf	6.7552096e-06
181	0x376e7e8c	1.4215369e-05
182	0x37800e1d	1.5265361e-05
183	0x36c820b3	5.964271e-06
184	0x37459154	1.1775952e-05
185	0x37629938	1.3506324e-05
186	0x37019369	7.723321e-06
187	0x37379210	1.0941658e-05
188	0x3650d03e	3.1115628e-06
189	0x3797fc40	1.8118066e-05
190	0x37a657f7	1.9829704e-05
191	0x37c80996	2.3846322e-05
192	0xb62f9a37	-2.6166797e-06
193	0x351643d9	5.5978086e-07
194	0xb70000ec	-7.629609e-06
195	0x37f216c2	2.8859246e-05
196	0x37f17c23	2.8787244e-05
197	0xb5de58d6	-1.6566144e-06
198	0x00000000	0.0
199	0x34997899	2.8586217e-07
200	0xb733c2da	-1.0714599e-05
201	0x00000000	0.0
202	0x378dabd0	1.6888516e-05
203	0x38cd6f51	9.795896e-05
204	0xb8a0e9bd	-7.672932e-05
205	0xb7fcbff0	-3.0130119e-05
206	0xb7b4f0db	-2.156983e-05
207	0x38338397	4.279948e-05
208	0x37a07a9d	1.9130583e-05
209	0x3791f70a	1.7400384e-05
210	0x36807d07	3.8292524e-06
211	0x3737128c	1.0911968e-05
212	0x37b735f2	2.184042e-05
213	0xb523f4f4	-6.1078686e-07
214	0x3601e085	1.9353186e-06
215	0xb786cf6b	-1.6070631e-05
216	0x381c72dd	3.7300273e-05
217	0x37c225a3	2.3144128e-05
218	0x369cb511	4.670241e-06
219	0x378ae903	1.6559386e-05
220	0x37961572	1.789138e-05
221	0x37c05900	2.2929627e-05
222	0xb5e42b17	-1.6999865e-06
223	0x3602e67b	1.9505667e-06
224	0x374320fd	1.1630586e-05
225	0x37210ba3	9.599057e-06
226	0x37564782	1.2772043e-05
227	0x380d1456	3.363596e-05
228	0xb75024c3	-1.2406325e-05
229	0xb62a265a	-2.5354298e-06
230	0xb6a1b48f	-4.8191937e-06
231	0x37da8377	2.6048843e-05
232	0x37db3da6	2.6135542e-05
233	0x36c22e0b	5.7870107e-06
234	0x37818acb	1.5442629e-05
235	0x3781b382	1.5461588e-05
236	0xb68ed34b	-4.2565275e-06
237	0x00000000	0.0
238	0x37156229	8.903947e-06
239	0x323301f3	1.04196145e-08
240	0x00000000	0.0
241	0x3486c39c	2.510177e-07
242	0x38a4060e	7.821257e-05
243	0x00000000	0.0
244	0x00000004	6e-45
245	0xb86edafd	-5.694757e-05
246	0xb66b1274	-3.502847e-06
247	0xb5836c91	-9.791858e-07
248	0xb6373117	-2.72977e-06
249	0xb5a5b714	-1.2346741e-06
250	0xb659ed2b	-3.247357e-06
251	0xb5d0d2db	-1.5558575e-06
252	0x371dbc05	9.401706e-06
253	0xb768ee33	-1.3883738e-05
254	0xb7084d4e	-8.124231e-06
255	0x3690f78d	4.320353e-06
