Config/results/BallCatcher_00/BoxBehavior/BoxBehavior-2999995.pt (torch, 532751 bytes, 21 tensors)

network_body.linear_encoder.seq_layers.0.weight f4 [256, 82]
0.49785545 -0.36304766 -0.1505898 -0.1344842 -0.1012012 0.05450002 0.013932924 -0.013977377
-0.04957611 0.12642612 -0.33844003 -0.26021746 -0.17838553 -0.017043142 -0.048472274 0.050795022
-0.053161178 0.2257887 -0.46438384 -0.044264346 -0.075497575 -0.025833594 0.11533022 -0.029312551
-0.010337508 0.0063766926 0.052725866 0.120537356 -0.08795064 -0.22193994 0.054423064 -0.0088662915
0.11852419 -0.096922845 0.029408643 0.039336637 -0.21784022 0.046877317 0.061342627 0.12766825
-0.15198983 -0.24689813 0.11859128 -0.23826362 -0.044536706 0.3033909 -0.2867533 -0.17625982
-0.21390115 -0.02825347 0.058070254 -0.16294232 0.054603785 -0.08169198 -0.4474963 -0.14683722
-0.075380616 0.15814215 -0.14731938 -0.31864724 0.075364314 -0.1306986 -0.13486762 -0.05641879
-0.049541336 -0.05289916 -0.0383022 -0.017278658 0.10834427 0.31467602 -0.085602365 -0.06142846
-0.2191162 0.021959353 0.08381959 0.14738835 -0.07208033 0.119351506 -0.029943552 -0.11296649
0.06155843 -0.21401119 -0.172028 -0.014503562 -0.13502592 -0.08639675 0.18189266 0.03802337
0.13386965 -0.12702867 -0.31031835 0.21792053 -0.120364726 0.023021545 -0.3245006 -0.13184606
-0.14381953 -0.40831766 0.029437963 0.06977452 -0.015631545 -0.114541754 -0.2528272 -0.33275154
0.022532376 0.060064137 0.24790253 -0.11063599 -0.18214896 -0.08251766 -0.024302473 -0.15778792
0.07226445 -0.10321862 -0.04613773 0.20039906 0.12169595 0.077856116 0.091039054 -0.07089032
-0.020609036 -0.15927735 -0.042912945 -0.23243782 0.08016634 -0.044952143 -0.17576292 0.041597266
-0.35751545 -0.08351396 -0.4779407 -0.008756706 -0.18904226 0.041036025 -0.028339617 -0.011269023
-0.2456457 -0.13728377 -0.2630637 -0.33488646 -0.0005266588 -0.08170478 -0.16174743 -0.11502575
-0.07183836 -0.035968084 -0.15974969 -0.1771602 0.026390443 -0.054707702 0.10163707 -0.07525514
-0.134336 -0.39854476 -0.3021552 -0.048623826 0.10014526 0.11368425 -0.061523177 -0.156749
-0.14599308 0.080537215 0.0087778615 0.10064596 0.23991124 -0.5353211 -0.25918153 -0.17607261
0.07848588 -0.21748488 -0.32421356 -0.03974029 -0.23185651 -0.19130795 -0.12090052 -0.14607385
-0.14590839 -0.13811831 -0.039307006 -0.2329302 -0.16234265 -0.08341945 -0.1345549 -0.33679342
0.020572526 0.021715159 -0.25952017 -0.28897968 0.025122715 -0.14300708 -0.28033283 -0.13991587
0.024608452 -0.17616513 -0.022850493 -0.22527076 -0.18020667 -0.03967924 0.06663843 -0.15144758
-0.03537008 0.1327635 -0.15541339 -0.25017545 0.13337472 -0.067644395 -0.112680264 0.13666447
0.0024002662 0.23546071 -0.2772326 -0.27028784 -0.15490432 -0.20257185 -0.20411222 -0.29127413
0.119050324 -0.06748244 -0.16189657 0.07729785 -0.15910617 -0.3252001 -0.06383758 -0.14003327
0.04502037 -0.23226275 -0.13272575 0.25783306 -0.38319993 -0.11319507 -0.12245293 -0.21573548
-0.013979458 0.17015795 0.056152873 0.042515308 -0.10758137 -0.06478679 -0.14135167 0.072008505
-0.12542258 -0.16949727 -0.018620374 0.1446786 0.078347966 -0.27699897 0.49468574 -0.23147604
-0.084450394 -0.13625045 -0.08883043 -0.13982521 0.3348438 -0.27893117 -0.07101882 0.02507484
00000000: e9e6 fe3e 62e1 b9be 3634 1abe 3ab6 09be
00000010: 9342 cfbd 6a3b 5f3d eb46 643c 5e01 65bc
00000020: 5210 4bbd d975 013e 0348 adbe 393b 85be
00000030: b2aa 36be 0f9e 8bbc dd8a 46bd 710e 503d
00000040: 89bf 59bd 2735 673e b8c3 edbe 884e 35bd
00000050: 799e 9abd f9a0 d3bc 4032 ec3d e020 f0bc
00000060: a75e 29bc 93f3 d03b 14f7 573d 4adc f63d
00000070: 771f b4bd 3944 63be b8ea 5e3d ec43 11bc
00000080: cfbc f23d 7c7f c6bd 65ea f03c 741f 213d
00000090: 8211 5fbe 6e02 403d 6842 7b3d 77bb 023e
000000a0: 39a3 1bbe ddd2 7cbe fcdf f23d 61fb 73be
000000b0: 1f6c 36bd 0d56 9b3e 54d1 92be 747d 34be
000000c0: e708 5bbe d273 e7bc 13db 6d3d 5ada 26be
000000d0: 38a8 5f3d 204e a7bd 3c1e e5be 7f5c 16be
000000e0: 2761 9abd 04f0 213e e4da 16be bb25 a3be
000000f0: 9b58 9a3d dbd5 05be bd1a 0abe 6417 67bd
00000100: dbeb 4abd caac 58bd c5e2 1cbd f98b 8dbc
00000110: 9ae3 dd3d 371d a13e 4b50 afbd 699c 7bbd
00000120: ff5f 60be 1ae4 b33c 9ba9 ab3d f9ec 163e
00000130: da9e 93bd 906e f43d 2e4c f5bc fa5a e7bd
00000140: b124 7c3d c025 5bbe 1c28 30be 59a0 6dbc
00000150: 3c44 0abe c7f0 b0bd 1242 3a3e 65be 1b3d
00000160: 2015 093e ce13 02be 0ce2 9ebe 8f26 5f3e
00000170: c881 f6bd ae97 bc3c f124 a6be a702 07be
00000180: 6d45 13be 030f d1be e227 f13c f2e5 8e3d
00000190: ba0d 80bc de94 eabd 9172 81be 695e aabe
000001a0: d195 b83c d005 763d 29da 7d3e 1f95 e2bd
000001b0: 4285 3abe 05ff a8bd fb15 c7bc 2893 21be
000001c0: 62ff 933d 4964 d3bd ebfa 3cbd 6935 4d3e
000001d0: ba3b f93d 0773 9f3d af72 ba3d f22e 91bd
000001e0: 48d4 a8bc 9a19 23be 7cc5 2fbd 2e04 6ebe
000001f0: 402e a43d bd1f 38bd 32fb 33be e561 2a3d
00000200: 440c b7be 5e09 abbd a5b4 f4be 4978 0fbc
00000210: 4b94 41be 6415 283d 7c28 e8bc b5a1 38bc
00000220: 8c8a 7bbe 1e94 0cbe 49b0 86be 3d76 abbe
00000230: 790f 0aba d654 a7bd 1ea1 25be 9f92 ebbd
00000240: fd1f 93bd 4553 13bd 6c95 23be 7c69 35be
00000250: c530 d83c 2f15 60bd 1927 d03d 5e1f 9abd
00000260: 608f 09be 0f0e ccbe 16b4 9abe c729 47bd
00000270: f518 cd3d 4ad3 e83d baff 7bbd cf82 20be
00000280: 367f 15be b2f0 a43d 05d1 0f3c 781f ce3d
00000290: 4bab 753e ce0a 09bf 71b3 84be 614c 34be
000002a0: 34bd a03d 5bb4 5ebe 52ff a5be b7c6 22bd
000002b0: cb6b 6dbe 3be6 43be b19a f7bd 6294 15be
000002c0: 0269 15be e36e 0dbe 6200 21bd 4185 6ebe
000002d0: 273d 26be d1d7 aabd c2c8 09be 3070 acbe
000002e0: b787 a83c fde3 b13c d4df 84be 25f5 93be
000002f0: 27ce cd3c 7370 12be c987 8fbe 1b46 0fbe
00000300: aa97 c93c a264 34be f530 bbbc 61ad 66be
00000310: 1988 38be b386 22bd bb79 883d 1315 1bbe
00000320: 38e0 10bd 28f3 073e b024 1fbe ff16 80be
00000330: 6293 083e 2589 8abd e9c4 e6bd c5f1 0b3e
00000340: c94d 1d3b 9d1c 713e 6ef1 8dbe 2b63 8abe
00000350: 3d9f 1ebe ff6e 4fbe cb02 51be e221 95be
00000360: a8d0 f33d 3c34 8abd 37c8 25be 564e 9e3d
00000370: baec 22be a180 a6be 47bd 82bd e264 0fbe
00000380: 4867 383d 49d6 6dbe 42e9 07be b202 843e
00000390: c832 c4be d1d2 e7bd 9ac8 fabd c3e9 5cbe
000003a0: 190a 65bc e33d 2e3e 8e00 663d 8824 2e3d
000003b0: 9f53 dcbd f0ae 84bd 7ebe 10be 3279 933d
000003c0: c76e 00be b190 2dbe c189 98bc a026 143e
000003d0: e674 a03d cfd2 8dbe 7347 fd3e 0e08 6dbe
000003e0: 54f4 acbd 3d85 0bbe baec b5bd 572e 0fbe
000003f0: a670 ab3e 11d0 8ebe 5172 91bd c069 cd3c

network_body.linear_encoder.seq_layers.0.bias f4 [256]
-0.06764955 -0.093606405 -0.16979161 -0.11063849 0.06088604 -0.06775174 0.01344903 -0.07378959
-0.21548921 -0.0796444 -0.12314586 0.017181624 0.016292434 -0.20314357 -0.16039449 -0.16234742
-0.070647016 -0.18338574 0.01983047 -0.1126788 -0.015431704 -0.08179944 0.012811138 0.0046510133
-0.17079292 -0.124462046 -0.08066808 0.010409798 -0.15343113 -0.13055448 -0.06887755 -0.2045585
-0.060459618 -0.09019812 0.025153752 -0.024279235 -0.22286627 0.008269954 0.04053115 -0.16726013
0.046379436 0.031341106 -0.17085928 -0.07564095 0.0519508 -0.13166922 -0.12247381 -0.00036934772
-0.024093427 -0.09015858 -0.19915073 -0.08340447 -0.104940884 0.035353635 -0.27983975 -0.08998564
0.03941288 -0.03360421 0.037832815 0.003717432 -0.08397673 -0.121248625 -0.008983468 -0.10636379
-0.034587078 -0.09416278 -0.18635388 -0.09934001 0.049222644 0.04206583 -0.20851238 -0.16413926
0.019988256 0.019985342 -0.15167405 0.03470798 -0.16063513 0.033724222 -0.15168999 -0.11842628
-0.013920051 -0.12697299 0.029952614 -0.01285825 -0.22856519 -0.1835641 -0.026213303 -0.08719971
0.019800432 -0.054289866 0.0006049295 -0.011544643 0.0049353666 -0.11750181 -0.0074964506 -0.108230844
-0.22603047 0.07098527 -0.022125585 -0.19273469 -0.07372743 0.045259193 0.044204857 0.0053021237
0.0069711907 0.023833143 0.032029893 -0.1312488 -0.12789041 0.022301368 0.042470396 0.011928557
-0.009075018 -0.116636366 0.018638054 -0.004000624 -0.04544393 0.0029837254 0.011814657 -0.11423061
0.040296122 -0.10985296 -0.09285699 0.027111977 -0.1357596 -0.097838916 -0.001349994 -0.15068778
-0.030174151 0.0619813 -0.109108485 -0.019933458 -0.1250082 0.018521145 0.018104827 -0.11619406
-0.09222817 -0.1173477 -0.15088265 -0.22552635 -0.040907834 -0.057050917 -0.16695563 -0.11874876
0.016627708 0.022765627 -0.014868674 0.031572804 -0.19776192 0.024700904 -0.10492079 -0.1868129
-0.121578634 -0.15928452 -0.10538671 -0.15415515 0.029065903 -0.042865366 -0.2079096 -0.119972534
-0.0122114215 0.003010355 -0.13591802 -0.08673654 -0.10829426 -0.22441089 -0.10468691 -0.06760884
-0.14203502 -0.033480816 -0.16681099 0.070066534 0.0005281155 -0.29519203 0.030520413 -0.16793118
0.013885223 -0.21039261 -0.07031505 -0.179984 -0.1193516 -0.109999746 0.007350987 -0.22442335
0.019783571 0.0062577347 -0.13017309 0.0330758 0.04896909 0.00044191728 -0.03638267 -0.044209402
-0.061630685 -0.010988639 0.013457001 0.034738306 -0.10417588 0.013136188 0.029909344 -0.17624132
0.031616896 -0.14158168 0.0066999067 0.06825245 0.021104498 -0.26774767 -0.2078686 -0.07704992
0.015723009 -0.20629582 -0.12736873 -0.13158835 -0.11889376 -0.0088328505 -0.17452781 -0.099907614
-0.22425857 0.0027552713 -0.11916327 0.04208668 0.017632507 -0.012827151 -0.10241702 0.004398296
-0.19354078 -0.17674433 0.021784512 0.015282094 -0.20900066 0.008838799 -0.076387 -0.21465729
0.028986845 -0.14965646 -0.18395382 -0.022568125 0.047709543 0.032405484 0.053505603 -0.044226326
0.009041797 0.036062617 -0.12932776 0.014225387 -0.044611715 0.030207044 -0.10573244 0.029942973
0.03374557 -0.10501284 -0.1547442 0.028356494 -0.18668884 -0.11771648 -0.13813896 -0.0074354224
00000000: d98b 8abd b7b4 bfbd dadd 2dbe 6f96 e2bd
00000010: a463 793d 6dc1 8abd 5259 5c3c ff1e 97bd
00000020: 34a9 5cbe 9a1c a3bd e633 fcbd 7ac0 8c3c
00000030: b677 853c de04 50be 743e 24be 673e 26be
00000040: 62af 90bd 79c9 3bbe 8373 a23c 25c4 e6bd
00000050: 42d5 7cbc 7786 a7bd cfe5 513c 8767 983b
00000060: 57e4 2ebe f5e5 febd 4e35 a5bd db8d 2a3c
00000070: 0d1d 1dbe 13b0 05be ac0f 8dbd c977 51be
00000080: 81a4 77bd cbb9 b8bd 3e0f ce3c 3fe5 c6bc
00000090: 0e37 64be b37e 073c fe03 263d 3d46 2bbe
000000a0: 5df8 3d3d 885f 003d bcf5 2ebe a4e9 9abd
000000b0: 5dca 543d 4cd4 06be 8dd3 fabd 03a5 c1b9
000000c0: 945f c5bc 10a5 b8bd 2bee 4bbe f6cf aabd
000000d0: 3feb d6bd f9ce 103d 2847 8fbe 644a b8bd
000000e0: 666f 213d 91a4 09bd 95f6 1a3d 29a0 733b
000000f0: fefb abbd 3351 f8bd 652f 13bc 42d5 d9bd
00000100: 2eab 0dbd 6ad8 c0bd 8dd3 3ebe c672 cbbd
00000110: af9d 493d 384d 2c3d 4584 55be 1f14 28be
00000120: 69be a33c 4db8 a33c 7150 1bbe f429 0e3d
00000130: 897d 24be 6922 0a3d 9f54 1bbe 7a89 f2bd
00000140: ed10 64bc 3505 02be 2f5f f53c 69ab 52bc
00000150: fe0c 6abe 3af8 3bbe 48bd d6bc c395 b2bd
00000160: 8434 a23c 0d5f 5ebd 2294 1e3a be25 3dbc
00000170: dbb8 a13b caa4 f0bd c9a4 f5bb 22a8 ddbd
00000180: 8874 67be ba60 913d b740 b5bc 3e5c 45be
00000190: 68fe 96bd b461 393d 2710 353d 70bd ad3b
000001a0: 966e e43b b93d c33c c731 033d 1666 06be
000001b0: b4f5 02be 5cb1 b63c 70f5 2d3d ff6f 433c
000001c0: 62af 14bc 0cdf eebd d5ae 983c ab17 83bb
000001d0: 6a23 3abd 9b8a 433b 4392 413c bdf1 e9bd
000001e0: 8c0d 253d 97fa e0bd ce2b bebd f019 de3c
000001f0: 9104 0bbe c55f c8bd 48f2 b0ba e64d 1abe
00000200: c82f f7bc 1be0 7d3d 4574 dfbd 7e4b a3bc
00000210: 2602 00be a8b9 973c 9350 943c 27f7 edbd
00000220: 1fe2 bcbd fe53 f0bd fb80 1abe 61f0 66be
00000230: f98e 27bd 39ae 69bd 6bf6 2abe 8d32 f3bd
00000240: d536 883c fb7e ba3c bd9b 73bc 7c52 013d
00000250: 1a82 4abe 8d59 ca3c b6e0 d6bd e14b 3fbe
00000260: 38fe f8bd 7b1b 23be fdd4 d7bd d9da 1dbe
00000270: 9e1b ee3c 9893 2fbd 41e6 54be 29b4 f5bd
00000280: 6a12 48bc 6049 453b 182e 0bbe eda2 b1bd
00000290: 62c9 ddbd f8cb 65be 1766 d6bd 8176 8abd
000002a0: a171 11be 2e23 09bd 80d0 2abe 0b7f 8f3d
000002b0: 3b71 0a3a 6923 97be f205 fa3c 27f6 2bbe
000002c0: d97e 633c 2971 57be 5601 90bd ba4d 38be
000002d0: 9d6e f4bd 8c47 e1bd 8ce0 f03b 3ccf 65be
000002e0: 2811 a23c af0d cd3b 184c 05be 7d7a 073d
000002f0: d093 483d 22b1 e739 ff05 15bd eb14 35bd
00000300: 7570 7cbd b109 34bc c17a 5c3c c149 0e3d
00000310: 2a5a d5bd 2a39 573c 7104 f53c 9b78 34be
00000320: b880 013d cafa 10be e48a db3b f1c7 8b3d
00000330: 57e3 ac3c 3916 89be 82db 54be 59cc 9dbd
00000340: 8acd 803c 363f 53be f36c 02be 19bf 06be
00000350: 927e f3bd a9b7 10bc 6bb7 32be 5d9c ccbd
00000360: 0aa4 65be c891 343b df0b f4bd 1563 2c3d
00000370: 0c72 903c f928 52bc 04c0 d1bd 951f 903b
00000380: 8e2f 46be 77fc 34be 6f75 b23c bf61 7a3c
00000390: 4504 56be 9cd0 103c ca70 9cbd 1fcf 5bbe
000003a0: d275 ed3c 8b3f 19be 645e 3cbe cae0 b8bc
000003b0: 156b 433d 9dbb 043d b128 5b3d aa26 35bd
000003c0: 0c24 143c 65b6 133d 7f6e 04be 9911 693c
000003d0: c6ba 36bd c374 f73c 408a d8bd f74a f53c
000003e0: cb38 0a3d f910 d7bd 4375 1ebe e14b e83c
000003f0: 5c2b 3fbe 5615 f1bd 4d74 0dbe d8a4 f3bb

distribution.branches.0.weight f4 [3, 256]
-0.0038976122 0.048006546 -0.028803075 -0.026711911 0.17633998 -0.062443692 -0.0036582623 -0.0061445218
0.035775207 0.14732714 -0.049599886 -0.0634529 0.07713991 0.021411998 -0.04104376 0.04126276
0.12846592 0.019435216 0.009562211 -0.02423983 0.055251822 0.038996294 0.042747933 0.034929037
-0.0140923625 -0.032348324 -0.03999296 0.05378084 -0.048362505 -0.07659962 0.035608537 0.019122712
0.043753777 0.10189241 0.04964296 0.062045626 -0.00591169 0.09853498 0.2475594 0.042718843
-0.0866534 0.07693581 -0.060481086 -0.019586764 0.011873964 0.06634856 -0.052020207 -0.022219917
0.08511286 0.051430143 -0.04009389 0.050021432 0.05167902 0.083776996 0.011056034 0.059923295
-0.014712243 0.042987857 -0.027012018 0.04647867 0.108067095 -0.065704904 0.0053094546 -0.0004414655
0.05027751 -0.040574536 0.009737336 0.027334806 0.13056944 0.037938587 0.05366149 -0.01095981
-0.11841636 -0.091837004 0.061816897 -0.11611818 -0.0609273 0.047046624 0.03018608 0.07141
-0.06166505 0.06541093 0.0105172135 0.034505863 -0.033756632 0.0030731328 0.03728603 0.07632615
0.052326996 0.04700741 0.058863703 -0.09749711 0.06250967 -0.0023129338 0.011482152 0.0045068366
0.01863807 -0.09754661 0.09430575 0.038923662 -0.06380825 0.05538276 0.031240579 0.04383148
-0.092930034 0.133545 0.044600185 0.15239342 0.06360433 0.04076003 -0.046839632 -0.016280849
0.09241184 0.029410334 -0.014392211 0.0017692127 -0.016696848 0.08847632 -0.096961334 -0.06387991
0.092176095 0.07542188 0.05966625 -0.15016113 0.07613973 -0.08926222 -0.02484516 -0.020781761
0.14415659 0.033501957 0.09806962 0.075892806 0.0089926785 -0.06688326 -0.04381519 -0.029174902
0.0356636 -0.08691053 0.03868563 0.008338508 -0.116566055 -0.0663743 0.07431944 0.06404753
-0.055423312 -0.026559835 0.07410052 -0.05210105 0.006214827 0.029942088 -0.047918137 0.03415488
0.10597633 -0.0014318067 0.027360333 0.07208735 -0.010625347 0.041427393 -0.020384122 0.087054715
-0.026795821 -0.03139938 0.05783889 -0.029620072 -0.015928004 0.052230023 0.06854299 0.060515966
-0.042779177 -0.10322457 0.059991732 0.012531872 -0.021042291 -0.016856171 -0.053329993 0.007006141
0.10122868 -0.0021449095 0.054316923 0.051787738 0.00774871 -0.0828823 0.038916886 0.03847838
-0.0021703695 0.062594615 0.060210943 0.049170427 0.073712386 0.0094608795 0.09855952 0.046078093
0.02170889 0.08369253 0.07210365 0.042869184 0.06358483 0.10787683 -0.062926605 0.00880651
-0.091468796 0.008495991 0.018370321 0.01882058 0.027311768 0.017405981 0.035332453 -0.05843013
0.17684814 -0.090972915 -0.048931226 -0.11265859 -0.0005647943 0.040641334 0.01680191 -0.05424977
0.065049104 -0.024366261 0.016036429 -0.038419273 -0.07399866 0.015990831 -0.006925606 0.0021477412
-0.042493973 0.023681667 -0.02028549 0.06291871 -0.030397808 -0.06186631 -0.07055549 0.021494845
-0.07073027 -0.02107657 -0.0645222 -0.051472586 -0.018776176 0.048766892 0.10112662 0.06656211
0.06901573 -0.05975114 -0.035734188 -0.12934709 0.04968167 0.104544125 -0.06280983 -0.03749964
0.010740423 -0.030449927 0.025646001 0.17211974 -0.043706067 0.096187204 -0.022786133 -0.1252707
00000000: 156f 7fbb 83a2 443d 6df4 ebbc f0d2 dabc
00000010: 7892 343e f5c4 7fbd 75bf 6fbb fc57 c9bb
00000020: 0689 123d eddc 163e 4029 4bbd 98f3 81bd
00000030: 87fb 9d3d 3768 af3c 801d 28bd 2403 293d
00000040: 928c 033e 9a36 9f3c d2aa 1c3c 9c92 c6bc
00000050: bc4f 623d 94ba 1f3d 7518 2f3d c011 0f3d
00000060: a7e3 66bc ad7f 04bd a8cf 23bd 4c49 5c3d
00000070: c317 46bd 43e0 9cbd 42da 113d 3ca7 9c3c
00000080: 2937 333d f8ac d03d 6b56 4b3d 8e23 7e3d
00000090: dab6 c1bb b5cc c93d 3680 7d3e f4f9 2e3d
000000a0: 5677 b1bd 8690 9d3d 04bb 77bd 6c74 a0bc
000000b0: 048b 423c c1e1 873d 2413 55bd 8b06 b6bc
000000c0: a74f ae3d 6aa8 523d 7e39 24bd 46e3 4c3d
000000d0: 61ad 533d 4693 ab3d 5e24 353c 2172 753d
000000e0: 9f0b 71bc 0914 303d 4f48 ddbc 6b60 3e3d
000000f0: 4852 dd3d 4b90 86bd effa ad3b 7f74 e7b9
00000100: caef 4d3d 7c31 26bd 5989 1f3c 3eed df3c
00000110: ffb3 053e 7e65 1b3d 27cc 5b3d c690 33bc
00000120: 4784 f2bd 0a15 bcbd b733 7d3d 5ecf edbd
00000130: e88e 79bd f6b3 403d cc48 f73c 683f 923d
00000140: 7e94 7cbd 2af6 853d 6450 2c3c 0556 0d3d
00000150: 6544 0abd 9d66 493b 3cb9 183d e250 9c3d
00000160: d554 563d d88a 403d 111b 713d 91ac c7bd
00000170: 1205 803d 9794 17bb a31f 3c3c 16ae 933b
00000180: deae 983c 84c6 c7bd 6023 c13d 6b6e 1f3d
00000190: e6ad 82bd 08d9 623d 3eec ff3c a388 333d
000001a0: 1a52 bebd 05c0 083e afae 363d 050d 1c3e
000001b0: fd42 823d fdf3 263d eada 3fbd 6a5f 85bc
000001c0: 6b42 bd3d f1ed f03c 4fcd 6bbc ede4 e73a
000001d0: d4c7 88bc 1333 b53d aa93 c6bd 78d3 82bd
000001e0: d2c6 bc3d c976 9a3d 9964 743d d7c3 19be
000001f0: 26ef 9b3d 1ccf b6bd 1488 cbbc 833e aabc
00000200: c99d 133e 5939 093d bad8 c83d b06d 9b3d
00000210: 0756 133c 17fa 88bd 8f77 33bd 3400 efbc
00000220: ff13 123d 26fe b1bd d374 1e3d 3d9e 083c
00000230: 2fba eebd 40ef 87bd ca34 983d 5a2b 833d
00000240: 8e03 63bd 0394 d9bc 03c2 973d e967 55bd
00000250: bfa5 cb3b 1c49 f53c cf45 44bd fde5 0b3d
00000260: 1e0a d93d 76ab bbba c722 e03c 88a2 933d
00000270: ef15 2ebc c5af 293d 9afc a6bc be49 b23d
00000280: e982 dbbc a39c 00bd 79e8 6c3d cba5 f2bc
00000290: 727b 82bc 26ef 553d 4460 8c3d 97df 773d
000002a0: 3839 2fbd 6767 d3bd e4b9 753d 7b52 4d3c
000002b0: e260 acbc f415 8abc 8d70 5abd c593 e53b
000002c0: fb50 cf3d 9c91 0cbb 6c7b 5e3d 611f 543d
000002d0: e4e8 fd3b 32be a9bd 5067 1f3d 819b 1d3d
000002e0: c23c 0ebb 9b31 803d c09f 763d ee66 493d
000002f0: 85f6 963d ce01 1b3c 93d9 c93d 62bc 3c3d
00000300: d8d6 b13c fd66 ab3d 14ab 933d 9997 2f3d
00000310: c338 823d 87ee dc3d aadf 80bd 2e49 103c
00000320: fe53 bbbd c532 0b3c 5b7d 963c 9e2d 9a3c
00000330: eebc df3c fd96 8e3c c3b8 103d 6f54 6fbd
00000340: ae17 353e 0250 babd 1c6c 48bd 8cb9 e6bd
00000350: b40e 14ba 8777 263d 29a4 893c 0235 5ebd
00000360: 7738 853d c19b c7bc d45e 833c 875d 1dbd
00000370: 9c8c 97bd 34ff 823c 32f0 e2bb 1ec1 0c3b
00000380: 290e 2ebd 0e00 c23c c22d a6bc 86db 803d
00000390: d304 f9bc 8767 7dbd 667f 90bd f515 b03c
000003a0: 08db 90bd c5a8 acbc 3724 84bd ebd4 52bd
000003b0: 7fd0 99bc cbbf 473d 791b cf3d b751 883d
000003c0: 1e58 8d3d 9dbd 74bd 035e 12bd 9073 04be
000003d0: 027f 4b3d 3b1b d63d 71a2 80bd 3999 19bd
000003e0: 99f8 2f3c 2072 f9bc 9017 d23c 2840 303e
000003f0: 2205 33bd ccfd c43d fca9 babc f646 00be

distribution.branches.0.bias f4 [3]
-0.0055592884 0.05978418 0.0119111
00000000: b12a b6bb 42e0 743d c626 433c

critic.network_body.linear_encoder.seq_layers.0.weight f4 [256, 82]
-0.062593274 0.111526236 -0.25058708 -0.099680424 -0.07297561 -0.14087915 0.014525651 0.10083141
0.009686457 0.013235742 0.07528481 -0.18309191 0.17791545 0.04760856 0.24682164 -0.06432873
0.04216041 0.06976429 -0.10863307 -0.024221435 -0.046430632 -0.164358 -0.057130996 -0.14694819
-0.10958121 -0.023313178 -0.06904293 -0.020509023 0.039960932 0.14446297 -0.1516921 0.12525514
0.049412258 -0.18253598 -0.050774742 -0.10473121 0.16626707 0.13613412 0.12113181 -0.26946506
-0.0797936 -0.23424208 0.22536962 0.21680245 0.066516474 0.05706133 -0.032309867 0.020676685
-0.18197511 -0.1274783 -0.0050252737 0.057005208 -0.00061222643 -0.1043002 -0.1984392 -0.17337468
0.10817475 -0.28048036 0.20949142 0.05230416 -0.16433506 0.10030448 -0.018746953 0.07291635
-0.020807322 -0.08440855 0.12164057 0.0843131 0.06199127 0.08313087 -0.19218865 -0.014484876
0.35515374 -0.14951743 0.16990009 0.21995652 0.012996236 -0.010456046 0.009026615 -0.04899334
0.056551468 -0.007168553 0.08610516 -0.026430942 -0.028501768 0.069140814 0.0038258005 0.22003038
0.07875868 0.06965973 0.11268336 0.06831501 -0.14369555 0.26749063 -0.94868493 -0.028578555
-0.084673986 -0.21142006 -0.0596299 -0.2652833 -0.28657073 0.06601044 0.10778343 -0.046931263
0.065006495 -0.04424298 0.048118252 0.050308958 -0.23045976 -0.21425761 -0.053674467 -0.19017275
-0.0037828984 -0.07882101 -0.23138839 -0.021897504 -0.021615677 -0.28470314 0.054134376 -0.054139473
-0.14577076 0.19555771 0.0020930436 0.09702151 -0.0033042447 0.15772307 0.035759293 -0.041274525
-0.06680093 0.20386246 -0.3718223 0.045469966 0.14852867 0.166936 -0.14600939 0.46973664
-0.6775129 -0.048246216 0.06763866 -0.46186307 -0.036707852 -0.09837472 -0.7445381 -0.032578707
0.083490916 -0.084562 -0.04784274 -0.026947854 -1.0080229 0.099017195 0.06467692 0.030989865
-0.16358596 -0.08262205 -0.71475136 0.12215514 0.012445166 -0.6550232 -0.09340094 -0.029927013
0.010549168 0.06844464 0.08967889 -0.038964804 0.1913127 0.22386229 -0.14513898 0.08294985
0.05000515 -0.008060064 -0.034547735 0.0018662786 0.009918174 -0.009767538 -0.022365682 0.08943458
-0.0052207937 0.016038915 0.18051922 -0.07124454 0.12355902 -0.034474894 0.1988899 0.04840991
-0.03554544 -0.010024376 0.08163208 0.22073182 0.12277111 0.091369815 -0.009380139 0.34465528
0.009844422 -0.11292915 0.061458033 0.16395304 -0.11314252 -0.42448854 0.04395661 0.0054961545
0.09836218 0.042853646 0.10217508 -0.010367132 0.008988636 -0.13794377 -0.0818081 0.15586951
-0.1648352 -0.10246876 -0.022749314 -0.22752765 -0.057754774 -0.021265741 -0.08041858 -0.11869612
0.014564556 -0.112263806 -0.2797374 0.11028485 0.005166554 0.0056898315 -0.07809719 -0.15431648
-0.23166063 0.05693915 -0.021602029 0.3197448 -0.0047938963 -0.11541994 -0.1958756 0.053653643
-0.073952116 -0.3126449 -0.097193085 -0.11582281 0.017616257 -0.23034972 0.10856447 -1.3588234
-0.009201335 0.08042904 0.012755886 0.06841544 -0.16848388 -0.070660815 -0.06373169 0.100928165
-0.22511217 0.10922617 0.024642512 -0.21931995 -0.011145538 -0.06430299 -0.047166925 0.01655593
00000000: e730 80bd de67 e43d f34c 80be 4025 ccbd
00000010: 3d74 95bd a042 10be fffc 6d3c b380 ce3d
00000020: f2b3 1e3c bada 583c ec2e 9a3d 727c 3bbe
00000030: 782f 363e 3201 433d d0be 7c3e c8be 83bd
00000040: 65b0 2c3d 94e0 8e3d 047b debd 086c c6bc
00000050: 0c2e 3ebd 774d 28be 3102 6abd 9679 16be
00000060: 1d6c e0bd 47fb bebc 6166 8dbd 8a02 a8bc
00000070: 13ae 233d 1aee 133e 2d55 1bbe e242 003e
00000080: 8264 4a3d b6ea 3abe 2df9 4fbd 517d d6bd
00000090: ea41 2a3e be66 0b3e f413 f83d 53f7 89be
000000a0: d46a a3bd 28dd 6fbe 4bc7 663e 7601 5e3e
000000b0: ca39 883d 24b9 693d 5a57 04bd 2762 a93c
000000c0: af57 3abe ac89 02be 0dab a4bb 4b7e 693d
000000d0: d27d 20ba 589b d5bd a533 4bbe 2289 31be
000000e0: b98a dd3d 1f9b 8fbe eb84 563e e33c 563d
000000f0: 7347 28be 6f6c cd3d 3693 99bc 2b55 953d
00000100: 1e74 aabc 64de acbd b11e f93d 59ac ac3d
00000110: 8fea 7d3d 8440 aa3d 1acd 44be f951 6dbc
00000120: b6d6 b53e 191b 19be 4afa 2d3e 483c 613e
00000130: 2aee 543c d64f 2bbc 5ee4 133c 3ead 48bd
00000140: 83a2 673d 2ee6 eabb e757 b03d b485 d8bc
00000150: 8a7c e9bc b399 8d3d 48ba 7a3b a54f 613e
00000160: 3b4c a13d c3a9 8e3d 89c6 e63d bde8 8b3d
00000170: ed24 13be 88f4 883e 04dd 72bf 931d eabc
00000180: 8e69 adbd 807e 58be 7b3e 74bd 36d3 87be
00000190: 66b9 92be 7b30 873d 8fbd dc3d ff3a 40bd
000001a0: 2022 853d 2138 35bd a517 453d c410 4e3d
000001b0: a5fd 6bbe 5966 5bbe c2d9 5bbd a5bc 42be
000001c0: 81ea 77bb e96c a1bd 14f1 6cbe 6562 b3bc
000001d0: 5c13 b1bc 9cc4 91be 02bc 5d3d 5ac1 5dbd
000001e0: ee44 15be 4840 483e 722b 093b 37b3 c63d
000001f0: 078c 58bb 2882 213e 5678 123d 7a0f 29bd
00000200: edce 88bd 52c1 503e 7e5f bebe b73e 3a3d
00000210: e617 183e 45f1 2a3e 7c83 15be 5281 f03e
00000220: 7c71 2dbf d39d 45bd 2386 8a3d 5179 ecbe
00000230: f95a 16bd af78 c9bd 0d9a 3ebf 4071 05bd
00000240: 49fd aa3d d82e adbd c0f6 43bd bfc1 dcbc
00000250: e506 81bf 87c9 ca3d 5575 843d 75de fd3c
00000260: 1483 27be c035 a9bd f2f9 36bf 792c fa3d
00000270: cfe6 4b3c 9aaf 27bf fe48 bfbd 7f29 f5bc
00000280: 6bd6 2c3c b42c 8c3d 91a9 b73d 8f99 1fbd
00000290: 7ae7 433e 283c 653e 509f 14be 9ce1 a93d
000002a0: 33d2 4c3d 5c0e 04bc ed81 0dbd eb9d f43a
000002b0: d67f 223c 0608 20bc 3c38 b7bc 7a29 b73d
000002c0: 3113 abbb 0b64 833c 08da 383e a8e8 91bd
000002d0: 830c fd3d 8c35 0dbd cba9 4b3e 7849 463d
000002e0: 1898 11bd 483d 24bc b82e a73d 8607 623e
000002f0: 6b6f fb3d 1920 bb3d 28af 19bc a876 b03e
00000300: 804a 213c 6647 e7bd 6bbb 7b3d 4ee3 273e
00000310: 44b7 e7bd 9056 d9be d90b 343d 1619 b43b
00000320: 1c72 c93d 4e87 2f3d 2b41 d13d e7da 29bc
00000330: 1245 133c 2241 0dbe 018b a7bd 429c 1f3e
00000340: 8fca 28be 24db d1bd c55c babc 02fd 68be
00000350: 4590 6cbd 7e35 aebc 7fb2 a4bd f416 f3bd
00000360: 2da0 6e3c 91ea e5bd be39 8fbe 06dd e13d
00000370: 324c a93b c471 ba3b 6bf1 9fbd 2405 1ebe
00000380: 7238 6dbe 0739 693d bdf6 b0bc 97b5 a33e
00000390: 1e16 9dbb 4a61 ecbd 9d93 48be ecc3 5b3d
000003a0: 3574 97bd fe12 a0be 2b0d c7bd 8234 edbd
000003b0: f84f 903c cce0 6bbe 0d57 de3d eded adbf
000003c0: 32c1 16bc fbb7 a43d 10fe 503c 651d 8c3d
000003d0: 0a87 2cbe 9eb6 90bd c385 82bd 6db3 ce3d
000003e0: ce83 66be f8b1 df3d 18df c93c 6995 60be
000003f0: c69b 36bc 49b1 83bd 1b32 41bd 4da0 873c

critic.network_body.linear_encoder.seq_layers.0.bias f4 [256]
0.012469533 -0.051799834 -0.0054854066 0.0032417374 -0.028969452 0.0013109632 -0.035017543 -0.017954387
-0.05226987 -0.01347922 -0.02925635 -0.027944515 -0.02292913 0.0013169626 -0.24230133 -0.002886139
-0.02511825 0.013631914 -0.0011350197 -0.031656202 -0.0061511016 -0.009647226 -0.03977114 -0.017493727
-0.05321359 0.015880786 -0.014769876 -0.018946819 -0.005811671 0.004462869 -0.0046710805 -0.038830325
-0.049641106 -0.015967278 -0.044551793 -0.0039767562 -0.12867208 -0.19773404 -0.03744787 -0.010317716
0.0045341784 -0.00963754 -0.024749812 -0.19632675 -0.049206533 -0.017466422 -0.07348998 0.017427243
-0.043268614 -0.030269839 -0.015253021 -0.008661825 -0.014911451 0.020787025 -0.02737402 -0.0027896569
0.01215297 -0.029969731 -0.033005342 -0.2244103 -0.048759688 0.0008011839 0.0035669047 0.00880448
-0.06329594 -0.039013363 -0.039341938 -0.045538977 0.0042683943 -0.0066223755 0.037113477 0.00558013
-0.059700754 0.0054379622 -0.012796382 -0.009555124 -0.041226536 -0.03217135 -0.049831565 -0.017279392
0.0012820519 -0.040413797 -0.018993342 -0.041441284 -0.0014444026 -0.0525263 -0.18944007 -0.046599142
-0.05667298 -0.06969224 -0.012316693 -0.024894442 0.015697412 -0.046994906 -0.0069856956 -0.007761666
-0.009019994 -0.024799306 -0.0733271 -0.03144871 -0.28385434 -0.042944536 0.016687782 0.0061758943
-0.0082517 -0.07749582 -0.05079267 -0.039550737 -0.04949455 -0.036558207 0.009485326 0.020416228
-0.05691111 0.069192104 -0.03689848 -0.0349792 -0.018194959 0.0025858777 -0.030538287 -0.06766204
0.022848897 -0.020831479 -0.016115217 -0.044616032 -0.050097525 0.021560745 0.003485184 -0.038534455
-0.011049808 0.00040027825 -0.014347093 -0.010485702 -0.0031493013 -0.010816037 -0.03562002 -0.025806349
0.02920641 0.0031880771 -0.009142364 -0.029886357 -0.0061876373 -0.0058887578 -0.054454256 -0.033009905
-0.018482288 0.011658432 0.008781901 -0.05398193 -0.07641237 -0.010069504 -0.03994233 -0.10827588
0.015923738 -0.13389795 -0.3626968 -0.03366563 -0.021742899 0.006905307 0.0011253936 -0.0044102776
-0.031306487 -0.0051060882 -0.019986562 -0.021061614 -0.026022537 -0.0032685923 -0.018337246 -0.025159717
0.0018222588 -0.0096102115 -0.012033576 -0.046521515 -0.035278894 -0.04923792 -0.035566088 -0.00961572
0.015001229 -0.25638446 -0.03479584 -0.024155602 -0.027864464 -0.02613487 -0.04926882 -0.13938127
-0.033497117 -0.03852454 0.011526379 0.0033568414 -0.052006863 0.015322269 -0.042443845 -0.02792329
-0.012268772 -0.032367542 -0.006008982 -0.04171831 -0.037170168 -0.0059807184 -0.024603609 -0.04651433
-0.013717475 0.002204473 -0.008561562 -0.037482526 0.006373438 -0.07913651 -0.2547195 0.036425173
-0.07146235 -0.050255984 0.018476969 -0.048370525 -0.009639281 -0.030424494 -0.44893783 -0.03166886
-0.008160201 -0.028399056 -0.0394786 0.0041633667 0.025069809 -0.18008232 -0.02850178 -0.04509497
-0.008330363 -0.047967505 -0.015524346 -0.041606806 -0.013879639 -0.020496964 -0.30535227 -0.06686682
-0.046914533 -0.03366226 -0.04953224 -0.022848478 -0.0077914745 -0.0051685413 -0.18191603 -0.042818617
-0.04942508 -0.0136513105 -0.0069281133 -0.045625906 -0.23601708 -0.01991088 -0.0038387526 -0.16497348
0.011143371 -0.03286877 -0.20368423 -0.020773666 -0.029877163 -0.01359132 0.00032246587 -0.058964297
00000000: 034d 4c3c 102c 54bd edbe b3bb 5473 543b
00000010: 5851 edbc a0d4 ab3a 8e6e 0fbd 1415 93bc
00000020: ee18 56bd f2d7 5cbc 03ab efbc e5eb e4bc
00000030: dfd5 bbbc ef9d ac3a d71d 78be 6125 3dbb
00000040: cac4 cdbc 6458 5f3c f1c4 94ba efa9 01bd
00000050: 2e8f c9bb 660f 1ebc 10e7 22bd 014f 8fbc
00000060: 7ef6 59bd 6c18 823c 5afd 71bc 5c36 9bbc
00000070: d46f bebb 423d 923b dd0f 99bb 8c0c 1fbd
00000080: 7954 4bbd cfcd 82bc f17b 36bd 734f 82bb
00000090: 9dc2 03be cb7a 4abe f062 19bd a30b 29bc
000000a0: 7293 943b c6e6 1dbc 1ec0 cabc e109 49be
000000b0: ca8c 49bd be15 8fbc ea81 96bd 94c3 8e3c
000000c0: 6e3a 31bd 74f8 f7bc cfe7 79bc 54ea 0dbc
000000d0: 294f 74bc 8d49 aa3c 7b3f e0bc add2 36bb
000000e0: 401d 473c 1583 f5bc 9c30 07bd d0cb 65be
000000f0: 3db8 47bd 8b06 523a bbc2 693b aa40 103c
00000100: 4da1 81bd 7acc 1fbd 0325 21bd 1487 3abd
00000110: e3dd 8b3b 8300 d9bb 4d04 183d 86d9 b63b
00000120: c788 74bd ef30 b23b eba7 51bc 188d 1cbc
00000130: 28dd 28bd 1bc6 03bd 2f1c 4cbd 838d 8dbc
00000140: 860a a83a f088 25bd ed97 9bbc 56be 29bd
00000150: 1c52 bdba d125 57bd 94fc 41be bede 3ebd
00000160: ed21 68bd ceba 8ebd f4cb 49bc 6eef cbbc
00000170: dc97 803c bb7d 40bd 43e8 e4bb 9355 febb
00000180: 99c8 13bc ea27 cbbc 852c 96bd 5dd0 00bd
00000190: 5b55 91be 9ce6 2fbd d1b4 883c 285f ca3b
000001a0: 2332 07bc 21b6 9ebd fa0b 50bd f4ff 21bd
000001b0: ccba 4abd 0fbe 15bd 5768 1b3c ef3f a73c
000001c0: a01b 69bd 97b4 8d3d dc22 17bd 5a46 0fbd
000001d0: 980d 95bc d477 293b 6e2b fabc 6592 8abd
000001e0: 9c2d bb3c c7a6 aabc 0f04 84bc 4dbf 36bd
000001f0: 1033 4dbd 29a0 b03c af67 643b 4ed6 1dbd
00000200: 410a 35bc 70dc d139 1210 6bbc 39cc 2bbc
00000210: 8264 4ebb bf35 31bc 4ce6 11bd d667 d3bc
00000220: 4842 ef3c 0fef 503b dbc9 15bc 3cd4 f4bc
00000230: aac1 cabb 7bf6 c0bb 6d0b 5fbd 6535 07bd
00000240: 2b68 97bc 0203 3f3c f6e1 0f3c 281c 5dbd
00000250: 177e 9cbd 90fa 24bc 929a 23bd bfbf ddbd
00000260: 8072 823c 8b1c 09be 65b3 b9be f9e4 09bd
00000270: 2a1e b2bc ea45 e23b f181 933a 1784 90bb
00000280: 3b3b 00bd f950 a7bb dcba a3bc 6889 acbc
00000290: 372d d5bc e135 56bb fe37 96bc c01b cebc
000002a0: dcd8 ee3a 2674 1dbc 7a28 45bc 588d 3ebd
000002b0: 9a80 10bd b4ad 49bd bfad 11bd 418b 1dbc
000002c0: b7c7 753c d344 83be 1586 0ebd f8e1 c5bc
000002d0: 0444 e4bc cb18 d6bc 1ace 49bd f7b9 0ebe
000002e0: 4634 09bd e8cb 1dbd 23d9 3c3c 74fe 5b3b
000002f0: 2605 55bd 410a 7b3c 99d9 2dbd 62bf e4bc
00000300: f602 49bc d493 04bd ffe6 c4bb d2e0 2abd
00000310: bf3f 18bd e7f9 c3bb 828d c9bc cf85 3ebd
00000320: 43bf 60bc eb78 103b cb45 0cbc 4787 19bd
00000330: 46d8 d03b 5312 a2bd 986a 82be 9032 153d
00000340: da5a 92bd 38d9 4dbd 035d 973c 2c20 46bd
00000350: 13ee 1dbc ca3c f9bc 2edb e5be 35b7 01bd
00000360: 5db2 05bc 23a5 e8bc 50b4 21bd da6c 883b
00000370: 335f cd3c 8067 38be 917c e9bc 81b5 38bd
00000380: 137c 08bc 9379 44bd d459 7ebc e66b 2abd
00000390: 6d67 63bc 40e9 a7bc 2257 9cbe 79f1 88bd
000003a0: 7429 40bd 70e1 09bd 51e2 4abd bb2c bbbc
000003b0: a04f ffbb de5c a9bb 3248 3abe 9362 2fbd
000003c0: f471 4abd bfa9 5fbc 3a05 e3bb 3be2 3abd
000003d0: 76ae 71be 241c a3bc 9593 7bbb cfee 28be
000003e0: b092 363c 67a1 06bd 9992 50be 892d aabc
000003f0: f4c0 f4bc 21ae 5ebc a310 a939 8c84 71bd

critic.value_heads.value_heads.extrinsic.weight f4 [1, 256]
-1.6286647e-05 -0.0029410939 0.00040183682 -0.0012187117 -0.004999592 0.00021371571 0.0026436928 -0.03078428
0.07588621 0.02111446 -0.00067483063 -0.0016249234 -0.08301206 -0.026971806 0.0045352317 0.09719769
0.03489683 0.19742487 0.0010451209 -0.08688632 -0.0036665564 0.00498863 0.108317174 0.21158327
0.04250971 -0.0048779226 0.0018302104 0.22195426 -0.004240774 0.11380918 0.002795806 0.06205956
-0.001281066 0.070993006 0.14914377 -0.21828765 -0.25422853 0.21146445 -0.023479767 -0.0015192544
0.0035238157 0.28547916 -0.0026038024 -0.30544958 -0.022463093 -0.1301463 -0.04672573 0.08413415
-0.119085416 5.5107845e-05 0.0031048306 -0.0018063588 -0.0014158137 -0.12013665 -0.075549684 0.23364277
0.004387547 0.17472142 -0.03500914 -0.19129726 -0.0032113234 0.0017069391 0.0012933696 -0.0036789107
0.05237072 -0.0007751749 0.004432845 -0.05937313 -0.0025335695 0.07888619 -0.26955983 0.00012100776
-0.21206273 0.24876371 0.039859228 0.0016361066 -0.12960568 -0.038767744 -0.11188844 -0.0010215993
0.0033266293 -0.050059386 -0.013892829 -0.0054229675 -0.0012323576 -0.00023326518 -0.003978382 -0.15886389
0.14370736 -0.09808724 0.0077248197 0.14215872 -0.0009984516 0.19837236 0.0017183917 0.0010248234
0.0022892917 0.0028566527 -0.05185961 -0.00069340074 -0.0187526 -0.0070044394 -0.006332742 -0.0039545284
-0.0025710221 -0.095275015 0.071069166 -0.04765541 -0.078162745 -0.0012004597 -0.07445105 0.39665022
-0.30100566 -0.18506537 0.09882883 -0.04279856 0.0013987625 0.043209765 0.001125564 -0.21905632
0.057991445 -0.005495428 0.17205524 -0.0023236296 -0.0657572 -0.088063076 0.0026511834 0.08198301
0.0016952837 0.102232136 -0.0014420985 0.03458357 0.20596272 -0.0046221795 -0.1784108 0.0032184373
-0.0010658781 0.0012329153 0.0026953167 0.050391756 0.1117929 -0.0016898473 -0.12537557 -0.002841283
-0.06293824 -0.0022341737 0.0026572011 0.11404711 -0.06588027 -0.0014401313 0.0001608347 -0.15482733
0.27968356 -0.12656428 -0.039273188 -0.0011499994 0.0018347417 0.1594279 -0.17846069 -0.000739102
0.044018324 0.25286698 -0.08053511 -0.00096437725 -0.07324741 -0.0013944316 0.0017676494 -0.0008383799
-0.0015790004 -0.0031678996 -0.073447816 0.08812365 0.15561298 -0.09759403 -0.019281672 0.10166464
0.0029885676 -0.058177702 -0.041829 9.301932e-05 0.005280583 -0.0034804356 -0.0014354954 0.0036427698
0.2395981 -0.08652493 0.0024049275 0.0010579346 -0.003238763 -0.04008525 -0.07229104 0.11076232
-0.0059291595 0.0021827817 -0.15897827 -0.086328864 -0.22167186 -0.0009474916 -0.1246405 0.0007230445
-0.10369355 0.00550362 0.054086518 -0.052112732 6.426149e-05 -0.03996204 -0.03189539 0.0011613903
0.040774565 -0.022557242 0.14886619 -0.09232511 0.06352115 -0.07162214 -0.005237644 -0.00039539387
0.00032493463 -0.060231257 0.0026598766 0.00045689777 0.00090693275 -0.12832761 -0.003198448 -0.0026224845
-0.0022454988 -0.14842165 -0.0039287363 0.001957945 -0.0988809 0.22708231 -0.06718837 -0.18409136
0.0023429194 0.1227426 -0.07884862 -0.0034117585 -0.0006831548 -0.09153553 -0.0041469224 0.00016837651
-0.17739353 0.0010619932 0.0015011885 -0.0062433667 -0.12937109 0.0012557956 0.103379995 -0.18527238
-0.0017919528 0.032251608 -0.05281319 -0.060544796 -0.14234339 0.16152978 0.2909636 0.12276267
00000000: 4f9f 88b7 5ebf 40bb a0ad d239 2ebd 9fba
00000010: 9ed3 a3bb e018 6039 ce41 2d3b 502f fcbc
00000020: 3b6a 9b3d 3bf8 ac3c 1ee7 30ba 62fb d4ba
00000030: 3a02 aabd faf3 dcbc 489c 943b 950f c73d
00000040: faef 0e3d bf29 4a3e 70fc 883a 74f1 b1bd
00000050: 9c4a 70bb a977 a33b 65d5 dd3d 49a9 583e
00000060: a91e 2e3d fbd6 9fbb ace3 ef3a fa47 633e
00000070: 31f6 8abb ca14 e93d d739 373b 2a32 7e3d
00000080: 71e9 a7ba c864 913d 25b9 183e cc86 5fbe
00000090: 3e2a 82be 238a 583e a458 c0bc b821 c7ba
000000a0: d1ef 663b 532a 923e 8ea4 2abb e363 9cbe
000000b0: 8504 b8bc 1245 05be 7b63 3fbd 864e ac3d
000000c0: 0ee3 f3bd 9923 6738 6a7a 4b3b 58c3 ecba
000000d0: d392 b9ba 340a f6bd cbb9 9abd 0d40 6f3e
000000e0: 69c5 8f3b 2cea 323e be65 0fbd 6ee3 43be
000000f0: 1175 52bb 5fbb df3a 4886 a93a e119 71bb
00000100: ae82 563d 1b35 4bba 6641 913b 3d31 73bd
00000110: 3e0a 26bb 158f a13d bf03 8abe 8cc5 fd38
00000120: f926 59be eabb 7e3e 6e43 233d a172 d63a
00000130: 5ab7 04be edca 1ebd c425 e5bd 2fe7 85ba
00000140: 9403 5a3b 120b 4dbd c09e 63bc 26b3 b1bb
00000150: 0f87 a1ba a598 74b9 165d 82bb 37ad 22be
00000160: 0628 133e f6e1 c8bd 7c20 fd3b 0e92 113e
00000170: 7ade 82ba 2022 4b3e a83b e13a 5e53 863a
00000180: f107 163b ae36 3b3b be6a 54bd 56c5 35ba
00000190: 0d9f 99bc 7f85 e5bb e482 cfbb fd94 81bb
000001a0: 987e 28bb 8c1f c3bd b68c 913d 5232 43bd
000001b0: ca13 a0bd be58 9dba cb79 98bd bd15 cb3e
000001c0: 6a1d 9abe c781 3dbe c566 ca3d 8b4d 2fbd
000001d0: ae56 b73a b9fc 303d a987 933a 4d50 60be
000001e0: 7088 6d3d fe12 b4bb 402f 303e 0948 18bb
000001f0: b6ab 86bd 6a5a b4bd 7abf 2d3b b5e6 a73d
00000200: 4834 de3a 155f d13d cc04 bdba 80a7 0d3d
00000210: e4e7 523e a775 97bb 52b1 36be 6bec 523b
00000220: efb4 8bba c699 a13a e9a3 303b 9667 4e3d
00000230: adf3 e43d de7d ddba 7462 00be d234 3abb
00000240: c4e5 80bd 376b 12bb 7024 2e3b 8891 e93d
00000250: 3cec 86bd cac2 bcba bca5 2839 0e8b 1ebe
00000260: af32 8f3e 119a 01be ecdc 20bd 94bb 96ba
00000270: b77b f03a 1141 233e 66be 36be 4cc0 41ba
00000280: 8f4c 343d c877 813e 97ef a4bd 43ce 7cba
00000290: bd02 96bd 5cc5 b6ba 79b0 e73a b9c6 5bba
000002a0: 76f6 ceba 899c 4fbb cf6b 96bd 2c7a b43d
000002b0: 0259 1f3e 61df c7bd 99f4 9dbc 8d35 d03d
000002c0: d8db 433b be4b 6ebd e354 2bbd 5e13 c338
000002d0: be08 ad3b 0518 64bb 3c27 bcba 89bb 6e3b
000002e0: 3459 753e fc33 b1bd fd9b 1d3b 65aa 8a3a
000002f0: 6d41 54bb 6e30 24bd 530d 94bd 5bd7 e23d
00000300: 6549 c2bb 000d 0f3b 33cb 22be 30cd b0bd
00000310: f3fd 62be 1661 78ba 8543 ffbd b28a 3d3a
00000320: 495d d4bd b657 b43b d389 5d3d 2974 55bd
00000330: 20c4 8638 3caf 23bd bea4 02bd cb39 983a
00000340: 3b03 273d f7c9 b8bc 6170 183e f314 bdbd
00000350: 6017 823d a1ae 92bd 8ba0 abbb de4c cfb9
00000360: fd5b aa39 0db5 76bd 5351 2e3b c88b ef39
00000370: 3abf 6d3a 5068 03be 0e9d 51bb fddd 2bbb
00000380: 3829 13bb d8fb 17be a1bc 80bb de50 003b
00000390: 1282 cabd 4488 683e 0e9a 89bd 7282 3cbe
000003a0: aa8b 193b 7960 fb3d 637b a1bd cf97 5fbb
000003b0: be15 33ba fb76 bbbd e8e2 87bb 3a8e 3039
000003c0: a6a6 35be 9432 8b3a 87c3 c43a 2895 ccbb
000003d0: db79 04be 8299 a43a e4b8 d33d 0bb8 3dbe
000003e0: f5df eaba 431a 043d a552 58bd d2fd 77bd
000003f0: 77c2 11be 1068 253e 2ef9 943e ff6a fb3d

exp_avg f4 [256, 82]
0.00015957328 -0.00011867692 -5.040773e-05 4.3008295e-05 -2.1119522e-06 1.7059978e-05 -2.0191383e-06 4.291548e-05
4.034719e-05 -5.733656e-06 4.663002e-05 3.7302834e-05 4.1968683e-06 3.6699505e-05 3.85355e-05 1.175036e-06
3.9721315e-05 4.021512e-05 -3.2787923e-06 4.4175144e-05 4.3705375e-05 6.356556e-06 3.453981e-05 3.4112578e-05
-3.449734e-06 4.4346085e-05 4.399675e-05 5.3501884e-05 -1.2605527e-05 -8.582253e-06 -1.3123289e-06 4.220869e-05
4.206144e-05 6.9625294e-06 0.0 4.5624947e-07 -2.0221282e-06 6e-45 2.4617431e-05 -6.829105e-05
0.000109187415 6.22141e-05 -8.2108374e-05 0.00012300472 5.674009e-05 -4.871156e-05 8.9607915e-05 4.9580896e-05
-8.871027e-07 4.1783464e-05 4.1082818e-05 1.903125e-05 2.1865118e-05 1.4408117e-05 3.5929015e-06 3.730346e-05
3.7913695e-05 6.483936e-05 -2.3943008e-05 -1.348863e-05 2.787383e-06 3.8108945e-05 3.8492108e-05 1.9212495e-05
2.1683856e-05 2.3035038e-05 -8.251731e-07 4.1721523e-05 4.1702584e-05 1.815632e-05 2.2740041e-05 2.296985e-05
-8.1234367e-07 6e-45 1.2682394e-05 3.5773573e-06 0.0 4.5219994e-07 0.00025399763 0.0
6e-45 6.19666e-06 2.6551354e-05 -5.3003267e-05 -4.1475974e-05 -2.5557779e-06 -2.3896133e-05 -2.8941091e-05
-3.4487226e-08 -2.6417423e-05 -2.6849917e-05 -2.5298932e-05 -1.1529809e-06 -1.9499386e-05 1.1308194e-06 -2.7582733e-05
-2.7165559e-05 1.885219e-06 -2.8337132e-05 -2.7913333e-05 -1.0678149e-06 -2.5384099e-05 -2.552503e-05 7.4685744e-07
-2.719877e-05 -2.772232e-05 -5.699448e-07 -2.588197e-05 -2.5862722e-05 1.1308622e-05 -3.7760532e-05 -3.6258774e-05
-2.9452886e-07 -2.6157384e-05 -2.6184802e-05 1.309597e-06 0.0 -3.1798413e-07 -3.5793198e-07 6e-45
-8.371653e-06 -1.37239995e-05 -1.27279145e-05 -2.1412012e-05 -3.8850456e-05 1.2398542e-05 -1.9133238e-05 -2.5739955e-05
-7.119567e-07 -2.1698168e-05 2.0827713e-06 -2.8534683e-05 -2.7679198e-05 3.0514864e-06 -2.95034e-05 -3.0864692e-05
3.3941687e-06 -2.9846084e-05 -2.936109e-05 1.0918366e-05 -3.737028e-05 -3.5709105e-05 2.8872983e-06 -2.9339211e-05
-2.9004254e-05 4.3984537e-06 -3.0850366e-05 -3.0443209e-05 -2.964737e-07 -2.615544e-05 -2.6154354e-05 1.0500843e-06
-2.7502e-05 -2.7662441e-05 -4.7830997e-07 6e-45 -1.4811464e-05 -9.50636e-07 0.0 -3.062814e-07
0.0001435458 0.0 6e-45 6.3698535e-06 2.4002187e-05 -6.518004e-06 3.3149693e-06 7.434695e-06
1.0049492e-05 1.1629025e-05 9.829008e-07 1.6501286e-05 1.6570251e-05 4.4162966e-06 1.3067889e-05 1.3066328e-05
1.2865988e-06 1.619759e-05 1.642669e-05 1.4280957e-06 1.6056092e-05 1.6130427e-05 -9.4836787e-07 1.8432556e-05
1.8252784e-05 5.517393e-06 1.1966795e-05 1.2043603e-05 -7.8563954e-07 1.8269826e-05 1.8156936e-05 9.808929e-06
7.675258e-06 8.17097e-06 -1.7030396e-07 1.765449e-05 1.763918e-05 4.424153e-06 0.0 1.899396e-07
-2.0005952e-07 -6e-45 8.653082e-06 -3.9549022e-06 2.1439088e-05 1.861902e-05 -5.014633e-06 2.2498822e-05
1.844998e-05 -7.755181e-06 2.523937e-05 1.892214e-05 -3.0784932e-07 1.7792036e-05 1.7594693e-05 5.32314e-06
1.2161049e-05 1.2217356e-05 5.0896585e-07 1.6975224e-05 1.705789e-05 9.149434e-06 8.334754e-06 9.678494e-06
4.4995804e-07 1.7034228e-05 1.7101598e-05 4.3527166e-06 1.3131469e-05 1.34819675e-05 -7.5321566e-08 1.7559507e-05
1.7558908e-05 6.580459e-06 1.0903731e-05 1.1249223e-05 -6.821693e-08 6e-45 6.9883845e-06 -9.1011503e-07
0.0 2.1287279e-07 3.561681e-05 0.0 -6e-45 -4.0974037e-06 9.233316e-05 -3.3877233e-05
3.4144412e-06 3.7411257e-05 2.1044665e-05 3.4497672e-05 -7.558467e-06 6.60144e-05 6.1435516e-05 1.513332e-05
00000000: 2053 2739 30e2 f8b8 e36c 53b8 ce63 3438
00000010: 10bb 0db6 061c 8f37 8880 07b6 2500 3438
00000020: 773a 2938 bb63 c0b6 9a94 4338 9d75 1c38
00000030: d3d2 8c36 cbed 1938 2ea1 2138 eeb5 9d35
00000040: 709a 2638 a8ac 2838 3909 5cb6 b348 3938
00000050: 4a50 3738 664a d536 d7de 1038 1a14 0f38
00000060: fb81 67b6 3f00 3a38 2789 3838 3667 6038
00000070: 547c 53b7 7ffc 0fb7 4723 b0b5 3c09 3138
00000080: 216b 3038 ac9f e936 0000 0000 73f2 f434
00000090: e6b3 07b6 0400 0000 8881 ce37 7a37 8fb8
000000a0: 8cfb e438 f178 8238 9931 acb8 d4fa 0039
000000b0: 35fc 6d38 a44f 4cb8 e2eb bb38 15f5 4f38
000000c0: 3c21 6eb5 a740 2f38 5750 2c38 4ca5 9f37
000000d0: fc6a b737 64ba 7137 941d 7136 4976 1c38
000000e0: 8505 1f38 5efa 8738 38d9 c8b7 3a4d 62b7
000000f0: e00e 3b36 2bd7 1f38 9672 2138 852a a137
00000100: bae5 b537 5e3b c137 7781 5db5 25fe 2e38
00000110: cfe9 2e38 664e 9837 dec1 be37 61af c037
00000120: d50f 5ab5 0400 0000 78c6 5437 8812 7036
00000130: 0000 0000 e3c5 f234 fc2a 8539 0000 0000
00000140: 0400 0000 e7ec cf36 99ba de37 d34f 5eb8
00000150: 7df6 2db8 ee83 2bb6 8e74 c8b7 85c6 f2b7
00000160: 1b1f 14b3 fc9a ddb7 c23b e1b7 0b39 d4b7
00000170: 1fc0 9ab5 9d92 a3b7 a9c6 9735 7861 e7b7
00000180: 98e1 e3b7 a207 fd35 87b5 edb7 6d27 eab7
00000190: d751 8fb5 f0ef d4b7 961e d6b7 a77b 4835
000001a0: ea28 e4b7 3b8d e8b7 4ffe 18b5 1b1d d9b7
000001b0: c6f3 d8b7 29ba 3d37 1061 1eb8 9014 18b8
000001c0: bd1f 9eb4 8e6c dbb7 6fa7 dbb7 69c5 af35
000001d0: 0000 0000 68b7 aab4 cc29 c0b4 0400 0000
000001e0: fa73 0cb7 2140 66b7 fa89 55b7 f29d b3b7
000001f0: 5cf3 22b8 5503 5037 5180 a0b7 22ec d7b7
00000200: 4b1d 3fb5 7604 b6b7 bdc5 0b36 c45d efb7
00000210: a030 e8b7 23c8 4c36 127e f7b7 b674 01b8
00000220: 60c7 6336 fa5d fab7 764c f6b7 062e 3737
00000230: 08be 1cb8 5cc6 15b8 68c3 4136 7a1d f6b7
00000240: 294e f3b7 6e96 9336 5465 01b8 4b60 ffb7
00000250: 092b 9fb4 6168 dbb7 0c66 dbb7 9ff0 8c35
00000260: 18b4 e6b7 a40c e8b7 3665 00b5 0400 0000
00000270: c17e 78b7 352f 7fb5 0000 0000 ff6e a4b4
00000280: c884 1639 0000 0000 0400 0000 a0bc d536
00000290: 4e58 c937 3ab5 dab6 bd76 5e36 8b77 f936
000002a0: 3d9a 2837 481a 4337 37ec 8335 3e6c 8a37
000002b0: 5800 8b37 b32f 9436 283e 5b37 7437 5b37
000002c0: 33af ac35 0fe0 8737 0ccc 8937 ffac bf35
000002d0: 32b0 8637 d44f 8737 5893 7eb5 9d9f 9a37
000002e0: 8e1d 9937 0c22 b936 fec4 4837 e20e 4a37
000002f0: bde4 52b5 2742 9937 b94f 9837 0791 2437
00000300: fbc4 0037 0d16 0937 ccdc 36b4 bb18 9437
00000310: daf7 9337 2f73 9436 0000 0000 33f2 4b34
00000320: f1cf 56b4 0400 0080 b42c 1137 5ab4 84b6
00000330: 17d8 b337 0a30 9c37 5f43 a8b6 dabb bc37
00000340: 08c5 9a37 401c 02b7 22b9 d337 fcba 9e37
00000350: 7d46 a5b4 1b40 9537 5198 9337 6d9d b236
00000360: 4f07 4c37 25f9 4c37 de9f 0835 0466 8e37
00000370: 8a17 8f37 8580 1937 7fd5 0b37 d160 2237
00000380: c391 f134 bae4 8e37 6775 8f37 8d0d 9236
00000390: 3b4f 5c37 9c30 6237 78c0 a1b3 c14c 9337
000003a0: 784b 9337 b6cd dc36 2bef 3637 0bbb 3c37
000003b0: a77e 92b3 0400 0000 c47d ea36 a14e 74b5
000003c0: 0000 0000 0792 6434 4263 1538 0000 0000
000003d0: 0400 0080 6e7c 89b6 fda2 c138 6717 0eb8
000003e0: a723 6536 08ea 1c38 1389 b037 98b1 1038
000003f0: bd9e fdb6 3671 8a38 f1d6 8038 1de5 7d37
