Config/results/BallCatcher_03/BoxBehavior/BoxBehavior-782800.pt (torch, 221999 bytes, 33 tensors)

network_body.linear_encoder.seq_layers.0.weight f4 [64, 67]
0	0x3db959cf	0.09050333
1	0x3e0039ed	0.12522097
2	0x3d1054e4	0.035237208
3	0xbe5fa66f	-0.21840833
4	0xbda2f83b	-0.079575025
5	0x3d5c3fce	0.053771786
6	0x3e9409ce	0.2891373
7	0x3e2502fc	0.1611442
8	0xbd954e5d	-0.07290337
9	0xbd3a1cd9	-0.045437668
10	0x3df4fdcc	0.119624704
11	0x3e14a01c	0.14514202
12	0x3e373ef4	0.17895108
13	0x3ca82dfd	0.020529741
14	0x3cc1fda3	0.023680514
15	0x3e311017	0.17291294
16	0xbd699fbd	-0.057037104
17	0xbe1a48cc	-0.15066832
18	0x3e83c22b	0.25734076
19	0xbe7dcbde	-0.247848
20	0x3d7dba24	0.061945096
21	0xbdcc5e2e	-0.09978901
22	0x3ddce341	0.10785533
23	0xbdba0255	-0.09082476
24	0xbd034b5e	-0.032054298
25	0x3d03aff1	0.032150213
26	0x3e6ddff6	0.23229966
27	0x3b15656a	0.0022796043
28	0xbe0c735d	-0.13715883
29	0xbd95cf89	-0.07314975
30	0xbda47788	-0.08030611
31	0x3e4fcb91	0.20292498
32	0x3e6a0444	0.2285319
33	0xbe9271db	-0.2860249
34	0xbe194add	-0.14969964
35	0x3d2c1f8a	0.042022265
36	0xbde594af	-0.1121
37	0x3d0617f1	0.032737676
38	0x3d962f74	0.0733327
39	0xbec333b7	-0.38125393
40	0x3e35ac97	0.17741619
41	0x3e2fb1db	0.1715769
42	0x3ca9d8b3	0.020733213
43	0xbd543f00	-0.051817894
44	0xbc84b2c2	-0.01619852
45	0xbe65c3f7	-0.22438036
46	0x3d9a1db9	0.075252004
47	0xbc86c60d	-0.01645186
48	0x39c7026a	0.00037958036
49	0x3c709268	0.0146833435
50	0xbcba5067	-0.022743417
51	0xbe72be76	-0.23705468
52	0x3db432c5	0.08798746
53	0xbc8a60c5	-0.016891846
54	0xbdab7eda	-0.083738044
55	0x3d6e0777	0.058112588
56	0x3d99290b	0.074785315
57	0xbe955cfc	-0.29172504
58	0xbe3a4f0c	-0.18194216
59	0xbbc77323	-0.0060867234
60	0x3df55793	0.11979594
61	0xbdc77b90	-0.097403646
62	0xbd8b1e62	-0.067929044
63	0xbe0d6b66	-0.138105
64	0xbe2527e8	-0.16128504
65	0x3e096da6	0.13420734
66	0x3e1a1a93	0.150492
67	0xbd2b8b91	-0.041881148
68	0x3db19013	0.08670058
69	0xbda442cc	-0.08020553
70	0xbe04b787	-0.12960635
71	0xbe649515	-0.22322495
72	0xbc6b38d4	-0.014356811
73	0xbe016f02	-0.12640002
74	0xbdb4d672	-0.08829965
75	0xbe01889f	-0.12649773
76	0x3d486765	0.04892673
77	0xbda915c3	-0.08256104
78	0xbe6071d2	-0.21918419
79	0x3e1ff793	0.15621786
80	0x3d4f63fa	0.050632454
81	0xbd06b965	-0.03289165
82	0xbeb2f464	-0.3495208
83	0x3db0c941	0.08632136
84	0x3dfdc081	0.12390233
85	0xbe3f6c5c	-0.1869368
86	0x3e15b504	0.14619833
87	0x3dd162a2	0.10223891
88	0x3df7232b	0.12067255
89	0x3e11974c	0.14217871
90	0x3dfbba83	0.12291434
91	0x3daed8a3	0.08537414
92	0xbcccf88c	-0.02502086
93	0xbdd2e1f2	-0.10297002
94	0x3c3eddb5	0.011649539
95	0xbde94f99	-0.11392135
96	0x3e30bb1f	0.17258881
97	0x3c0da51b	0.008645321
98	0x3d844bdd	0.06459782
99	0x3d649678	0.05580756
100	0x3c0b9c25	0.0085211145
101	0xbe32bc99	-0.17454757
102	0xbdc690cc	-0.096955866
103	0x3e0479e0	0.12937117
104	0xbdfd45e2	-0.12366845
105	0x3df0f78d	0.117659666
106	0x3e091e4d	0.13390465
107	0xbd6ecdaf	-0.058301624
108	0xbdea4026	-0.114380166
109	0xbd896d75	-0.067103304
110	0x3d92685a	0.0714881
111	0xbd6b1245	-0.05739047
112	0xbd0344b4	-0.032047942
113	0x3e20c75b	0.15701048
114	0x3d91c241	0.07117129
115	0x3e4ab675	0.19796164
116	0xbe94b699	-0.2904556
117	0x3d9567ec	0.07295212
118	0x3e885995	0.26630846
119	0xbcd17441	-0.02556813
120	0x3c5612ad	0.013065976
121	0xbe51e1da	-0.20496312
122	0xbcd26a42	-0.025685433
123	0xbe0c422a	-0.13697115
124	0x3b685be5	0.0035455164
125	0xbcd2e682	-0.02574468
126	0xbe93df4f	-0.28881308
127	0x3d2c26ce	0.042029195
128	0xbe976c7d	-0.29574957
129	0x3e296483	0.16542248
130	0x3dd7221a	0.10504551
131	0xbe50505b	-0.20343153
132	0x3e4b2eeb	0.19842117
133	0xbe677319	-0.226025
134	0xbe9fba87	-0.31196997
135	0x3ea68d9d	0.32529917
136	0xba48b057	-0.0007655671
137	0xbe5c7433	-0.21528701
138	0x3d98201f	0.074280016
139	0x3e1882ac	0.14893597
140	0x3da97071	0.082733996
141	0xbd81b8e3	-0.063340925
142	0xbcc8fd34	-0.0245348
143	0x3e171470	0.1475389
144	0x3dab5127	0.08365088
145	0xbe183938	-0.14865577
146	0xbcde9cf1	-0.027174445
147	0x3e784a0e	0.24247
148	0x3d649478	0.055805653
149	0x3e8385bd	0.25687972
150	0xbc18c9c3	-0.0093254475
151	0xbd93ba7b	-0.07213303
152	0xbe81c695	-0.2534682
153	0x3e76c7bb	0.24099629
154	0x3d037f98	0.032104105
155	0x3dbf3167	0.093355946
156	0xbe8cd905	-0.27509323
157	0xbdebdb5c	-0.11516449
158	0x3e4b0ce4	0.19829136
159	0x3d93e1f0	0.072208285
160	0xbe268966	-0.16263351
161	0xbdaa94c0	-0.08329153
162	0xbd8e964f	-0.06962263
163	0x3dd75e70	0.105160594
164	0x3e686020	0.22692919
165	0xbc6ed030	-0.014576003
166	0xbdbae50b	-0.09125718
167	0xbdda186a	-0.10649188
168	0x3e26b09f	0.16278313
169	0x3e81b4f4	0.2533337
170	0xbe2cd926	-0.1687971
171	0xbd2b3c63	-0.041805636
172	0xbdf2141e	-0.11820243
173	0x3e9e8cca	0.3096679
174	0x3db09009	0.086212225
175	0xbe106f06	-0.14104852
176	0x3c6bb396	0.014386078
177	0x3bfbddd7	0.0076863575
178	0xbe30f358	-0.17280328
179	0x3e986595	0.29765
180	0x3cfc7f54	0.030822434
181	0x3e60e04d	0.21960564
182	0x3ea630a7	0.32458994
183	0xbe148674	-0.14504415
184	0xbd934ef9	-0.07192797
185	0xbd6c9aee	-0.05776494
186	0x3e7e2a10	0.24820733
187	0xbccbdf9e	-0.024886902
188	0x3d527c83	0.051388275
189	0x3ce8a71d	0.028399998
190	0x3da89c09	0.08232886
191	0x3e3f4512	0.18678692
192	0xbdbda2bf	-0.09259557
193	0xbcd66d4d	-0.026175166
194	0xbe1aaf2a	-0.15105882
195	0x3da25998	0.07927245
196	0xbe3718a7	-0.17880498
197	0x3df0bf77	0.11755269
198	0x3e06c991	0.13162829
199	0x3e18e694	0.14931709
200	0xbd7b3e59	-0.061338756
201	0xbe3dbc02	-0.1852875
202	0xbe01274e	-0.1261265
203	0xbdaa015b	-0.0830104
204	0x3ddb256b	0.10700496
205	0x3e7be062	0.24597314
206	0xbd1e0b69	-0.0385851
207	0xbd95c40f	-0.07312786
208	0xbd9345fe	-0.07191084
209	0xbe2bc8da	-0.16775838
210	0x3c06c23b	0.008225019
211	0x3cebad08	0.028769031
212	0x3c85c2dc	0.016328268
213	0x3ecaa9f8	0.395828
214	0xbe401a57	-0.18760048
215	0xbec4be79	-0.3842657
216	0xbe56c2fd	-0.2097282
217	0xbd8a8f52	-0.067656174
218	0x3e2c501f	0.16827439
219	0x3d17b041	0.037033323
220	0xbde2185e	-0.11039804
221	0x3d253ade	0.040339343
222	0x3cb6f936	0.02233563
223	0xbda86cc6	-0.08223872
224	0x3cc49582	0.023997072
225	0xbdb662d0	-0.08905566
226	0x3db5b489	0.08872325
227	0xbdf9c2b3	-0.12195339
228	0xbdd72b92	-0.10506357
229	0x3d81689c	0.06318781
230	0xbd1542f4	-0.036440805
231	0xbeac27f3	-0.3362423
232	0x3e71eb73	0.23624973
233	0x3e0d9256	0.13825354
234	0xbe2791a2	-0.16364148
235	0x3d0b72a5	0.03404488
236	0x3e282077	0.16418634
237	0x3e225d0e	0.1585581
238	0xbc899cb1	-0.01679835
239	0x3dfde40e	0.123970136
240	0x3dc9e383	0.098578475
241	0xbc678217	-0.014130137
242	0xbda14b1b	-0.07875653
243	0x3d9c3021	0.07626367
244	0xbeaf2dfb	-0.34214768
245	0xbe67852c	-0.22609395
246	0xbd17e2a8	-0.03708139
247	0xbe2f07be	-0.17092797
248	0x3dc885c2	0.09791137
249	0x3d333d9c	0.043759927
250	0xbd659edb	-0.0560597
251	0xbd942cab	-0.07235082
252	0xbdb3fd6e	-0.08788572
253	0x3d364d85	0.044507522
254	0xbbbcaf4b	-0.0057582012
255	0x3dd6cac5	0.10487894

network_body.linear_encoder.seq_layers.0.bias f4 [64]
0	0x3c8102ac	0.015748344
1	0x3cdcceb1	0.026954027
2	0x3c8f0f3f	0.017463325
3	0xbd1c7700	-0.038199425
4	0x3c5acf78	0.0133551285
5	0x3b224f00	0.0024766326
6	0x3db1a953	0.08674874
7	0x3d5ea931	0.054360572
8	0x3db022d3	0.08600392
9	0xbc8464a4	-0.01616127
10	0x3db09d57	0.0862376
11	0x3d53c44a	0.051700868
12	0x3d7b21a4	0.06131138
13	0xbd9d9175	-0.07693759
14	0xbdf8d25f	-0.121495
15	0xbe0891d0	-0.13336873
16	0xbb759e7a	-0.0037478493
17	0xbdb71788	-0.08940035
18	0xbc6cb7a5	-0.014448081
19	0x3d1370f0	0.035996377
20	0x3d222af8	0.03959176
21	0x3c316223	0.01082662
22	0xbdd22f91	-0.10262979
23	0xbd4270fc	-0.04747103
24	0xbcf3c6fe	-0.029757973
25	0x3c9403a5	0.018068144
26	0x3ce1017c	0.027466528
27	0x3c0ef02e	0.0087242555
28	0x3cfe16fb	0.031016817
29	0x3d9d3a89	0.0767718
30	0xbc448ba9	-0.011996188
31	0x3d97c178	0.07409948
32	0xbe809a98	-0.25117946
33	0x3c9657fb	0.0183525
34	0x3cc2433e	0.023713704
35	0x3a4c279c	0.00077878847
36	0x3b8ff469	0.0043931496
37	0xbb0db6f6	-0.0021623946
38	0xbd563991	-0.052300993
39	0x3d1ed1a8	0.038774163
40	0x3d948ed0	0.07253802
41	0x3d08b87d	0.033379067
42	0x3d291512	0.04127986
43	0x3d3e3dee	0.04644578
44	0x3be132e4	0.0068725217
45	0xbc9cc3bc	-0.019136302
46	0x3ca07b7b	0.01959013
47	0x3d3eba86	0.0465646
48	0x3d1d9565	0.03847255
49	0xbe495ce3	-0.1966434
50	0xbc816703	-0.01579619
51	0x3d82c5dd	0.06385396
52	0xbd0c3d85	-0.034238357
53	0x3c3d0ac1	0.011538208
54	0xbb9c043c	-0.004761247
55	0xbcf511fb	-0.0299158
56	0xbd901fbb	-0.07037302
57	0x3cdc17d7	0.026866836
58	0xbbb08fbe	-0.005388229
59	0x3d451fa0	0.048125863
60	0x3cf0be94	0.02938775
61	0x3c9ef9b2	0.019406173
62	0x3dc73f03	0.097288154
63	0xbda7ab85	-0.08187012

network_body.linear_encoder.seq_layers.2.weight f4 [64, 64]
0	0x3de2efa1	0.11080862
1	0x3d5be75f	0.05368745
2	0xbdd6c0af	-0.1048597
3	0x3d5d19cd	0.053979684
4	0x3dbc3227	0.09189253
5	0xbe161680	-0.1465702
6	0xbd83a439	-0.06427807
7	0xbdfa0866	-0.12208633
8	0xbddb7f7c	-0.10717675
9	0xbd573160	-0.052537322
10	0xbe14c3ed	-0.14527865
11	0x3c590747	0.013246364
12	0xbe2bb46f	-0.16768049
13	0x3d4e5048	0.05036953
14	0xbdabc9be	-0.08388089
15	0xbd21833c	-0.039431795
16	0x3d8198a7	0.06327944
17	0xbea81a82	-0.32832724
18	0x3cc4861c	0.02398973
19	0x3d248e77	0.040174928
20	0xbe4f8dde	-0.20268962
21	0x3de3f366	0.11130409
22	0xbb9c7324	-0.004774468
23	0xbe64c9e1	-0.22342636
24	0x3d75a0d8	0.059967846
25	0x3d8f8c79	0.07009215
26	0x3e08c333	0.13355713
27	0xbd2aa1d8	-0.041658252
28	0xbd8b4d4a	-0.06801851
29	0xbda6a5bc	-0.0813708
30	0xbda7ec16	-0.08199327
31	0x3e167d90	0.14696336
32	0xbc951604	-0.018198974
33	0xbda05e66	-0.07830505
34	0x3dcb2a59	0.099201865
35	0xbba41ae3	-0.005008088
36	0xbca1c9f4	-0.019749619
37	0xbd14fe14	-0.03637512
38	0x3e0140d6	0.12622389
39	0xbd8ddf14	-0.069273144
40	0xbdb1ec28	-0.08687621
41	0xbe24e9ef	-0.16104864
42	0x3e5983bc	0.21241659
43	0xbd5d0ddc	-0.053968295
44	0xbc859551	-0.016306551
45	0xbe30a8d5	-0.17251904
46	0xbcc66a8f	-0.024220733
47	0x3e2e48c8	0.17019951
48	0xbe30ddad	-0.17272063
49	0xbdc224cd	-0.094796754
50	0xbd59cb44	-0.053172365
51	0xbe35aa2a	-0.17740694
52	0xbe356968	-0.1771599
53	0xbda4a210	-0.080387235
54	0x3e8e7175	0.27820936
55	0x3dfa73c2	0.1222911
56	0x3cd175b8	0.025568828
57	0xbe408d28	-0.18803847
58	0xbdbff692	-0.093732014
59	0xbd5d09d4	-0.05396445
60	0x3eb10352	0.34572846
61	0xbe427ad8	-0.18992174
62	0xbcc7e57c	-0.024401419
63	0x3d792689	0.060827766
64	0xbe24f838	-0.16110313
65	0xbe705c9c	-0.23472828
66	0xbcff9929	-0.031200962
67	0x3e48056a	0.19533315
68	0xbeb55fa3	-0.35424528
69	0xbec737d3	-0.38909778
70	0xbe14c57f	-0.14528464
71	0x3a6fa86b	0.00091422227
72	0xbdf434a3	-0.11924102
73	0xbe6c6c12	-0.230881
74	0xbd845307	-0.06461149
75	0xbe120e15	-0.14263184
76	0xbca27746	-0.019832265
77	0xbdffd638	-0.12492031
78	0x3a824eb7	0.0009941672
79	0xbdf8bba1	-0.121451624
80	0x3e24cebb	0.16094486
81	0xbc27f3ee	-0.010251028
82	0xbcab3dba	-0.020903457
83	0xbe4711da	-0.19440404
84	0xbdaf02b1	-0.08545435
85	0x3d86465e	0.0655639
86	0x3d140112	0.036133833
87	0x3e48a177	0.19592844
88	0x3da51ab0	0.08061731
89	0x3e2909c5	0.16507633
90	0xbea26654	-0.31718695
91	0xbe474571	-0.19460084
92	0xbe83a0bf	-0.25708577
93	0xbe4cfec9	-0.20019068
94	0x3e14c51f	0.1452832
95	0xbe5bb122	-0.2145429
96	0xbe9c9770	-0.30584288
97	0x3e4ac191	0.19800402
98	0xbe2e9146	-0.17047605
99	0xbe3a82fc	-0.18214029
100	0xbd380c03	-0.04493333
101	0x3dfbebb4	0.12300816
102	0x3d9391ab	0.07205518
103	0xbe3f881d	-0.18704267
104	0xbe84dcb3	-0.2594963
105	0xbe1f741c	-0.15571636
106	0xbdd55cde	-0.10418104
107	0xbea1a7d0	-0.31573343
108	0xbd0f850b	-0.03503899
109	0xbca2cea9	-0.019873934
110	0x3aa741f9	0.001276075
111	0x3d210326	0.039309643
112	0xbd8fd891	-0.07023729
113	0x3eb16882	0.34650046
114	0x3df449f5	0.11928169
115	0xbe9e27fa	-0.30889875
116	0x3e7fbc55	0.24974187
117	0xbe80870e	-0.2510304
118	0xbe217ade	-0.15769526
119	0x3ea6f3bf	0.3260784
120	0x3e6121e9	0.21985592
121	0x3d7fbab9	0.062433932
122	0xbea6348d	-0.32461968
123	0xbd8fda92	-0.07024111
124	0xbe26e10b	-0.16296785
125	0xbe724ea6	-0.23662814
126	0xbcc2ab94	-0.023763455
127	0x3e02497a	0.12723342
128	0xbd3ff336	-0.046862803
129	0xbe84e854	-0.25958502
130	0xbd760382	-0.06006194
131	0x3da97cdc	0.08275768
132	0x3d7dd191	0.061967436
133	0x3dd010d0	0.10159457
134	0xbd650c55	-0.055919964
135	0x3d46516a	0.048417486
136	0xbe92b1b5	-0.28651205
137	0x3dcdf4e5	0.100564755
138	0xbee5c70f	-0.44878432
139	0x3ae37cff	0.0017355977
140	0xbe83d957	-0.25751755
141	0x3d819d8a	0.06328876
142	0xbe2c3802	-0.1681824
143	0x3daadcab	0.0834287
144	0xbd83b814	-0.064315945
145	0x3b8abb2b	0.004233738
146	0x3dfb7126	0.12277441
147	0x3e3249e4	0.17411
148	0xbe240224	-0.16016442
149	0x3e251cb8	0.16124237
150	0xbe0d7da2	-0.13817456
151	0x3dd53646	0.104107425
152	0x3cde0a03	0.027104383
153	0xbe08c713	-0.13357191
154	0x3b5a48af	0.0033307483
155	0x3ea23d55	0.31687418
156	0x3c92feea	0.017943818
157	0xbe17345b	-0.14766066
158	0x3e48aad9	0.19596423
159	0xbea196af	-0.31560275
160	0xbce1561e	-0.027506884
161	0xbd46eb86	-0.048564456
162	0xbc01f517	-0.007931969
163	0xbda430f5	-0.0801715
164	0xbca640a6	-0.020294499
165	0x3e0ead20	0.1393323
166	0x3d46be27	0.048521187
167	0xbe922737	-0.28545544
168	0xbe148852	-0.14505127
169	0xbdeff21f	-0.11716103
170	0xbe4add7a	-0.19811049
171	0xbe1ceb94	-0.15324241
172	0xbe7ec5f4	-0.248802
173	0x3d37465e	0.04474484
174	0x3e38fbcc	0.18064803
175	0x3e8d4675	0.27592817
176	0xbd82c322	-0.06384875
177	0xbb05132a	-0.0020305612
178	0xbd911d05	-0.07085613
179	0x3b0b545c	0.002126
180	0xbd2894db	-0.041157585
181	0x3dbaa7cd	0.09114037
182	0x3e9f70a2	0.3114062
183	0x3d728a8e	0.059214167
184	0xbe5300f1	-0.20605828
185	0xbdd95f7d	-0.10613916
186	0x3d446f4a	0.047957696
187	0xbd83bbb3	-0.06432285
188	0xbe282a22	-0.16422322
189	0xbe540bc5	-0.20707615
190	0x3e1d1de8	0.1534344
191	0x3e560aa7	0.20902501
192	0x3d8fa10e	0.070131406
193	0x3de12273	0.10992899
194	0xbe29da21	-0.16587116
195	0x3e07db76	0.13267311
196	0x3e37b8bd	0.17941566
197	0xbdd1e10a	-0.10248001
198	0x3deb9c22	0.11504389
199	0xbda7ccda	-0.08193369
200	0x3d8e6f80	0.06954861
201	0x3d2d0b4d	0.042247105
202	0xbe61b520	-0.2204175
203	0xbda98ba4	-0.082785875
204	0xbe161a41	-0.14658453
205	0xbdadf8ea	-0.08494742
206	0xbdcc0470	-0.09961784
207	0xbe71e1c4	-0.23621279
208	0x3e3d7097	0.18499981
209	0x3d9c06cf	0.07618486
210	0xbda6580b	-0.081222616
211	0x3e9d6fff	0.3074951
212	0xbe1ec612	-0.15505245
213	0x3e15a669	0.14614262
214	0xbd921009	-0.07131965
215	0xbe3fe10c	-0.18738192
216	0x3dfb6679	0.122754045
217	0xbd3af4ae	-0.0456435
218	0x3c928ecc	0.017890356
219	0xbdfe05eb	-0.124034725
220	0xbd2b91b2	-0.041886993
221	0xbd8f1e94	-0.06988254
222	0xbde2ba7f	-0.110707276
223	0xbe889cd2	-0.26682144
224	0xbceea56b	-0.029131612
225	0x3ddc3896	0.107529804
226	0x3c62dd55	0.013846715
227	0xbc8c08d6	-0.017094057
228	0x3e7efea3	0.24901824
229	0x3d90eefe	0.07076834
230	0xbb59c631	-0.0033229704
231	0x3dd499c4	0.10380891
232	0xbe40ea28	-0.18839324
233	0x3de5167e	0.11185931
234	0x3e10bbde	0.14134166
235	0x3d9ffd4f	0.07811987
236	0x3de06074	0.10955897
237	0x3e5e21ce	0.21692583
238	0xbc95af00	-0.018271923
239	0xbe127240	-0.14301395
240	0xbdf24959	-0.11830396
241	0xbe60550c	-0.21907443
242	0xbdbe6333	-0.092962645
243	0x3d911ce9	0.07085592
244	0x3e01e9b8	0.12686813
245	0x3da096d0	0.07841265
246	0xbd9d4abd	-0.07680271
247	0x3e2bfff6	0.1679686
248	0x3cf6455e	0.030062374
249	0xbd180479	-0.03711364
250	0x3ddbeb4a	0.10738237
251	0xbd2740d6	-0.040833317
252	0xbdf4b5ae	-0.11948715
253	0x3d85aca7	0.065270714
254	0x3cdbf578	0.026850447
255	0xbe09dda8	-0.13463461

network_body.linear_encoder.seq_layers.2.bias f4 [64]
0	0x3cb6004b	0.022216937
1	0xbcf64145	-0.03006042
2	0x3d097a7a	0.03356407
3	0x3d0fe41d	0.035129655
4	0xbbd1651d	-0.0063902275
5	0x3c8db849	0.017299788
6	0xbc87ae58	-0.016562626
7	0x3cd9c8aa	0.026584942
8	0xbd33c7c0	-0.04389167
9	0xbd8b41d7	-0.06799667
10	0x3c44163a	0.01196819
11	0x3c9b13b5	0.018930295
12	0xbd0cf583	-0.034413826
13	0x3d848fea	0.06472762
14	0x3d092e61	0.033491496
15	0x3d263bee	0.040584497
16	0xbdeee51a	-0.116647914
17	0x3d0ab668	0.033865362
18	0x3c9dffec	0.019287072
19	0xba4d016b	-0.00078203407
20	0xbcd85055	-0.026405493
21	0xbb80ddb1	-0.0039326777
22	0xbd97d758	-0.074141204
23	0x3d33e69f	0.04392111
24	0x3d877289	0.06613643
25	0xbd5ea510	-0.054356635
26	0xbd247b45	-0.04015662
27	0x3d17fdec	0.037107393
28	0x3c9113ad	0.017709577
29	0x3c914597	0.017733378
30	0xbb50c4a2	-0.0031855484
31	0xbc9a98a0	-0.018871605
32	0x3d209e0c	0.039213225
33	0x3d9e35b2	0.07725085
34	0xbd323e12	-0.043516226
35	0xba8cc16d	-0.0010738798
36	0x3db9af0a	0.09066589
37	0xbd6e77ba	-0.05821965
38	0xbd3b4f0f	-0.045729693
39	0x3cc83561	0.024439516
40	0xbd270636	-0.040777408
41	0xbcb66de1	-0.022269191
42	0xbc5f9e97	-0.013648651
43	0x3d20b475	0.039234597
44	0x3d60b040	0.054855585
45	0xbd93aa79	-0.072102495
46	0x3ce79e18	0.028273627
47	0x3cbbafb1	0.022910925
48	0xbd3f3f96	-0.0466915
49	0x3d4b8d44	0.04969527
50	0xbc3fc497	-0.0117045855
51	0x3ceead2c	0.02913531
52	0xbd666273	-0.056246232
53	0x3d491fa2	0.049102433
54	0x3ce70879	0.028202282
55	0x3cc3c8ec	0.023899518
56	0x3b82464d	0.0039756657
57	0xbd941216	-0.07230012
58	0x3cbe4acb	0.023229023
59	0x3c3487b0	0.011018679
60	0x3d82f3dd	0.063941695
61	0x3d4ac51b	0.04950438
62	0x3b23908e	0.0024957987
63	0x3d084cbf	0.033276316

distribution.branches.0.weight f4 [3, 64]
0	0x3cc2703a	0.023735154
1	0xbdb13c96	-0.08654134
2	0x3db9d1e1	0.09073234
3	0x3d1e0620	0.03858006
4	0x3d7a1ecb	0.061064523
5	0x3cd6ce3e	0.02622139
6	0xbd5721a7	-0.052522328
7	0x3d2dc034	0.042419627
8	0xbdaea22d	-0.08527026
9	0xbc6d1935	-0.014471342
10	0x3c851d0e	0.016249206
11	0x3c139c7a	0.009009475
12	0xbdab3668	-0.083599865
13	0x3d8fa341	0.0701356
14	0x3d7eb75f	0.062186595
15	0xbe00d844	-0.12582499
16	0xbd3336d1	-0.04375345
17	0xbd93f532	-0.07224502
18	0x3d146f0d	0.03623872
19	0xbd9389e7	-0.07204037
20	0xbd39b0eb	-0.045334738
21	0xbc16d12e	-0.009205146
22	0x3c831ec2	0.016005877
23	0x3d8859f1	0.0665778
24	0x3d8d8e26	0.06911878
25	0xbce84c9f	-0.028356848
26	0x3c947a6c	0.018124782
27	0xbd7ea08d	-0.062164832
28	0xbe116c0c	-0.14201373
29	0x3ccafa4f	0.02477756
30	0xbcedec3c	-0.02904331
31	0xbd9a6217	-0.075382404
32	0x3c505f22	0.012717994
33	0xbd704634	-0.0586607
34	0xbd82e96e	-0.063921794
35	0xbcb736e8	-0.022365049
36	0xbe3fdd8f	-0.18736862
37	0x3c824039	0.015899764
38	0xbda75865	-0.08171157
39	0xbd027671	-0.031851236
40	0xbdad0fd0	-0.084502816
41	0xbc8b5bcf	-0.017011551
42	0x3b0e496a	0.0021711239
43	0xbd89ee68	-0.067349255
44	0x3d64dbc7	0.05587366
45	0xbce549f4	-0.027989365
46	0x3b40edf2	0.0029438701
47	0x3dd7bc36	0.10533945
48	0xbc803b43	-0.015653258
49	0xbe455c26	-0.19273433
50	0x3b9b9729	0.0047482443
51	0xba4d4b60	-0.0007831361
52	0xbd48caf0	-0.04902166
53	0x3dd59df3	0.10430517
54	0x3ccf7a5b	0.025326898
55	0xbdb89860	-0.09013438
56	0xbbbbfc55	-0.0057368674
57	0xbd26bcc0	-0.04070735
58	0xbab0bebd	-0.0013484579
59	0xbda44650	-0.080212235
60	0x3d67695c	0.056496963
61	0xba0c7475	-0.00053579296
62	0x3c6a49d9	0.014299833
63	0xbd841686	-0.064496085
64	0xbbb1125a	-0.005403799
65	0x3d6778c3	0.05651165
66	0xbd7b3103	-0.061326038
67	0xbcfd42c7	-0.030915631
68	0x3cfb42e2	0.03067154
69	0xbcf0b6ba	-0.029384006
70	0xbd253ec6	-0.04034307
71	0xbd369f6f	-0.04458564
72	0xbc0fe2c0	-0.008782089
73	0x3b7e2f41	0.003878549
74	0x3d80f0f2	0.06295957
75	0xbd8c2bf6	-0.068443224
76	0x3dbc937f	0.0920782
77	0xbd934311	-0.07190526
78	0xbd9b5cc4	-0.07586053
79	0x3e2e2304	0.17005545
80	0xbd08364f	-0.033254918
81	0x3dad3ce7	0.08458882
82	0x3be7463f	0.0070579345
83	0x3e1a5ae2	0.15073732
84	0x3ce68ca3	0.028143233
85	0xbd6fdfb7	-0.05856296
86	0xbd44a952	-0.04801304
87	0x3d01cd4c	0.031689927
88	0x3d17e8e9	0.037087355
89	0x3c1e2a4f	0.009653642
90	0x3d7a9275	0.06117483
91	0x3d6854d8	0.05672154
92	0x3e09c9fd	0.13455959
93	0xbc4360fe	-0.01192498
94	0xbccc1791	-0.024913581
95	0x3dc24222	0.0948527
96	0x3ca34a7a	0.019932974
97	0x3dfb1e82	0.12261678
98	0xbcb14592	-0.021639619
99	0x3d9f1b75	0.07768909
100	0x3dc603a0	0.0966866
101	0x3cea526b	0.028603753
102	0x3daa3d45	0.083124675
103	0x3d5946c4	0.053046003
104	0x3d7af966	0.061273
105	0x3c829968	0.01594229
106	0xbd13d1e0	-0.036088824
107	0x3e0fd905	0.1404763
108	0xbd0ae1d0	-0.033906758
109	0x3cc4d3af	0.02402672
110	0xbd01d742	-0.031699426
111	0xbd5be607	-0.053686168
112	0xbd3e32f5	-0.046435315
113	0x3e1a5b51	0.15073897
114	0xbd97c120	-0.074098825
115	0xbd4ec4d4	-0.05048068
116	0xbd3a8256	-0.045534454
117	0x3c1f8022	0.009735139
118	0xbd0921c6	-0.033479474
119	0x3d8eb949	0.06968934
120	0x3cec4f47	0.028846396
121	0x3d4c2007	0.04983523
122	0x3d62ec54	0.05540116
123	0x3d6bd044	0.057571664
124	0x3d9ebc13	0.07750716
125	0xbdae2d40	-0.085047245
126	0xbd439ebd	-0.047758806
127	0xbc76a867	-0.015054799
128	0x3d025c9b	0.031826597
129	0x3d4e8002	0.050415047
130	0x3b16f7f4	0.0023035975
131	0x3cc9b838	0.024623975
132	0xbd323a4f	-0.04351264
133	0x3af58fa7	0.0018734828
134	0x3e055753	0.13021593
135	0x3cb7cc45	0.02243627
136	0x3d57ee75	0.052717645
137	0x3c0971fe	0.008388994
138	0xbd93dbf7	-0.07219689
139	0x3c59c909	0.013292559
140	0x3d0b5c8f	0.034023818
141	0xbc0b61f8	-0.008507244
142	0x3d1baa4a	0.038004197
143	0xbd283a00	-0.041070938
144	0x3d328d73	0.043591928
145	0x3b4d01f6	0.0031281686
146	0xbd7eb366	-0.062182806
147	0xbcf7550b	-0.030191919
148	0xbc0fe39a	-0.008782292
149	0x3da3b832	0.07994117
150	0xbc5f0fb0	-0.01361458
151	0xbc7e2055	-0.015510638
152	0xbcc1928a	-0.023629446
153	0x3cb39d8d	0.021925712
154	0xbc305a33	-0.010763693
155	0x3d484c52	0.04890091
156	0x3c4a1457	0.012333951
157	0xbc85f9e4	-0.016354509
158	0x3e029811	0.12753321
159	0x3ba35c18	0.0049853437
160	0x3c9e0733	0.019290542
161	0xbdc4cff0	-0.096099734
162	0x3e006625	0.12538965
163	0x3bc27ac7	0.0059350464
164	0x3d93241e	0.07184623
165	0xbcec2d7d	-0.028830284
166	0x3d9996f5	0.07499496
167	0x3cbb3a97	0.022855086
168	0x3ddd30e9	0.108003445
169	0x3c90eee8	0.017692044
170	0x3c86e926	0.016468596
171	0xbcfdd088	-0.030983225
172	0x3ca04d2e	0.019568052
173	0xbc789c4e	-0.015173985
174	0x3d4411aa	0.04786841
175	0xbd4af961	-0.049554233
176	0x3c01315d	0.007885304
177	0x3ce8aabd	0.028401727
178	0x3d3c1290	0.04591614
179	0x3d0f8e99	0.0350481
180	0x3ddeefe8	0.10885602
181	0xbdb3a024	-0.08770779
182	0x3d204d06	0.039135955
183	0x3cb3e66a	0.021960456
184	0xbc0507b9	-0.008119517
185	0x3c8a18c2	0.016857509
186	0x3c412abd	0.011789975
187	0xbcbfbdd5	-0.023405949
188	0xbdbec794	-0.0931541
189	0x3de5d1f7	0.11221688
190	0x3d2dfaa5	0.04247536
191	0x3e3d93f4	0.18513471

distribution.branches.0.bias f4 [3]
0	0x3dcaa9c8	0.098956645
1	0xbdacbef8	-0.08434862
2	0x3b5f8fe0	0.0034112856

critic.network_body.linear_encoder.seq_layers.0.weight f4 [64, 67]
0	0xbef3e876	-0.4763829
1	0x3bebbf59	0.0071944413
2	0xbe91dd30	-0.28489065
3	0xbd17ddbe	-0.037076704
4	0x3e206dcd	0.15666886
5	0x3d271b9f	0.040797826
6	0x3eac9e07	0.33714315
7	0x3df3eecc	0.11910781
8	0x3e46c870	0.19412398
9	0x3dd6c625	0.10487012
10	0x3deb7658	0.11497182
11	0x3e06df17	0.1317104
12	0x3bfc3d40	0.0076977313
13	0x3e368c44	0.17826945
14	0x3e56b31f	0.20966767
15	0x3d8b58c7	0.06804042
16	0xbe0c6390	-0.13709855
17	0xbe424472	-0.18971422
18	0xbdfd2ebe	-0.12362431
19	0x3e35a3a0	0.17738199
20	0x3e85df4b	0.26146922
21	0x3dddabac	0.108237594
22	0xbd942bf1	-0.07234944
23	0xbd2b37d0	-0.041801274
24	0x3d343007	0.043991115
25	0x3e9d41e6	0.3071434
26	0x3e88335f	0.26601693
27	0x3e79198b	0.2432615
28	0xbc9cd32e	-0.019143667
29	0x3e0ffb79	0.14060773
30	0xbdd2ee2f	-0.10299336
31	0x3b12eac6	0.0022417768
32	0xbd3babf4	-0.045818284
33	0x3e7ce077	0.24695002
34	0x3dc17752	0.09446587
35	0xbe0726f5	-0.13198455
36	0x3e3b32bb	0.18281071
37	0x3d8db35c	0.06918976
38	0x3da52122	0.0806296
39	0xbd9075be	-0.070537075
40	0xbe2b7ebc	-0.16747564
41	0xbe5fd075	-0.21856864
42	0xbda5f2f1	-0.08102978
43	0x3e0016c5	0.12508686
44	0x3ec1316e	0.37733024
45	0x3eb14753	0.3462473
46	0x3c666335	0.014061739
47	0x3c932572	0.017962191
48	0xbe1c08b7	-0.152377
49	0x3dc6cde9	0.09707243
50	0x3e5db329	0.21650375
51	0x3e5e8264	0.21729428
52	0x3d6eb3be	0.058276884
53	0xbdcae62b	-0.09907182
54	0xbe3ee293	-0.18641119
55	0x3d430dfa	0.04762075
56	0x3e502991	0.20328356
57	0xbe669b27	-0.22520123
58	0x3d0b1470	0.033955038
59	0xbe08d27d	-0.13361545
60	0xbe86b38b	-0.26308855
61	0x3da0aac2	0.078450695
62	0x3e427d81	0.18993188
63	0xbc9b08f3	-0.018925166
64	0x3c054505	0.008134131
65	0x39665686	0.00021966742
66	0x3c12e35a	0.008965338
67	0xbd03c1f6	-0.032167397
68	0x3e4e8424	0.20167595
69	0xbefa795b	-0.48920712
70	0xbf0652cd	-0.52470094
71	0xbd218085	-0.039429206
72	0x3d85d8bd	0.0653548
73	0xbf5b31d6	-0.8562292
74	0x3e468015	0.19384797
75	0x3d969b89	0.07353885
76	0x3c87df8a	0.016586084
77	0x3dcf3a25	0.10118512
78	0xbdcd9c70	-0.10039604
79	0xbdcbf38c	-0.09958562
80	0x3e4cd0bc	0.20001501
81	0x3eb596e5	0.35466686
82	0xbdb10231	-0.08642996
83	0x3de38da8	0.11111003
84	0xbe779a45	-0.24179943
85	0xbdfd50b1	-0.12368906
86	0x3e557f73	0.208494
87	0xbe07084c	-0.13186759
88	0x3d7a27d5	0.061073143
89	0xbc6785bd	-0.014131007
90	0x3ddedd55	0.108820595
91	0xbe866fa1	-0.2625704
92	0xbdd9c01c	-0.10632345
93	0xbd557d0b	-0.052121203
94	0xbe9a25ce	-0.30106968
95	0x3dbd89c8	0.09254795
96	0xbdebda8b	-0.11516293
97	0x3cdd42fd	0.027009482
98	0xbdadc12a	-0.08484109
99	0x3d862579	0.06550116
100	0x3cb5770c	0.022151493
101	0x3e1adcfb	0.1512336
102	0x3de7f2b8	0.11325592
103	0x3e023e57	0.12719093
104	0xbc89f544	-0.016840585
105	0xbc829c2a	-0.015943605
106	0xbdd2dda9	-0.102961846
107	0xbe0c3c22	-0.13694814
108	0xbe5c3487	-0.21504413
109	0xbe1a746f	-0.15083478
110	0x3c833c99	0.016020106
111	0xbe2d732b	-0.16938464
112	0xbe406bc6	-0.18791112
113	0xbe206b13	-0.15665846
114	0x3d197b9f	0.03747141
115	0x3e8f23bf	0.2795696
116	0xbd522f37	-0.05131456
117	0xb9143cdc	-0.00014137052
118	0xbc3154dd	-0.010823456
119	0x3e18dcce	0.1492798
120	0x3e074d88	0.1321317
121	0xbe48f2fd	-0.19623943
122	0x3d86084f	0.065445535
123	0xbdde401f	-0.10852074
124	0x3e7c92d2	0.24665383
125	0xbe2738ab	-0.16330211
126	0x3e5095ba	0.20369616
127	0xbd35ade6	-0.044355296
128	0x3c16ef36	0.009212306
129	0xbddfe598	-0.109324634
130	0xbdfd047c	-0.12354371
131	0xbd800741	-0.062513836
132	0xbcbcdc6b	-0.023054322
133	0x3c37dbac	0.011221807
134	0x3d769351	0.060199086
135	0xbde7c779	-0.11317343
136	0x3e9f2f6a	0.31090862
137	0x3e8bd67b	0.27312073
138	0xbd80698e	-0.06270133
139	0xbe72a224	-0.23694664
140	0x3e299aee	0.16563007
141	0xbd3e788f	-0.046501692
142	0xbea95bfd	-0.33077994
143	0x3cf837f0	0.03030011
144	0x3e3ded48	0.18547547
145	0x3c295c0e	0.010336889
146	0xbe2c2f2b	-0.16814868
147	0x3d29ea04	0.04148294
148	0x3e5bc46e	0.2146165
149	0xbe9e8346	-0.3095953
150	0xbda4b447	-0.08042198
151	0xbd8d57f7	-0.069015436
152	0x3e7d673d	0.24746414
153	0xbe39c63a	-0.18142024
154	0x3d52d24c	0.051470086
155	0xbe673e9c	-0.22582477
156	0x3d095928	0.03353229
157	0x38f0b4c2	0.000114777606
158	0x3ed6549e	0.41861433
159	0xbe799c1f	-0.24375962
160	0xbea9e525	-0.33182636
161	0x3db94b69	0.090475865
162	0x3d911a5f	0.07085108
163	0x3cb5bd1e	0.022184905
164	0x3c25ff76	0.010131707
165	0xbcefbbd0	-0.02926436
166	0x3e2adb51	0.16685225
167	0x3ea3cdad	0.31992856
168	0xbd0384c1	-0.032109026
169	0xbd06c766	-0.032905005
170	0xbd98b026	-0.07455473
171	0x3ceaf90c	0.028683208
172	0xbd0a61f3	-0.033784818
173	0xbec823d5	-0.39089838
174	0xbdb23a94	-0.08702579
175	0x3dba2af4	0.09090224
176	0x3df54615	0.11976258
177	0x3cd26e89	0.025687473
178	0xbcd76fd3	-0.02629844
179	0xbefd4caf	-0.49472567
180	0x3e75ebea	0.24015775
181	0x3e033337	0.12812506
182	0xbe94b14e	-0.29041523
183	0x3d55b84a	0.052177705
184	0xbbdb1233	-0.006685519
185	0xbec3a3c0	-0.3821087
186	0xbd0b4e7b	-0.03401039
187	0xbd2c62a6	-0.042086266
188	0xbdf0dacd	-0.11760483
189	0x3e4483e9	0.19190945
190	0x3b409920	0.0029388145
191	0xbaa2e02f	-0.0012426431
192	0x3d9dfb8e	0.07713996
193	0x3da88da8	0.08230144
194	0xbe6c0fd4	-0.23052913
195	0xbde9e907	-0.114213996
196	0xbe598d6d	-0.21245356
197	0x3dd6f015	0.10495011
198	0xbe089986	-0.13339815
199	0xbe79a4ba	-0.24379244
200	0xbdc0a30f	-0.09406101
201	0x3d4e3466	0.05034294
202	0xbd33670f	-0.043799456
203	0xbd4f536a	-0.05061666
204	0x3c65075e	0.013978807
205	0xbe3fd5a8	-0.18733847
206	0xbc5ef8a6	-0.013609087
207	0xbee01d0b	-0.43772158
208	0x3e37352c	0.17891377
209	0x3d9c32ad	0.07626853
210	0xbe41365e	-0.18868396
211	0x3dd05489	0.10172374
212	0xbd921730	-0.07133329
213	0xbca47604	-0.020075805
214	0xbdcace66	-0.09902649
215	0xbd13dda5	-0.03610005
216	0xbe43ddf9	-0.19127645
217	0xbe58ffda	-0.2119135
218	0x3e172be5	0.14762838
219	0x3cd0e536	0.025499921
220	0x3bee8b73	0.0072798072
221	0xbd95d17d	-0.07315347
222	0xbee19b7c	-0.44063938
223	0x3d9e07a1	0.07716299
224	0x3cad17ef	0.021129576
225	0x3cab2fc3	0.020896798
226	0x3cd520a7	0.026016546
227	0xbe317a80	-0.17331886
228	0xbe52c489	-0.20582785
229	0xbd5f26dd	-0.054480422
230	0xbe026b8b	-0.12736337
231	0x3dccc77a	0.09998985
232	0xbd113da9	-0.035459194
233	0xbe45f897	-0.19333111
234	0xbe5f162d	-0.21785803
235	0xbdc43aaa	-0.09581502
236	0x3e12a264	0.1431976
237	0x3dd6bf38	0.10485691
238	0xbe40c3f4	-0.1882475
239	0xbe65fcbf	-0.22459696
240	0x3e0b10c0	0.13580608
241	0xbd7d0b5f	-0.061778422
242	0xbe63a25b	-0.22229902
243	0x3e03b213	0.12860899
244	0xbe868ce7	-0.26279375
245	0xbea4f91e	-0.3222131
246	0x3f2a7bfb	0.6659543
247	0xbe4c5cb3	-0.19957237
248	0xbda3e9a4	-0.08003548
249	0x3de0de24	0.1097987
250	0xbe0feaac	-0.14054364
251	0xbe4f7ee3	-0.20263247
252	0xbebb4c31	-0.36581567
253	0xbd724d5a	-0.0591558
254	0xbe2d6f40	-0.1693697
255	0x3e33cd38	0.17558753

critic.network_body.linear_encoder.seq_layers.0.bias f4 [64]
0	0x3d977a4c	0.07396373
1	0x3bc303fd	0.005951403
2	0xbca7b52e	-0.020472135
3	0x3a0fa15c	0.00054790615
4	0xbc16b65d	-0.009198752
5	0xbd018cb5	-0.03162833
6	0xbd1ebcc7	-0.03875425
7	0xbd1d9ebf	-0.03848147
8	0x3d3296de	0.04360091
9	0xbad67e66	-0.0016364574
10	0xbbda49f0	-0.006661646
11	0xbc393e1e	-0.011306314
12	0xbd0bf763	-0.034171473
13	0x3d0f40e6	0.034974
14	0xbd422b56	-0.04740461
15	0xbd1a58fd	-0.037682522
16	0x3a64d668	0.0008729459
17	0x3c41590e	0.011801017
18	0x3cc19c80	0.023634195
19	0xbc5130cd	-0.012767983
20	0xbd72d35b	-0.059283596
21	0x3c925df0	0.017867059
22	0x3c324829	0.010881462
23	0xbd4228ff	-0.04740238
24	0x3cd9e52f	0.026598541
25	0xbc9dfea1	-0.019286456
26	0xbb26e660	-0.0025466904
27	0x3c3de4a9	0.011590161
28	0xbc87fd76	-0.016600352
29	0xbc600fba	-0.0136756245
30	0xbbc643e0	-0.006050572
31	0xbcd7a091	-0.026321681
32	0xbd06258e	-0.03275066
33	0x3c937a56	0.01800267
34	0x3cded7b9	0.027202474
35	0xbcf8bd6d	-0.030363763
36	0xbb880495	-0.004150937
37	0xbb837489	-0.004011695
38	0xbc72ecc0	-0.014826953
39	0xbcb72a84	-0.02235914
40	0x3c78278d	0.015146148
41	0x3ca2dbac	0.019880138
42	0xbcfddb42	-0.03098834
43	0xbbf6a9db	-0.0075275726
44	0x3aba3342	0.001420595
45	0x3c232a40	0.009958804
46	0x3c526626	0.012841737
47	0xbb191988	-0.0023361165
48	0xbcc539cc	-0.024075411
49	0xbc95c40f	-0.018281965
50	0x3b25210e	0.0025196704
51	0xbcbc1ea8	-0.022963837
52	0xbcbe98dc	-0.023266248
53	0xbbaaa71e	-0.00520791
54	0xbccf7a7d	-0.025326962
55	0xbcfe948b	-0.03107669
56	0x3d0bec23	0.034160744
57	0x3c993a5a	0.018704582
58	0x3c1a2494	0.009408135
59	0xbc6a9a10	-0.014318958
60	0xbaf58bcf	-0.0018733683
61	0xbbc75c3b	-0.006083993
62	0x3cd085d2	0.025454435
63	0xbd125231	-0.035722915

critic.network_body.linear_encoder.seq_layers.2.weight f4 [64, 64]
0	0xbeb626d8	-0.3557651
1	0x3e1b6367	0.15174638
2	0xbe95e8f3	-0.2927929
3	0xbe80ec3e	-0.25180238
4	0xbdcffb7b	-0.10155388
5	0x3e831113	0.25598964
6	0xbdbfdc2c	-0.09368166
7	0xbeb3b450	-0.35098505
8	0xbd3c6a06	-0.04599955
9	0x3df6c3c0	0.12049055
10	0xbdc455f7	-0.09586709
11	0xbda452cc	-0.08023605
12	0xbe9891fc	-0.29798877
13	0x3e041d20	0.12901735
14	0xbd8736f8	-0.06602281
15	0xbebd12e5	-0.36928478
16	0xbe0d1bfa	-0.13780203
17	0xbe46f4b5	-0.19429286
18	0x3dc3b423	0.09555843
19	0x3db6c4f0	0.089242816
20	0xbe83c90f	-0.25739333
21	0xbd8f3ef1	-0.06994427
22	0x3e8e11eb	0.27748045
23	0x3d278a5b	0.04090343
24	0xbe9eb219	-0.30995253
25	0x3d3fcd55	0.04682668
26	0xbef9d397	-0.48794243
27	0xbec75292	-0.38930184
28	0x3df53344	0.11972669
29	0xbc60eb31	-0.013727949
30	0xbe9c9beb	-0.30587706
31	0x3e0909b2	0.13382605
32	0x3d431159	0.047623966
33	0xbe333ba3	-0.17503218
34	0x3d945b06	0.07243924
35	0xbe5c9821	-0.21542408
36	0xbd4c05fa	-0.049810387
37	0xbe4c6c66	-0.19963226
38	0xbd0f1d07	-0.034939792
39	0xbda3c8ee	-0.07997309
40	0xbddfe4a1	-0.109322794
41	0xbdffc65f	-0.12489008
42	0x3e1a3f70	0.15063262
43	0x3e901ad3	0.28145465
44	0x3d9c20a5	0.07623414
45	0x3eb0ae4d	0.3450798
46	0xbeb7d828	-0.35907102
47	0x3e405868	0.18783724
48	0x3da84058	0.082153976
49	0xbc057aa6	-0.008146917
50	0xbc9f5a67	-0.019452287
51	0xbd30dc80	-0.043179035
52	0xbd129bab	-0.035792988
53	0x3eec3167	0.4613144
54	0x3c64b4dc	0.013959136
55	0xbde4e1bd	-0.11175869
56	0xbe9a8e87	-0.30186865
57	0x3ecc146c	0.3985933
58	0x3c58b665	0.01322708
59	0x3dd0eba4	0.10201195
60	0xbc443a2c	-0.01197676
61	0xbd2b72f3	-0.04185767
62	0xbe1e7e63	-0.154779
63	0x3d22b1b5	0.039720256
64	0xbe95e6d5	-0.29277673
65	0x3d89e126	0.06732397
66	0xbe5164a6	-0.2044855
67	0xbe028c76	-0.12748894
68	0xbe0a7193	-0.13519888
69	0xbde8299d	-0.11336062
70	0x3daac83c	0.08338973
71	0xbcd8c250	-0.026459843
72	0xbe95b1b5	-0.29237142
73	0x3e314ea5	0.17315157
74	0xbded5dbf	-0.11590146
75	0x3cd07368	0.025445655
76	0xbe624139	-0.22095193
77	0x3ca8ea04	0.0206194
78	0xbe6b724f	-0.22992824
79	0xbe7e2a9b	-0.2482094
80	0xbdc8dea8	-0.09808093
81	0xbf085875	-0.53259975
82	0x3e8bc9c9	0.27302387
83	0x3df0b109	0.11752517
84	0x3d5b6c63	0.053570163
85	0x3ee06c40	0.43832588
86	0x3de25b40	0.11052561
87	0x3ad96236	0.0016585055
88	0xbe7c3187	-0.24628268
89	0xbe8d1f00	-0.27562714
90	0x3d69c4ed	0.05707257
91	0xbdd3d27e	-0.103428826
92	0xbdf08939	-0.11744923
93	0x3df64626	0.120250985
94	0x3decc1e8	0.11560422
95	0x3e209636	0.15682301
96	0x3ebfe1f3	0.37477073
97	0xbeddb4fd	-0.43302146
98	0x3d7a3895	0.061089117
99	0xbe1ceec1	-0.15325452
100	0x3e4e33f0	0.20137
101	0xbe9c8a34	-0.3057419
102	0xbd1d29f7	-0.0383701
103	0x3dc77870	0.097397685
104	0xbda57a02	-0.08079912
105	0x3d5b22a9	0.05349985
106	0xbda0dfbf	-0.07855176
107	0x3d588c5f	0.052868243
108	0x3e9a23b6	0.3010537
109	0x3e675f27	0.22594891
110	0xbe031040	-0.12799168
111	0xbb81817c	-0.0039522033
112	0xbb0f87ba	-0.0021900968
113	0xbd8d4379	-0.06897635
114	0xbdb6fdfb	-0.08935162
115	0xbdc755f8	-0.09733194
116	0xbecb97fd	-0.39764395
117	0x3dc3e028	0.09564239
118	0xbdd91e45	-0.106014766
119	0xbe3fd691	-0.18734194
120	0xbe1b20bc	-0.15149206
121	0xbea5680b	-0.3230594
122	0x3e2dffb2	0.16992071
123	0x3de55338	0.11197513
124	0xbd7b2eda	-0.061323978
125	0xbd91a1e3	-0.071109556
126	0xbda56909	-0.080766745
127	0xbd3e90d7	-0.04652485
128	0x3c66ae11	0.014079587
129	0x3d414e6c	0.04719393
130	0xbe5655c5	-0.20931156
131	0xbdb459e4	-0.08806208
132	0xbe4da359	-0.20081843
133	0x3e285a30	0.16440654
134	0xbe1b708c	-0.15179652
135	0x3c1e8b1d	0.009676722
136	0x3e0d3d74	0.13792974
137	0xbc7c01a5	-0.015381251
138	0x3cb64d90	0.022253782
139	0x3c2eaa53	0.010660726
140	0xbe25909c	-0.16168445
141	0x3dc0fd99	0.0942337
142	0x3da1ab54	0.07894006
143	0xbe6ef0cc	-0.23334044
144	0xbb0da2eb	-0.0021612
145	0x3d00e8fa	0.031472184
146	0xbd1f29d2	-0.038858242
147	0xbe4acd4a	-0.19804874
148	0x3e8f0a62	0.2793761
149	0xbca432da	-0.02004378
150	0x3da027cc	0.07820091
151	0x3dea77da	0.11448641
152	0x3e8e5dca	0.2780593
153	0x3dcb9950	0.099413514
154	0x3e3240b0	0.17407489
155	0x3e027d2b	0.1274306
156	0x3d03e822	0.0322038
157	0x3e07c8e4	0.13260227
158	0xbe340e36	-0.17583546
159	0x3e919e9b	0.2844132
160	0xbd35ba98	-0.044367403
161	0xbe00864c	-0.1255123
162	0xbe6cbf43	-0.23119836
163	0x3da3c736	0.07996981
164	0xbe14f249	-0.1454555
165	0xbdc6ccd9	-0.0970704
166	0xbe5f1665	-0.21785887
167	0xbd63682a	-0.05551926
168	0x3dd171ff	0.10226821
169	0xbdce0379	-0.10059256
170	0xbcc2cc4a	-0.023779053
171	0x3e0d2b16	0.13785967
172	0x3db63919	0.08897609
173	0x3dc33c45	0.0953298
174	0xbd9f15cf	-0.077678315
175	0x3d09324f	0.033495244
176	0xbdfc3e6d	-0.12316594
177	0x3d8ecc6e	0.069725856
178	0x3db03080	0.08603001
179	0xbd628adc	-0.055308208
180	0x3cae40c0	0.02127111
181	0x3df5494c	0.11976871
182	0xbbc2c412	-0.0059437836
183	0x3d9b88b2	0.07594432
184	0xbd5f3ac4	-0.054499403
185	0xbe76096e	-0.24027035
186	0xbdf80ccd	-0.121118166
187	0xbe01bee6	-0.12670478
188	0xbd3d4cf3	-0.046215963
189	0x3e10cbfb	0.14140312
190	0x3e4b6876	0.19864067
191	0x3e02bd83	0.12767605
192	0xbdf3c986	-0.11903672
193	0xbd07e637	-0.033178534
194	0x3e3dcadc	0.18534416
195	0x3e1e75e6	0.15474662
196	0xbe29a116	-0.16565356
197	0x3ca3ec07	0.020010008
198	0xbd64ad6e	-0.055829458
199	0x3cfa868b	0.030581733
200	0x3e048e2b	0.12944858
201	0xbe93bbd3	-0.28854236
202	0x3e0a3ad7	0.13499008
203	0x3dbf16eb	0.09330543
204	0x3eea4038	0.4575212
205	0xbe6a7fa2	-0.2290025
206	0x3ca6d598	0.020365521
207	0xbdc1de6b	-0.09466251
208	0x3c8151c0	0.015786052
209	0x3d2c06c4	0.04199864
210	0x3ea971f2	0.33094746
211	0x3e7a93b1	0.24470402
212	0x3b9a43b8	0.0047077797
213	0xbceb9623	-0.028758114
214	0x3e5f9d5b	0.2183737
215	0xbc0a77b1	-0.008451388
216	0x3e266cc1	0.16252424
217	0x3c46849d	0.012116578
218	0xbd9c62db	-0.07636043
219	0x3e3c55b4	0.18392068
220	0x3df702ad	0.12061057
221	0x3cbf6bac	0.023366772
222	0x3e952cc8	0.29135728
223	0xbf0f83aa	-0.5606028
224	0xbc372ce8	-0.01118014
225	0xbe467037	-0.19378744
226	0xbc91387d	-0.017727131
227	0xbe624ca5	-0.2209955
228	0xbeb763ee	-0.35818428
229	0x3e50141d	0.20320173
230	0xbd7a44cd	-0.06110077
231	0x3d40f92b	0.047112625
232	0xbeb78875	-0.35846296
233	0xbe000359	-0.12501277
234	0xbea7fcb9	-0.3281
235	0xbd4ec523	-0.050480973
236	0x3e89f7eb	0.2694696
237	0x3e872f5f	0.2640333
238	0xbe9c65b2	-0.30546337
239	0x3e79e628	0.24404204
240	0xbe2471f9	-0.16059102
241	0xbdd9db34	-0.10637513
242	0x3e06eb4e	0.13175699
243	0xbd08efa0	-0.03343165
244	0x3ef17a4d	0.4716362
245	0x3ddc022d	0.107426025
246	0xbe3da5c9	-0.18520273
247	0xbe7c12f1	-0.246166
248	0xbd86158c	-0.065470785
249	0x3d42a48b	0.0475202
250	0x3d331b1e	0.043727033
251	0x3da05554	0.07828775
252	0x3e7c1548	0.24617493
253	0x3b947970	0.004531078
254	0x3d6fda64	0.058557883
255	0xbe28a371	-0.16468598

critic.network_body.linear_encoder.seq_layers.2.bias f4 [64]
0	0xbd930b8c	-0.07179937
1	0x3d1b79c7	0.037957933
2	0x39b7f507	0.0003508704
3	0xbd859119	-0.06521816
4	0x3b9d2197	0.004795264
5	0xbd9c7e6d	-0.07641301
6	0xbdbc8395	-0.09204785
7	0xbd209ec1	-0.0392139
8	0xbb6a9d47	-0.003579931
9	0xbd8b876d	-0.0681294
10	0xbc232888	-0.009958394
11	0xbd0088bd	-0.031380404
12	0xbdd9a684	-0.106274635
13	0xbe020ace	-0.12699434
14	0xbc64d9c0	-0.013967931
15	0xbde78526	-0.11304693
16	0xbdd97ee3	-0.10619905
17	0xbdb069a7	-0.086139016
18	0xbc086d24	-0.008326802
19	0xbdb6e0ff	-0.08929633
20	0xbc07f089	-0.008297094
21	0xbd17e43d	-0.0370829
22	0xbd9ca5af	-0.07648789
23	0x3b5a00a7	0.003326455
24	0xbd05fbb1	-0.032710735
25	0xbce438c1	-0.027859094
26	0xbc59cf6c	-0.013294082
27	0xbd2e2215	-0.042512972
28	0xbd9582fb	-0.07300373
29	0xbd59aba1	-0.053142194
30	0x3bf8d529	0.00759377
31	0xbb1f66c1	-0.002432272
32	0xbda9de5c	-0.08294365
33	0x3bcd4a97	0.0062649953
34	0xbcb303ac	-0.021852337
35	0x3c554ec4	0.0130192675
36	0xbc253736	-0.010083964
37	0xbdc35a34	-0.09538689
38	0xbc3ea5a8	-0.011636175
39	0x3ab91b70	0.0014122557
40	0xbd91e2d0	-0.07123339
41	0x3bbe1da3	0.005801873
42	0xbd28da3c	-0.04122375
43	0xbd9ac641	-0.07557345
44	0xbda7e3db	-0.08197757
45	0x3d2fa7e7	0.042884734
46	0xbcc65312	-0.024209533
47	0xbdb482fb	-0.08814045
48	0x3d2a78b9	0.041619036
49	0xbd275598	-0.040853113
50	0x3bfb5f78	0.007671293
51	0xbdaa51f6	-0.08316414
52	0x3becdbe0	0.0072283596
53	0xbd449ffe	-0.048004143
54	0xbc5907f3	-0.013246524
55	0x3daeb3b6	0.08530371
56	0xbc411306	-0.011784321
57	0xbcd61f5b	-0.026137998
58	0xbd20512b	-0.039139908
59	0x3c95e0fb	0.018295756
60	0xbd56e415	-0.05246361
61	0xbc5befe5	-0.0134238945
62	0xbd8102d1	-0.06299365
63	0x3d3a711b	0.045518022

critic.value_heads.value_heads.extrinsic.weight f4 [1, 64]
0	0xbea2325f	-0.31679055
1	0x3e4f8d5a	0.20268765
2	0x3df27518	0.1183874
3	0xbe6543b0	-0.22389102
4	0xbb89fac9	-0.004210804
5	0xbddafd71	-0.10692871
6	0xbd40a020	-0.047027707
7	0xbd16bb16	-0.036799513
8	0x3e0105bd	0.12599845
9	0xbe1e4994	-0.15457755
10	0x3cf7bcd3	0.030241406
11	0x3c54fdb3	0.01299994
12	0xbd8f64ea	-0.0700167
13	0xbe842ab2	-0.25813824
14	0x3e262dc5	0.16228397
15	0xbe41c570	-0.18922973
16	0xbe6e8c88	-0.23295796
17	0xbe39528f	-0.180979
18	0x3b3a7df8	0.002845643
19	0xbd54438d	-0.051822234
20	0x3e0787d4	0.13235408
21	0x3e0e8527	0.13917981
22	0xbe1946e8	-0.14968455
23	0xba9df2d4	-0.0012050518
24	0x3c56edec	0.013118248
25	0x3e12cbdf	0.14335583
26	0x3b9e0d81	0.004823387
27	0x3b94104c	0.0045185443
28	0xbe0055e8	-0.1253277
29	0xbc656b0f	-0.014002576
30	0x3d2e3500	0.042531013
31	0x3cb4822d	0.022034729
32	0xbdab2804	-0.08357242
33	0x3dacae8c	0.0843173
34	0x3d3ba73b	0.04581378
35	0x3b538003	0.0032272346
36	0x3d199cf5	0.0375032
37	0xbe33b75a	-0.17550412
38	0x3df65fb6	0.12029974
39	0x3e96029f	0.29298875
40	0xbe2c48a0	-0.16824579
41	0x3e82c3c1	0.25539973
42	0x3cfb4273	0.030671334
43	0xbea167b3	-0.3152443
44	0xbd2ecb32	-0.04267425
45	0xbbd0436e	-0.0063556945
46	0x3e677cba	0.22606173
47	0xbe591087	-0.21197711
48	0x3d8ea15a	0.06964369
49	0x3d86814c	0.0656763
50	0x3e0d7a76	0.13816246
51	0xbe52186c	-0.20517129
52	0x3dccb8a9	0.09996159
53	0x3d89ccf5	0.067285456
54	0x3e6c913b	0.23102276
55	0x3df5c824	0.120010644
56	0xbb4cb4e8	-0.0031235758
57	0x3be33848	0.0069341995
58	0xbb4e6263	-0.0031491749
59	0x386478df	5.4472006e-05
60	0xbd821cf5	-0.06353179
61	0x3e72ac56	0.23698553
62	0xbd8182ab	-0.06323751
63	0x3e3cd795	0.18441613

exp_avg f4 [64, 67]
0	0x3ad39f02	0.001614541
1	0xbb3130a4	-0.0027037049
2	0xbab05340	-0.0013452545
3	0x368d3210	4.2079555e-06
4	0x00000000	0.0
5	0xb81dedf0	-3.7653313e-05
6	0x367d8a08	3.7780283e-06
7	0x00000000	0.0
8	0xb81e4c86	-3.7741404e-05
9	0x39d3fa06	0.00040431338
10	0xbac3c0c8	-0.0014934773
11	0xba7db5fa	-0.00096783007
12	0x39c59970	0.00037689088
13	0xbac028a0	-0.0014660545
14	0xbab8384b	-0.0014054863
15	0x3abbf76d	0.0014340706
16	0xbb255cdb	-0.0025232348
17	0xbaf6bf68	-0.0018825354
18	0xb9e2004b	-0.00043106297
19	0xba2c8468	-0.00065810094
20	0xba401d3f	-0.0007328577
21	0xb8eb1b26	-0.0001121073
22	0xba801094	-0.0009770566
23	0xba728f6d	-0.00092529395
24	0xb90b14da	-0.00013263841
25	0xba7abf4f	-0.00095652504
26	0xba8252ab	-0.000994285
27	0xb9c1570b	-0.0003687668
28	0xba3cd908	-0.0007203971
29	0xba407ebe	-0.0007343105
30	0xb92ab4a8	-0.00016279763
31	0xba72d761	-0.00092636613
32	0xba6ceae3	-0.00090376864
33	0xba214576	-0.0006152013
34	0xb9f87e1d	-0.00047396208
35	0xba0cff6e	-0.0005378638
36	0x3b625515	0.0034535576
37	0xbb94db1d	-0.004542722
38	0xbb0841ec	-0.0020791246
39	0xba738f3b	-0.00092910574
40	0xb927d547	-0.00016005813
41	0xba0f7f13	-0.00054739526
42	0x38673119	5.5120418e-05
43	0xba95fbcd	-0.001144284
44	0xba94dd2b	-0.0011357417
45	0xb859fd41	-5.1972693e-05
46	0xba87f259	-0.0010371908
47	0xba86cb29	-0.0010283935
48	0xba484eb5	-0.0007641123
49	0xb9aa6bb3	-0.0003250517
50	0xba389cf4	-0.0007042431
51	0xb801cd71	-3.094733e-05
52	0xba8ab3d7	-0.0010582161
53	0xba8a7eb1	-0.0010566321
54	0xb97f37c6	-0.00024339472
55	0xba5db69d	-0.00084576925
56	0xba622b2c	-0.0008627649
57	0x38807579	6.1253966e-05
58	0xba96c999	-0.0011504173
59	0xba95b2ed	-0.0011421122
60	0xba7d3868	-0.0009659589
61	0xb9013079	-0.00012320456
62	0xb99bb25e	-0.00029696798
63	0xbbc3d83b	-0.0059767044
64	0x00000000	0.0
65	0x00000004	6e-45
66	0x3a04fc02	0.00050729525
67	0xb935aa5e	-0.00017324972
68	0x381e8877	3.779723e-05
69	0xb85de7dd	-5.2906445e-05
70	0xb3965c85	-7.0017485e-08
71	0x00000000	0.0
72	0xb69d06fb	-4.6797772e-06
73	0x3433e3bd	1.6753525e-07
74	0x00000000	0.0
75	0xb69d2e0e	-4.684326e-06
76	0x38824741	6.212155e-05
77	0xb94f2be2	-0.00019757406
78	0xb909b0bc	-0.00013131177
79	0xb916bbe8	-0.00014375115
80	0x370b3a72	8.2986535e-06
81	0xb8575600	-5.134009e-05
82	0xb8af12f6	-8.348182e-05
83	0xb859fb11	-5.1970655e-05
84	0xb8ae54cf	-8.3127634e-05
85	0x3785e328	1.5960613e-05
86	0xb91ec4a5	-0.0001514131
87	0xb91c0363	-0.00014878581
88	0x31e71700	6.7255996e-09
89	0xb90e0a0c	-0.00013545918
90	0xb90f43e9	-0.00013662841
91	0x363dfbea	2.8309828e-06
92	0xb911002e	-0.00013828345
93	0xb9107e01	-0.0001377985
94	0xb600597c	-1.9125573e-06
95	0xb90c06d9	-0.00013353991
96	0xb90d1e70	-0.00013458147
97	0xb689d44f	-4.107634e-06
98	0xb909b99f	-0.00013134487
99	0xb90b324a	-0.00013274807
100	0xb788380b	-1.623856e-05
101	0xb8fa0280	-0.000119213946
102	0xb8fe37c9	-0.000121220546
103	0xb9b10afe	-0.0003376826
104	0x39540dbb	0.0002022301
105	0xb898d128	-7.286883e-05
106	0xb7a7f104	-2.0020183e-05
107	0xb8f21439	-0.00011543226
108	0xb9100f12	-0.00013738524
109	0x37d8da5a	2.5850884e-05
110	0xb9292389	-0.00016130334
111	0xb8bcdfce	-9.0062254e-05
112	0xb68a67ca	-4.124803e-06
113	0xb909b502	-0.00013132769
114	0xb90ae51f	-0.0001324606
115	0xb91b9f32	-0.00014841257
116	0x37596f18	1.2960074e-05
117	0xb80319a7	-3.1256724e-05
118	0xb704e3e1	-7.92087e-06
119	0xb905ba06	-0.00012753168
120	0xb9075aea	-0.00012908471
121	0x375d2acf	1.3182594e-05
122	0xb91bdaea	-0.00014863504
123	0xb91aea6f	-0.00014773918
124	0xb6ae01f4	-5.1858315e-06
125	0xb9089832	-0.00013026668
126	0xb909200e	-0.0001307728
127	0x379b0c3e	1.848314e-05
128	0xb92169c5	-0.00015393559
129	0xb91c7824	-0.00014922075
130	0xb9d1895f	-0.00039965936
131	0x00000000	0.0
132	0x00000004	6e-45
133	0xb8a9f3a8	-8.1039325e-05
134	0xba23eaac	-0.00062529254
135	0x3b09b721	0.0021013694
136	0x3acce124	0.0015631062
137	0xb609dea5	-2.0544187e-06
138	0x00000000	0.0
139	0x3855fab3	5.101664e-05
140	0xb5bf46e6	-1.4251243e-06
141	0x00000000	0.0
142	0x38561c4f	5.104794e-05
143	0x398a4e03	0.00026379534
144	0x3a9ee56c	0.0012122816
145	0x3aa57eca	0.0012626287
146	0xb9424b30	-0.00018529291
147	0x3ad9c251	0.0016613697
148	0x3ad56546	0.0016280792
149	0xbad366fb	-0.0016128713
150	0x3b4a6ff4	0.0030889483
151	0x3b174308	0.0023080725
152	0x39a50ba0	0.00031479914
153	0x3a983604	0.0011612778
154	0x3aa15f49	0.0012311722
155	0x36af3d4d	5.2225428e-06
156	0x3ac0c9b3	0.0014708549
157	0x3abaa3ce	0.0014239491
158	0x385c5cf3	5.2538653e-05
159	0x3aba9605	0.0014235383
160	0x3abc91e6	0.0014386743
161	0x393540f5	0.00017285704
162	0x3aaad0cc	0.0013032197
163	0x3aab8e36	0.0013088647
164	0x3855ca87	5.0971776e-05
165	0x3abaca9a	0.0014251054
166	0x3ab928a8	0.0014126496
167	0x39911c79	0.0002767777
168	0x3a9d31cd	0.0011992991
169	0x3aa06ee7	0.0012240083
170	0xbb00c82d	-0.0019650564
171	0x3b6184a3	0.0034411333
172	0x3afc707d	0.0019259598
173	0x3a90bb79	0.0011042199
174	0x39c2f5db	0.0003718574
175	0x3a827974	0.0009954409
176	0xba144f72	-0.000565759
177	0x3b05d054	0.0020418363
178	0x3ae47b42	0.0017431753
179	0x37e5ca5c	2.7393158e-05
180	0x3abde1c6	0.0014486841
181	0x3abdc778	0.0014479002
182	0x39a7fb29	0.0003203985
183	0x3a977a1e	0.001155678
184	0x3ab44846	0.0013754449
185	0xb5d3a60e	-1.5769053e-06
186	0x3ac1add5	0.0014776537
187	0x3ac14a9f	0.001474697
188	0x392e5159	0.00016624237
189	0x3aabaec5	0.001309835
190	0x3aad408d	0.001321809
191	0xb83f9933	-4.5680626e-05
192	0x3ac775b9	0.0015217579
193	0x3ac6cc72	0.0015167131
194	0x39e545c5	0.00043730266
195	0x3a882779	0.001038774
196	0x3a92c41c	0.0011197361
197	0xbaa36d68	-0.0012468519
198	0x00000000	0.0
199	0x80000004	-6e-45
200	0xba4d83ea	-0.0007839786
201	0x391a080e	0.00014689585
202	0x39a89402	0.0003215373
203	0x3a0a0abe	0.0005265883
204	0xb525d03b	-6.1770305e-07
205	0x00000000	0.0
206	0x3787d660	1.619308e-05
207	0x3581cd8f	9.671074e-07
208	0x00000000	0.0
209	0x37878d74	1.6159123e-05
210	0xba5fbed8	-0.0008535213
211	0x3aad4571	0.0013219548
212	0x3a61ae49	0.00086090394
213	0xb60d4b69	-2.1054532e-06
214	0x39f6b2ac	0.00047053897
215	0x3a003ad6	0.000489158
216	0x3a7b7eee	0.0009593804
217	0xba00b2e6	-0.00049094704
218	0x38d242e4	0.0001002604
219	0xb964eb92	-0.00021831531
220	0x3a3406ef	0.0006867488
221	0x3a2a5f68	0.0006499202
222	0xb77184f7	-1.4395678e-05
223	0x39fd243c	0.00048282917
224	0x39fd1495	0.00048271255
225	0xb820eae1	-3.836572e-05
226	0x3a04dab3	0.0005067989
227	0x3a02dc63	0.00049919466
228	0xb78ae2b7	-1.6556454e-05
229	0x39fe463c	0.00048498984
230	0x39fd521f	0.00048317105
231	0xb7856cae	-1.5905443e-05
232	0x39fdeed1	0.00048433852
233	0x39fd0225	0.00048257518
234	0xb93db55c	-0.00018092006
235	0x3a2a3959	0.0006493531
236	0x3a23e13c	0.0006251519
237	0x3a366700	0.0006958097
238	0xb96e6bf0	-0.00022737659
239	0x39c6cbbf	0.00037917306
240	0xba30bccd	-0.00067420007
241	0x3a95c46a	0.0011426334
242	0x3a3b9b17	0.0007156594
243	0x3a3e80e8	0.00072671333
244	0xb98769c5	-0.0002582801
245	0x38fb3a0a	0.00011979423
246	0xb7e84bc7	-2.7691842e-05
247	0x3a020e68	0.0004961253
248	0x3a01c621	0.0004950483
249	0xba3e38ca	-0.0007256387
250	0x3a9c826b	0.0011940723
251	0x3a735d48	0.00092836143
252	0xb7e9bf01	-2.7864708e-05
253	0x3a0219fc	0.00049629784
254	0x3a01907f	0.0004942491
255	0xb97dfea5	-0.00024222823
