Config/results/BallCatcher_03/BoxBehavior/BoxBehavior-782800.onnx (onnx, 36863 bytes, 6 tensors)

distribution.branches.0.bias f4 [3]
00000000: c8a9 ca3d f8be acbd e08f 5f3b
0.098956645 -0.08434862 0.0034112856

distribution.branches.0.weight f4 [3, 64]
00000000: 3a70 c23c 963c b1bd e1d1 b93d 2006 1e3d
00000010: cb1e 7a3d 3ece d63c a721 57bd 34c0 2d3d
00000020: 2da2 aebd 3519 6dbc 0e1d 853c 7a9c 133c
00000030: 6836 abbd 41a3 8f3d 5fb7 7e3d 44d8 00be
00000040: d136 33bd 32f5 93bd 0d6f 143d e789 93bd
00000050: ebb0 39bd 2ed1 16bc c21e 833c f159 883d
00000060: 268e 8d3d 9f4c e8bc 6c7a 943c 8da0 7ebd
00000070: 0c6c 11be 4ffa ca3c 3cec edbc 1762 9abd
00000080: 225f 503c 3446 70bd 6ee9 82bd e836 b7bc
00000090: 8fdd 3fbe 3940 823c 6558 a7bd 7176 02bd
000000a0: d00f adbd cf5b 8bbc 6a49 0e3b 68ee 89bd
000000b0: c7db 643d f449 e5bc f2ed 403b 36bc d73d
000000c0: 433b 80bc 265c 45be 2997 9b3b 604b 4dba
000000d0: f0ca 48bd f39d d53d 5b7a cf3c 6098 b8bd
000000e0: 55fc bbbb c0bc 26bd bdbe b0ba 5046 a4bd
000000f0: 5c69 673d 7574 0cba d949 6a3c 8616 84bd
00000100: 5a12 b1bb c378 673d 0331 7bbd c742 fdbc
00000110: e242 fb3c bab6 f0bc c63e 25bd 6f9f 36bd
00000120: c0e2 0fbc 412f 7e3b f2f0 803d f62b 8cbd
00000130: 7f93 bc3d 1143 93bd c45c 9bbd 0423 2e3e
00000140: 4f36 08bd e73c ad3d 3f46 e73b e25a 1a3e
00000150: a38c e63c b7df 6fbd 52a9 44bd 4ccd 013d
00000160: e9e8 173d 4f2a 1e3c 7592 7a3d d854 683d
00000170: fdc9 093e fe60 43bc 9117 ccbc 2242 c23d
00000180: 7a4a a33c 821e fb3d 9245 b1bc 751b 9f3d
00000190: a003 c63d 6b52 ea3c 453d aa3d c446 593d
000001a0: 66f9 7a3d 6899 823c e0d1 13bd 05d9 0f3e
000001b0: d0e1 0abd afd3 c43c 42d7 01bd 07e6 5bbd
000001c0: f532 3ebd 515b 1a3e 20c1 97bd d4c4 4ebd
000001d0: 5682 3abd 2280 1f3c c621 09bd 49b9 8e3d
000001e0: 474f ec3c 0720 4c3d 54ec 623d 44d0 6b3d
000001f0: 13bc 9e3d 402d aebd bd9e 43bd 67a8 76bc
00000200: 9b5c 023d 0280 4e3d f4f7 163b 38b8 c93c
00000210: 4f3a 32bd a78f f53a 5357 053e 45cc b73c
00000220: 75ee 573d fe71 093c f7db 93bd 09c9 593c
00000230: 8f5c 0b3d f861 0bbc 4aaa 1b3d 003a 28bd
00000240: 738d 323d f601 4d3b 66b3 7ebd 0b55 f7bc
00000250: 9ae3 0fbc 32b8 a33d b00f 5fbc 5520 7ebc
00000260: 8a92 c1bc 8d9d b33c 335a 30bc 524c 483d
00000270: 5714 4a3c e4f9 85bc 1198 023e 185c a33b
00000280: 3307 9e3c f0cf c4bd 2566 003e c77a c23b
00000290: 1e24 933d 7d2d ecbc f596 993d 973a bb3c
000002a0: e930 dd3d e8ee 903c 26e9 863c 88d0 fdbc
000002b0: 2e4d a03c 4e9c 78bc aa11 443d 61f9 4abd
000002c0: 5d31 013c bdaa e83c 9012 3c3d 998e 0f3d
000002d0: e8ef de3d 24a0 b3bd 064d 203d 6ae6 b33c
000002e0: b907 05bc c218 8a3c bd2a 413c d5bd bfbc
000002f0: 94c7 bebd f7d1 e53d a5fa 2d3d f493 3d3e
0.023735154 -0.08654134 0.09073234 0.03858006 0.061064523 0.02622139 -0.052522328 0.042419627
-0.08527026 -0.014471342 0.016249206 0.009009475 -0.083599865 0.0701356 0.062186595 -0.12582499
-0.04375345 -0.07224502 0.03623872 -0.07204037 -0.045334738 -0.009205146 0.016005877 0.0665778
0.06911878 -0.028356848 0.018124782 -0.062164832 -0.14201373 0.02477756 -0.02904331 -0.075382404
0.012717994 -0.0586607 -0.063921794 -0.022365049 -0.18736862 0.015899764 -0.08171157 -0.031851236
-0.084502816 -0.017011551 0.0021711239 -0.067349255 0.05587366 -0.027989365 0.0029438701 0.10533945
-0.015653258 -0.19273433 0.0047482443 -0.0007831361 -0.04902166 0.10430517 0.025326898 -0.09013438
-0.0057368674 -0.04070735 -0.0013484579 -0.080212235 0.056496963 -0.00053579296 0.014299833 -0.064496085
-0.005403799 0.05651165 -0.061326038 -0.030915631 0.03067154 -0.029384006 -0.04034307 -0.04458564
-0.008782089 0.003878549 0.06295957 -0.068443224 0.0920782 -0.07190526 -0.07586053 0.17005545
-0.033254918 0.08458882 0.0070579345 0.15073732 0.028143233 -0.05856296 -0.04801304 0.031689927
0.037087355 0.009653642 0.06117483 0.05672154 0.13455959 -0.01192498 -0.024913581 0.0948527
0.019932974 0.12261678 -0.021639619 0.07768909 0.0966866 0.028603753 0.083124675 0.053046003
0.061273 0.01594229 -0.036088824 0.1404763 -0.033906758 0.02402672 -0.031699426 -0.053686168
-0.046435315 0.15073897 -0.074098825 -0.05048068 -0.045534454 0.009735139 -0.033479474 0.06968934
0.028846396 0.04983523 0.05540116 0.057571664 0.07750716 -0.085047245 -0.047758806 -0.015054799
0.031826597 0.050415047 0.0023035975 0.024623975 -0.04351264 0.0018734828 0.13021593 0.02243627
0.052717645 0.008388994 -0.07219689 0.013292559 0.034023818 -0.008507244 0.038004197 -0.041070938
0.043591928 0.0031281686 -0.062182806 -0.030191919 -0.008782292 0.07994117 -0.01361458 -0.015510638
-0.023629446 0.021925712 -0.010763693 0.04890091 0.012333951 -0.016354509 0.12753321 0.0049853437
0.019290542 -0.096099734 0.12538965 0.0059350464 0.07184623 -0.028830284 0.07499496 0.022855086
0.108003445 0.017692044 0.016468596 -0.030983225 0.019568052 -0.015173985 0.04786841 -0.049554233
0.007885304 0.028401727 0.04591614 0.0350481 0.10885602 -0.08770779 0.039135955 0.021960456
-0.008119517 0.016857509 0.011789975 -0.023405949 -0.0931541 0.11221688 0.04247536 0.18513471

network_body.linear_encoder.seq_layers.0.bias f4 [64]
00000000: ac02 813c b1ce dc3c 3f0f 8f3c 0077 1cbd
00000010: 78cf 5a3c 004f 223b 53a9 b13d 31a9 5e3d
00000020: d322 b03d a464 84bc 579d b03d 4ac4 533d
00000030: a421 7b3d 7591 9dbd 5fd2 f8bd d091 08be
00000040: 7a9e 75bb 8817 b7bd a5b7 6cbc f070 133d
00000050: f82a 223d 2362 313c 912f d2bd fc70 42bd
00000060: fec6 f3bc a503 943c 7c01 e13c 2ef0 0e3c
00000070: fb16 fe3c 893a 9d3d a98b 44bc 78c1 973d
00000080: 989a 80be fb57 963c 3e43 c23c 9c27 4c3a
00000090: 69f4 8f3b f6b6 0dbb 9139 56bd a8d1 1e3d
000000a0: d08e 943d 7db8 083d 1215 293d ee3d 3e3d
000000b0: e432 e13b bcc3 9cbc 7b7b a03c 86ba 3e3d
000000c0: 6595 1d3d e35c 49be 0367 81bc ddc5 823d
000000d0: 853d 0cbd c10a 3d3c 3c04 9cbb fb11 f5bc
000000e0: bb1f 90bd d717 dc3c be8f b0bb a01f 453d
000000f0: 94be f03c b2f9 9e3c 033f c73d 85ab a7bd
0.015748344 0.026954027 0.017463325 -0.038199425 0.0133551285 0.0024766326 0.08674874 0.054360572
0.08600392 -0.01616127 0.0862376 0.051700868 0.06131138 -0.07693759 -0.121495 -0.13336873
-0.0037478493 -0.08940035 -0.014448081 0.035996377 0.03959176 0.01082662 -0.10262979 -0.04747103
-0.029757973 0.018068144 0.027466528 0.0087242555 0.031016817 0.0767718 -0.011996188 0.07409948
-0.25117946 0.0183525 0.023713704 0.00077878847 0.0043931496 -0.0021623946 -0.052300993 0.038774163
0.07253802 0.033379067 0.04127986 0.04644578 0.0068725217 -0.019136302 0.01959013 0.0465646
0.03847255 -0.1966434 -0.01579619 0.06385396 -0.034238357 0.011538208 -0.004761247 -0.0299158
-0.07037302 0.026866836 -0.005388229 0.048125863 0.02938775 0.019406173 0.097288154 -0.08187012

network_body.linear_encoder.seq_layers.0.weight f4 [64, 67]
00000000: cf59 b93d ed39 003e e454 103d 6fa6 5fbe
00000010: 3bf8 a2bd ce3f 5c3d ce09 943e fc02 253e
00000020: 5d4e 95bd d91c 3abd ccfd f43d 1ca0 143e
00000030: f43e 373e fd2d a83c a3fd c13c 1710 313e
00000040: bd9f 69bd cc48 1abe 2bc2 833e decb 7dbe
00000050: 24ba 7d3d 2e5e ccbd 41e3 dc3d 5502 babd
00000060: 5e4b 03bd f1af 033d f6df 6d3e 6a65 153b
00000070: 5d73 0cbe 89cf 95bd 8877 a4bd 91cb 4f3e
00000080: 4404 6a3e db71 92be dd4a 19be 8a1f 2c3d
00000090: af94 e5bd f117 063d 742f 963d b733 c3be
000000a0: 97ac 353e dbb1 2f3e b3d8 a93c 003f 54bd
000000b0: c2b2 84bc f7c3 65be b91d 9a3d 0dc6 86bc
000000c0: 6a02 c739 6892 703c 6750 babc 76be 72be
000000d0: c532 b43d c560 8abc da7e abbd 7707 6e3d
000000e0: 0b29 993d fc5c 95be 0c4f 3abe 2373 c7bb
000000f0: 9357 f53d 907b c7bd 621e 8bbd 666b 0dbe
00000100: e827 25be a66d 093e 931a 1a3e 918b 2bbd
00000110: 1390 b13d cc42 a4bd 87b7 04be 1595 64be
00000120: d438 6bbc 026f 01be 72d6 b4bd 9f88 01be
00000130: 6567 483d c315 a9bd d271 60be 93f7 1f3e
00000140: fa63 4f3d 65b9 06bd 64f4 b2be 41c9 b03d
00000150: 81c0 fd3d 5c6c 3fbe 04b5 153e a262 d13d
00000160: 2b23 f73d 4c97 113e 83ba fb3d a3d8 ae3d
00000170: 8cf8 ccbc f2e1 d2bd b5dd 3e3c 994f e9bd
00000180: 1fbb 303e 1ba5 0d3c dd4b 843d 7896 643d
00000190: 259c 0b3c 99bc 32be cc90 c6bd e079 043e
000001a0: e245 fdbd 8df7 f03d 4d1e 093e afcd 6ebd
000001b0: 2640 eabd 756d 89bd 5a68 923d 4512 6bbd
000001c0: b444 03bd 5bc7 203e 41c2 913d 75b6 4a3e
000001d0: 99b6 94be ec67 953d 9559 883e 4174 d1bc
000001e0: ad12 563c dae1 51be 426a d2bc 2a42 0cbe
000001f0: e55b 683b 82e6 d2bc 4fdf 93be ce26 2c3d
00000200: 7d6c 97be 8364 293e 1a22 d73d 5b50 50be
00000210: eb2e 4b3e 1973 67be 87ba 9fbe 9d8d a63e
00000220: 57b0 48ba 3374 5cbe 1f20 983d ac82 183e
00000230: 7170 a93d e3b8 81bd 34fd c8bc 7014 173e
00000240: 2751 ab3d 3839 18be f19c debc 0e4a 783e
00000250: 7894 643d bd85 833e c3c9 18bc 7bba 93bd
00000260: 95c6 81be bbc7 763e 987f 033d 6731 bf3d
00000270: 05d9 8cbe 5cdb ebbd e40c 4b3e f0e1 933d
00000280: 6689 26be c094 aabd 4f96 8ebd 705e d73d
00000290: 2060 683e 30d0 6ebc 0be5 babd 6a18 dabd
000002a0: 9fb0 263e f4b4 813e 26d9 2cbe 633c 2bbd
000002b0: 1e14 f2bd ca8c 9e3e 0990 b03d 066f 10be
000002c0: 96b3 6b3c d7dd fb3b 58f3 30be 9565 983e
000002d0: 547f fc3c 4de0 603e a730 a63e 7486 14be
000002e0: f94e 93bd ee9a 6cbd 102a 7e3e 9edf cbbc
000002f0: 837c 523d 1da7 e83c 099c a83d 1245 3f3e
00000300: bfa2 bdbd 4d6d d6bc 2aaf 1abe 9859 a23d
00000310: a718 37be 77bf f03d 91c9 063e 94e6 183e
00000320: 593e 7bbd 02bc 3dbe 4e27 01be 5b01 aabd
00000330: 6b25 db3d 62e0 7b3e 690b 1ebd 0fc4 95bd
00000340: fe45 93bd dac8 2bbe 3bc2 063c 08ad eb3c
00000350: dcc2 853c f8a9 ca3e 571a 40be 79be c4be
00000360: fdc2 56be 528f 8abd 1f50 2c3e 41b0 173d
00000370: 5e18 e2bd de3a 253d 36f9 b63c c66c a8bd
00000380: 8295 c43c d062 b6bd 89b4 b53d b3c2 f9bd
00000390: 922b d7bd 9c68 813d f442 15bd f327 acbe
000003a0: 73eb 713e 5692 0d3e a291 27be a572 0b3d
000003b0: 7720 283e 0e5d 223e b19c 89bc 0ee4 fd3d
000003c0: 83e3 c93d 1782 67bc 1b4b a1bd 2130 9c3d
000003d0: fb2d afbe 2c85 67be a8e2 17bd be07 2fbe
000003e0: c285 c83d 9c3d 333d db9e 65bd ab2c 94bd
000003f0: 6efd b3bd 854d 363d 4baf bcbb c5ca d63d
0.09050333 0.12522097 0.035237208 -0.21840833 -0.079575025 0.053771786 0.2891373 0.1611442
-0.07290337 -0.045437668 0.119624704 0.14514202 0.17895108 0.020529741 0.023680514 0.17291294
-0.057037104 -0.15066832 0.25734076 -0.247848 0.061945096 -0.09978901 0.10785533 -0.09082476
-0.032054298 0.032150213 0.23229966 0.0022796043 -0.13715883 -0.07314975 -0.08030611 0.20292498
0.2285319 -0.2860249 -0.14969964 0.042022265 -0.1121 0.032737676 0.0733327 -0.38125393
0.17741619 0.1715769 0.020733213 -0.051817894 -0.01619852 -0.22438036 0.075252004 -0.01645186
0.00037958036 0.0146833435 -0.022743417 -0.23705468 0.08798746 -0.016891846 -0.083738044 0.058112588
0.074785315 -0.29172504 -0.18194216 -0.0060867234 0.11979594 -0.097403646 -0.067929044 -0.138105
-0.16128504 0.13420734 0.150492 -0.041881148 0.08670058 -0.08020553 -0.12960635 -0.22322495
-0.014356811 -0.12640002 -0.08829965 -0.12649773 0.04892673 -0.08256104 -0.21918419 0.15621786
0.050632454 -0.03289165 -0.3495208 0.08632136 0.12390233 -0.1869368 0.14619833 0.10223891
0.12067255 0.14217871 0.12291434 0.08537414 -0.02502086 -0.10297002 0.011649539 -0.11392135
0.17258881 0.008645321 0.06459782 0.05580756 0.0085211145 -0.17454757 -0.096955866 0.12937117
-0.12366845 0.117659666 0.13390465 -0.058301624 -0.114380166 -0.067103304 0.0714881 -0.05739047
-0.032047942 0.15701048 0.07117129 0.19796164 -0.2904556 0.07295212 0.26630846 -0.02556813
0.013065976 -0.20496312 -0.025685433 -0.13697115 0.0035455164 -0.02574468 -0.28881308 0.042029195
-0.29574957 0.16542248 0.10504551 -0.20343153 0.19842117 -0.226025 -0.31196997 0.32529917
-0.0007655671 -0.21528701 0.074280016 0.14893597 0.082733996 -0.063340925 -0.0245348 0.1475389
0.08365088 -0.14865577 -0.027174445 0.24247 0.055805653 0.25687972 -0.0093254475 -0.07213303
-0.2534682 0.24099629 0.032104105 0.093355946 -0.27509323 -0.11516449 0.19829136 0.072208285
-0.16263351 -0.08329153 -0.06962263 0.105160594 0.22692919 -0.014576003 -0.09125718 -0.10649188
0.16278313 0.2533337 -0.1687971 -0.041805636 -0.11820243 0.3096679 0.086212225 -0.14104852
0.014386078 0.0076863575 -0.17280328 0.29765 0.030822434 0.21960564 0.32458994 -0.14504415
-0.07192797 -0.05776494 0.24820733 -0.024886902 0.051388275 0.028399998 0.08232886 0.18678692
-0.09259557 -0.026175166 -0.15105882 0.07927245 -0.17880498 0.11755269 0.13162829 0.14931709
-0.061338756 -0.1852875 -0.1261265 -0.0830104 0.10700496 0.24597314 -0.0385851 -0.07312786
-0.07191084 -0.16775838 0.008225019 0.028769031 0.016328268 0.395828 -0.18760048 -0.3842657
-0.2097282 -0.067656174 0.16827439 0.037033323 -0.11039804 0.040339343 0.02233563 -0.08223872
0.023997072 -0.08905566 0.08872325 -0.12195339 -0.10506357 0.06318781 -0.036440805 -0.3362423
0.23624973 0.13825354 -0.16364148 0.03404488 0.16418634 0.1585581 -0.01679835 0.123970136
0.098578475 -0.014130137 -0.07875653 0.07626367 -0.34214768 -0.22609395 -0.03708139 -0.17092797
0.09791137 0.043759927 -0.0560597 -0.07235082 -0.08788572 0.044507522 -0.0057582012 0.10487894

network_body.linear_encoder.seq_layers.2.bias f4 [64]
00000000: 4b00 b63c 4541 f6bc 7a7a 093d 1de4 0f3d
00000010: 1d65 d1bb 49b8 8d3c 58ae 87bc aac8 d93c
00000020: c0c7 33bd d741 8bbd 3a16 443c b513 9b3c
00000030: 83f5 0cbd ea8f 843d 612e 093d ee3b 263d
00000040: 1ae5 eebd 68b6 0a3d ecff 9d3c 6b01 4dba
00000050: 5550 d8bc b1dd 80bb 58d7 97bd 9fe6 333d
00000060: 8972 873d 10a5 5ebd 457b 24bd ecfd 173d
00000070: ad13 913c 9745 913c a2c4 50bb a098 9abc
00000080: 0c9e 203d b235 9e3d 123e 32bd 6dc1 8cba
00000090: 0aaf b93d ba77 6ebd 0f4f 3bbd 6135 c83c
000000a0: 3606 27bd e16d b6bc 979e 5fbc 75b4 203d
000000b0: 40b0 603d 79aa 93bd 189e e73c b1af bb3c
000000c0: 963f 3fbd 448d 4b3d 97c4 3fbc 2cad ee3c
000000d0: 7362 66bd a21f 493d 7908 e73c ecc8 c33c
000000e0: 4d46 823b 1612 94bd cb4a be3c b087 343c
000000f0: ddf3 823d 1bc5 4a3d 8e90 233b bf4c 083d
0.022216937 -0.03006042 0.03356407 0.035129655 -0.0063902275 0.017299788 -0.016562626 0.026584942
-0.04389167 -0.06799667 0.01196819 0.018930295 -0.034413826 0.06472762 0.033491496 0.040584497
-0.116647914 0.033865362 0.019287072 -0.00078203407 -0.026405493 -0.0039326777 -0.074141204 0.04392111
0.06613643 -0.054356635 -0.04015662 0.037107393 0.017709577 0.017733378 -0.0031855484 -0.018871605
0.039213225 0.07725085 -0.043516226 -0.0010738798 0.09066589 -0.05821965 -0.045729693 0.024439516
-0.040777408 -0.022269191 -0.013648651 0.039234597 0.054855585 -0.072102495 0.028273627 0.022910925
-0.0466915 0.04969527 -0.0117045855 0.02913531 -0.056246232 0.049102433 0.028202282 0.023899518
0.0039756657 -0.07230012 0.023229023 0.011018679 0.063941695 0.04950438 0.0024957987 0.033276316

network_body.linear_encoder.seq_layers.2.weight f4 [64, 64]
00000000: a1ef e23d 5fe7 5b3d afc0 d6bd cd19 5d3d
00000010: 2732 bc3d 8016 16be 39a4 83bd 6608 fabd
00000020: 7c7f dbbd 6031 57bd edc3 14be 4707 593c
00000030: 6fb4 2bbe 4850 4e3d bec9 abbd 3c83 21bd
00000040: a798 813d 821a a8be 1c86 c43c 778e 243d
00000050: de8d 4fbe 66f3 e33d 2473 9cbb e1c9 64be
00000060: d8a0 753d 798c 8f3d 33c3 083e d8a1 2abd
00000070: 4a4d 8bbd bca5 a6bd 16ec a7bd 907d 163e
00000080: 0416 95bc 665e a0bd 592a cb3d e31a a4bb
00000090: f4c9 a1bc 14fe 14bd d640 013e 14df 8dbd
000000a0: 28ec b1bd efe9 24be bc83 593e dc0d 5dbd
000000b0: 5195 85bc d5a8 30be 8f6a c6bc c848 2e3e
000000c0: addd 30be cd24 c2bd 44cb 59bd 2aaa 35be
000000d0: 6869 35be 10a2 a4bd 7571 8e3e c273 fa3d
000000e0: b875 d13c 288d 40be 92f6 bfbd d409 5dbd
000000f0: 5203 b13e d87a 42be 7ce5 c7bc 8926 793d
00000100: 38f8 24be 9c5c 70be 2999 ffbc 6a05 483e
00000110: a35f b5be d337 c7be 7fc5 14be 6ba8 6f3a
00000120: a334 f4bd 126c 6cbe 0753 84bd 150e 12be
00000130: 4677 a2bc 38d6 ffbd b74e 823a a1bb f8bd
00000140: bbce 243e eef3 27bc ba3d abbc da11 47be
00000150: b102 afbd 5e46 863d 1201 143d 77a1 483e
00000160: b01a a53d c509 293e 5466 a2be 7145 47be
00000170: bfa0 83be c9fe 4cbe 1fc5 143e 22b1 5bbe
00000180: 7097 9cbe 91c1 4a3e 4691 2ebe fc82 3abe
00000190: 030c 38bd b4eb fb3d ab91 933d 1d88 3fbe
000001a0: b3dc 84be 1c74 1fbe de5c d5bd d0a7 a1be
000001b0: 0b85 0fbd a9ce a2bc f941 a73a 2603 213d
000001c0: 91d8 8fbd 8268 b13e f549 f43d fa27 9ebe
000001d0: 55bc 7f3e 0e87 80be de7a 21be bff3 a63e
000001e0: e921 613e b9ba 7f3d 8d34 a6be 92da 8fbd
000001f0: 0be1 26be a64e 72be 94ab c2bc 7a49 023e
00000200: 36f3 3fbd 54e8 84be 8203 76bd dc7c a93d
00000210: 91d1 7d3d d010 d03d 550c 65bd 6a51 463d
00000220: b5b1 92be e5f4 cd3d 0fc7 e5be ff7c e33a
00000230: 57d9 83be 8a9d 813d 0238 2cbe abdc aa3d
00000240: 14b8 83bd 2bbb 8a3b 2671 fb3d e449 323e
00000250: 2402 24be b81c 253e a27d 0dbe 4636 d53d
00000260: 030a de3c 13c7 08be af48 5a3b 553d a23e
00000270: eafe 923c 5b34 17be d9aa 483e af96 a1be
00000280: 1e56 e1bc 86eb 46bd 17f5 01bc f530 a4bd
00000290: a640 a6bc 20ad 0e3e 27be 463d 3727 92be
000002a0: 5288 14be 1ff2 efbd 7add 4abe 94eb 1cbe
000002b0: f4c5 7ebe 5e46 373d ccfb 383e 7546 8d3e
000002c0: 22c3 82bd 2a13 05bb 051d 91bd 5c54 0b3b
000002d0: db94 28bd cda7 ba3d a270 9f3e 8e8a 723d
000002e0: f100 53be 7d5f d9bd 4a6f 443d b3bb 83bd
000002f0: 222a 28be c50b 54be e81d 1d3e a70a 563e
00000300: 0ea1 8f3d 7322 e13d 21da 29be 76db 073e
00000310: bdb8 373e 0ae1 d1bd 229c eb3d dacc a7bd
00000320: 806f 8e3d 4d0b 2d3d 20b5 61be a48b a9bd
00000330: 411a 16be eaf8 adbd 7004 ccbd c4e1 71be
00000340: 9770 3d3e cf06 9c3d 0b58 a6bd ff6f 9d3e
00000350: 12c6 1ebe 69a6 153e 0910 92bd 0ce1 3fbe
00000360: 7966 fb3d aef4 3abd cc8e 923c eb05 febd
00000370: b291 2bbd 941e 8fbd 7fba e2bd d29c 88be
00000380: 6ba5 eebc 9638 dc3d 55dd 623c d608 8cbc
00000390: a3fe 7e3e feee 903d 31c6 59bb c499 d43d
000003a0: 28ea 40be 7e16 e53d debb 103e 4ffd 9f3d
000003b0: 7460 e03d ce21 5e3e 00af 95bc 4072 12be
000003c0: 5949 f2bd 0c55 60be 3363 bebd e91c 913d
000003d0: b8e9 013e d096 a03d bd4a 9dbd f6ff 2b3e
000003e0: 5e45 f63c 7904 18bd 4aeb db3d d640 27bd
000003f0: aeb5 f4bd a7ac 853d 78f5 db3c a8dd 09be
0.11080862 0.05368745 -0.1048597 0.053979684 0.09189253 -0.1465702 -0.06427807 -0.12208633
-0.10717675 -0.052537322 -0.14527865 0.013246364 -0.16768049 0.05036953 -0.08388089 -0.039431795
0.06327944 -0.32832724 0.02398973 0.040174928 -0.20268962 0.11130409 -0.004774468 -0.22342636
0.059967846 0.07009215 0.13355713 -0.041658252 -0.06801851 -0.0813708 -0.08199327 0.14696336
-0.018198974 -0.07830505 0.099201865 -0.005008088 -0.019749619 -0.03637512 0.12622389 -0.069273144
-0.08687621 -0.16104864 0.21241659 -0.053968295 -0.016306551 -0.17251904 -0.024220733 0.17019951
-0.17272063 -0.094796754 -0.053172365 -0.17740694 -0.1771599 -0.080387235 0.27820936 0.1222911
0.025568828 -0.18803847 -0.093732014 -0.05396445 0.34572846 -0.18992174 -0.024401419 0.060827766
-0.16110313 -0.23472828 -0.031200962 0.19533315 -0.35424528 -0.38909778 -0.14528464 0.00091422227
-0.11924102 -0.230881 -0.06461149 -0.14263184 -0.019832265 -0.12492031 0.0009941672 -0.121451624
0.16094486 -0.010251028 -0.020903457 -0.19440404 -0.08545435 0.0655639 0.036133833 0.19592844
0.08061731 0.16507633 -0.31718695 -0.19460084 -0.25708577 -0.20019068 0.1452832 -0.2145429
-0.30584288 0.19800402 -0.17047605 -0.18214029 -0.04493333 0.12300816 0.07205518 -0.18704267
-0.2594963 -0.15571636 -0.10418104 -0.31573343 -0.03503899 -0.019873934 0.001276075 0.039309643
-0.07023729 0.34650046 0.11928169 -0.30889875 0.24974187 -0.2510304 -0.15769526 0.3260784
0.21985592 0.062433932 -0.32461968 -0.07024111 -0.16296785 -0.23662814 -0.023763455 0.12723342
-0.046862803 -0.25958502 -0.06006194 0.08275768 0.061967436 0.10159457 -0.055919964 0.048417486
-0.28651205 0.100564755 -0.44878432 0.0017355977 -0.25751755 0.06328876 -0.1681824 0.0834287
-0.064315945 0.004233738 0.12277441 0.17411 -0.16016442 0.16124237 -0.13817456 0.104107425
0.027104383 -0.13357191 0.0033307483 0.31687418 0.017943818 -0.14766066 0.19596423 -0.31560275
-0.027506884 -0.048564456 -0.007931969 -0.0801715 -0.020294499 0.1393323 0.048521187 -0.28545544
-0.14505127 -0.11716103 -0.19811049 -0.15324241 -0.248802 0.04474484 0.18064803 0.27592817
-0.06384875 -0.0020305612 -0.07085613 0.002126 -0.041157585 0.09114037 0.3114062 0.059214167
-0.20605828 -0.10613916 0.047957696 -0.06432285 -0.16422322 -0.20707615 0.1534344 0.20902501
0.070131406 0.10992899 -0.16587116 0.13267311 0.17941566 -0.10248001 0.11504389 -0.08193369
0.06954861 0.042247105 -0.2204175 -0.082785875 -0.14658453 -0.08494742 -0.09961784 -0.23621279
0.18499981 0.07618486 -0.081222616 0.3074951 -0.15505245 0.14614262 -0.07131965 -0.18738192
0.122754045 -0.0456435 0.017890356 -0.124034725 -0.041886993 -0.06988254 -0.110707276 -0.26682144
-0.029131612 0.107529804 0.013846715 -0.017094057 0.24901824 0.07076834 -0.0033229704 0.10380891
-0.18839324 0.11185931 0.14134166 0.07811987 0.10955897 0.21692583 -0.018271923 -0.14301395
-0.11830396 -0.21907443 -0.092962645 0.07085592 0.12686813 0.07841265 -0.07680271 0.1679686
0.030062374 -0.03711364 0.10738237 -0.040833317 -0.11948715 0.065270714 0.026850447 -0.13463461
