Config/results/BallCatcher_03/BoxBehavior/BoxBehavior-32740.pt (torch, 221999 bytes, 33 tensors)

network_body.linear_encoder.seq_layers.0.weight f4 [64, 67]
00000000: d836 b63d d546 953d 11cd 3f3d a7b9 82bd
00000010: b051 80bc ad3a 8d3d 95e6 33be acbd 8c3d
00000020: 008e 90bd 0120 c23d d2a5 3a3e ccdd f03d
00000030: 169a 16bd 5f7e 3a3e 1ecd 153a 5ea1 22bd
00000040: e234 04be d1e8 28bd 856c 913e 3f55 023d
00000050: 363d 3fbe 29d7 eb3d d805 d13d 23cd 6cbe
00000060: 2a42 1ebe f199 8c3d 31a9 233e f5f6 273c
00000070: 6762 36bd 2c19 0fbd dd94 0fbb 302c b33d
00000080: 3370 62bd 1a3b 763e e031 2c3e 3345 d3bc
00000090: 7942 733e a3fa 0cbe 8a55 75bd 1cdd 3d3e
000000a0: 0a6f b43c ff77 9dbd 85bb 15bd 5f36 bcbc
000000b0: 4e85 a9bc 0f07 533e 14b2 c53d a7e8 2d3e
000000c0: 4ba7 cb3d eeff f73c 3d78 873e af7a 1dbe
000000d0: 3199 793d 0825 c4bc b81f 323d daf0 b93d
000000e0: afa7 c9bd 822e 803d f825 b1bd 7e1c 7a3c
000000f0: 2f97 44bc 68d9 8bbd ca66 b83d 857c 27be
00000100: da27 05bd f3d9 4b3c ac43 dcbd 896f 343d
00000110: 85b4 bfbc c18d 8dba 11b1 9f3c 2cd9 d33d
00000120: 1fbd f8bc a8a3 9e3d 86bc 403d 366c 6e3d
00000130: 41f4 dbbd f248 813b 5b4a e6bd 3dcf ebbb
00000140: d9b9 fdbc 4f57 aabe 231b ba3d 0bd9 f23c
00000150: db5b c8bc 8ff9 63bd 1e10 d23c 6d6c 273e
00000160: 7ec7 e2bc 0aaf 70be f719 68bc 82af 28be
00000170: cb4f 9cbd c8eb a03c 525d 2b3e db65 333d
00000180: 1186 183e df20 72be b416 223e b8f5 48be
00000190: f2ac 36bb 1fa3 babd 7d70 88bc 5be5 e0bd
000001a0: e94f 13bd 2862 dabd 1f4c 733d 57ed 093e
000001b0: 1aee 54bd 71fd a53d c982 9ebd a781 483e
000001c0: d152 e63d 1e92 b83d 2690 fb3d 5584 a6bd
000001d0: 7c0e e53c 138e 0abe 33a7 8bbc 8118 13be
000001e0: 415c f33d f734 bdbc 7963 073e 92c3 c33d
000001f0: 1a6d 98bc 6511 c9bd 6fe2 333e 9a2b dd3d
00000200: fb38 c3bd f989 74bd aa6d a83c 4b78 e6bd
00000210: f947 cc3d 96c0 07bd af4b 8d3d 391c 1fbe
00000220: c2d4 973d 5bb4 843d 7fb1 9d3d 69d4 9b3d
00000230: 3291 693e c15e a23d eac0 cabd d613 823e
00000240: fa07 fa3c 1051 d6bd e99f 33be 56e3 54bd
00000250: a79d a33c 5ed7 abbd 8fba c13d 700f b1be
00000260: 9aed 82bd e613 463d e7c1 533e 1d2c 753e
00000270: ce9e f63d 84ba 163e d521 3ebe 71a6 51bc
00000280: d9b4 1fbd 33d9 c6bc 6c39 cdbd b515 273e
00000290: 9904 a7bd b72d f73c 6e30 8cbe 8efc 973d
000002a0: 4b68 c93d 0a39 133d 57c5 cabd 4550 7bbd
000002b0: c09a 5a3e 57ff 0dbb 5f2f b03d 2b37 9bbc
000002c0: 7b08 afbb c5f6 7e3e 2de2 723d d05e 61bd
000002d0: 360d 893c 7d73 83bc 195c 2bbe 2a6a 023d
000002e0: 67f2 ae3a 2775 9f3e 9173 04be adea 153e
000002f0: d375 f9bd a7c0 2c3d 016c 833e ee7d 8fbd
00000300: 6e10 0f3e 503c 563d e958 cf3c 36f2 7f3b
00000310: c78a 1bbe 1e1b 4ebc 4d9a e63d ead4 9abd
00000320: d002 413d 6097 6c3e 3288 0cbc 7c67 2dbd
00000330: a8c2 493d b10b 4a3e a048 14be 1dc5 06be
00000340: bcf6 47bd 3598 893d 3d9c 13be 6ea4 2e3e
00000350: c66e c83c 0f1f 8f3e e58f 1f3e 6cb1 853d
00000360: 312a 2e3d 63bf f33d 7abc 833d baff 773e
00000370: 0ab9 3c3c 5394 65be e7a6 7c3d a7dc 933c
00000380: 5203 903d 1176 143e d60c 173e 33c2 99bd
00000390: 3d3c 543d 4ce5 e3bc 3fff 94be b722 423d
000003a0: 88c0 57be b60b f1ba 2495 e93d 3584 7d3d
000003b0: e33a 333c a55f bb3e 4a90 cfbd 9d76 c53c
000003c0: bd65 4ebd ad3b f33c bda5 debd 9784 98bd
000003d0: 9679 a93d 7b58 523e 1f9a 19be d8bf b23c
000003e0: 345d 19be fa29 053e 5c6a 373e 1d26 0a3d
000003f0: 3498 163e d4fb 4bbd c2b9 733d 842e 433e
0.08897179 0.07288901 0.046826426 -0.063830666 -0.015663952 0.06895957 -0.17568429 0.068721145
-0.07058334 0.094787605 0.18227318 0.117610544 -0.03676804 0.18212269 0.0005714464 -0.039704673
-0.12910798 -0.041237656 0.28403106 0.03181958 -0.18675694 0.11515648 0.10206193 -0.23125128
-0.15454927 0.068652995 0.1598251 0.01025175 -0.044527438 -0.034936115 -0.0021908798 0.087486625
-0.055282783 0.24045983 0.16815901 -0.025789833 0.23755826 -0.13767485 -0.05989603 0.18541378
0.022025604 -0.07688903 -0.036555786 -0.022975145 -0.020693447 0.20608161 0.09653106 0.16983281
0.09944018 0.030273404 0.26458922 -0.15378831 0.06093711 -0.02394344 0.04348728 0.09079142
-0.09846436 0.06258871 -0.0864982 0.015265582 -0.011998936 -0.06828576 0.090039805 -0.16356094
-0.03250871 0.0124421 -0.10755095 0.04405168 -0.023401508 -0.0010799692 0.019493612 0.103441566
-0.030363617 0.07746059 0.04705479 0.058208667 -0.10739947 0.0039454633 -0.11244651 -0.0071963356
-0.030972408 -0.33269736 0.09087207 0.02964451 -0.024457863 -0.05565792 0.02564245 0.16349955
-0.027683016 -0.23504272 -0.014166347 -0.16473201 -0.07632407 0.01964368 0.16734818 0.04379831
0.14894892 -0.23645352 0.15828973 -0.19624984 -0.002787408 -0.09113144 -0.016655201 -0.10981246
-0.03596488 -0.10663253 0.059398767 0.13469444 -0.051984884 0.08104981 -0.07739789 0.19580708
0.11246265 0.09012245 0.122833535 -0.08130709 0.027961008 -0.1353076 -0.0170475 -0.14364816
0.118828304 -0.023096545 0.1322154 0.095587865 -0.018606711 -0.09817771 0.17566846 0.10799332
-0.095323525 -0.059701893 0.020560104 -0.11253413 0.09974665 -0.03314265 0.06899201 -0.1553811
0.07413627 0.064797126 0.0769987 0.076088734 0.22809294 0.07928229 -0.09900077 0.2540576
0.030521382 -0.1046468 -0.1754147 -0.051974617 0.019972635 -0.083906874 0.09459411 -0.3458209
-0.06392975 0.04835882 0.20679437 0.23942609 0.12042008 0.14719588 -0.18567593 -0.01279603
-0.03899083 -0.02427349 -0.10020718 0.16316874 -0.08155174 0.030173166 -0.273807 0.07421218
0.098343454 0.03594307 -0.09900921 -0.061355848 0.21348095 -0.0021667087 0.08602785 -0.018947205
-0.005341587 0.24898823 0.05929773 -0.05502206 0.016729932 -0.01604628 -0.16734351 0.031839527
0.0013347388 0.31144068 -0.1293471 0.14640303 -0.12180676 0.042175915 0.25668338 -0.07006441
0.13971111 0.052303612 0.02531095 0.003905428 -0.15189658 -0.012579707 0.11259899 -0.075601414
0.047121823 0.2310462 -0.008577393 -0.04233502 0.049257904 0.19731022 -0.14480829 -0.1316113
-0.04881929 0.06718484 -0.14415069 0.17054912 0.024466883 0.27953383 0.15582235 0.06527981
0.042520706 0.119017385 0.064324334 0.24218646 0.011518726 -0.22419862 0.061682608 0.018049551
0.07031883 0.14498164 0.1475099 -0.07507744 0.05181526 -0.027819298 -0.29100987 0.047396388
-0.21069539 -0.0018390331 0.114053994 0.06189366 0.010939333 0.36596408 -0.10134943 0.02410441
-0.050389994 0.029691542 -0.10871456 -0.074471645 0.08275144 0.20541565 -0.15000199 0.021819994
-0.1497696 0.13004294 0.17911667 0.033727754 0.14706498 -0.04980071 0.059503324 0.19060713

network_body.linear_encoder.seq_layers.0.bias f4 [64]
00000000: 630b 9c3c 2d29 83bc a0de cf3b 9539 833c
00000010: 46c9 24bc d6d0 bfbc cb8e d73c 9696 17bd
00000020: 2402 993c 2091 913c d94d c2bc 3d63 dc3c
00000030: 0978 a53c ef45 ceba fa95 783c d37b 2b3c
00000040: 0143 4bbc 028c 2eb9 1911 a03c 5c01 943c
00000050: 2366 953c 04be 723a 9923 debc 9d34 a73c
00000060: ca97 f4bc dc3e 913c 0ca5 8f3c 25d7 11bd
00000070: a749 1bbd f58b 87bc b130 f1bc 49f8 d63c
00000080: 0cc2 493c 50fc 4ebc bc1a c63c a8dd e9bc
00000090: 0823 7abb 7c34 ed3b 863a e839 9b8e fdbc
000000a0: 002a 833c 8d63 b83c 583d af3c 2eb1 553b
000000b0: 7fdd 85bc a564 bc39 3034 b63c 4788 9f3c
000000c0: 1723 c3bc 416a 323d c708 35bc 174b a9bc
000000d0: 9ec0 a8bc fe55 acba 8ead e93c 54f1 573d
000000e0: 7317 eebc 0ca2 d73c c482 b5bc d84c eb3c
000000f0: 62a1 be3c 2c46 ed3c 0172 0d3d 6211 8e3c
0.019048398 -0.016010845 0.0063436776 0.016018668 -0.010057753 -0.02341501 0.026313206 -0.037008844
0.018677779 0.017769396 -0.023718761 0.02690279 0.020198839 -0.0015737395 0.015172476 0.010466534
-0.012406112 -0.0001664609 0.019539403 0.018067054 0.01823718 0.0009259882 -0.027116584 0.02041083
-0.029857535 0.017730169 0.017534755 -0.03560557 -0.037912037 -0.016546229 -0.029442163 0.026241438
0.012314331 -0.012633398 0.02418267 -0.028548077 -0.0038167853 0.0072389226 0.00044294092 -0.030951789
0.016011238 0.022508407 0.021391556 0.0032606828 -0.01634097 0.0003593314 0.022241682 0.019474162
-0.023820443 0.043558363 -0.011049456 -0.020665688 -0.02059966 -0.0013148186 0.02852514 0.052720383
-0.029063916 0.026322387 -0.02215708 0.028723165 0.023270313 0.028964125 0.03453255 0.017342273

network_body.linear_encoder.seq_layers.2.weight f4 [64, 64]
00000000: e723 0abd 7585 1dbe 6627 813d d496 d63d
00000010: bdc6 38bd 66ba 96bd e141 55bd d24f 5c3c
00000020: 9472 773c fac4 5b3d 7c8d adbd b405 2fbd
00000030: 49c0 b9be b99a 15be 8fd2 dabc cf9b 11be
00000040: 9247 49bd 938a aebd 5e48 5e3d 8864 d53c
00000050: 71af 27be 7e89 4fbe c100 efbd 66b4 7bbe
00000060: a7ae 013d 2c43 b23d 42ff 203e 0b0d 8e3d
00000070: 6d0c 91bd 96e6 233d 0f07 3dbe fbc8 d1bc
00000080: c1d0 3c3e cbc3 16be 9b29 bcbd 4225 59be
00000090: ee84 303d c56b d43d 0ad8 883d 3066 2bbe
000000a0: fac6 483e cb69 27bc 38d0 aabd 40d2 943d
000000b0: 9ec4 99bd eb6e ff3c 074d 4b3d 2004 10be
000000c0: 8809 17be 6386 e2bc be60 063d 5658 23be
000000d0: 7fca 543e cd8b 1abd 9165 aebc 9f29 1abe
000000e0: 2dad 27be 8c0b 403d 82ad 933d 6a9d c63b
000000f0: 4246 8e3d 9857 ce3d cc97 a93d 527a 0c38
00000100: e2b1 5ebe 80ab 9d3d d206 233e aaf5 19be
00000110: d2cf 513e f3e0 03bd 4c44 713d e9a2 e63d
00000120: 4a22 193e 25a1 11be 6605 383c eef9 573c
00000130: 387b f5ba a71a 363d bd0d 903d 423d 4dbd
00000140: 244e 683e 1ed9 b6bd 23fe e4bd a6b6 b43d
00000150: d34c ecbc bdac 5c3c c502 abbe 445d 86bd
00000160: e0d1 54bd 4d1d 9abe 42d9 c2bd 476b 8abe
00000170: 8788 7cbc dd0f 04be cb98 16be 253f aabd
00000180: 1418 663e 18ca a43c 3c25 08be 70eb ecbd
00000190: bd16 70bc 89c8 84bd 5d3a 563d 2d10 38bd
000001a0: 54c5 c63b 811d f0bd fba5 7a3d 23ba 0fbe
000001b0: 3f30 3dbd b388 18bd 0432 323e bf69 c73d
000001c0: af5d 4cbe 6900 253e 4ff2 20be 3ffe 4f3d
000001d0: 9fee 8a3d 515b b03d 842a 95bd d25b 1f3e
000001e0: 2646 1bbe 97e4 4cbd 6a95 0dbe 407a bc3d
000001f0: d2ce 41bc 272d bebd b45b 123e dadf 96bd
00000200: 9d3a b03c b0d9 a1bd 8ba5 813d 075e 403e
00000210: 92e2 803b df6c 57be e4ec 963d 5e7b 6cbe
00000220: 3b46 b3bd f38e 32be f304 21be 0622 00bd
00000230: 3e53 493e f2a4 1abb 508f 5f3d 0969 90bd
00000240: 9817 1dbe 9d59 13be 0920 b03c cb0c 1a3d
00000250: 19b9 613e a93a c33d 8c3d 66bd c6fa 0ebe
00000260: f045 10be 3964 3d3e ecc5 923d def4 8bbd
00000270: 4a72 95be 9580 c9bc a959 a1bd 7a4e ed3c
00000280: f3a8 4c3e b677 81be b3b0 9fbd 8dc3 bd3c
00000290: 8990 b9bd a9c9 7abc 830e e83b 4de3 3fbd
000002a0: 5ddd 95bd 90d8 4d3e 5d8f 793c 9d15 493b
000002b0: 5124 10be 5507 8a3d 2af5 ae3e d019 d73e
000002c0: 7741 85bd e364 2d3e 8b56 a03d 58b3 bdbe
000002d0: 2c0f 26be 0f97 fbbd 0178 0ebd fced 393e
000002e0: 084d 9bbd 42bd 823e a753 08be 813c eb3d
000002f0: bd2b 9fbd e497 013e b63d a73d f20f 033e
00000300: dd12 123c 78f5 44be 2d2c f1bc 074f 243e
00000310: a83d df3c e838 463e 9404 673e 5573 743e
00000320: 058e 47bc dce6 8f3d a2bd 00be afda 2fbe
00000330: 29aa e23b eee1 813d aae7 863e c633 933d
00000340: 094b 243e e9ee dcbc f80f bd3d 469e d53d
00000350: 1034 7abc 2647 06be 3f26 a83d df8d c93d
00000360: 84df 2cbe 7b85 0ebd 3d1a 623d 795a 3ebc
00000370: 9fed abbd 5de7 8abd 5f6f 0f3e 7ba2 2bbd
00000380: 2159 cebc 2e47 eebc 56f6 0a3d 65ac 14bd
00000390: 28ca 3abc f243 833e 80c2 903e 2ea0 623d
000003a0: 9366 1d3e 0655 783d 688d 1abe 055f f13d
000003b0: b64e 65be eaf0 203d 6923 1b3e 66f1 70bb
000003c0: 78f7 17be f187 153e 8a40 38bd d189 43be
000003d0: 5ef0 2f3d c46e b13d 217f 8fbd 7987 8d3d
000003e0: fefe 8dbd de3c 103e cb5f 36be d3c9 dc3c
000003f0: d4c0 10be 92bd 483e 53c7 6bbd fbb3 0b3e
-0.033725645 -0.15382941 0.06306343 0.10477987 -0.045111407 -0.073597714 -0.05206478 0.013446765
0.015103001 0.05365465 -0.08474252 -0.04273005 -0.36279514 -0.14609803 -0.02671173 -0.14219593
-0.04914052 -0.08522525 0.054268233 0.026048914 -0.1637552 -0.20267293 -0.11670066 -0.24580535
0.031660702 0.08704218 0.15722373 0.069360815 -0.07082448 0.040014826 -0.18459724 -0.02560853
0.18439008 -0.14723127 -0.09187623 -0.21205619 0.04309552 0.10372118 0.06681831 -0.167382
0.19607154 -0.010218094 -0.08340496 0.072666645 -0.07508205 0.03118082 0.049634006 -0.14064074
-0.1474973 -0.027651971 0.032807104 -0.15951666 0.20780371 -0.03773098 -0.021288665 -0.1505494
-0.16374655 0.046886012 0.07210828 0.0060612457 0.06946994 0.10075301 0.08280906 3.349252e-05
-0.21747544 0.07698727 0.1592057 -0.1503512 0.20489433 -0.03219695 0.058903024 0.112615414
0.14954486 -0.14221628 0.011231756 0.0131821465 -0.0018728739 0.04445901 0.0703387 -0.050107248
0.22686058 -0.089281306 -0.11181285 0.088239 -0.028845226 0.013468918 -0.3340055 -0.06560758
-0.051957965 -0.3010048 -0.09514095 -0.2703497 -0.01541341 -0.12896676 -0.14706723 -0.08312825
0.22470123 0.020115897 -0.13295454 -0.11568344 -0.014653859 -0.064835615 0.052301753 -0.0449373
0.006066004 -0.117243774 0.061193448 -0.1403585 -0.04618859 -0.03723974 0.17401892 0.09736966
-0.19957612 0.16113438 -0.15717433 0.050779577 0.067837946 0.08611167 -0.072835 0.1556237
-0.15163478 -0.050022688 -0.13826528 0.09203005 -0.011829095 -0.09285956 0.14292794 -0.07366915
0.021512324 -0.07902849 0.06330403 0.18785869 0.0039332593 -0.21037625 0.07369402 -0.23093936
-0.0875363 -0.17437343 -0.15724544 -0.031282447 0.1966066 -0.002359685 0.054580033 -0.07051284
-0.15341032 -0.14389654 0.02149965 0.037609857 0.22043265 0.09532673 -0.05621104 -0.1396285
-0.14089179 0.18495263 0.07166657 -0.06833814 -0.29188758 -0.024597446 -0.078784294 0.028968085
0.19986324 -0.25286645 -0.077973746 0.023164535 -0.09060771 -0.015306869 0.007081808 -0.04684763
-0.07317612 0.20102143 0.015231934 0.0030683049 -0.14076354 0.0673968 0.3417142 0.4201188
-0.06506627 0.16933016 0.07829007 -0.3705089 -0.16216725 -0.122846715 -0.034782413 0.1815719
-0.07583052 0.25535017 -0.13313161 0.114861496 -0.07772014 0.12655598 0.08166067 0.12799051
0.00891563 -0.19234264 -0.02944001 0.16045772 0.02725108 0.19357646 0.2256034 0.2387212
-0.012179856 0.07026455 -0.12572339 -0.17173265 0.0069172573 0.06341921 0.2634862 0.071876094
0.16044249 -0.02696939 0.092315614 0.10430579 -0.015271202 -0.13113078 0.0821042 0.09841513
-0.1688214 -0.034795266 0.055200804 -0.01161825 -0.08394932 -0.0678241 0.14007328 -0.041903
-0.025188984 -0.029086675 0.03392633 -0.03629722 -0.011400737 0.25637776 0.28273392 0.05532854
0.1537116 0.06062796 -0.15093005 0.11785702 -0.22393307 0.039292254 0.15150227 -0.0036764978
-0.14840496 0.14602639 -0.044983424 -0.19095542 0.04295384 0.08663705 -0.0700667 0.06910605
-0.069334015 0.14085719 -0.1780998 0.026951706 -0.14136058 0.19603565 -0.057563137 0.13642876

network_body.linear_encoder.seq_layers.2.bias f4 [64]
00000000: 03e5 9a3c 6be5 193c b3d0 333d f96e 903c
00000010: 6fe4 183b deea 71bc 5fbb aebc 97ab e3bc
00000020: 9a3c 823c 368e db3c 4df0 b23b 43a8 9e3c
00000030: d839 793c d64e dbbc d219 533c bb3f c33c
00000040: c882 9f3b f40c bdbc 54f8 203b 7cba eebb
00000050: 2d1a 3ebc bcff 8f3c 7a64 043d 2cd7 1ebd
00000060: 44b5 f8bc 3a14 a4bc 871b 4dbc c708 f8bc
00000070: 7b4b 11bb 102b 9cbb e967 033d 261f 9e3c
00000080: 8a28 033d bd76 d43c ecb5 dc3b 6061 8dbb
00000090: c44e ea3b 1b9d 0dbc 1a8a 083d c3d9 b5bc
000000a0: 43f8 bbbc 1105 013c 2db0 97bc 096f b13c
000000b0: e5a5 c2bc 1bf0 4e3c dc20 013c 5f06 32bc
000000c0: 00f5 6dbc 76d2 2abc 9391 573c 2433 b73c
000000d0: 9983 bbbc 1a73 1a3c 5f90 763c 9c4e cf3c
000000e0: 181f acbc c9c4 fd3c 666a f43b b9d6 9bbc
000000f0: 0b3c 67bc 0254 993c 5f46 c43c 00ca edbb
0.01890803 0.009393076 0.043900203 0.01763104 0.0023329516 -0.014765469 -0.02132958 -0.027791781
0.015898038 0.02680121 0.005460775 0.019367343 0.015211545 -0.02677099 0.012884574 0.0238341
0.0048678853 -0.023077466 0.0024562078 -0.0072854143 -0.0116029205 0.017577998 0.032322384 -0.038779423
-0.030359872 -0.020029176 -0.01251877 -0.030277623 -0.0022170234 -0.0047658756 0.03208152 0.019301962
0.032021083 0.025935525 0.006735554 -0.0043145865 0.007150503 -0.008643414 0.03333483 -0.022198563
-0.022945529 0.007874743 -0.018516624 0.021659391 -0.023760745 0.012630488 0.007881369 -0.010865777
-0.014523745 -0.010426154 0.013157266 0.022363253 -0.0228899 0.009426856 0.015049069 0.025306039
-0.02101092 0.030977624 0.0074589727 -0.019023286 -0.014113436 0.018716816 0.023959337 -0.0072567463

distribution.branches.0.weight f4 [3, 64]
00000000: 173c 93bc 45f1 46bd 49bf ddbc c2fb 33bc
00000010: 7717 743d 126c 943c c77c 113d a3f9 b83c
00000020: 8e0d 89bc e3f2 553c 174e c7bc d24d d2bc
00000030: 0877 323b b4e8 393d 9653 8f3d 31a9 48bc
00000040: 532c a7bc bf55 b4bb f4b3 0e3d cf7d d3bc
00000050: 6af8 a63c 716e e5ba a280 893c 872d 7b3c
00000060: 2392 bc3c bc21 923c 6a3a eb3c e6ea 893c
00000070: c78f 8cbc 36a6 59bb 5361 6b3c 5fa9 18bc
00000080: bafb 25bd 4c60 153c 6e73 073d beec e7bc
00000090: 6d4f cfbc ec52 b63c f247 dfbc aa8d 703c
000000a0: fc01 3bbb 638c d13c ad15 3a3c c1e9 cebc
000000b0: a86e 393d 394a 34bd 5c90 043d 11f4 5f3c
000000c0: 6557 1d3b e3dc f93c 108e 84bc 3f0e 82bc
000000d0: 6a8b b83c a53f b73c e44d aabc fadd 51bc
000000e0: 595d 353d 5ee8 8dbc 0fde 743c 8a64 0b3d
000000f0: 6d6d 243c 2d2d 0d3d 6b23 89b9 da84 4c3c
00000100: f0d3 983c 24af 003c 935e 7a3d dfb6 263d
00000110: e66c 09bd 87d8 e0bc bccb e0bc b8e4 35bd
00000120: d121 c23c 1b3d ca3c 8cec 943c 5a97 b33c
00000130: 18a2 533c 1494 1fbd f8e9 17bd 494d 153b
00000140: e488 adbc 190d 18bc e551 a0bc 6e23 c2bb
00000150: 17e3 63bd 7acf 843c 6956 3c3d c978 c4bc
00000160: 093f 96bc 4bde 12bd 063a 603c 3ece 32bd
00000170: 2bd4 bd3c c59b 99bc 9d45 473d fc7b b03c
00000180: 635f d33c 7eb5 1a3d 7aef a3bc 04c5 35bc
00000190: d0c7 223c dfd1 8a3c 6a26 ce3c 753c 0cbd
000001a0: 4382 5cbd cd72 3c3c 2d1e 02bd 443a 003d
000001b0: 0315 1ebd 9cfe c43c db84 83bc 02a9 d1b9
000001c0: 96e5 d2bc 2993 1cbd e4b4 69bc 3021 2a3d
000001d0: ae14 91bc 11e4 07bc b8af 0f3d 8ba4 b63c
000001e0: 3a22 26bd 7633 e43c 9e81 373c 0da9 4abd
000001f0: 0930 00bd 9efd 043d f321 0e3d d34f c4bc
00000200: bf8c f7bc 8c68 2f3d f6bd e5bc 1843 5fbc
00000210: 3d4e d6ba 83a4 873b 4188 0bbd 1ca3 663c
00000220: 9bba e8b8 31c8 96bd 7343 aabc b369 41bc
00000230: d10a 85bd 6a81 00ba 353c 38ba 4f12 06bd
00000240: 03ef 663c 1c3e b03c 4fd5 4dbc 656a 513c
00000250: 9808 8a3c e130 c4bc 5349 6fbd d772 54bb
00000260: f051 583b 2233 d23c 0ab9 0dbc 2fe8 ef3c
00000270: 702f 633c 7225 4f3d 822c 5dbd 426b a0bc
00000280: 680f f83b 0503 63bd 319a 60ba 2205 b339
00000290: 12b8 b13b fd0f cdbc 07af bd3c da74 c73c
000002a0: 578a a3ba 9cd0 27bd 9d46 093d 4f20 e8bc
000002b0: eafa 0f3d 49ea 393d 14eb 95bc 8646 823c
000002c0: d98e ad3b 088f 3a3c 2583 f23b 73c8 69bc
000002d0: 41f2 bcbc e100 79bc c6f4 92bb 1820 75bc
000002e0: 02a2 b43c ee6d 0bbc 5744 8cbc 62ce d93c
000002f0: 2045 c03c dc90 0bbd 47e6 dfbc 3276 dd3c
-0.017972989 -0.048569936 -0.027068751 -0.010985317 0.05959269 0.018117938 0.035519388 0.022579974
-0.016730096 0.013058397 -0.024329228 -0.025671873 0.0027231593 0.04538794 0.069983646 -0.01224737
-0.020406878 -0.005503386 0.034839585 -0.025816826 0.020382125 -0.0017504228 0.01678497 0.015330679
0.023018902 0.017838351 0.028714377 0.016835641 -0.017158402 -0.0033210642 0.014366466 -0.009317725
-0.04052327 0.009117197 0.033069067 -0.02831113 -0.025306428 0.022256337 -0.027255986 0.014682213
-0.0028535118 0.025579637 0.011357707 -0.025257947 0.045271546 -0.044016097 0.032364234 0.01366903
0.002400839 0.030500835 -0.016181022 -0.015875934 0.022527415 0.022369215 -0.020789094 -0.012809271
0.044278476 -0.017322715 0.014945521 0.03403143 0.010035855 0.03446691 -0.00026157065 0.012482846
0.018655747 0.007854257 0.06112535 0.040701743 -0.03355112 -0.027446998 -0.027440898 -0.044407576
0.023697766 0.02468734 0.0181792 0.021922756 0.012917064 -0.038959578 -0.037088364 0.0022781661
-0.021183439 -0.0092804665 -0.0195703 -0.0059246337 -0.05563649 0.016212214 0.045980845 -0.023983376
-0.018340604 -0.035856526 0.013685709 -0.04365372 0.023172459 -0.018751035 0.048650373 0.021543495
0.02580232 0.03777074 -0.020011652 -0.0110943355 0.009935334 0.016945777 0.025164802 -0.034237344
-0.053835165 0.01150198 -0.03176706 0.031305566 -0.038594257 0.024047188 -0.016054561 -0.00039989507
-0.02574424 -0.03822628 -0.014264319 0.041535556 -0.017710056 -0.008294121 0.035079688 0.022295257
-0.040559985 0.02785657 0.011200337 -0.049477626 -0.03129581 0.03246843 0.034700345 -0.023963844
-0.03021848 0.042824313 -0.028044682 -0.013626836 -0.0016350221 0.0041394844 -0.03406549 0.014076974
-0.0001109738 -0.07362402 -0.020784115 -0.011804986 -0.06496204 -0.00049020967 -0.00070280145 -0.032732304
0.014095071 0.021513991 -0.012563064 0.012781714 0.016849801 -0.023949089 -0.058419537 -0.0032417083
0.0033007823 0.025659148 -0.008650074 0.029285518 0.01386629 0.05057282 -0.053997524 -0.019582395
0.007570196 -0.0554228 -0.0008567898 0.00034145365 0.005423554 -0.025032038 0.023154749 0.024347711
-0.0012477142 -0.04097043 0.033514608 -0.028335718 0.0351514 0.045389447 -0.01830057 0.015902769
0.00529657 0.01138664 0.0074008876 -0.014268982 -0.023064734 -0.015197963 -0.0044847457 -0.014961265
0.022049908 -0.008510096 -0.01712243 0.026587669 0.023470461 -0.034073696 -0.027331484 0.027033899

distribution.branches.0.bias f4 [3]
00000000: 2019 89bc 75d8 0d3d 77ba cbbc
-0.016735613 0.034630258 -0.024869187

critic.network_body.linear_encoder.seq_layers.0.weight f4 [64, 67]
00000000: 6403 c03d 36ca 82be 6812 14be 7ac6 67be
00000010: f1b9 8b3d c5b5 4abe 2ddc 58be efd1 68be
00000020: 6da7 073e 2180 303d 89d6 57bb f1cf 7b3d
00000030: 7610 2a3e 740b 3ebe 90c3 1fbe d26f d4bc
00000040: 66ab 983d d499 e1bc 1e5d 353e 3ad3 bcbc
00000050: 4d60 243e 641e d5be 463a 9d3d 2540 043e
00000060: 9005 223e 1e32 15bc 8294 013d 85b4 43be
00000070: a581 943d 539c 67be 4172 053e ea50 cc3d
00000080: 9742 c039 2dcf 96bd 3f4a 423d 5c26 abbd
00000090: d856 c13c 5c59 753d 76a1 83be e07f fe3c
000000a0: c418 ab3e 486f 083e 4ade 6a3e 93df d9bd
000000b0: 8fe5 f5bc 47b9 083e d957 3cbd 6007 00be
000000c0: c929 143e 587c 72be 8f08 91be 903c c3bc
000000d0: fe7a 6cbd f9c6 e63d bd1b 10bc b34b 363d
000000e0: bb8f 82bd c394 ccbd 9e1e b1be 66eb ca3d
000000f0: 82fc 13be e6ba e7bd 3ad3 60bd 8684 e4bb
00000100: 5593 313e edbe e73d 4a4b 9f3d 65bc 36bd
00000110: cdc6 d43d 65cd 2d3d 7a53 863d de9b af3e
00000120: 3d50 57be 894c 153e 4579 babd 5e39 8c3b
00000130: 6e65 df3b 02b8 6f3e 9657 cf3d 029c de3d
00000140: a159 7bbd c73c f83d d539 16be ec3e 9d3e
00000150: aa84 493b 9d9d 85bd 1269 f63d e422 ff3c
00000160: 0c2c d4bd 63aa 723d 80f7 9ebc b7a4 36be
00000170: db33 423b 4149 53bd c982 4dbd 1369 fbbb
00000180: aa0b 183d 668a 87be 7658 533e bfb1 053e
00000190: 4ca1 673d 9da2 fa3c 106c 30bd cd4e 1abe
000001a0: 66ea 46be ac01 27bd 96c8 ae3d 9303 46be
000001b0: 2695 37bc 61f2 9abd ce6a fdbc fbc9 763e
000001c0: c7ea 77bb 76a1 9cbc 1d1f 403e 2268 b2bd
000001d0: e718 1f3c 7b86 603d aba5 4ebd 80ca 13be
000001e0: 9b3b da3d eb21 353d cb4c 99bd 2a14 d8bd
000001f0: be2b 003d 1417 5fbd 529f 043e 98f2 403e
00000200: 03d4 d2bd fe65 feb9 23b6 12be b758 febc
00000210: 472c 993c a4ee b8bd deb9 743d 1b3b 40be
00000220: 9976 8539 3a99 b03e e5bf f73d 4b06 8fbd
00000230: 22b2 c4bd b8f5 0bbd 2320 7e3d 2176 423e
00000240: 327b 1abe a760 693c 6a7d 143d 4e07 00be
00000250: bda7 863e 4d18 bcbc a416 423e 3d30 3ebe
00000260: 5ae9 163c 6544 0cbd afd6 e13c 66d7 373e
00000270: 7414 893c 4dfb 9d3d 3339 d63b 2062 193e
00000280: 19c3 a13e e4c6 483e 2e0f a53d d2cc 9abe
00000290: 93c8 2ebe b408 0e3e 1966 7b3c 3965 273d
000002a0: 9e0a 91bd 855e 4dbc 8b40 c33d 7841 05ba
000002b0: b911 01be 36c3 d8bd 006c b6bd 856e 7e3e
000002c0: 4413 aa3d 81d4 7bbd aeed a93d e82a 9ebd
000002d0: 7a19 443e 7125 bc3d b915 323e 1485 3a3c
000002e0: 6434 893d 288d e9bd a597 f43d 9aed 663e
000002f0: ecd0 2a3d c41e 0dbe 10da f53d 05be 2f3e
00000300: 5803 af3e 3b9e 2abe ce28 92bd dabd b33c
00000310: 5591 2d3e e983 233d 1b3a b2bd ff4e 0f3e
00000320: 72f7 843c c54f 6cbe 8735 f0bd bc5a 5e3c
00000330: 899f 3dbe d270 f9bb aef1 473c cf1d 92be
00000340: d742 23bb f4d7 3fbd 3363 c0bd d7c3 72bc
00000350: 01d9 7c3d 79ff f0bd 548d b23b bb18 ba3d
00000360: ce9b 72bd 8e9a 48bd 45e7 5c3d edb7 033e
00000370: 5af4 14be f880 15bd 893b 61be 8494 82bd
00000380: 9400 203e b12b 67bd a833 e63c 0f2b 2abe
00000390: 580a 01bd 6910 273d f67f 0dbe a639 833d
000003a0: 6994 a6bd 1128 d3bc 39b8 8dbe 1fa3 963c
000003b0: ec86 a83d 5b53 49bd 772f 2abc fac4 0f3d
000003c0: abca d4bd d00e 80bd 9cb1 5b3e da61 c1bc
000003d0: 62f6 273e 4789 e5bd 13c5 8ebd 1f67 0c3e
000003e0: 2d5c 173e 7734 953d 025d febd 4266 40be
000003f0: 03a0 db3a 1ce6 7fbe 728b 2b3e d6c3 843d
0.09375647 -0.255449 -0.14460146 -0.22634307 0.06822575 -0.19795902 -0.2117774 -0.22736333
0.13247462 0.043090943 -0.003293427 0.061477605 0.16607842 -0.18559057 -0.15601945 -0.025932226
0.07454567 -0.027539171 0.17711303 -0.02304994 0.16052361 -0.4162475 0.076771304 0.12915094
0.15822434 -0.009106187 0.03163577 -0.19111831 0.0725129 -0.22618227 0.13031866 0.09976371
0.00036670707 -0.073637344 0.047434088 -0.08356926 0.02360098 0.059899673 -0.25709122 0.031066835
0.33417332 0.133237 0.22936359 -0.106383465 -0.030016689 0.13351928 -0.045982216 -0.12502813
0.14469065 -0.23680246 -0.28326842 -0.02383259 -0.057734482 0.1126842 -0.008795676 0.044505786
-0.06375071 -0.099893115 -0.34593672 0.0990818 -0.14451793 -0.11314945 -0.05488894 -0.006973806
0.17341359 0.11315713 0.07778032 -0.04461326 0.10389481 0.042432208 0.06558891 0.34298605
-0.21026702 0.14579977 -0.091051616 0.0042792996 0.0068175113 0.23410037 0.101241276 0.108696
-0.061364774 0.12120967 -0.14670499 0.30712068 0.003074924 -0.06524203 0.12031759 0.031144567
-0.10359964 0.059244525 -0.019405127 -0.17836271 0.002963296 -0.051583532 -0.050173555 -0.007672438
0.0371205 -0.26472777 0.20639214 0.13056086 0.05655031 0.030595118 -0.043071806 -0.15069123
-0.19425353 -0.04077308 0.085343525 -0.19337301 -0.011204993 -0.07565761 -0.030934718 0.24100487
-0.0037829147 -0.01911996 0.18761869 -0.08711268 0.009710527 0.05481575 -0.050450962 -0.14432716
0.106559 0.0442218 -0.0748535 -0.10550721 0.031291716 -0.05446537 0.12951401 0.18842542
-0.10294344 -0.00048522645 -0.14327292 -0.031048162 0.01869787 -0.09029892 0.05974757 -0.18772547
0.000254561 0.34491903 0.12097148 -0.06983622 -0.09604289 -0.034169883 0.062042367 0.18990375
-0.15086058 0.014244235 0.036252417 -0.12502787 0.2629985 -0.022960806 0.18953949 -0.18573089
0.009210909 -0.034244914 0.02756819 0.17953262 0.016733386 0.077139474 0.0065375804 0.14978838
0.3159416 0.19607121 0.08059536 -0.3023439 -0.170687 0.13870507 0.015344166 0.040868018
-0.07082103 -0.012534742 0.09533795 -0.0005083303 -0.12604417 -0.105841085 -0.08907318 0.24846847
0.08304456 -0.061481956 0.08297287 -0.077230275 0.19150344 0.09186829 0.17391099 0.011384267
0.06699446 -0.114038765 0.119429864 0.22551575 0.04170315 -0.13781267 0.12004483 0.1716233
0.3418224 -0.16661923 -0.07136689 0.021941114 0.16949971 0.03992072 -0.08702489 0.13994978
0.016231272 -0.23077305 -0.117289595 0.013571437 -0.18517889 -0.007612326 0.012203617 -0.28538367
-0.0024911666 -0.04683681 -0.09393921 -0.0148172 0.06173039 -0.117674775 0.0054489765 0.09086748
-0.05923062 -0.04897552 0.053931493 0.12863131 -0.14546338 -0.036499947 -0.21995367 -0.06375983
0.1562522 -0.05643815 0.028100803 -0.16617988 -0.031504005 0.040787134 -0.13818344 0.0640748
-0.08133776 -0.025775941 -0.27679613 0.01838833 0.08228859 -0.04915176 -0.010387293 0.03509996
-0.10390218 -0.06252825 0.21454471 -0.02360623 0.16402581 -0.11207824 -0.06971183 0.13711213
0.14781256 0.072853975 -0.124200836 -0.18789008 0.0016756061 -0.24990124 0.16752413 0.06482665

critic.network_body.linear_encoder.seq_layers.0.bias f4 [64]
00000000: 42a2 08bc 8d72 f6bb 6331 b33b 0f19 9f3c
00000010: fd5d d23b fce7 64bc 001e 093c 273e 0c3b
00000020: 54b8 99b9 de68 d1bb 6d47 eabb 1245 9ebb
00000030: 7a66 08ba a48d abbb 131c 953c b63f 19bc
00000040: 393a c5bb 39f0 ba3b 1264 0f3c 982a 03bc
00000050: a771 35bc 2e03 42bc eb70 08bc f60d da3c
00000060: 1f9a 393c d1f2 3c3c a25f 5d3c ce0e 08ba
00000070: 873c 383c 2783 873c ec7d 863b 5001 1dbd
00000080: 420b 4fba 9572 8abb e919 cbbb d3de 5e3c
00000090: 663d 913b 5810 2abc a5c8 bbbc 482b c5bb
000000a0: a1eb a6bb f489 6b3c 05b7 4bba 2b4e 1cbc
000000b0: 9764 2d3d 0f21 22bc eb50 0cbc d278 e439
000000c0: 69af 93bc 369c 8a3c 2879 34ba 730b 8f3b
000000d0: cba9 553c 6d12 fc3b 680f 5c3c f6fb 743b
000000e0: 661d 613a 0ba8 c8b9 e5a5 c93b 6835 04bc
000000f0: 741f c03b a39f 223b 5a61 20bb b1a0 afbb
-0.0083394665 -0.0075209797 0.005468534 0.019421129 0.0064198957 -0.013971325 0.008368969 0.002139935
-0.0002931977 -0.006390675 -0.007149628 -0.004830011 -0.00052032585 -0.0052353907 0.018201863 -0.009353569
-0.0060189036 0.0057049063 0.008751886 -0.008005761 -0.01107446 -0.011841578 -0.008327703 0.026617985
0.011328249 0.011532501 0.01351157 -0.00051901944 0.0112449 0.01654203 0.0041043665 -0.03833133
-0.0007898101 -0.004225085 -0.006198157 0.01360293 0.004432368 -0.010379873 -0.022922823 -0.0060171224
-0.005094007 0.014376152 -0.00077711075 -0.009540121 0.042332258 -0.009895577 -0.008564214 0.00043577567
-0.018027978 0.01692019 -0.0006884509 0.0043653785 0.01304097 0.007692626 0.0134314075 0.0037381626
0.00085874496 -0.00038272174 0.0061538094 -0.008069374 0.0058631245 0.002481439 -0.0024472089 -0.005359732

critic.network_body.linear_encoder.seq_layers.2.weight f4 [64, 64]
00000000: 64e5 b4be 8260 8f3d fcd7 403c 590f 33bd
00000010: 427d 0abe 7910 2d3d ee91 09bb 107f 193e
00000020: 1bf1 573e 8768 d23d f886 62bd 2c8c f93c
00000030: 093e 86bd c88d 103e e12c 093d 961e b1bd
00000040: 5505 07be d15c 48be c2f6 163e 892a 693d
00000050: a8be 91bd dec2 9dbb 15af b23c 0d22 01be
00000060: 41c3 00bd 518d abbd f501 12be 7fa3 a1bb
00000070: 17ca acbc 2b97 fa3c c5cc fcbd 1887 5bbd
00000080: 668f 06bd 5c41 273d 919a e13a 3aea 0cbe
00000090: f5b2 0ebc dc49 6b3a 6f84 57be 942a 67bd
000000a0: e10c 3fbe 7b3c eebb 8bc3 803d e383 2b3d
000000b0: 07ee df3b 9d57 163d f4d8 353e 479a 973d
000000c0: 7839 d6bc f402 5b3e 59a1 d2bb 4260 28be
000000d0: b2f4 0c3d 6eb9 d6bd 8f6e 60be e556 38be
000000e0: 8a2a 473a 3c2b 283d 2cba 86bd 6973 063e
000000f0: 7eee 31be 3cde 6fbe a017 93be d28d 323c
00000100: 73fd 7b3d 6526 48bc ce4b 203e 9313 d43b
00000110: 7bf8 cf3d 15f3 eabd 2de8 633d 23c3 543e
00000120: e157 053e b6a5 4abe 3891 30bd 4846 063d
00000130: b3f4 d9bc dae6 12be 8b9a 163b ea73 8a3e
00000140: c3ce 923d 5ce5 3f3e 21b6 e93d 39e4 033c
00000150: a016 8c3d f90b ecbb 176e febd 3b74 7bbc
00000160: c6a8 b93d 4d3c a3bd fe00 513d 032c 29bc
00000170: f7dd 963d b9fd 09be adb2 0d3d 8e24 313e
00000180: b114 f73d 0846 1cbe c985 653d 5c82 f4bd
00000190: 88c1 003e 17bc 343e ce9c 0abd bec3 c7bd
000001a0: 1885 983d e0ab 62be 6479 f8bc b60e 37be
000001b0: a54e a2be ef6c 373e fe34 403e 75a9 2e3e
000001c0: c019 2f3e 4251 ecbc 3924 5ebd ecb0 e2bc
000001d0: fe39 a03d 72c8 8f3e 7401 0cbe 5e97 07bd
000001e0: 7578 4abd b0b2 923d 4cd8 c1bd ca5d 3e3d
000001f0: bfe8 17bc 21df fbbd d85d 3dbe 2ba6 23bd
00000200: 718c 3e3e ec9a d93d f242 aebd 6f77 2a3e
00000210: 4a04 06be 0c3f ad3c be4f 113e f61c 253e
00000220: 91c6 3cbd 31d5 a6bc 9c61 0fbd fe9d 193e
00000230: e345 6dbe 41d6 f93b d653 0f3e aae6 b23c
00000240: 3ada c13d d5c6 cebd eba0 023e 43aa 25bd
00000250: ae92 20be 88ef e8bd 5c44 0b3c 4b11 ddbd
00000260: 5624 4b3b 0b0a 3a3e a55b afbd e6a3 193d
00000270: 37bd debe 7aa4 1ebe 5b4b ac3c 39ca 54be
00000280: 2784 27bd 36b6 34bc 0dac 1ebe 780f ed3d
00000290: e098 c53d 37b6 24be c41d 17be 75bb 383d
000002a0: 18f8 38be b705 753c 9ca5 833d 6c01 203d
000002b0: 744b e3bd 290b 123e 69bb 333e e901 433d
000002c0: b386 8f3d ae56 1ebe a5aa 0b3d 9207 28be
000002d0: bba1 45be 8b52 cebd 2ba5 183e c4cd da3d
000002e0: b31c c53c a92e e63c 9aff 9bbb 0641 a03d
000002f0: 586c 19bd 964c b7bc 50ba cfbd 367f 833d
00000300: 8b80 953c c918 49bd c42d f2bc a5e3 e73b
00000310: a18d 5fbe ee53 b8bd ede7 29bd 5eaf 84be
00000320: c0ee aebc ab28 a03d 7a2e d2bd 6fd1 90bd
00000330: 9ed8 af3c ab1d 053c d4e4 a23d 45f0 dfbd
00000340: 1957 f53d 0cd5 643e 1742 91bd 4755 41bd
00000350: 9e50 6cbe c306 fabb a0cc 8b3c 0c92 99bd
00000360: fe4c 94bd 43cb 883e af37 ebbd ce43 02be
00000370: 1332 023d a8f8 8f3a 76bd c8bc b73b c9bd
00000380: 9bc3 e6bc 4473 15bd dd4b 09be 898d 16be
00000390: af77 19be 931b 1fbe 711b 2bbd f079 6a3d
000003a0: 8440 38bd 1b04 653d dd52 bcbd 283b bf3d
000003b0: fed2 b33d 57d7 18bc af79 e5bd ae39 2f3d
000003c0: 8077 ac3c b418 e03d 1d27 8dbd 6968 24be
000003d0: c5f2 d0ba d36f 703b 99e3 263e 5f12 c8bd
000003e0: c2a8 233d 7ca0 993d b677 8dbd 5e85 74bd
000003f0: ee7e d53d c2da 34be e5fd 2f3e b18c 293c
-0.3533126 0.07000829 0.011770245 -0.04371581 -0.13524345 0.042252038 -0.0020991522 0.14989877
0.21088068 0.10273843 -0.055304497 0.030462347 -0.06554801 0.14116585 0.033490065 -0.08648412
-0.13185628 -0.19566657 0.14742568 0.05692533 -0.07116443 -0.0048144897 0.021812001 -0.12610646
-0.03143621 -0.08376563 -0.14258559 -0.0049328203 -0.021092458 0.03058966 -0.12343744 -0.053595632
-0.0328516 0.040833816 0.0017212202 -0.13761225 -0.008709659 0.00089755445 -0.21046613 -0.05643709
-0.18657257 -0.0072703934 0.06287297 0.041873824 0.006833795 0.03670465 0.17758542 0.07402473
-0.02615045 0.21387845 -0.0064279255 -0.1644297 0.034413047 -0.10484587 -0.21917175 -0.18001898
0.00075975864 0.041056857 -0.06578478 0.13129963 -0.17376134 -0.2342462 -0.28728962 0.01089807
0.061521005 -0.012216185 0.15653917 0.00647206 0.10154816 -0.114721455 0.055641342 0.20777564
0.13021804 -0.19789776 -0.04310724 0.03278187 -0.02660594 -0.14345875 0.0022980298 0.2704156
0.07168343 0.18739837 0.114116915 0.008050018 0.06840253 -0.0072035757 -0.12423342 -0.015347536
0.09065394 -0.07970486 0.051026337 -0.010325435 0.07366555 -0.13475694 0.034594227 0.17299101
0.120644934 -0.1526109 0.05603579 -0.119389266 0.12573826 0.17649876 -0.033840947 -0.09754132
0.074472606 -0.22135878 -0.030331321 -0.17876706 -0.31700626 0.17912649 0.18770215 0.1705683
0.17099667 -0.02884734 -0.054233763 -0.027672254 0.07823561 0.28082615 -0.1367243 -0.03310334
-0.049431283 0.07162988 -0.094650835 0.046476163 -0.0092718 -0.12298418 -0.1849283 -0.039953392
0.18608262 0.10625252 -0.085088626 0.16647123 -0.13087574 0.021148227 0.14190575 0.16124329
-0.046087805 -0.02036533 -0.035005197 0.15001675 -0.23171191 0.007624418 0.13996825 0.021838505
0.094654515 -0.10096518 0.12756698 -0.040445577 -0.15680954 -0.11373812 0.008500185 -0.10794314
0.0030997 0.18167894 -0.08562402 0.03750982 -0.43503734 -0.1549243 0.021032026 -0.20780267
-0.040897515 -0.011029771 -0.1549532 0.11575216 0.09648299 -0.16085134 -0.14757448 0.045100648
-0.1806339 0.014954976 0.06428072 0.039063856 -0.11098376 0.1426207 0.1755196 0.047609244
0.07008114 -0.15462753 0.034098286 -0.16409138 -0.19299977 -0.100743376 0.14906757 0.10683778
0.024061536 0.028098421 -0.0047606947 0.07824902 -0.03745684 -0.022375386 -0.10142958 0.06420748
0.01824977 -0.049095903 -0.029562838 0.007076698 -0.21831371 -0.09000383 -0.041480947 -0.25915045
-0.02135408 0.07820257 -0.10262771 -0.07071196 0.021465596 0.008124749 0.07953802 -0.109345
0.11979503 0.22346896 -0.07092684 -0.047200467 -0.23077628 -0.0076302006 0.017065346 -0.07498559
-0.072412476 0.26717576 -0.1148523 -0.12721178 0.031786036 0.001098414 -0.024504405 -0.09825843
-0.028169444 -0.03648688 -0.13407846 -0.14702429 -0.14987062 -0.15537862 -0.041774217 0.057245195
-0.044983402 0.05591212 -0.091954924 0.09337455 0.08780478 -0.009328685 -0.1120485 0.042779617
0.021053076 0.10942212 -0.06892226 -0.16055454 -0.0015941492 0.0036687746 0.16297759 -0.09769129
0.039955862 0.07501313 -0.06907599 -0.0596975 0.104246005 -0.17661574 0.17186697 0.010348485

critic.network_body.linear_encoder.seq_layers.2.bias f4 [64]
00000000: 5610 f2bb f515 1abc a961 b8bb 88cc da3b
00000010: 8e15 a83b 3419 59bc 253d c8bb 56d6 28bc
00000020: 4b15 143c f013 d1bb 12ed c5bb 9ff1 933b
00000030: 1ee1 7c3b ae1a 93bb f2a3 2bbc 8e25 df3b
00000040: 4670 1cba 039d 1f3c b710 06bc 6826 1fbc
00000050: 4aee 1abc 6198 92bb decc 0d3b 38ad 83bc
00000060: 3679 0f3c 583e 1c3c b68a bb3b a38d 083b
00000070: 89dc a8b9 79c8 7d3b 8a58 dbbb 0476 c93b
00000080: 6929 4cbc c718 343b 78d0 d1bb 2e9b 8b3b
00000090: f71a 663a 935a 17bc 5940 463c 3b3f 2bbb
000000a0: d8b9 083c c90b e13c 6085 ab3a b2a3 1b3c
000000b0: 2eec 6f3c d1fc 99bb dd9f a9bb 40fe c0bb
000000c0: b141 ba3b 1fab 61bb a1b8 c23b ef51 0b3c
000000d0: cc3f bcbb b76b 8d3b fb3b 1a3c 6127 413b
000000e0: fc9d 933b bd3a 453c d68a 1739 f9eb c23a
000000f0: adfa 37b9 5401 9cbb a1a0 28bc b902 363a
-0.0073872013 -0.009404649 -0.0056268764 0.006677214 0.0051295226 -0.013250638 -0.0061108046 -0.010305008
0.00903828 -0.0063805506 -0.006040224 0.0045148875 0.0038586329 -0.0044892645 -0.010476099 0.006809897
-0.0005967658 0.009742024 -0.008182696 -0.009713747 -0.009456227 -0.0044737314 0.0021637003 -0.016073808
0.008756926 0.009536348 0.0057233227 0.0020836375 -0.00032207769 0.0038724227 -0.0066939043 0.0061481018
-0.012461045 0.0027480589 -0.0064030252 0.004260442 0.0008777822 -0.009237903 0.012100303 -0.0026130218
0.00834509 0.02747144 0.0013086013 0.009499477 0.014643712 -0.0046993275 -0.005176528 -0.005889684
0.0056841006 -0.0034434272 0.0059424196 0.008503421 -0.00574491 0.004315819 0.0094137145 0.0029472935
0.004504917 0.01203793 0.00014452203 0.0014871351 -0.00017545624 -0.0047609005 -0.010292203 0.0006943155

critic.value_heads.value_heads.extrinsic.weight f4 [1, 64]
00000000: c13d d6bd d162 fabc 0d70 c7bc fb58 ea3d
00000010: facc 4f3d 0847 c0bd 3d06 3fbe 33d4 98be
00000020: 4571 9e3e 28ce 1fbe 1c48 52be 9a9d 993e
00000030: 4ade 1a3e cd12 1ebe bae4 44be 6662 983e
00000040: f603 83be 8a79 983d 58e1 6cbe 3b33 4cbe
00000050: a265 e6bc a35e 65be 3cd2 8d3e c257 20bd
00000060: da5c 603d b0aa 7f3c 09e2 183e 0c33 433e
00000070: b5a3 f83d b12e 643e 382d 5dbe b64d 093e
00000080: 19a6 31be cafe 2a3e 6707 e9bd cdd3 b43d
00000090: a584 663e bfa8 19be ceba 7a3e c6e2 1bbe
000000a0: e9f8 7d3e 7f0d 2a3c d6d7 443e e93a b93d
000000b0: d3d1 1c3d d9a6 f9bd 475d 22be 2226 1bbe
000000c0: 6631 033e f923 19be b688 5c3e 4d81 3b3e
000000d0: 55c8 8bbe ad1c 8a3e 4ea0 e43d 73fb 663e
000000e0: 5f66 073e 3719 ac3e fe73 323d 1681 6b3e
000000f0: 8766 873e 900d 08bd 4606 b5bd 81d2 5b3e
-0.104609974 -0.030564697 -0.024345422 0.11442753 0.05073259 -0.09388548 -0.18654723 -0.29849395
0.30945793 -0.15605986 -0.2053532 0.30003053 0.15123859 -0.1543686 -0.19227877 0.29762572
-0.2558896 0.07445057 -0.23132837 -0.19941418 -0.028124634 -0.22399382 0.2769946 -0.039146192
0.05477605 0.01560466 0.14929976 0.19062442 0.121406 0.22283436 -0.21599281 0.1340855
-0.17348517 0.16698757 -0.11378365 0.0882946 0.22511537 -0.15005778 0.24485323 -0.15223226
0.24801983 0.010379194 0.1922296 0.09044439 0.03828604 -0.12190027 -0.15855895 -0.15151265
0.12811813 -0.14955129 0.21536526 0.18311043 -0.2730128 0.26975003 0.11163388 0.22556858
0.13222645 0.33612987 0.04356765 0.22998461 0.2644541 -0.03321606 -0.08839087 0.2146702

exp_avg f4 [64, 67]
00000000: bc52 abb9 0e7f 1dba 7408 a9ba 72f6 3139
00000010: 0000 0000 2bcb 1eb8 d082 0b3a 0000 0000
00000020: 2978 53b8 9b02 41b9 c8e7 42ba 752f 92ba
00000030: af37 5f39 2d7b 95ba 058a b6ba f976 9b3a
00000040: 9985 0abb 3951 ceba e5da 2939 94cf 8eba
00000050: 4c82 a7ba 38db 143a d201 c4ba 18b2 bdba
00000060: 47c3 6c3a dbf5 efba 979f e6ba 44a1 4f3a
00000070: d964 e1ba 54ef ccba f8bb 4fb9 6f39 3fba
00000080: b27b 35ba b8c1 1eb9 ff77 4bba 982a 4cba
00000090: 5c5d 7c39 e21f 99ba 0285 a3ba d03e 03ba
000000a0: 3fd3 dfb9 9260 86ba a4e8 8fba 6da3 3239
000000b0: e4b7 56ba 332e f938 1a27 89ba 9ef5 86ba
000000c0: 6074 0f3a 684e c1ba a68a c3ba 3a62 8039
000000d0: c6ac 99ba ddc6 89ba 9845 3a3a 04b7 d6ba
000000e0: b319 cbba d0e1 edb8 356c 55ba eb1e 50ba
000000f0: 327f 503a d1d3 e1ba 4b4e d6ba 003d 18bb
00000100: 0000 0000 05f5 a4ae d62a e6b9 463f 5b39
00000110: 8067 25b8 1fb6 2939 5c39 f736 0000 0000
00000120: 1db2 bb36 78cb 05b9 0000 0000 6828 2c37
00000130: 2aa9 2c38 1dbb 0639 7dda 5f39 55e9 0fb9
00000140: 5ee7 a039 5254 a939 74bf a7b9 1559 003a
00000150: da61 b339 46a4 2ab9 d844 ae39 fab4 b639
00000160: d8fb ceb8 adb1 8c39 6046 8839 7763 71b9
00000170: 6fa4 d139 9cc5 ca39 aae6 1eb9 0a66 a839
00000180: afc3 9639 8fba c9b8 5761 8b39 fbe6 8739
00000190: b9b4 8638 1716 dd38 cd4b e038 bd5c 38b8
000001a0: 98fc 5f39 5eb3 7539 71b7 0038 8ab7 1139
000001b0: db2e 5b39 6f09 5939 2990 1cb8 874d 1139
000001c0: cdfa 02b8 19a4 5239 373c 4d39 1f80 01b9
000001d0: c3b2 9939 b855 9839 c54a 4fb8 19b8 6539
000001e0: 5cbe 4d39 f61d dcb8 31fa 8f39 f3fd 8939
000001f0: c87a c637 0f16 1939 d33d 1839 84f9 1db9
00000200: 76ef a739 9c32 9a39 30ff 8c3a 0000 0000
00000210: 0993 be2c 6333 0239 81dd c7b9 16dd dd3a
00000220: 96d9 cb3a 7793 deb8 0000 0000 789c 4d38
00000230: f23c d0b8 0000 0000 0b79 4c38 4749 d739
00000240: c926 6c3a 4a6e 763a dabd f839 806c 5b3a
00000250: 21fe 573a 33f0 2a3a 3adb 2c3a 0e56 5d3a
00000260: b8e0 3c39 9f49 943a 9ac7 983a 7fb5 ad39
00000270: 5678 803a b957 803a 06d6 3f38 06e7 a53a
00000280: 58a6 a63a 2beb 8c39 ecaa 883a bbfc 8a3a
00000290: c318 843a cc33 9f39 97f3 cf39 2b24 ec38
000002a0: 7423 9d3a 8ebf 993a 4745 83b9 08b7 cc3a
000002b0: 4d06 bc3a d283 02b8 d5f9 af3a f310 b63a
000002c0: 23cf ad3a 5cb6 74b7 bf05 7b3a ab6b 5538
000002d0: 593a a53a 97e2 a63a 3cfa 55b8 8895 b23a
000002e0: d953 ba3a 56f4 cf38 71e6 9e3a a9ba a13a
000002f0: 2ccf ba39 d763 7a3a 31df 853a a148 ab38
00000300: 2c31 a13a 9de5 a23a 6e34 8839 9ad8 893a
00000310: 3202 923a 111d 813b 0000 0000 cbaa 692e
00000320: 19ea cf38 e277 9cb9 efe9 8539 0dea 28b9
00000330: 4e6f fd38 0000 0000 5d60 bcb6 40d5 ab39
00000340: 0000 0000 7581 56b7 0a05 ab38 6b9e 02b9
00000350: bad1 9bb9 587c e039 4c0a f7b9 c65b 02ba
00000360: 9b81 4d3a 92c8 58ba 1316 09ba c684 9d39
00000370: bb12 b4b9 5fb3 d1b9 9ea3 ab39 9131 c2b9
00000380: 3392 b4b9 6c34 123a 667b 1dba afff 13ba
00000390: 23d0 f339 0d2f 05ba 677b dbb9 76ac b839
000003a0: 6c3a cfb9 daf5 bab9 d6f9 18b8 74ae dbb6
000003b0: f9f6 30b7 dfe2 0739 c4fe 34b9 e158 73b9
000003c0: 9c40 80b8 4a23 9837 4f8a 24b9 0b34 f6b8
000003d0: 3cfc 9b38 3734 17b9 df4b a638 d641 00b9
000003e0: ade3 e3b8 e6d1 ac39 db5f c3b9 f7d8 bfb9
000003f0: 88a7 e938 abef 21b9 41cd ddb8 ef8f f939
-0.00032677304 -0.00060080073 -0.0012896196 0.00016971843 0.0 -3.785935e-05 0.0005321922 0.0
-5.0418228e-05 -0.00018406885 -0.0007435051 -0.0011153059 0.00021287681 -0.0011404507 -0.0013926631 0.0011861018
-0.002113676 -0.0015740759 0.0001619864 -0.0010895603 -0.001277992 0.0005678418 -0.0014954156 -0.0014472632
0.0009031784 -0.0018307524 -0.0017595169 0.0007920454 -0.0017196193 -0.001563529 -0.00019811082 -0.000729463
-0.0006923034 -0.0001514022 -0.0007761716 -0.00077883294 0.00024067372 -0.0011682475 -0.0012475553 -0.0005006613
-0.00042691265 -0.0010252169 -0.0010979366 0.00017036284 -0.0008190854 0.000118818505 -0.0010463924 -0.0010296588
0.00054723583 -0.0014748098 -0.001491864 0.00024487247 -0.0011724464 -0.0010511536 0.0007105707 -0.0016381447
-0.001549533 -0.000113431015 -0.0008141429 -0.00079391774 0.0007953524 -0.0017229264 -0.0016350237 -0.0023229718
0.0 -7.501381e-11 -0.00043900934 0.00020909039 -3.9435457e-05 0.00016184941 7.367851e-06 0.0
5.5937694e-06 -0.00012759666 0.0 1.0261407e-05 4.1165542e-05 0.00012848941 0.0002134833 -0.00013724466
0.0003068996 0.00032297015 -0.00031995366 0.0004896087 0.00034214446 -0.0001627366 0.0003323916 0.00034848583
-9.869755e-05 0.0002683526 0.00025992375 -0.00023020605 0.000399861 0.00038675673 -0.00015153983 0.00032119482
0.00028756025 -9.619176e-05 0.0002658467 0.000259213 6.42328e-05 0.00010542216 0.00010695271 -4.3955388e-05
0.00021361036 0.0002343184 3.068842e-05 0.00013896651 0.00020902923 0.00020698247 -3.7327558e-05 0.00013857159
-3.122799e-05 0.00020088292 0.00019572755 -0.00012350128 0.00029315622 0.00029055565 -4.942228e-05 0.00021907724
0.00019621238 -0.00010495998 0.00027461493 0.00026319883 2.3660614e-05 0.00014599435 0.00014518881 -0.00015065639
0.00032031134 0.00029410876 0.0010757204 0.0 5.416449e-12 0.00012416909 -0.0003812127 0.0016926851
0.0015552517 -0.000106132524 0.0 4.902153e-05 -9.929565e-05 0.0 4.875012e-05 0.00041062591
0.0009008465 0.00094005896 0.00047443697 0.0008370355 0.0008239467 0.0006520778 0.00065939466 0.0008443304
0.00018012791 0.0011313445 0.0011656166 0.00033132356 0.0009801488 0.0009791768 4.5737273e-05 0.0012657351
0.0012714369 0.00026878095 0.0010426915 0.0010603884 0.001007818 0.00030365435 0.00039663605 0.00011260094
0.0011988715 0.0011730061 -0.00025037883 0.0015618512 0.001434514 -3.1117183e-05 0.0013425896 0.0013890549
0.0013260584 -1.4585992e-05 0.00095757464 5.088343e-05 0.001260589 0.0012732324 -5.1016206e-05 0.0013624886
0.0014215662 9.91604e-05 0.001212312 0.0012338954 0.0003563104 0.00095516205 0.0010213611 8.1674436e-05
0.001229798 0.0012428049 0.00025979005 0.0010516823 0.001113957 0.0039402326 0.0 5.312976e-11
9.914133e-05 -0.00029843958 0.0002554203 -0.00016108919 0.00012084712 0.0 -5.6140548e-06 0.00032774545
0.0 -1.2785536e-05 8.154854e-05 -0.00012456781 -0.00029720162 0.00042817253 -0.00047119183 -0.0004972782
0.0007839442 -0.00082696334 -0.00052294246 0.00030044297 -0.0003434623 -0.00039997228 0.00032737566 -0.00037039493
-0.00034441202 0.00055772695 -0.00060074625 -0.0005645705 0.00046503646 -0.00050805585 -0.00041862877 0.00035223708
-0.00039525644 -0.00035659858 -3.6472302e-05 -6.5470176e-06 -1.054792e-05 0.0001295912 -0.00017261045 -0.00023207396
-6.11555e-05 1.8136245e-05 -0.00015691783 -0.00011739888 7.437958e-05 -0.00014419934 7.929629e-05 -0.00012231557
-0.000108666114 0.00032962783 -0.00037264716 -0.0003659201 0.00011141511 -0.0001544344 -0.00010576333 0.0004760022
