Config/results/BallCatcher_03/BoxBehavior/BoxBehavior-499995.onnx (onnx, 36863 bytes, 6 tensors)

distribution.branches.0.bias f4 [3]
000000 c3 1b aa 3d f2 d0 8c bd 8c b7 93 bc
       0.083060764 -0.06875791 -0.018031858

distribution.branches.0.weight f4 [3, 64]
000000 b0 4c 8d 3d 71 7a 37 bd ec 45 7a 3d 4f d5 b7 3c
       0.068993926 -0.044794504 0.06110184 0.02244058
000010 80 ee 64 3d 72 2c 89 3d 95 c8 b5 bd 23 a6 57 3d
       0.055891514 0.066979304 -0.088761486 0.052648675
000020 52 4b b0 bd 28 9b b0 bc f7 23 1b 3d 2b fc 16 3d
       -0.08608116 -0.02155836 0.037876096 0.03686158
000030 27 5c 7d bd 28 7c 96 3d 95 13 98 bc d0 e2 ab bd
       -0.06185546 0.073479 -0.018564025 -0.083928704
000040 04 e2 87 bc 74 9a 32 bd e2 14 22 3d ad d1 7d bc
       -0.016587265 -0.04360433 0.039570697 -0.015491885
000050 5b 33 1a bd 62 d5 96 bd 7d e1 3d 3d f8 28 b6 3d
       -0.037646633 -0.07364918 0.04635762 0.08894533
000060 b2 39 a3 3d 90 74 07 bd 9a 39 49 3c ce 46 95 bd
       0.07969989 -0.033070147 0.0122818 -0.072888955
000070 99 30 cf bd 08 97 d5 ba 7c 0c 64 bd ac dc 9c bc
       -0.10116691 -0.0016295621 -0.05567597 -0.019148193
000080 f0 71 89 3d 68 c9 da bb 0c e3 cd bd 10 a9 3a bd
       0.06711185 -0.0066768415 -0.100530714 -0.045571387
000090 83 e6 27 be 3d 05 24 bb 7a a3 c9 bd d5 e7 82 3d
       -0.16396527 -0.0025027536 -0.09845634 0.06391875
0000a0 24 a9 d7 bd be 38 7d 3d cc 72 7b bd d0 4f 2a bd
       -0.10530308 0.06182169 -0.061388776 -0.04158002
0000b0 48 77 98 3d 9f cc 38 bd 64 d9 19 3d 96 7e 98 3c
       0.07444626 -0.045117017 0.037560835 0.018615048
0000c0 df e4 37 bb 82 72 0d be 57 db 97 bc 4f f3 4c 3d
       -0.0028060002 -0.13813213 -0.018537207 0.050036725
0000d0 b0 0f ca bd 5c ba d1 3d 54 ec 89 3d 06 05 ad bd
       -0.098662734 0.10240623 0.06734529 -0.08448224
0000e0 f9 59 2f 3d 4f 47 23 bd fd 1c 7d 3d c0 f1 83 bd
       0.042810414 -0.039862927 0.061795224 -0.064425945
0000f0 b5 bc aa 3d 07 ad db bc cd 99 ec 3c 3e c1 d7 bd
       0.08336774 -0.026815904 0.028881932 -0.10534905
000100 21 03 a9 bd a8 80 f0 bb 11 31 f3 bc a3 3f 2e bd
       -0.0825255 -0.007339556 -0.029686483 -0.042541157
000110 9b 49 bb 3c 79 5f ba bd bc 07 65 bc 83 af 99 bd
       0.022862246 -0.09100241 -0.013978895 -0.07504179
000120 6d c6 e1 3b 81 7c ca 3b 22 8a 45 3d 1c 79 a6 bd
       0.0068901093 0.006179393 0.048227437 -0.081285685
000130 66 bf 30 3d b0 b7 a6 bd 8b c8 d7 bc e1 a3 07 3e
       0.04315128 -0.08140504 -0.026340744 0.13246109
000140 9d cd ab bc 13 41 a3 3d d0 65 75 3d 8c 9b f3 3d
       -0.020972067 0.07971396 0.05991155 0.118949026
000150 4b 11 08 bc d7 6c 12 bc 27 a5 a4 bd fe 4f f6 bc
       -0.008304904 -0.008937082 -0.08039313 -0.03006744
000160 ae 43 0b 3c bb e7 fe 3c da f2 60 3d 93 35 a2 3d
       0.008500023 0.031116357 0.0549191 0.07920375
000170 cd 59 dc 3d e3 06 f4 bc e9 dd c9 bc 8a 2e 8d 3d
       0.10759316 -0.02978844 -0.024641948 0.06893642
000180 f0 d1 4b bd db a6 84 3d 93 d6 c2 3c 06 e1 cf 3d
       -0.04976076 0.06477138 0.023783958 0.10150342
000190 f1 47 03 3e 03 d8 4f bc ea fa e8 3d 4c 44 3f 3a
       0.12820412 -0.012685779 0.11375983 0.0007296249
0001a0 fc d1 ef 3d 9d 0f 86 bd d3 d2 a6 3c 62 e5 00 3e
       0.11709973 -0.06545947 0.0203642 0.12587503
0001b0 86 db 96 bd cb dd 29 3c e0 3f 86 bd f4 9c 44 bd
       -0.073660895 0.010367821 -0.06555152 -0.048001245
0001c0 f1 f2 25 bd 52 c7 17 3e e6 d4 5a bd c2 81 ca bd
       -0.04051489 0.14822128 -0.053425692 -0.098880306
0001d0 9a 36 64 3b bb a6 18 3a 85 fd 95 bd ad 9e 90 3d
       0.0034822584 0.00058231846 -0.07323746 0.07061515
0001e0 b3 67 46 bd 6d cc bc 3c de 49 12 bc ba ff 80 3d
       -0.04843874 0.023046697 -0.008928744 0.06298776
0001f0 04 ed 18 3d 42 29 5b bd 79 8a 51 bd 2e 99 12 3d
       0.03733541 -0.053506143 -0.05115745 0.035790615
000200 54 7c f4 3b 2d f7 3c 3d 75 6c d3 bc 65 28 0e 3d
       0.00746111 0.046134163 -0.025808552 0.034706492
000210 a3 a0 82 bd 8c 73 f4 bc 90 c9 e0 3d a2 bf 0a 38
       -0.06378295 -0.029840253 0.10975945 3.3080236e-05
000220 31 06 88 3d 9b 2b 29 3d 7c 5b be bd 8a fa 94 39
       0.06641806 0.04130135 -0.09294793 0.00028415426
000230 b2 90 8c 3d e4 f6 0d bd 78 49 89 3d 2b 91 52 bd
       0.06863536 -0.03465928 0.06703466 -0.051407974
000240 03 76 aa 3c 3a 79 03 bc 25 86 f6 bd 1f 5e 85 bd
       0.020808225 -0.008024508 -0.12037305 -0.06512093
000250 21 e3 15 3d 0b f3 af 3d eb 33 29 bc 34 53 9b bc
       0.03659356 0.08591279 -0.01032732 -0.018960573
000260 7e 4d 4b bd f1 08 f0 3c 4d 22 b7 bc 0c c0 3c 3d
       -0.04963445 0.029301139 -0.022355223 0.046081588
000270 20 7e 38 bb 67 d6 f0 3c 7a ec f1 3d af 15 65 bd
       -0.0028151348 0.02939911 0.118126824 -0.055928882
000280 d8 ba 84 bc 59 9b 90 bd 80 d9 c3 3d bc da f5 bb
       -0.016202375 -0.0706088 0.09562969 -0.007502882
000290 e3 5d 89 3c 53 07 59 3b 0e d4 2c 3d bf 5f 0b bd
       0.016768401 0.0033115938 0.04219442 -0.034026857
0002a0 ad 27 85 3d 5f 28 a0 bc 22 3e 8d 3d 8b 6b 32 bd
       0.06501708 -0.0195505 0.068966165 -0.043559592
0002b0 10 83 be bb db 2d 22 3c 81 92 cf 3c cf f1 bc 3c
       -0.0058139637 0.009898628 0.025338413 0.023064522
0002c0 bb 02 98 3c fa 29 d6 bc b6 ca 8c 3d 4f d6 5a bc
       0.01855599 -0.026143063 0.068746015 -0.013356759
0002d0 dd be ab 3d c2 94 dd bd 18 bc 00 bc 6e 32 cd 3b
       0.08386014 -0.10819389 -0.007857345 0.006262115
0002e0 e8 43 a6 3a a0 b4 1d 3d 9c 46 0e bd 6c 07 11 bd
       0.0012685033 0.038502336 -0.034735307 -0.03540747
0002f0 e8 73 e5 bd 3f a0 b7 3d 8e 78 03 3d 6e 46 14 3e
       -0.11203748 0.089661114 0.03209739 0.14479992

network_body.linear_encoder.seq_layers.0.bias f4 [64]
000000 92 e6 d2 3c 16 fe 10 3d b5 a2 a6 bb 0a 38 b7 bc
       0.02574471 0.035398565 -0.005085314 -0.022365589
000010 cc b0 8b 3b 80 33 f3 bb 1a 88 9c 3d f1 42 2a 3d
       0.004263019 -0.0074219108 0.07643147 0.041567747
000020 fb f1 84 3c a5 4e 98 3c c4 74 6e 3d 0c 13 33 3d
       0.016228667 0.018592188 0.058216825 0.043719336
000030 c2 46 3e 3d ea 95 75 bb cd 19 ea bd 8b b7 d7 bd
       0.0464542 -0.003747339 -0.11430702 -0.10533055
000040 38 39 cb bb 6a d2 92 bd 00 dc 06 3c 2a 25 12 bd
       -0.0062018894 -0.071690395 0.008231163 -0.035679974
000050 8e e2 3a 3d 1d 9a c2 3c 1a 5a 4e bd 33 42 72 bd
       0.045626216 0.023755128 -0.050378896 -0.059145164
000060 47 f9 c6 bc be c3 99 3c 93 e0 40 3c 05 5c 87 3c
       -0.024288787 0.018770095 0.011772293 0.01652337
000070 9c bd 78 ba eb dd 8a 3d 07 f5 82 bb 2b 1d d2 3a
       -0.0009488703 0.06780609 -0.0039964947 0.0016030421
000080 89 48 4f be 08 a1 6f 3b 82 eb 83 3d ab 15 4b 3c
       -0.20242514 0.0036564488 0.06441404 0.012395303
000090 a6 74 b8 3b 24 7f a1 3b a0 40 06 bd b3 72 ef 3b
       0.00562914 0.0049284864 -0.032776475 0.0073073744
0000a0 02 40 27 bd e9 d1 cb 3b b0 ef 2f 3d ce 4a 3b 3d
       -0.040832527 0.0062200916 0.042953193 0.045725636
0000b0 db 1a 57 bd c9 e0 15 bc 4b 1d 70 bc 7a 3a 46 3d
       -0.052515846 -0.009147831 -0.0146554215 0.04839561
0000c0 d4 f1 20 3d 8c 4e 34 be 9a e7 33 3b 4d 20 79 3d
       0.039293125 -0.17608088 0.0027451278 0.06082182
0000d0 90 48 15 bc 0c da 26 3d e1 42 5d bc 36 92 b5 bb
       -0.0091115385 0.04073529 -0.013504715 -0.0055411113
0000e0 31 c6 d1 bd 04 af 0e 3d fe 2f ec bc 19 4b 62 3d
       -0.1024288 0.034834877 -0.028831478 0.0552474
0000f0 68 52 60 3d f9 41 04 bc aa 06 e2 3d 0d 69 6b bd
       0.05476609 -0.00807237 0.11036427 -0.05747323

network_body.linear_encoder.seq_layers.0.weight f4 [64, 67]
000000 17 3d 1d 3d 68 a9 3a 3e 1e 44 ac 3d f2 5b 46 be
       0.038388338 0.18228686 0.0841143 -0.19371012
000010 3b f8 a2 bd 87 45 91 3d f1 94 7a 3e fc 02 25 3e
       -0.079575025 0.070933394 0.24470879 0.1611442
000020 4c 04 4c bd 86 6f 8e 3c 4e 71 cf 3d 56 4f fc 3d
       -0.049808785 0.017387163 0.10129033 0.1231982
000030 03 25 3b 3e a5 a3 e3 3c d9 40 06 3d 26 33 25 3e
       0.18275838 0.027787993 0.032776687 0.16132793
000040 80 26 1a bd e1 87 04 be e5 80 07 3e 34 cb 31 be
       -0.037634373 -0.12942459 0.13232763 -0.17362672
000050 0d 98 f4 3d 0d 5e e7 bd 90 83 ff 3d d2 53 9a bd
       0.11943064 -0.11297236 0.124762654 -0.07535519
000060 96 6d 6f 3c f1 db 00 3d 5d 21 70 3e de fc 1c bd
       0.01461353 0.031459752 0.23450227 -0.03832709
000070 16 67 ee bd 2c 83 59 bd 45 2d 1f bd 33 e9 54 3e
       -0.11640756 -0.05310361 -0.03886153 0.20792083
000080 e8 ab 6e 3e d6 86 9e be 75 b5 05 be 3c 83 71 3d
       0.23307765 -0.30962247 -0.13057502 0.058963045
000090 4b 81 28 be 46 24 9a 3d a6 c0 e9 3d f5 f9 b6 be
       -0.16455571 0.0752645 0.11413698 -0.35737577
0000a0 ae cd 30 3e ff c6 40 3e 27 90 af bc 39 cb 49 bc
       0.1726596 0.18825911 -0.021431042 -0.012316518
0000b0 01 39 8e 3c fa 82 4e be 5d e4 a2 3d fd b0 17 bc
       0.017361166 -0.20167151 0.07953713 -0.009258506
0000c0 1c 86 85 3d 40 9d 31 bc 4c 23 07 bd 95 30 9a be
       0.0651972 -0.010840714 -0.032992646 -0.3011519
0000d0 1c 48 e2 3d 4a 24 a6 3b 1e 77 2b bc 23 29 44 3d
       0.1104891 0.005070244 -0.0104654115 0.047890794
0000e0 5f a0 82 3d d0 cb 9e be ed fb 2b be c0 e4 10 3c
       0.063782446 -0.31014872 -0.16795321 0.008843601
0000f0 ab 0f de 3d 9e a7 91 bd ee d4 41 bd 27 7c 11 be
       0.10842832 -0.071120486 -0.047322206 -0.14207517
000100 e8 27 25 be a6 6d 09 3e 7e fc 04 3e e1 f1 18 3d
       -0.16128504 0.13420734 0.12986943 0.03734005
000110 0e f6 24 3d e0 1a c9 bd d1 da fa bd 15 95 64 be
       0.04027372 -0.09819579 -0.12248767 -0.22322495
000120 cf 26 23 bc 6f 61 ba bd 72 d6 b4 bd fc 2f fb bd
       -0.009957983 -0.09100615 -0.08829965 -0.12265012
000130 86 db b6 ba 52 c0 f8 bc 2f 20 27 be 3d 59 fd 3d
       -0.0013950921 -0.030365143 -0.16320871 0.123705365
000140 bd fe ac 3d df d3 ee bb 08 d2 9e be e7 33 aa 3d
       0.08447025 -0.0072884406 -0.31019616 0.08310681
000150 13 33 04 3e b4 10 98 bd da be e7 3d 15 9b 9a 3d
       0.12910108 -0.07425061 0.11315699 0.07549111
000160 1d 87 32 3e 61 f7 14 3e ea e8 02 3e ba f5 5e 3d
       0.17434354 0.14547493 0.12784162 0.05443356
000170 1f 59 37 bc e6 cb b9 bd 82 1f 7d 3d 00 b7 e7 bd
       -0.011190682 -0.09072094 0.061797626 -0.11314201
000180 31 8a 32 3e 6e df 04 3d 86 d3 8a 3d b6 61 77 3d
       0.17435528 0.03243964 0.06778626 0.06039592
000190 60 4a 06 3d e5 98 31 be ca 1d c0 bd 94 5f 5e 3e
       0.032785773 -0.17343481 -0.09380682 0.21716148
0001a0 c5 7b 31 be 1c a4 b5 3d 30 7d e3 3d 2d c0 3c bd
       -0.1733237 0.08869192 0.11107862 -0.04608171
0001b0 c3 96 dd bd 45 16 02 bd e6 25 74 3d 06 73 79 bd
       -0.10819771 -0.03175952 0.059606455 -0.06090071
0001c0 96 0c b9 3b d8 07 26 3e 21 30 9c 3d 21 f7 1d 3d
       0.0056472523 0.1621393 0.07626367 0.03856576
0001d0 e3 40 57 be a2 19 f6 3d cc 4d a0 3e 61 f6 ce bc
       -0.21020846 0.12016608 0.31309354 -0.025263967
0001e0 26 07 68 3c db aa 7e be 2e 6b 11 b9 c6 93 de bd
       0.014161861 -0.24869864 -0.00013868205 -0.10868029
0001f0 42 37 0a 3d 08 70 8c bc ef c0 8f be a3 ba 88 3d
       0.033744104 -0.017143264 -0.28076884 0.06676223
000200 de e3 94 be 8a fd 30 3e 13 4c 0d 3e 5b 50 50 be
       -0.290801 0.17284217 0.13798551 -0.20343153
000210 eb 2e 4b 3e 6e a0 23 be 12 43 68 be 3c 22 83 3e
       0.19842117 -0.15979168 -0.22681835 0.25612056
000220 2a be 59 bd 6f 9f 6b be 1f 20 98 3d cb 50 00 3e
       -0.05315987 -0.23010038 0.074280016 0.1253082
000230 03 27 ef 3d e3 b8 81 bd 34 3b 53 bd e2 2c e7 3d
       0.11677363 -0.063340925 -0.051570132 0.112878576
000240 37 e0 a9 3d 9f 2e 14 be d2 5e 3c bd e3 86 6c 3e
       0.08294719 -0.1447091 -0.045988865 0.2309833
000250 22 c5 3b 3d ed 9f 83 3e 43 07 0a bd 13 7a c3 bd
       0.045842297 0.2570795 -0.03369833 -0.09544768
000260 76 1d 35 be ea 14 3e 3e cb 32 89 bc 85 a4 8c 3d
       -0.1768702 0.18562666 -0.016747853 0.06867317
000270 21 7d 95 be e1 2c 09 be 04 eb 00 3e 90 2b 95 3d
       -0.29197028 -0.13396026 0.12589651 0.072836995
000280 d3 f2 28 be 65 63 db bc ed 8d ce bd 27 67 99 3d
       -0.1649888 -0.026780793 -0.10085664 0.07490378
000290 0c 2d 35 3e 7d c3 71 bc 1e e7 be bd 85 35 af bd
       0.17692965 -0.014756081 -0.09321426 -0.0855513
0002a0 7c fe 09 3e ad ea 67 3e 45 92 98 bd 3b ca f8 bd
       0.13475984 0.22648115 -0.07449774 -0.121479474
0002b0 85 52 2e be 58 cf 96 3e 4d 5b 91 3d 53 6b 26 be
       -0.17023666 0.29455066 0.07097492 -0.16251878
0002c0 22 45 19 3d b2 b7 0c bd c0 96 56 be 3d a7 a6 3e
       0.037419446 -0.034354873 -0.20955944 0.32549468
0002d0 12 23 b2 3b 5b cd 46 3e 7f 1e 4a 3e 7e 3d e5 bd
       0.0054363096 0.19414274 0.19738196 -0.11193369
0002e0 71 44 84 bd ec b9 81 bb 0e d2 5d 3e 33 e4 63 bd
       -0.06458367 -0.003958931 0.21662161 -0.05563755
0002f0 58 2c ac 3b ed 09 a4 3c 0f a2 9d 3d 5c 62 45 3e
       0.0052543096 0.020024264 0.07696926 0.19275802
000300 d5 75 e8 bd 38 f0 44 bd af 64 25 be b7 21 80 3d
       -0.113506 -0.048080653 -0.16151689 0.062564306
000310 ad e7 44 be cf b2 05 3e 91 c9 06 3e 94 e6 18 3e
       -0.19229002 0.13056491 0.13162829 0.14931709
000320 9a aa 24 3d 58 a9 14 be 2f 03 13 be b6 3e 9e bd
       0.04020176 -0.14517725 -0.14356683 -0.07726805
000330 85 47 c3 3d 62 e0 7b 3e 27 9e a5 bc 6f 72 e6 bd
       0.09535126 0.24597314 -0.020217014 -0.11252295
000340 fe 45 93 bd 92 4a 1b be ce b5 ae 3c cc 71 14 3d
       -0.07191084 -0.15165165 0.021326926 0.036241338
000350 44 5e 0a 3d cf 7f b2 3e 81 93 0c be fe ea b1 be
       0.033781305 0.34863135 -0.13728143 -0.34749597
000360 00 6c 2f be 4c 30 8e bd ce 76 3d 3e eb 23 22 3d
       -0.17131042 -0.06942806 0.18502352 0.039585035
000370 82 05 d9 bd 87 b4 3e 3d 5d a4 fa bc a7 0a 6b bd
       -0.10596754 0.046558883 -0.030595953 -0.057383206
000380 c0 c4 39 3d 9f 0e 03 be a6 e2 d8 3d 55 4a d8 bd
       0.04535365 -0.12798546 0.10590105 -0.10561053
000390 6e 0c 18 bd 86 31 93 3d e4 a5 d1 bc 54 99 ad be
       -0.03712123 0.0718718 -0.025591798 -0.33906043
0003a0 9d ef 80 3e 1f 41 1d 3e 00 88 6d be 8f 88 67 3d
       0.2518281 0.15356873 -0.23196411 0.056526717
0003b0 51 e5 3d 3e 6d 6c 5d 3e d4 00 0f bd 83 83 09 3e
       0.18544509 0.21623392 -0.0349129 0.13429074
0003c0 fd 01 87 ba c7 a9 80 3c 46 85 54 bd 7b 49 e2 3d
       -0.0010300275 0.015705956 -0.051884912 0.110491715
0003d0 3f 9d bc be 82 40 66 be 41 36 9d bd 53 4b 1f be
       -0.3683872 -0.22485545 -0.07676364 -0.15556078
0003e0 f2 fc e7 3d 64 5c b5 bd 53 48 b5 3c 66 aa e4 bc
       0.11327542 -0.08855513 0.022129213 -0.027913284
0003f0 d1 a8 97 bd 41 e2 76 3d ba 51 23 3c 17 dc db 3d
       -0.07405246 0.060274366 0.009968216 0.10735338

network_body.linear_encoder.seq_layers.2.bias f4 [64]
000000 8c c7 12 3d 87 1f f5 bc 0a bf 1b 3d f9 39 bf 3c
       0.035834834 -0.02992226 0.038023986 0.023343073
000010 1b 4f 9b 3c 56 bd 1b 3d 5f 2b 34 3c 50 70 e6 3c
       0.018958619 0.03802236 0.010996669 0.028129727
000020 03 9c 2b bc 0d fc 1f bd 8e d4 06 3d 46 0b 99 39
       -0.010474208 -0.039058734 0.03291755 0.00029190833
000030 d5 0a 0f bd e0 99 6e 3d ed 9f 02 3c 86 ed 11 3d
       -0.03492244 0.058252215 0.0079727 0.03562691
000040 7d a3 bc bd a7 d7 89 3c a1 2a 4e 3d 5d 94 a1 3c
       -0.092108704 0.016826464 0.050333623 0.019724065
000050 e8 88 e7 bc bb 60 a1 3c 45 d3 6c bb bb 06 68 3d
       -0.028263524 0.019699445 -0.0036136669 0.056647044
000060 54 74 ba 3d 13 44 17 bc 99 c3 64 bb eb 16 1d 3d
       0.09104219 -0.009232539 -0.0034906624 0.038351934
000070 16 77 06 3c 68 8a 1d 3c 03 c1 ac 3c 9e b1 67 bc
       0.008207103 0.009615518 0.021088129 -0.014141468
000080 a7 87 57 3d 3d 99 40 3d b7 72 ba bc 40 f7 00 3c
       0.052619603 0.04702114 -0.022759778 0.007871449
000090 29 58 91 3d 40 cf 5c bd 98 8b 5e bc 4a 6e 24 3d
       0.07096893 -0.053908587 -0.013583086 0.040144242
0000a0 3d 06 3d 3c 1e da 65 3c a0 cf d8 bc 87 ba cc 3c
       0.011537132 0.014029054 -0.02646619 0.024991287
0000b0 ee 9d 63 3d 05 96 89 bd 0a a1 a1 3c 0e d9 9f bc
       0.055570535 -0.06718067 0.01973011 -0.01951268
0000c0 68 9d 36 bd 3e eb 18 3d 3e bb 33 bd e9 6d 22 3d
       -0.044583708 0.03733372 -0.04387974 0.0396556
0000d0 d6 aa 65 bc 97 e0 6b 3d 0e 7f dd 3c 43 c5 09 3d
       -0.014017781 0.057587232 0.027038123 0.03363539
0000e0 a1 d3 8b 3c e3 16 a1 bd a8 e4 4d 3d c3 90 69 3c
       0.017068686 -0.078656934 0.05026689 0.014255705
0000f0 2c 6d a6 3d 58 d9 04 3d e9 4a bc bb 1d b4 88 3d
       0.08126292 0.032433838 -0.0057462347 0.06674979

network_body.linear_encoder.seq_layers.2.weight f4 [64, 64]
000000 f4 93 2c 3e d9 ee 29 3d 7f ae 23 bd 6d 24 aa 3c
       0.16853315 0.04148755 -0.039961334 0.020769322
000010 bf 72 38 3d 95 29 33 be f6 25 70 bd e3 77 e3 bd
       0.045031305 -0.17496331 -0.058629952 -0.11106851
000020 f9 f1 b9 bd e0 c5 e5 bd 66 e2 e8 bd 83 1c b0 3c
       -0.09079356 -0.11219382 -0.11371307 0.02149797
000030 02 98 01 be 87 58 85 3d a3 b2 9a bd 77 a4 62 bd
       -0.12655643 0.06511026 -0.075536035 -0.055332627
000040 74 6a f6 3d 38 e5 b2 be 03 10 3d 3d b7 9c 25 3c
       0.12032023 -0.34940505 0.046157848 0.0101081645
000050 94 53 33 be 47 8a 1b 3e 2c 19 52 ba b0 83 81 be
       -0.17512351 0.15189467 -0.0008014615 -0.25295782
000060 60 2a d5 3d fd 3a 76 3d cf 70 34 3e 64 68 5c bc
       0.10408473 0.06011485 0.17621158 -0.013452623
000070 a0 2e 6b bd 5e be df bd e3 a1 cd 3c 6a 6b 55 3e
       -0.057417512 -0.109249815 0.025101608 0.20841756
000080 3d 35 4b bb 80 8f aa bd af fd 04 3e ef 45 89 3c
       -0.0031007074 -0.08328152 0.12987398 0.01675698
000090 4d 0f db 3a 8d 22 28 bd b5 be f3 3d 5e 2e 06 bd
       0.0016712934 -0.041048575 0.11901609 -0.032759063
0000a0 50 ce 9e bd e1 fd 0d be b6 d3 7a 3e 79 70 ce bd
       -0.07754195 -0.13866378 0.24494824 -0.10080046
0000b0 93 3a 45 bb e0 33 53 be d6 8a f9 3b 38 a9 43 3e
       -0.0030094727 -0.20625257 0.0076154275 0.1910752
0000c0 e9 48 2f be a7 c7 c0 bd 9f 12 ac 3b 57 bb 44 be
       -0.17117657 -0.09413081 0.0052512432 -0.1921209
0000d0 bd d0 36 be f6 d7 00 be c1 e2 89 3e 80 40 c3 3d
       -0.17853065 -0.12582383 0.26930812 0.09533787
0000e0 99 3f 5f 3c 96 8b 2b be d7 45 c0 bd ac c8 14 bd
       0.013626003 -0.16752467 -0.09388321 -0.036324188
0000f0 90 2a b8 3e 2e 34 16 be 90 01 1c bc f4 f3 09 3d
       0.35969973 -0.14668342 -0.009521857 0.033679917
000100 ec 65 36 be f7 54 94 be ed cc 3b bd 84 5f 1d 3e
       -0.17812318 -0.28971073 -0.04584973 0.15368468
000110 0a 77 99 be ae db c5 be bf 63 0c bd 7a 25 57 3d
       -0.29973632 -0.38644165 -0.034274813 0.052525975
000120 a1 ec 43 bc 81 79 05 be 00 7c 4b 3d e8 cf e9 bd
       -0.011958272 -0.13034631 0.049678802 -0.11416608
000130 83 e0 ed 3c 7f 2d 8b bd 82 9c 41 3c 7e 64 01 be
       0.02903772 -0.06795787 0.0118170995 -0.12635991
000140 75 fd 09 3e 9d 2a 25 bd 02 e1 67 bc 04 4b 0d be
       0.13475592 -0.040323842 -0.014152767 -0.13798147
000150 d1 14 d3 bd 78 06 60 3d c6 1a 29 3d 7e 7e 1d 3e
       -0.10306705 0.05469367 0.0412853 0.15380284
000160 2d 29 52 3d 8a ca 18 3e 0c dd 5c be 92 6f 18 be
       0.0513088 0.14921013 -0.21568698 -0.1488631
000170 ed da 7c be 89 c8 99 bd 6c 1a 26 3e c7 59 19 be
       -0.24692889 -0.07508952 0.16221017 -0.14975654
000180 8d 6b 88 be 93 5b 27 3e a6 28 23 be 20 ee c6 bd
       -0.26644555 0.16343527 -0.15933475 -0.097133875
000190 40 86 15 bc 83 b0 4e 3d e8 9a 07 3d d8 18 0b be
       -0.009126246 0.050461303 0.033106714 -0.13583696
0001a0 40 2d 27 be 6a 75 62 bd b0 90 d5 bd 08 74 80 be
       -0.16325855 -0.055287756 -0.104279876 -0.25088525
0001b0 fd 49 23 bd 21 b5 63 bd eb ad 38 3c a5 ba c3 3d
       -0.039865483 -0.05559266 0.011271934 0.09557084
0001c0 bd f6 0f 3c 9c 98 9c 3e 4d 87 4a 3d a5 01 8d be
       0.008786854 0.30585182 0.04944544 -0.27540317
0001d0 11 c2 47 3e 24 93 72 be 30 e3 53 be 31 3c 96 3e
       0.19507624 -0.23688942 -0.20692134 0.29342797
0001e0 7d b5 6e 3e 58 72 76 3d e5 3e 6a be 76 31 3f bd
       0.2331142 0.06016764 -0.22875555 -0.04667803
0001f0 d4 8a 20 be b7 b1 0d be 09 1b 9a bc 75 25 10 3e
       -0.15677959 -0.13837324 -0.01881172 0.14076789
000200 1e 61 43 3d b9 c2 9b be e5 09 97 bd f9 5e 38 3c
       0.04770004 -0.30422 -0.07374934 0.011253112
000210 e9 9b 29 3d 1f fa 76 3d 32 dc 93 bc 5e af 26 3c
       0.041408453 0.060297128 -0.018049333 0.010173647
000220 54 34 27 be d4 6c 8e 3d 7e 2c a7 be 2b fb 33 3c
       -0.16328555 0.06954351 -0.32651132 0.010985176
000230 9b 3f 82 be e5 68 ae 3d eb da 09 be 83 f4 8a 3d
       -0.25439152 0.08516101 -0.13462417 0.06784918
000240 8b 38 88 bd 87 14 09 bc 0d dc 63 3e cf 4b 1a 3e
       -0.0665141 -0.0083667105 0.22251911 0.15067981
000250 b6 e3 3b be d1 f6 6d 3e f3 c1 ff bd 3d 59 3d 3d
       -0.18348584 0.23238684 -0.12488165 0.046227682
000260 df 67 8e bc 0b 5d 3b be d7 02 eb 3d 59 09 af 3e
       -0.017383514 -0.18297212 0.11475151 0.3418682
000270 ea ba 2b 3d e0 1b 33 be 5e a3 52 3e e7 5d 27 be
       0.041926302 -0.17491102 0.20570132 -0.16344415
000280 1d ef aa bc a4 5b 44 bd 52 4a 80 3c 27 cd 94 bd
       -0.020865971 -0.047938958 0.015660439 -0.07265692
000290 d4 37 09 3d 07 10 9a 3d d0 5a 47 3d f0 88 eb bd
       0.033500507 0.07522588 0.04867059 -0.11500728
0002a0 b5 6e 3b bd 7e 09 15 3d a9 13 11 be a8 30 3d be
       -0.045759875 0.036386006 -0.14167656 -0.18475592
0002b0 2b 42 52 be ec 7c 28 bd ae bc 29 3e da 32 9a 3e
       -0.20533054 -0.04113476 0.16575882 0.30116922
0002c0 c9 c4 cc bd 4a a7 85 3b 77 b7 f4 bd af 8a 61 bc
       -0.09998471 0.0040787803 -0.11949056 -0.013765975
0002d0 a5 7d ff bd f4 09 d7 3b 6a f2 7b 3e d7 da 3b bd
       -0.12475137 0.006562466 0.24604192 -0.045863
0002e0 f4 63 7f be dd d6 68 bd 73 d2 87 3d fc 8d b9 bc
       -0.24940473 -0.056845535 0.06631937 -0.022650711
0002f0 f6 7f 18 be 9e 83 d8 bd 52 c5 17 3e 7d 03 18 3e
       -0.14892563 -0.10571979 0.14821365 0.1484508
000300 1d 7e b5 3d f9 d6 6d 3d 0e 02 f8 bd 38 fa c7 3d
       0.08861945 0.058066342 -0.12109767 0.09764522
000310 a8 a5 21 3e 8a 69 15 be 4f a1 c0 3d 78 e1 b5 bd
       0.15785849 -0.14591041 0.09405767 -0.088808954
000320 24 ed 03 3d f3 fc 12 bd 21 17 6d be c7 ec bb bd
       0.032208577 -0.035885762 -0.23153354 -0.09176021
000330 06 24 06 be 5d 91 1e bd 58 60 78 bd bf 99 68 be
       -0.1309968 -0.038712848 -0.060638756 -0.227149
000340 3e 8d 6b 3e 22 bc b8 3d 76 5a d2 bd 1a 35 9a 3e
       0.23003098 0.090202585 -0.1027116 0.30118638
000350 e6 87 35 be 92 42 15 3e 69 2f 44 bd 3e f9 57 be
       -0.17727622 0.14576176 -0.047896776 -0.21091172
000360 10 54 1d 3e 7a 60 9b bd cc 72 12 3d 3e c6 c9 bd
       0.15364099 -0.07586761 0.03575401 -0.09852265
000370 6e 27 18 bc 92 45 06 be 75 3f 17 bd 5d 1d 84 be
       -0.0092867445 -0.13112476 -0.03692575 -0.25803652
000380 d6 b9 0d 3d 91 54 9e 3d 59 0d 1a 3d 58 93 e4 bc
       0.034601055 0.077309735 0.037610386 -0.02790229
000390 b4 72 76 3e 98 ed 4c 3d 24 31 18 bd 06 09 b6 3d
       0.24067193 0.050031275 -0.03715624 0.0888844
0003a0 76 2f 56 be cf ea cc 3d bc 29 1f 3e a9 83 d0 3c
       -0.20916542 0.10005724 0.15543264 0.025453405
0003b0 26 a9 9e 3d ed bc 33 3e 09 2b 3f 3c 53 aa f5 bd
       0.07747106 0.17552538 0.011667975 -0.119953774
0003c0 67 22 2e be 5f 59 4a be dc a0 6d bd 03 98 cc 3c
       -0.17005311 -0.19760655 -0.058014736 0.024974829
0003d0 c4 aa f8 3d f1 fc f7 ba 53 8d 4b bd 71 15 00 3e
       0.12141946 -0.0018919987 -0.049695324 0.12508179
0003e0 1a 04 95 3d ab b4 26 bd c3 34 bc 3d cb 63 db bc
       0.07276173 -0.040699642 0.09189751 -0.026780983
0003f0 69 17 f5 bd 20 c9 c0 3d f5 25 99 3c 40 de 0e be
       -0.11967356 0.094133615 0.018694857 -0.13951969
